DeepHedging_clean/MarketData/trained_models/RNN_BN_simple_AAPL_GOOGL_MSFT_AMZN_BRK-B.pt (torch, 791503 bytes, 540 tensors)

rnn.0.0.weight f4 [5]
000000 00 00 80 3f 00 00 80 3f 00 00 80 3f 00 00 80 3f
       1.0 1.0 1.0 1.0
000010 00 00 80 3f
       1.0

rnn.0.0.bias f4 [5]
000000 4e be 35 3d 47 ad 01 3d 03 ed 92 bd f9 31 02 3e
       0.04437094 0.03165939 -0.07174113 0.12714376
000010 3b 68 1f 3e
       0.15567105

rnn.0.0.running_mean f4 [5]
000000 00 00 00 00 00 00 00 00 00 00 00 00 00 00 00 00
       0.0 0.0 0.0 0.0
000010 00 00 00 00
       0.0

rnn.0.0.running_var f4 [5]
000000 01 00 00 00 01 00 00 00 01 00 00 00 01 00 00 00
       1e-45 1e-45 1e-45 1e-45
000010 01 00 00 00
       1e-45

rnn.0.1.weight f4 [56, 5]
000000 86 b6 f8 bc 4c a6 63 3e 60 08 65 3e 8c a4 b7 3e
       -0.030360471 0.22231406 0.22366476 0.35867727
000010 12 1d 3a be 8c 76 61 3e dc 00 58 be 27 98 97 be
       -0.18175152 0.22017878 -0.21094078 -0.2960827
000020 05 1b 29 bc fc 2f e0 3e 2e a1 7d 3e 55 92 cd bd
       -0.010321383 0.4378661 0.24768516 -0.10037676
000030 42 94 0a 3e 96 4a cb 3e 05 8c 6b 3e 88 0b 63 3e
       0.13533118 0.39705342 0.23002632 0.22172368
000040 4b 9e f8 be 0a 3d cb 3e 35 7c c3 be d4 6e e9 3c
       -0.48558268 0.39695007 -0.381807 0.02849523
000050 7d bc 9f 3e 6b 03 b3 3e 53 5f 00 be 0a 88 cd be
       0.31198493 0.34963545 -0.12536363 -0.40142852
000060 82 ef a6 3e c2 8d b2 3d 49 e2 bd 3e 4d f4 e0 be
       0.32604605 0.087184444 0.37086704 -0.43936387
000070 41 f1 9f 3e 86 7a 91 be 88 5a 6b 3e 85 80 b6 bd
       0.3123875 -0.2841379 0.22983754 -0.08911232
000080 2e 56 ec 3e ee f4 d5 3e 46 05 7a be d4 28 3e 3d
       0.461595 0.4178843 -0.24416074 0.046425655
000090 ca 17 62 3e 21 29 a8 3e 54 82 3a 3e cf af c9 3e
       0.22079387 0.3284388 0.18213779 0.39391944
0000a0 8f e2 50 be 70 f3 38 3e 4e 15 dd 3e 24 f0 6e be
       -0.20398925 0.18061614 0.43180317 -0.23333794
0000b0 60 54 bb 3e f7 57 7f bd ce 6a 80 3d ae c3 2c be
       0.3658781 -0.06233975 0.062703714 -0.16871521
0000c0 13 a7 43 be 1d 90 0a 3c d7 5c 2f be 7c 7b 35 be
       -0.19106703 0.008457211 -0.1712526 -0.17722887
0000d0 65 17 6e 3e 07 42 e6 3c 63 15 34 be 90 5d 81 3d
       0.23251112 0.028107656 -0.17586283 0.06316674
0000e0 55 90 6a 3e 82 d5 b3 3e 86 16 8f be 68 dd 9a be
       0.22906621 0.3512383 -0.27946872 -0.30247045
0000f0 b1 65 e3 be 8d 2b 3d 3e 5e a9 4d 3e d4 e9 0c be
       -0.44413522 0.18473645 0.2008414 -0.13761073
000100 05 34 8c 3e 23 ca 92 3e cd 8c 22 be 37 5c 42 3e
       0.27383438 0.28669843 -0.15874024 0.1898049
000110 30 44 2b be f4 ed 31 bc 9b 34 a2 be d1 62 bc 3b
       -0.1672523 -0.010859955 -0.3168076 0.0057490845
000120 15 96 a1 bc ad a3 8c be bf 00 db be 64 cd f7 3e
       -0.019724885 -0.27468625 -0.42774007 0.48398888
000130 6d 98 dd be 7c 3e bc be e7 61 76 be 38 1e a5 3d
       -0.43280354 -0.36766422 -0.24060784 0.080624044
000140 a7 37 7f 3d 62 e0 86 be 94 2d fc 3b 04 2c da 3d
       0.062308934 -0.26343066 0.007695863 0.106529266
000150 f0 8b 2c 3e a5 4a ac 3e 82 38 d5 be 43 d2 21 be
       0.16850257 0.336507 -0.41644675 -0.15802865
000160 cb d6 9b 3e 36 b1 5e 3e c6 cf eb 3c b6 35 3a 3e
       0.30437312 0.21747288 0.028785598 0.18184552
000170 75 39 52 3e 0d 18 e1 bd 97 03 cf 3d d2 c7 18 3a
       0.2052973 -0.109909154 0.101081066 0.00058281154
000180 3e 01 68 3d 46 d2 7f 3e 82 75 78 be e5 b8 bf 3d
       0.05664181 0.24982557 -0.24263576 0.09361438
000190 ba b2 fe 3d db e1 c8 3d a5 ae b0 3e cf d5 a6 bd
       0.12436433 0.098087035 0.34508243 -0.081462495
0001a0 51 ef 57 3e e8 ea d9 be d1 59 1e 3e 8f 78 42 be
       0.21087386 -0.42562032 0.1546395 -0.18991302
0001b0 6d 65 a3 bd 5d 87 e1 3e 74 0a f0 bd e9 a0 9a 3e
       -0.0797833 0.44048586 -0.11720744 0.3020089
0001c0 a6 06 72 be 60 18 31 3e 6f 2e 82 3e f2 8d 1d bd
       -0.23635349 0.17294455 0.2542605 -0.038465448
0001d0 6c 8b ee 3d 2e 38 8d be 46 da 51 3e 88 01 95 3e
       0.11647686 -0.27581924 0.20493421 0.2910273
0001e0 b3 1f a1 be 39 69 39 ba e2 6a dd 3e 20 0f 33 3e
       -0.31469497 -0.00070728693 0.43245608 0.17486238
0001f0 31 2c ad 3b fa ef 05 3d f8 64 ba 3e bd d7 e1 be
       0.005284809 0.032699563 0.36405158 -0.44109908
000200 fa c9 67 3d 94 2a 2e 3d cc 16 29 be 5b 18 02 3d
       0.056589104 0.042521074 -0.16512603 0.03176151
000210 9a 8e a3 be 35 d3 31 be a2 5a c7 3e 66 29 76 3e
       -0.31944734 -0.17365725 0.38936335 0.2403923
000220 90 b9 c1 3e c8 e0 98 be 70 4c 94 3d 64 04 a1 3e
       0.37836885 -0.29858994 0.07241142 0.31448662
000230 bb ec 0f 3e 3f 9e a8 bc 2c 9b e5 be 25 53 22 be
       0.1405515 -0.02058327 -0.4484495 -0.1585203
000240 36 1d af be 62 d4 45 be d5 1d bd be 61 22 8b be
       -0.34201974 -0.19319299 -0.36936823 -0.27174667
000250 15 54 2c bf a8 74 b0 be 83 25 1a 3d a8 e5 74 be
       -0.673158 -0.34464002 0.03763343 -0.23915732
000260 94 3c b8 be e6 57 b3 bd 26 43 07 3e 9a f5 17 3e
       -0.35983717 -0.08757 0.13209209 0.14839783
000270 ca 2d c5 3e fb 11 5b 3d 94 00 89 be 60 3a 2f 3e
       0.38511497 0.053483944 -0.26758254 0.17112112
000280 6b 4a db bd 8a 1b 35 bd 07 c4 0f bf 0a 6d 17 3e
       -0.107075535 -0.044215716 -0.5615849 0.14787689
000290 bd 92 4e be 20 dd 53 3d e5 a2 fa 3d 51 9b e8 be
       -0.20173164 0.051724553 0.12238101 -0.45430997
0002a0 41 f1 3a 3e 3a 4a 50 3d 0e 3a 06 be 85 9e 8b be
       0.18256094 0.050852038 -0.13108084 -0.27269378
0002b0 32 ca a7 3e 5d 37 a0 be 2f a4 af be 79 f3 c6 be
       0.3277145 -0.3129224 -0.3430495 -0.3885763
0002c0 77 d9 d6 3e 61 28 51 bd f4 9f 05 be 2c 4d 8d 3e
       0.41962788 -0.0510639 -0.13049299 0.2759794
0002d0 db 65 77 be 20 50 56 3e d5 54 95 3e 24 23 d4 be
       -0.24159949 0.20929003 0.29166284 -0.4143306
0002e0 55 a9 6b 3e 63 8f b6 bd 84 73 a6 bd 47 47 9d be
       0.23013814 -0.089140676 -0.081275016 -0.30718443
0002f0 68 96 a2 be 72 42 a8 3e 5a d3 03 3d f4 5c b2 bc
       -0.31755376 0.32863194 0.032183982 -0.02177284
000300 cd cb 01 3d e8 5e af 3e c4 37 83 be 6e 9e c6 be
       0.0316885 0.34252095 -0.25628483 -0.38792747
000310 e0 29 3f 3e 05 64 8a be df 04 aa be c1 1c 01 3f
       0.18668318 -0.27029434 -0.3320684 0.504345
000320 e2 10 bf 3d 90 a4 22 3d 8c 42 a2 be 2a a8 90 bd
       0.09329392 0.03970772 -0.31691396 -0.07063325
000330 14 9d 8d be 86 44 c4 3e dc bc 3b 3d 29 d9 0c be
       -0.27658904 0.3833353 0.045834407 -0.13754715
000340 b3 ee c0 3e bb 58 a6 3d 57 0e 5c 3d 59 5e be 3e
       0.37682113 0.08122393 0.053724613 0.37181357
000350 b3 72 e0 be aa ff 9d 3e 3c 76 56 3e ef c7 aa 3e
       -0.4383751 0.3085912 0.2094354 0.33355662
000360 9b 75 f6 3c d3 55 a3 3e 09 20 43 bd 70 de 2f 3e
       0.030085376 0.31901416 -0.047637973 0.17174697
000370 c1 07 d8 3e 01 51 04 3e a7 5f bc bd a9 09 d2 be
       0.42193416 0.12921526 -0.09197932 -0.41022995
000380 6c 04 9c 3e c4 ea a4 3e f8 a4 12 be bf be 84 3d
       0.30472124 0.32210362 -0.14320743 0.064816944
000390 77 8a f4 3e f7 c1 83 be 26 cf 93 3e 5c 0a 1a 3e
       0.4776189 -0.2573392 0.2886898 0.15043014
0003a0 6d 21 88 bd 4f b7 9b bc d6 20 4c be 16 42 b6 bd
       -0.066470005 -0.019008307 -0.19934401 -0.08899324
0003b0 7e 70 23 3d 12 82 a8 3e c9 5a c9 bd 6b 6f 8c be
       0.039902203 0.32911736 -0.09831769 -0.27428755
0003c0 74 f2 ef be 18 2d 63 3e 10 ea f7 bd b6 e3 69 be
       -0.46864665 0.2218517 -0.12105191 -0.22840771
0003d0 56 02 b7 be a1 fe 27 be eb f7 76 3e 06 c0 59 3e
       -0.3574397 -0.16405727 0.2411801 0.21264657
0003e0 6a 59 af 3e da f1 ef be 95 b0 60 be f8 f0 46 3d
       0.34247905 -0.46864206 -0.2194236 0.04856965
0003f0 97 bb 43 3b 99 29 a6 be f2 75 ef bd 54 76 a7 3e
       0.002986645 -0.32453611 -0.11692418 0.32707465

rnn.0.1.bias f4 [56]
000000 ea 5c c2 3e 84 99 7a be d0 0d f7 3e 8e 97 e0 3e
       0.37961513 -0.24472624 0.48252726 0.43865627
000010 e2 15 65 bd c1 8e 72 3e 29 75 b9 3c f9 80 94 be
       -0.055929072 0.23687269 0.022638874 -0.29004648
000020 60 45 9c 3e 36 2a 14 bc 83 f7 ab be 21 f2 78 be
       0.3052168 -0.009043267 -0.33587274 -0.24311115
000030 2a da f2 3d be c0 41 be 39 82 26 be 10 00 da 3e
       0.11858018 -0.18921182 -0.16260614 0.42578173
000040 3c 15 70 3e 9e 4c 81 3e 5e df b9 3e 89 63 b5 bc
       0.234456 0.25253767 0.36303228 -0.022142189
000050 2b 14 3c 3e 6d 33 d8 be 22 5b c0 3e 77 25 a8 3d
       0.18367068 -0.42226735 0.3756953 0.08210271
000060 91 d2 2e 3e 40 8b 97 be 0f 8e c8 bd f0 90 a5 3e
       0.17072512 -0.29598427 -0.097927205 0.3233714
000070 93 43 05 3e e4 ab 82 be 72 44 60 be cc b9 a3 bd
       0.13014059 -0.25521767 -0.2190111 -0.07994422
000080 64 5b 86 3e 7c 9c 5b 3e 8e 3e c6 3e 99 38 86 be
       0.262416 0.21446413 0.387196 -0.26215056
000090 42 c5 47 3d f4 07 df 3c 74 ec b4 be 3d 6b 6b 3d
       0.048772104 0.027225472 -0.3533665 0.057475317
0000a0 5d ce 03 3c 79 e6 8c 3e 0d cf c6 be f4 4e 91 3d
       0.008044806 0.27519587 -0.38829842 0.07095137
0000b0 71 e3 9e 3d e8 3a 61 be 4a 62 7e bc 08 b2 ac be
       0.07758225 -0.21995127 -0.015526364 -0.33729577
0000c0 b7 2f 23 be 07 0e cd be e7 5b c8 be 55 9a 91 be
       -0.1593617 -0.40049765 -0.39132616 -0.28438058
0000d0 b3 47 9f 3e 00 b4 cc 3e bf 94 0f 3e ed 88 b8 3e
       0.3110939 0.3998108 0.14021586 0.36041966

rnn.0.2.weight f4 [56]
000000 4a 2d 7f 3f 0a eb 7f 3f 9e 9d 82 3f a5 51 7f 3f
       0.9967848 0.99968016 1.0204351 0.99733955
000010 e0 e9 7f 3f a8 8b 7f 3f ff ff 7f 3f df b5 7e 3f
       0.9996624 0.99822474 0.99999994 0.99496263
000020 58 38 7f 3f a9 02 80 3f 93 d8 7f 3f 24 23 80 3f
       0.9969535 1.0000812 0.9993984 1.0010724
000030 fc cb 7f 3f 2f 07 81 3f 8a fe 7f 3f 5f 97 7e 3f
       0.9992063 1.0080317 0.9999777 0.99449724
000040 07 51 7f 3f 41 fa 7f 3f 0d 6f 7f 3f 87 f8 7f 3f
       0.9973301 0.9999123 0.99778825 0.999886
000050 76 e0 7f 3f 60 26 82 3f 22 fb 7f 3f ae 7b 80 3f
       0.99951875 1.0167961 0.99992573 1.0037744
000060 a2 fd 7f 3f cf db 7f 3f 42 fc 7f 3f 49 9d 80 3f
       0.9999639 0.99944776 0.9999429 1.0048
000070 a8 e1 7f 3f 31 a5 7f 3f 2f e8 7f 3f 43 2d 80 3f
       0.999537 0.9986144 0.9996366 1.0013813
000080 a0 b8 81 3f 0b 12 80 3f 43 1d 80 3f 4e 43 7f 3f
       1.0134468 1.0005506 1.000893 0.99712074
000090 ae 4c 7f 3f 38 3e 80 3f a6 fa 7f 3f f8 c6 7f 3f
       0.9972638 1.0018988 0.99991834 0.9991298
0000a0 a6 01 80 3f cd c8 7f 3f 33 98 7c 3f af ff 7f 3f
       1.0000503 0.9991577 0.9866974 0.9999952
0000b0 b3 68 80 3f 21 6d 77 3f da 21 81 3f 25 6c 80 3f
       1.0031952 0.9665089 1.0088456 1.0033003
0000c0 67 fa 80 3f 3f a6 78 3f 43 6e 7a 3f 34 f7 7d 3f
       1.0076417 0.9712867 0.97824496 0.9920533
0000d0 09 ee 7e 3f a9 b8 7f 3f 4e c9 7f 3f bc 2d 80 3f
       0.9958196 0.99891144 0.9991654 1.0013957

rnn.0.2.bias f4 [56]
000000 85 5a 0c bd 07 0d 4d bd c8 8d 8f bd 7d 4c 4d bd
       -0.034266014 -0.050061252 -0.070094645 -0.050121773
000010 1c 47 3b bd 17 c2 5d bd 4c da 2f bd 33 4f d4 bc
       -0.045722112 -0.054140177 -0.042932793 -0.025916671
000020 a7 b7 5d bd 93 3d 3d bd b5 10 21 bd 9b e5 5b bd
       -0.054130223 -0.0462013 -0.039322574 -0.053685766
000030 43 6b 45 bd 94 0f 21 3e fb 14 3d bd bc 1d ca bc
       -0.048197996 0.15728599 -0.046162587 -0.024672382
000040 37 e7 40 bd cb 77 56 bd 42 47 10 bd 4e 10 4d bd
       -0.047095504 -0.052360337 -0.035224207 -0.050064377
000050 11 42 4d bd c6 0f 78 3c 88 fd 44 bd 4e be 86 3c
       -0.050111834 0.015140479 -0.04809335 0.016448166
000060 64 73 45 bd 96 6f 5d bd 81 48 4d bd 35 b3 5d bd
       -0.04820575 -0.054061495 -0.050117973 -0.054125983
000070 9e 24 45 bd 74 e7 7c 3e f6 ec 5b bd 52 55 5d bd
       -0.048130624 0.24697667 -0.05369278 -0.054036446
000080 cc 94 b2 bd f3 cc 40 bd 8e 7e 41 bd 50 b5 5d bd
       -0.08719787 -0.047070455 -0.047239833 -0.05412799
000090 c5 ad e3 3d d2 dc 57 bd 9f 22 5d bd d9 00 0e bd
       0.11117128 -0.052700825 -0.053988095 -0.034668777
0000a0 1f eb 40 bd d5 34 4d bd 39 0d 39 3d a6 c9 4c bd
       -0.04709923 -0.050099213 0.045178626 -0.049996994
0000b0 ec e4 d7 3c 13 c1 96 bc 66 e2 64 bd fe 55 08 bd
       0.026354276 -0.018402612 -0.055879973 -0.033285134
0000c0 0c 3e 6c 3d 76 86 da 3d bf 2d d5 bc b8 43 8c bc
       0.05767636 0.10670178 -0.02602279 -0.017122135
0000d0 f0 bb 5d bd c3 32 4d bd f9 ab 67 bd 80 40 3e bd
       -0.05413431 -0.05009724 -0.05656049 -0.04644823

rnn.0.2.running_mean f4 [56]
000000 88 ef c5 3e 4f 45 1d be a9 1f 11 3f b4 90 b8 3e
       0.3865931 -0.1535847 0.56688935 0.360479
000010 70 dc b6 bc f2 1f 8f 3e 4b d1 44 3c 76 62 61 be
       -0.02232191 0.2795406 0.01201279 -0.22010216
000020 97 aa 98 3e ed 78 a9 bc e1 74 c7 be c6 84 ae be
       0.2981765 -0.020687545 -0.3895636 -0.34085673
000030 2c 72 ec 3d c8 61 5f be 3b 96 8d be 9e 39 e2 3e
       0.11545214 -0.21814644 -0.2765368 0.44184583
000040 3c 41 89 3e 2e 1f ad 3e 28 d5 b6 3e 08 60 5f bd
       0.26807582 0.3381285 0.357095 -0.054534942
000050 ae 8a 42 3e 99 75 ba be 51 cd ea 3e 83 2c 33 3e
       0.18998215 -0.36417845 0.4585977 0.17497449
000060 01 58 18 3e f1 37 73 be 71 54 2f bd 60 e8 d9 3e
       0.14877321 -0.23751809 -0.04280514 0.425601
000070 e7 96 c1 3d 9d 5b ca be 37 3c 42 be a1 3f 94 bd
       0.094526105 -0.3952302 -0.18968283 -0.07238699
000080 85 66 91 3e 09 99 91 3e 8d 18 83 3e 75 b6 71 be
       0.2839853 0.2843707 0.25604668 -0.23604758
000090 f9 2d e0 3b fa 25 5b 3d a9 d4 b3 be 9b 9a d0 3d
       0.006841418 0.053503014 -0.35123184 0.10185739
0000a0 4e ba 81 bc c5 66 ba 3e b1 a2 8a be 44 fa ac 3d
       -0.015835907 0.36406532 -0.2707725 0.08446172
0000b0 af 5c d1 3d 91 d7 46 be f3 1c da bc 17 6a d6 be
       0.10222756 -0.1941817 -0.026625132 -0.41877815
0000c0 fe d2 7e be e0 b5 e3 be 61 1a eb be cf d2 b6 be
       -0.24885175 -0.44474697 -0.45918563 -0.3570771
0000d0 a3 8d b5 3e 65 da e7 3e 8b 04 a9 3d 3d 10 ba 3e
       0.35459623 0.4528381 0.0825282 0.36340514

rnn.0.2.running_var f4 [56]
000000 a7 04 2f 29 75 e0 0a 28 37 5c 12 2a cd ae 8b 29
       3.886184e-14 7.70921e-15 1.2999398e-13 6.203163e-14
000010 9a 53 96 25 70 3e 1d 29 f1 e1 00 25 37 31 66 28
       2.6077503e-16 3.491516e-14 1.1178782e-16 1.27782366e-14
000020 11 c6 d7 28 b3 e9 ab 25 c5 c9 a4 29 62 20 a5 29
       2.3955693e-14 2.9822132e-16 7.3180645e-14 7.3330895e-14
000030 40 ee 75 27 20 b6 4f 28 c2 bc d3 28 e4 c2 71 29
       3.4129736e-15 1.15303e-14 2.3507566e-14 5.368179e-14
000040 36 0c 7c 29 65 0d 4c 29 37 31 46 29 5a b5 b3 26
       5.5965832e-14 4.5308717e-14 4.400752e-14 1.2469776e-15
000050 5f 2c de 28 98 c2 d3 29 56 65 06 2a 45 61 a5 28
       2.4666194e-14 9.404039e-14 1.1936749e-13 1.8360864e-14
000060 68 e3 c4 28 f5 d5 ed 28 e4 f1 db 26 b6 d7 fd 29
       2.1858993e-14 2.6405075e-14 1.5261742e-15 1.1272877e-13
000070 14 dc ce 27 29 29 a7 29 93 8a 72 28 f2 d2 81 27
       5.7415095e-15 7.42343e-14 1.3463747e-14 3.60334e-15
000080 77 96 35 29 17 89 18 29 69 7f f6 28 d5 52 68 28
       4.032058e-14 3.3869686e-14 2.7366742e-14 1.2896548e-14
000090 70 bf 7d 23 83 fc 87 26 86 81 89 29 ba d5 d5 26
       1.3755696e-17 9.43595e-16 6.106491e-14 1.4837775e-15
0000a0 b4 df 3a 25 1a 33 1f 29 d1 54 1e 29 75 76 76 27
       1.6208722e-16 3.5349416e-14 3.5156614e-14 3.4203574e-15
0000b0 ba 84 99 27 8f 04 f3 28 d6 7d a8 25 f9 2b 01 2a
       4.2609933e-15 2.6980396e-14 2.9228624e-16 1.1472758e-13
0000c0 32 a6 1e 29 de 33 b4 29 68 cd aa 28 5a 97 4b 29
       3.52272e-14 8.002603e-14 1.8962872e-14 4.520633e-14
0000d0 3b 2e 15 29 53 18 cb 29 e3 3c d7 27 34 34 40 29
       3.3124745e-14 9.0192305e-14 5.97405e-15 4.2677843e-14

rnn.0.4.weight f4 [64, 56]
000000 1b 19 8e bd b5 9b 56 bd fe 6a 93 bc ab 47 c7 3d
       -0.06938382 -0.052394588 -0.017995354 0.097304665
000010 09 a2 4a 3d 78 12 f5 bd 5c d5 ea bd 48 a5 c2 bd
       0.049470935 -0.11966413 -0.11466476 -0.09504181
000020 e2 0b 85 3d 69 78 fb 3d 07 12 4d 3c 25 8b eb 3a
       0.06496407 0.12278826 0.012516505 0.0017970545
000030 93 8e 15 3c d8 1a 64 3d 03 7f d1 3c 81 06 09 be
       0.009128231 0.055689663 0.02557326 -0.13381387
000040 6d c6 19 3d db 99 29 bd f4 c7 71 bc 8e 05 fe bd
       0.03754275 -0.041406494 -0.014757145 -0.12403403
000050 f1 c6 83 bd 85 34 09 be 5e 31 3d bd f1 7c b2 bd
       -0.064344294 -0.13398941 -0.04618966 -0.08715237
000060 00 db a5 bd a6 a9 bf bd 97 ec ce 3d 61 0b 0e 3d
       -0.080984116 -0.0935853 0.1010372 0.03467882
000070 89 89 e9 bc 07 11 2d 3c 85 5a 9d 3d ac 4b bb 3d
       -0.028507965 0.010563142 0.07683281 0.09145293
000080 ba 46 a1 bd ea c9 a0 bd 37 a0 95 bd 73 c1 85 ba
       -0.07874818 -0.07851012 -0.07305949 -0.0010204747
000090 5b 52 7c bc aa 40 a9 3d ce 3f 5d bd 81 31 27 3d
       -0.015400494 0.08264287 -0.054015927 0.040818695
0000a0 bf ab dd 3c a6 78 c6 3d ff 5b 44 bd 1d aa bc bc
       0.027059434 0.096909806 -0.047939297 -0.023030335
0000b0 da 9f 51 bd 46 17 43 bd 85 df c0 3d e1 04 24 ba
       -0.051177837 -0.047629617 0.09417633 -0.00062568305
0000c0 eb b5 bf 3d 96 23 65 3d a3 91 68 bd c4 fa 3e bc
       0.0936087 0.05594214 -0.056779515 -0.011656467
0000d0 0c 30 c2 bd af 46 dc 3c 9d 21 d7 bd a5 70 62 3d
       -0.094818205 0.026889173 -0.10504458 0.055283207
0000e0 30 ae 05 3c 07 57 24 bd 41 fa 57 bd 2b c0 98 bd
       0.008159205 -0.04012206 -0.052728895 -0.07458528
0000f0 9a 36 69 bd 3b 23 a0 3c 57 9a 1d 3d a5 02 6b 3d
       -0.056936838 0.01954805 0.038477268 0.05737557
000100 ee 51 fe bc 1c 6b 94 bd 33 4e f1 bd f4 eb d9 3d
       -0.031044926 -0.07246992 -0.117824934 0.106407076
000110 af 42 ea bc 08 24 3b ba 09 2e c6 bd b2 ae 9b 3c
       -0.02859625 -0.0007138853 -0.09676749 0.0190042
000120 e5 2f b7 bc 0e 1a c9 3d e6 b7 0d 3e 09 4f e4 3d
       -0.022361705 0.09819423 0.13839683 0.11147887
000130 e8 a8 ef bd 28 58 e7 bc 44 74 94 bd 84 e2 27 3d
       -0.11702138 -0.028240278 -0.072487384 0.040987507
000140 c5 7a c5 3d 1d aa af bd 55 61 06 bc 68 51 ad 3d
       0.09642557 -0.085773684 -0.008201917 0.08462793
000150 0f fc f5 bd cc 0d f9 3d 3e 59 fd bd 70 70 9c bd
       -0.12010967 0.12160835 -0.12370537 -0.07638633
000160 e2 b1 65 bd 85 0f d9 3c 47 3a a0 bd 73 38 7c bb
       -0.056077845 0.026496658 -0.078236155 -0.0038485795
000170 c0 7e 6a 3d ac fc f1 bd e3 3e 04 be c6 9f 07 bd
       0.057249784 -0.118157715 -0.12914614 -0.033111356
000180 5b 85 8c 3d 2d 72 8b 3d 7d 2e d0 3d 88 6c b7 bd
       0.06861373 0.06808887 0.10165117 -0.089562476
000190 ab 3f 38 bd 4d 13 d5 3d 92 f0 18 bd 7b b1 36 bd
       -0.044982594 0.10404072 -0.0373388 -0.044602852
0001a0 a4 b5 fd 3d b3 f6 75 bd 97 1f 88 bd 96 4a c2 3d
       0.12388161 -0.060049724 -0.0664665 0.094868824
0001b0 62 a5 83 bd 8b 9c 05 be c8 f9 d8 3a 56 fc ea bd
       -0.06428029 -0.13047998 0.0016553933 -0.114739105
0001c0 03 fc 1c bd 2a 47 3e 3c 96 78 11 3e 9e 60 db bd
       -0.038326275 0.0116136465 0.14206156 -0.10711788
0001d0 4c b2 e1 bd 14 da f9 3d 86 38 07 3e ef 7d 94 3d
       -0.110203356 0.12199798 0.13205156 0.072505824
0001e0 a0 77 7f 3b 76 a1 fa bd 3f 3a 9f 3d 9c ea 3d bd
       0.0038981214 -0.122378275 0.077747814 -0.04636632
0001f0 e6 37 f8 bd 70 e2 a1 3d 58 b5 bd 3d 2e 6e 84 bd
       -0.12120037 0.07904518 0.09263104 -0.064663276
000200 99 35 00 bc 70 05 d8 3d ac 1f cf bd 5e c3 ac bd
       -0.007825279 0.10547912 -0.10113463 -0.08435701
000210 b9 e6 cf bd 1b 25 80 bd b5 77 1b 3d a6 24 d0 3d
       -0.10151429 -0.06257077 0.03795596 0.1016324
000220 f7 c9 05 3d 29 e8 45 3d 32 18 83 bd 53 90 19 3c
       0.03266331 0.04831711 -0.06401099 0.0093727885
000230 32 95 b4 bc cc 8d 72 be ab e9 ba 3d cc 22 4e bd
       -0.022043798 -0.23686904 0.091266 -0.050326154
000240 f0 6d 99 bd 9f 8e 94 3d eb e5 bc 3d 3a 57 01 3e
       -0.07491672 0.07253765 0.09223541 0.1263093
000250 75 94 88 3d 0b d2 67 bd 13 9d d5 bd 57 dd 12 3e
       0.06668941 -0.056596797 -0.1043035 0.14342247
000260 8c 5c d5 3d 59 0e 9a bd 64 87 4b be 4c 5b e3 bd
       0.104180425 -0.07522268 -0.19875866 -0.11101398
000270 0c 08 92 3c 38 32 95 3d 3e aa 8f bd 14 d2 90 3d
       0.017826103 0.07284969 -0.07014893 0.07071319
000280 5a 86 e8 bc 8e c5 8b bd 8a 8d 15 bd 3a 7e f7 3d
       -0.028384376 -0.0682479 -0.036511935 0.12084623
000290 ce 72 fb bb 33 f6 7a bd 96 7b 36 3e 3a 43 aa 3d
       -0.007673598 -0.06126995 0.17820582 0.08313604
0002a0 ce b2 ef bd f8 aa b1 3d 87 69 e0 bc 00 36 17 bd
       -0.11704026 0.08675188 -0.02739407 -0.036916733
0002b0 f3 60 be bd 1d 3b e7 bd 9f 76 06 3e cc a5 95 3d
       -0.09295835 -0.11290572 0.13131188 0.07307014
0002c0 50 4e fd 3d e4 71 e2 3d 64 99 dd 3d 33 c6 4f bd
       0.123684525 0.11056879 0.108202726 -0.050726127
0002d0 9c d5 28 3a a7 d0 5e bd ca 42 f6 3d 2d 04 80 bd
       0.00064405217 -0.054398205 0.12024458 -0.062507965
0002e0 ce 88 cb 3d 0d 67 d1 bd c4 7c a9 3d ca cc d3 3c
       0.09938203 -0.102247335 0.0827575 0.025854487
0002f0 00 2d 47 bd 09 5e 35 bc 23 24 a7 3c d5 45 b8 3d
       -0.0486269 -0.011069783 0.020402974 0.089976944
000300 8b c3 dd bd cd 78 cf bd c0 b8 a9 bd 35 1f 91 3d
       -0.108283125 -0.10130463 -0.082871914 0.070860304
000310 2e 07 ea 3b 6e da e8 3d b5 57 bc 3d c5 fa ee 3a
       0.007141969 0.11369787 0.09196416 0.0018232694
000320 b6 9c b6 bd 55 43 ef 3c 6e 5b c2 3d 86 02 5e 3d
       -0.08916609 0.029206911 0.09490095 0.054201625
000330 79 46 e0 bc 55 95 9e 3d 17 d8 5b 3d 14 bc 9e bd
       -0.027377354 0.077433266 0.053672876 -0.07750717
000340 95 df a1 bd 77 66 ee 3d ad d8 d5 bd dd 55 e0 3d
       -0.07903973 0.11640637 -0.10441718 0.10953877
000350 15 8b a6 3b 85 12 01 bd ff 54 25 be 9e a3 de 3d
       0.005082498 -0.031511802 -0.16145705 0.10871051
000360 5d 4e 04 3d 48 4f 7a 3d de aa 3f bc 8d 04 af bd
       0.032301296 0.061110765 -0.011698453 -0.0854579
000370 3b 03 b8 bd e2 3c fa bd bd a2 a6 bc 05 7f 37 bd
       -0.08984991 -0.12218644 -0.020341272 -0.04479887
000380 c1 80 1c bd 67 6c f9 3d b4 98 ae bd f4 aa fd bd
       -0.038208727 0.12178879 -0.085252196 -0.12386122
000390 af 57 f8 3d a1 28 a1 bd 5e 4d da 3d 30 f0 04 3d
       0.12126099 -0.078690775 0.10659288 0.032455623
0003a0 5b 7b 0b 3e ff c4 95 3d 32 73 e6 bd ae 5e a3 bd
       0.13621275 0.07312965 -0.112524405 -0.07977043
0003b0 cf f3 fe bd aa 7a 9a bb 69 e9 2c bd 82 9d ee 3d
       -0.124488465 -0.0047143297 -0.042214785 0.11651136
0003c0 9f f9 d5 3d b4 31 d1 bd 2c 80 e6 bd df 5b a9 3d
       0.10448002 -0.10214558 -0.112549156 0.08269476
0003d0 38 f6 d4 bd f6 a0 73 bb 01 ee 9b bb e6 0f c7 3d
       -0.10398525 -0.0037174798 -0.004758597 0.09719829
0003e0 5a 30 f9 3c 67 c6 6a 3d 90 4c 7f 3d 66 8f 01 be
       0.030418564 0.057318117 0.062328875 -0.12652358
0003f0 8f 64 a4 bd 25 f5 71 bd 5d 22 0d be bf 62 05 3b
       -0.080269925 -0.05907168 -0.1378264 0.0020353047

rnn.0.4.bias f4 [64]
000000 aa dc 19 3d f5 07 1c 3d 82 9d 36 3e be bd 89 bd
       0.037563957 0.038093526 0.17833522 -0.067256436
000010 cf 44 22 bd e0 b3 3a be 5c be 6a 3d 83 ef 58 bd
       -0.039616402 -0.1823268 0.057310447 -0.05296279
000020 d1 6b e3 bc e4 39 b9 bd 1b 30 3e bd 6b 74 b4 bd
       -0.027761372 -0.09044245 -0.046432596 -0.088112675
000030 19 64 2a bd 06 8d 99 bd 3a 46 21 3e 4b 4c fd 3d
       -0.041599367 -0.07497601 0.15749446 0.12368067
000040 2c 1a 9c 3e 3d f7 5e 3d e9 54 5c bd e4 91 77 3d
       0.30488718 0.054435004 -0.053791914 0.060441867
000050 f8 d2 60 3e 0f 45 79 3c f4 9f 9d bd 1b aa 07 be
       0.21955478 0.015214219 -0.07696524 -0.13248484
000060 53 e5 3a bd 30 69 61 bd 63 de 46 3c b6 2a 16 be
       -0.045628857 -0.055031955 0.012137982 -0.1466473
000070 8a 13 c0 3c 8a 4a 10 3e a6 04 b8 3d ad 7d d4 3c
       0.023446817 0.14090934 0.089852616 0.025938833
000080 ec 29 48 3e 63 28 24 bd 43 ba 49 3c e9 6a ea bb
       0.19547242 -0.04007758 0.012312475 -0.007153858
000090 75 5b 05 3e 1d c4 68 3e 89 01 d6 3b d8 98 07 be
       0.1302317 0.22731061 0.0065309447 -0.13241899
0000a0 63 4b cc ba 08 f2 e6 3d 63 d8 1c bd 39 a6 60 3c
       -0.0015586432 0.112766325 -0.0382923 0.013711506
0000b0 5a 76 a8 3c 5b 45 78 bd df 61 4a 3d f9 15 9c 3c
       0.020564247 -0.060613018 0.049409743 0.019053446
0000c0 1a e8 5f be 99 8d 01 3e 3c a3 90 bd 7f 55 9d bd
       -0.21865883 0.12651671 -0.070623845 -0.07682323
0000d0 d6 c7 38 3d 2a b1 a7 bc 01 43 29 be 5a 6a 03 3e
       0.045112453 -0.02047022 -0.16529466 0.12833539
0000e0 46 a8 fb bd c5 91 02 bd 38 ff 4d bd 82 65 41 bd
       -0.12287955 -0.031877298 -0.050292224 -0.047215946
0000f0 ce 8c 4e bc 8e 32 d7 3c 71 9c 8e 3d 2d 98 21 be
       -0.012606813 0.026269224 0.069634326 -0.15780707

rnn.0.5.weight f4 [64]
000000 e6 69 72 3f da ff 72 3f bd 33 87 3f 9f 4f 88 3f
       0.9469284 0.9492165 1.0562664 1.0649298
000010 79 a6 72 3f 52 ad 72 3f da 7d 73 3f 25 ab 88 3f
       0.9478527 0.94795716 0.9511391 1.0677229
000020 2f f5 5c 3f ad 4b 72 3f 4a ba 73 3f 0e 8f 7a 3f
       0.8631162 0.9464672 0.9520613 0.97874534
000030 8c a0 89 3f 76 59 74 3f d2 42 72 3f c2 38 6f 3f
       1.075212 0.95449007 0.9463321 0.9344598
000040 94 9b 42 3f ba 5a 78 3f c8 84 8a 3f 8d db 7b 3f
       0.76018643 0.9701344 1.0821772 0.9838188
000050 c9 21 68 3f f7 3e 72 3f df f7 8a 3f 97 04 76 3f
       0.9067655 0.94627327 1.0856894 0.96100754
000060 78 c1 87 3f 71 88 88 3f 2d fc 82 3f d4 67 72 3f
       1.0605917 1.0666639 1.0233208 0.9468968
000070 32 b1 73 3f 09 2d 72 3f 3a a7 4e 3f 90 60 78 3f
       0.95192254 0.9459997 0.8072392 0.9702234
000080 13 86 6b 3f c1 a7 75 3f db 6f 72 3f 56 e1 72 3f
       0.92001456 0.959591 0.9470193 0.94875085
000090 69 fa 6a 3f ac c5 68 3f 6a 6c 74 3f 44 31 72 3f
       0.91788346 0.90926623 0.95477927 0.94606423
0000a0 d1 38 84 3f 26 79 6b 3f 33 f2 78 3f 66 41 74 3f
       1.0329839 0.9198173 0.97244567 0.9541229
0000b0 5f 95 72 3f ce bd 7c 3f c8 7d 72 3f da 6e 72 3f
       0.9475917 0.9872712 0.94723177 0.94700396
0000c0 b7 9a 5e 3f 44 db 68 3f cb b7 85 3f 0a e2 66 3f
       0.86954826 0.9095957 1.0446714 0.9018866
0000d0 e1 81 72 3f 5c 2c 72 3f 85 34 73 3f 53 47 72 3f
       0.9472943 0.9459894 0.95002013 0.9464008
0000e0 a7 90 72 3f 12 c7 73 3f 7b 48 75 3f bb 36 96 3f
       0.9475197 0.9522563 0.9581372 1.1735452
0000f0 92 8d 7b 3f 8f f4 87 3f 1e 71 72 3f e6 77 74 3f
       0.98262894 1.0621508 0.94703853 0.9549545

rnn.0.5.bias f4 [64]
000000 0e dd 5d bd 0e dd 5d bd 69 6d e8 3b 3c 14 6a bd
       -0.054165892 -0.054165892 0.007093121 -0.057148203
000010 0e dd 5d bd 0e dd 5d bd f4 b0 68 bd 2f 97 ed 3b
       -0.054165892 -0.054165892 -0.05680938 0.0072506885
000020 60 df 91 bb 0f dd 5d bd be 89 45 bd 1e ba 30 bb
       -0.004451677 -0.054165896 -0.048227064 -0.0026966403
000030 90 97 83 bb be 89 45 bd 0e dd 5d bd 00 9e 20 3d
       -0.0040158704 -0.048227064 -0.054165892 0.03921318
000040 2a 34 02 bb 0e dd 5d bd 77 cd e8 3b 67 a5 b0 bc
       -0.0019867518 -0.054165892 0.0071045714 -0.021563245
000050 dd fc 8c bc 0d dd 5d bd cb 92 07 3d 66 ae 3e bd
       -0.017210418 -0.05416589 0.033098977 -0.046553038
000060 50 b6 a4 bb 37 d9 fd bc e7 94 81 3b 0e dd 5d bd
       -0.005026616 -0.030987365 0.003954518 -0.054165892
000070 bf 89 45 bd 10 dd 5d bd a7 2c f0 3c 04 dd 5d bd
       -0.048227068 -0.0541659 0.029318167 -0.054165855
000080 f9 1d 06 bb 45 fc 00 3d 0e dd 5d bd 0d dd 5d bd
       -0.0020464642 0.031490583 -0.054165892 -0.05416589
000090 1c e6 34 3d b7 57 84 bb 17 7f 2b bd 0e dd 5d bd
       0.044164762 -0.0040387767 -0.04186925 -0.054165892
0000a0 dd a6 88 3b be 2a c5 3c 54 78 69 bd 6a ae 3e bd
       0.0041702823 0.024068233 -0.05699952 -0.046553053
0000b0 0c dd 5d bd 2e b3 73 3c 10 dd 5d bd 0e dd 5d bd
       -0.054165885 0.014874263 -0.0541659 -0.054165892
0000c0 6e 41 77 bc d6 6e 29 3c b3 5d 4f bc c9 7c d5 bb
       -0.015091283 0.010341367 -0.012656617 -0.0065151197
0000d0 10 dd 5d bd 10 dd 5d bd 38 5d 4d bd 0e dd 5d bd
       -0.0541659 -0.0541659 -0.05013773 -0.054165892
0000e0 0c dd 5d bd bd 89 45 bd 3a 5d 4d bd e6 81 16 bb
       -0.054165885 -0.04822706 -0.050137736 -0.002296561
0000f0 6d c1 08 bb 1d 5e b1 3b 0c dd 5d bd bc 89 45 bd
       -0.0020867244 0.0054128305 -0.054165885 -0.048227057

rnn.0.5.running_mean f4 [64]
000000 c7 4a 53 3d 49 4f a1 3d 32 67 fb 3d 51 fa 3a bd
       0.051584985 0.078764506 0.12275542 -0.045648877
000010 41 b2 38 bd 92 d7 3c be 48 5e 8a 3d 61 a6 83 3b
       -0.04509187 -0.18441609 0.06756264 0.0040176366
000020 22 e4 ff bc 52 00 14 be 47 90 4f bd 44 df 8b bd
       -0.031236712 -0.14453247 -0.050674703 -0.06829694
000030 2a 29 bf bd 3c d5 6f bd f1 04 1b 3e 10 30 2a 3e
       -0.09334023 -0.058552966 0.15138604 0.16619897
000040 a3 90 77 3e 56 3d aa 3d 73 7b 7b bd 0c fa b9 3d
       0.24176268 0.0831248 -0.061397027 0.09080896
000050 77 d9 73 3e 02 8d 1a 3d 5c ca 71 bd 66 88 15 be
       0.23813425 0.03773213 -0.059030876 -0.14602813
000060 38 3f d2 bc 6e 5a 94 bc fa f3 89 bd fa 64 22 be
       -0.02566491 -0.018109526 -0.06735988 -0.15858832
000070 13 82 16 3d 5c 67 18 3e 4a fc 3c 3e a8 f6 94 3c
       0.036745142 0.14883178 0.18455616 0.018184021
000080 f7 b3 64 3e 82 7c 49 bd ef a6 cc 3c c3 96 d0 bc
       0.22334276 -0.049191006 0.024981944 -0.025462514
000090 48 97 d1 3d d2 9f 80 3e eb b3 3e 3d 4d 0a 34 be
       0.10233933 0.25121933 0.046558302 -0.17582054
0000a0 c8 c5 06 3c 15 39 6c 3d 5c 08 05 bb 71 5d 4a 3d
       0.008225866 0.057671625 -0.0020299172 0.04940552
0000b0 44 31 02 bc 73 3e 95 bd 6b d2 07 3d 1a f8 c7 bb
       -0.007946316 -0.07287302 0.033159655 -0.006102574
0000c0 68 c8 38 be 4d c0 06 3e 7b d5 c4 bd e3 c1 40 be
       -0.18045199 0.13159294 -0.09611031 -0.18823962
0000d0 1e f4 07 3d 4e a5 5e 3c 38 a8 0a be 34 7b 16 3e
       0.033191793 0.013589216 -0.13540733 0.14695436
0000e0 b2 5f c9 bd e7 2a 71 3b 23 8c 2f bd 3e ec ec bd
       -0.098327056 0.0036799253 -0.042858254 -0.11568497
0000f0 da e1 40 bd 24 3d 1d 3d e2 e4 82 3d dc 00 5d be
       -0.04709039 0.038388386 0.06391312 -0.21582359

rnn.0.5.running_var f4 [64]
000000 54 2d 7b 25 60 57 98 27 f5 69 a2 27 25 f0 9e 26
       2.1786137e-16 4.2283207e-15 4.507891e-15 1.1028544e-15
000010 db c3 07 26 d4 76 58 28 da 12 a1 27 18 23 ec 22
       4.710297e-16 1.2016175e-14 4.4706916e-15 6.4005085e-18
000020 e0 36 b0 25 ca 00 7d 28 a5 98 05 27 f2 33 1e 27
       3.0568318e-16 1.4044492e-14 1.8540207e-15 2.1955064e-15
000030 5b 2e 51 27 ea 63 f7 26 e1 42 74 28 94 4c 0a 28
       2.9029706e-15 1.716615e-15 1.3559223e-14 7.677144e-15
000040 4e 7d b0 28 77 fa 9c 27 04 e8 a9 26 d6 a4 5b 27
       1.9594267e-14 4.3570252e-15 1.1789619e-15 3.0481713e-15
000050 af 33 86 28 52 ba 88 26 58 cd cb 26 6d 03 31 28
       1.4899403e-14 9.487398e-16 1.4141613e-15 9.826217e-15
000060 11 72 f2 24 ed ac 45 25 62 0a 4d 27 2a b9 79 28
       1.05144006e-16 1.7145616e-16 2.8455094e-15 1.3862428e-14
000070 7f 59 ea 25 22 19 5b 28 3b cf 5c 28 c7 42 62 25
       4.0653174e-16 1.2162392e-14 1.2257389e-14 1.9625e-16
000080 26 d1 0f 28 92 d9 17 27 10 eb 0d 25 62 a5 b0 24
       7.9834465e-15 2.1073405e-15 1.2309443e-16 7.6608e-17
000090 60 67 76 27 54 7a 35 29 3d 74 46 26 66 94 9e 28
       3.4195398e-15 4.0296176e-14 6.885258e-16 1.7605881e-14
0000a0 66 ec 11 24 2e ce 37 26 7c 0c cd 21 1e 35 e6 26
       3.16421e-17 6.3770305e-16 1.3894645e-18 1.5973853e-15
0000b0 91 74 ac 23 f1 f9 23 27 98 9e dc 25 00 8a 34 23
       1.8697645e-17 2.2756288e-15 3.8271384e-16 9.787042e-18
0000c0 af 07 cc 28 fb ae 5c 28 99 d7 3e 28 65 68 d5 28
       2.2651882e-14 1.2250396e-14 1.0593869e-14 2.3693024e-14
0000d0 61 66 52 26 68 6f 1b 24 b5 8c 3f 28 3f ac 7f 28
       7.2997135e-16 3.3704632e-17 1.0633141e-14 1.41926935e-14
0000e0 37 d4 7d 27 02 47 ce 22 05 38 4d 26 44 e8 05 27
       3.5225845e-15 5.5911594e-18 7.1199583e-16 1.858337e-15
0000f0 9d 4c 8a 26 85 0e a4 26 82 e5 1a 27 b7 68 43 28
       9.59644e-16 1.1383722e-15 2.149621e-15 1.0847381e-14

rnn.0.7.weight f4 [5, 64]
000000 6b 96 14 3d 6d 79 89 bc 5d 3d 8b 3d 02 7c 95 3d
       0.036276262 -0.016781533 0.067988135 0.07299043
000010 16 68 0e bd 4e 6e 9c 3d a6 cb a9 bc 6f 39 d7 3d
       -0.034767233 0.076382264 -0.02072699 0.105090015
000020 e0 88 e5 bd 2b 35 b9 3c 90 9e 8a bd 11 c9 5d bd
       -0.112077475 0.02260836 -0.06768525 -0.05414683
000030 7b 55 29 bb d9 71 1f 3d 09 1d 1a 3c a0 aa 02 3e
       -0.0025838304 0.038926933 0.009406337 0.12760401
000040 bc d8 77 3d 3b a1 9f 3d b2 27 89 3d c9 5e 0f 3e
       0.06050943 0.07794424 0.066970244 0.14001001
000050 67 4e 31 bc a8 6b 15 3c df b1 e7 3d e8 31 7f bd
       -0.010821915 0.0091199055 0.11313223 -0.062303454
000060 c5 18 12 3d ce b1 93 3c 9d aa 5e 3d b5 aa 91 3c
       0.035668153 0.01802912 0.05436193 0.017781595
000070 67 e8 4a bd 7b 4d ac 3b e3 e2 02 3e 26 c1 0b 3e
       -0.049538042 0.00525826 0.12781863 0.13647899
000080 a9 ea d1 3d 39 34 d4 3d a3 b9 a2 3d a0 4b 14 3e
       0.10249836 0.10361523 0.07945564 0.14481974
000090 9d 54 f9 3d 7e fe 51 3c d6 e0 d9 3b a2 91 dd 3d
       0.12174342 0.012817023 0.006649117 0.10818793
0000a0 2c 11 a4 3d 04 3f e9 3d cd 29 f2 3c 54 ee 73 bd
       0.08011088 0.113889724 0.029560948 -0.05955346
0000b0 aa c2 f7 bc e3 90 a9 3d 8a 8b f5 bb 6e 70 70 3c
       -0.03024419 0.08279588 -0.007493441 0.014675243
0000c0 2e ae 2e bd db cc 9d 3d 92 99 98 3d a2 96 43 bd
       -0.04264658 0.07705089 0.07451166 -0.047751077
0000d0 2b 9b bd 3d db 36 39 bc a4 ef c4 3d f8 ca 00 3e
       0.092581116 -0.0113045825 0.0961602 0.12577426
0000e0 0c 7d 5f bc 1e 5f 51 bd 11 e2 86 bd 38 1b 74 3d
       -0.013640653 -0.0511161 -0.065860875 0.05959627
0000f0 0d 19 37 3d 01 05 8a 3d a3 36 2d bc fe fd db bb
       0.044701625 0.06739236 -0.010572108 -0.006713628
000100 31 8a 3b 3c f2 dd 28 bd f6 52 ba bb fe aa 39 3d
       0.011446522 -0.04122729 -0.0056861592 0.045329086
000110 72 cc 17 bd fa 63 48 bd f6 a9 69 3d d5 28 c3 bb
       -0.03706021 -0.04892347 0.057046853 -0.0059557953
000120 bf cb c3 bc 6c a7 4d 3a 0d 88 16 3e 13 48 66 bd
       -0.023900865 0.0007845077 0.14700337 -0.05622108
000130 43 c6 51 3d 86 aa d3 bc 9e a6 88 3d 81 de 09 be
       0.051214468 -0.025838148 0.06672405 -0.13463785
000140 7c 57 bd 3d c3 4b 56 3d 01 b5 0e 3d 88 99 05 3d
       0.09245202 0.052318346 0.034840588 0.032617122
000150 b1 e2 87 3c ca d2 72 3c 00 11 1b bd 79 ca e5 3b
       0.016587587 0.014820764 -0.03785801 0.007012662
000160 f2 f5 f7 3c 9f 9b 9a 3d 07 d9 c2 39 68 28 a9 3d
       0.030268643 0.075492136 0.0003716426 0.0825966
000170 cc 1d 0c 3c 15 44 d8 3d c7 61 07 be 08 ae 40 3c
       0.008552026 0.105598606 -0.13220893 0.011760242
000180 f8 09 55 3d b2 78 15 be b0 69 a8 3d 32 b0 9b 3d
       0.05201146 -0.14596823 0.08223283 0.07601966
000190 26 e8 c3 bd bb 07 58 bd a5 c5 41 bc fc 12 19 bd
       -0.09565763 -0.052741747 -0.011826907 -0.03737162
0001a0 bd b9 b2 bc 62 01 9e bd 82 86 93 3d 85 2b 30 bd
       -0.021817083 -0.077151075 0.0720339 -0.043010253
0001b0 a3 30 88 bd 4d 3f 31 bd 90 e0 8f bd 71 cc 7e 3d
       -0.06649902 -0.04327326 -0.07025254 0.06220669
0001c0 1e 3e 8a bd bc 38 a0 3d 19 0e 5d 3d 3c 47 39 3d
       -0.06750129 0.07823321 0.053968523 0.04523395
0001d0 12 aa b6 3d 36 f4 06 3e bf 81 30 bd 07 d5 1e 3e
       0.08919157 0.13179097 -0.043092486 0.15510951
0001e0 c8 7b e8 3c 5d 97 e0 3d c7 b2 9c 3a c0 7c 0e 3d
       0.028379336 0.1096637 0.0011955135 0.03478694
0001f0 82 86 e2 bd f9 23 48 bd bc f6 02 3e 44 3d e9 bc
       -0.110608116 -0.04886243 0.12789434 -0.028471597
000200 1a c1 17 3e a1 6a fb bc 63 06 db bd 16 c0 d7 bc
       0.14819756 -0.030690493 -0.106945775 -0.02633671
000210 31 3f 0c 3e a9 cf 7d 3d f3 45 4e 3d eb ec ac 3d
       0.1369598 0.06196562 0.050359678 0.08443626
000220 0b e4 62 bc 91 93 25 3e 68 f8 29 3e 90 76 24 bc
       -0.013848315 0.16169573 0.16598666 -0.010038033
000230 fa d7 da 3d 5e 80 c7 3c a4 c0 42 3d 8f 2b a1 bd
       0.106857255 0.024353202 0.047546998 -0.07869636
000240 e3 1a b0 3d 17 e4 32 bd 1d 05 cd 3d 6d 7a d1 bc
       0.08598878 -0.043674555 0.10010741 -0.025571072
000250 e1 b6 25 3c 92 82 03 3e c7 fc cb bd 81 22 90 3d
       0.0101144025 0.12842777 -0.09960323 0.07037831
000260 91 c9 78 3d 31 15 2a bb 2f 0c 6e 3d 24 20 ff 3d
       0.060739104 -0.0025952572 0.058117088 0.12457302
000270 7d 97 d7 3b 8a d7 d1 bc 17 d4 fb 3b 05 73 f0 bc
       0.006579338 -0.025615472 0.007685195 -0.02935172
000280 44 9f ea 3d 3f 1b 4f 3c c8 e0 60 3c 62 dc 53 bd
       0.11456159 0.012640773 0.013725467 -0.051723845
000290 ec 41 79 bd 7e 74 5c bd a1 a4 f0 bd 9a 6c 18 bc
       -0.060853884 -0.053822033 -0.117501505 -0.009303236
0002a0 ad 41 88 3d c8 c8 5f bd 79 c5 4d 3d ed 1b 97 bd
       0.06653152 -0.05463484 0.050237153 -0.07378373
0002b0 53 f0 b3 3d 2b 22 ee 3d 71 68 1a bd b8 cb 76 3d
       0.087860726 0.11627611 -0.03769726 0.060252875
0002c0 5d 6e de 3d 73 ef 89 3d 5c dd 05 3c 17 9c 13 3e
       0.10860894 0.067351244 0.008170452 0.14415012
0002d0 0e 21 28 bd da 27 97 3c 51 08 7c 3d 3b 74 36 bd
       -0.04104715 0.01845162 0.06153137 -0.04454444
0002e0 02 ca 2d 3e 73 1b e4 3d 84 a3 d3 bc e5 af a0 3d
       0.16971591 0.11138048 -0.025834806 0.07846049
0002f0 d8 c1 0a 3e e6 d3 7f 3c 05 21 47 bd 3a c4 d5 3d
       0.13550508 0.015614485 -0.048615474 0.10437818
000300 60 70 e9 bc 8e 46 70 3d 2c c9 c4 3d ba 41 26 3d
       -0.028495967 0.058661036 0.09608683 0.040590025
000310 ac f4 1a bd 8f 75 02 bd cf 5e 27 3e 45 65 76 3b
       -0.037830994 -0.031850394 0.1634476 0.0037596982
000320 8b 25 db 3d 08 fc 8a bd 3e 9e dd 3c 6f 5c 09 3e
       0.1070052 -0.067863524 0.027052995 0.13414167
000330 6e cc ca 3d 6c 30 fa 3d 46 43 87 bd c5 64 4a 3d
       0.09902273 0.12216267 -0.06604628 0.049412508
000340 a2 57 07 3b 21 b9 95 3c c7 2b 87 3d 5c f2 1a bc
       0.0020651598 0.018276753 0.06600147 -0.009457197
000350 6b 26 4f 3c c7 fa 4b bd 12 b9 02 3e eb f2 df 3d
       0.012643437 -0.049799707 0.12765911 0.10935005
000360 c7 0b 41 bc 56 a1 a7 bb 86 c9 05 3d 47 b8 1c 3c
       -0.011782593 -0.0051156683 0.03266289 0.0095654195
000370 48 ac 55 bd 10 d0 ff bc e5 42 dc 3d 99 e1 62 3d
       -0.052166253 -0.031227142 0.107549466 0.055390928
000380 42 2c da 3d f0 af da 3c ca 17 33 3d 50 7f 85 3c
       0.10652973 0.026695222 0.04372386 0.016296059
000390 34 df 1c bd 0c e5 00 3e ae e0 6e bd 13 24 81 bd
       -0.0382988 0.12587374 -0.05831974 -0.06305709
0003a0 d2 95 2e 3d d9 9a ea 3d e7 f2 b5 3d 72 7f 45 bd
       0.04262335 0.11455316 0.088842206 -0.048217244
0003b0 16 8a e5 3d 20 6e cc bc ea 95 65 bd 03 6c 09 3c
       0.112079784 -0.024954855 -0.056051172 0.008387568
0003c0 d4 1c fc 3d 6e 96 22 3e 0d 1e 89 3d 6a b8 8d 3d
       0.12310186 0.15877697 0.06695185 0.0691994
0003d0 d6 cc 34 bd 0b 6f 48 bd 98 6d 9e bc a8 e2 53 bd
       -0.04414066 -0.048934024 -0.019339368 -0.051729828
0003e0 d7 6c 52 3c a8 94 e3 bc d3 5f 18 3e 67 30 bc 3d
       0.012843332 -0.027780846 0.14880304 0.091889195
0003f0 29 d8 d7 3d 7f c7 9b 3c 57 a3 18 3e a2 0f 0c 3e
       0.10539276 0.019016026 0.14906059 0.13677838

rnn.0.7.bias f4 [5]
000000 b9 d7 7e bc bf e0 a1 3d 9a 43 b4 bd b2 1e a8 3d
       -0.015554362 0.07904195 -0.088019565 0.0820898
000010 d8 d0 bf 3d
       0.09366006

rnn.1.0.weight f4 [5]
000000 0e 09 88 3f 41 4a 7a 3f ff fc 82 3f 20 4d 89 3f
       1.0627763 0.9776955 1.0233458 1.0726662
000010 08 59 53 3f
       0.82557726

rnn.1.0.bias f4 [5]
000000 7c cb 7f 3d d9 9f 52 bd 2e 15 ee bd 2b 4d 30 bd
       0.062449917 -0.051421974 -0.116251335 -0.043042343
000010 44 d3 6f bd
       -0.058551088

rnn.1.0.running_mean f4 [5]
000000 04 49 89 3a 07 5b 22 3a 2b 3f 2c 3a 04 94 7b 3a
       0.0010474031 0.00061933737 0.0006570692 0.0009596946
000010 43 1d 40 39
       0.00018321448

rnn.1.0.running_var f4 [5]
000000 05 6c ad 39 f7 05 96 39 bd c3 95 39 4d 71 03 3a
       0.00033077612 0.00028614674 0.0002856533 0.00050141366
000010 3a 7e 51 39
       0.00019978816

rnn.1.1.weight f4 [56, 5]
000000 a2 20 88 be 68 5a 9d 3e 4f c2 b5 be 62 1b 9e be
       -0.26587397 0.30733037 -0.35499808 -0.30880266
000010 01 df fb 3d d9 6d 4f 3e f3 99 c7 be d5 6c d6 be
       0.12298394 0.20256747 -0.3898464 -0.41879907
000020 aa 2a 1e be 1b 31 b0 be b3 1f ca be fe 34 3c 3e
       -0.15445963 -0.34412464 -0.3947731 0.1837959
000030 49 29 50 3e 2a df 95 be ab 73 ae bc 50 9c bd bc
       0.20328249 -0.29271823 -0.02129539 -0.023145825
000040 0c 6e 94 be a0 ee 84 be be b0 07 3e 27 af cf be
       -0.2899021 -0.25963306 0.13251016 -0.40563318
000050 a5 80 e0 3d 1f 06 bc be 21 36 88 be ac 8e b6 3e
       0.10962037 -0.3672342 -0.26603797 0.35655725
000060 41 91 f5 3d 88 dc 9a be a4 fe 58 be 78 5e e1 3d
       0.119905956 -0.30246377 -0.21190888 0.110043466
000070 cd e5 f0 3e 5b 03 fc bc ea cd 01 bf a1 cd 85 be
       0.47050324 -0.030763319 -0.50704825 -0.26133445
000080 65 21 ce 3e 59 1a af bc cf 97 aa bc 09 6a 28 3f
       0.40259853 -0.021374868 -0.020824341 0.65786797
000090 b9 5c 6e 3e 5a 47 c8 3e 11 32 ab be 39 d5 e0 3d
       0.23277558 0.39116937 -0.33436635 0.10978169
0000a0 ce 50 54 3e 90 d6 e4 be 30 4f ed 3c 77 20 bd be
       0.2073395 -0.44694948 0.028968424 -0.3693883
0000b0 77 81 9f be b5 6b b3 be 7f 31 0f 3e 6b 1e 7f 3d
       -0.3115346 -0.3504311 0.13983725 0.06228487
0000c0 5c 16 c4 be 35 0c ac be bf eb 5c 3e 26 74 ab be
       -0.3829831 -0.33603063 0.21574305 -0.33487052
0000d0 55 06 20 be b0 b3 80 be 78 af 57 3e c9 8c b0 be
       -0.15627415 -0.2513709 0.2106303 -0.3448241
0000e0 37 99 65 be 86 bb 1d 3e 0f e6 cf 3e e9 f2 9a 3d
       -0.22421728 0.15403566 0.40605208 0.07565863
0000f0 1b e1 b7 be 44 e4 94 3e d2 d8 7a bd 72 2b ad be
       -0.3591393 0.29080403 -0.061241932 -0.3382221
000100 9b 16 66 3c 9a 71 cc bd af 83 b9 3d db e5 4b be
       0.0140434755 -0.09982605 0.0905832 -0.19911902
000110 95 cc 6e 3e e1 29 cf bd 2e 76 fd 3e 38 d2 04 3e
       0.2332023 -0.1011541 0.49504226 0.12970817
000120 0a 21 12 3e 50 74 2e 3e 72 50 f5 be 2c bc 3e 3c
       0.14270416 0.17036557 -0.47912937 0.011641543
000130 c9 f5 30 3e 15 a9 e2 3e ab e5 96 be 39 08 78 be
       0.1728126 0.44269624 -0.29472098 -0.24221887
000140 93 0e c1 3e a8 7c 2a 3e 4e 92 98 3e a5 a2 1e 3e
       0.37706432 0.16649115 0.29799122 0.15491731
000150 a4 69 70 bd ed b5 e0 bd 9e 18 b1 3e 87 32 c0 be
       -0.058694497 -0.109721996 0.34589094 -0.3753855
000160 08 96 98 bd 54 d3 c5 be 87 63 fe 3d 5a ce 94 3b
       -0.07450491 -0.38637793 0.12421327 0.0045412006
000170 e6 79 1c 3e 1e 72 f6 3d fd 26 8a 3e aa 67 eb 3e
       0.15280876 0.12033485 0.2698287 0.45977527
000180 78 e0 d4 be 1a df 8c be 78 95 d1 3e 58 20 3d 3e
       -0.41577506 -0.27513963 0.40934348 0.1846937
000190 fe 62 f2 be 2b 25 92 be aa 76 50 bd eb 3d b8 be
       -0.4734115 -0.28543982 -0.050894417 -0.3598474
0001a0 5a f7 61 be 69 f7 6a be 97 45 a0 be 5e 86 4e be
       -0.22067013 -0.22945942 -0.31303093 -0.20168445
0001b0 ad e6 d8 be 17 31 3c 3d cb a7 21 bd 60 02 88 3d
       -0.42363492 0.045945253 -0.03946666 0.06641078
0001c0 b8 43 b6 be 0b 85 05 bf 3e eb 1f bd 8b 7a e3 3d
       -0.3559854 -0.5215613 -0.039042704 0.111073576
0001d0 fb a4 80 3e 8a 13 d8 3e 22 8e ee be 1d 23 c6 be
       0.2512587 0.42202407 -0.46592814 -0.38698664
0001e0 8e e4 8a be 3b ce b0 bc 01 e6 88 3d 46 1f 87 be
       -0.27127498 -0.021582713 0.06684495 -0.26391047
0001f0 43 a1 8b 3e 2a 64 8e 3c 2d 28 f7 be 59 df b3 be
       0.2727147 0.017381746 -0.4827284 -0.35131338
000200 d4 51 bd ba e2 81 c3 bd ff 6d 8b 3e 80 d1 e9 3e
       -0.0014443942 -0.095462576 0.27232358 0.45667648
000210 57 4d de 3e 1c 02 a3 be ce a8 31 3d bf 4d b9 be
       0.4341838 -0.31837547 0.043373875 -0.36192128
000220 ec c5 06 bd 58 53 04 3e e3 34 cd be 17 f1 9a 3e
       -0.032903597 0.12922418 -0.40079412 0.30262062
000230 ae b9 f0 3d 7b 71 34 3d f2 76 87 be 3f eb 3c be
       0.117541656 0.044053536 -0.26457936 -0.18449114
000240 fb 24 8d be 5c 53 23 be d9 e2 a4 bd ca b6 ce be
       -0.27567276 -0.15949768 -0.0805108 -0.40373832
000250 70 14 41 be 65 64 60 3e e7 1b 01 be f9 4b 88 3d
       -0.18855453 0.21913297 -0.126083 0.06655116
000260 e6 fa c7 be 98 2e 26 3d f0 da cb 3e 87 88 a2 3e
       -0.39058608 0.04057178 0.39815474 0.31744787
000270 36 04 77 3e ba b6 73 3c 55 e7 4d be 66 d0 9e 3e
       0.241227 0.014875108 -0.20107777 0.3101837
000280 f3 32 b0 bd 5c 6e 79 3e 30 a5 cb 3e e2 7b 58 3e
       -0.08603468 0.24358505 0.39774466 0.21141008
000290 0a 29 ba 3e 59 96 de be 6d 5f de be d4 2b e8 bd
       0.36359435 -0.4347408 -0.4343218 -0.113364846
0002a0 15 02 ab 3e 7e 06 a2 3e 68 25 d8 3e a0 2b 9e be
       0.33400026 0.31645578 0.4221604 -0.30892658
0002b0 1d 39 c1 3b c8 f5 a0 3e 22 93 83 3c 17 2f 84 be
       0.005896701 0.31437516 0.01606137 -0.25817177
0002c0 0a 15 9e be bc 4f e4 3e 34 bc b6 be 62 68 da bd
       -0.30875427 0.44592083 -0.35690463 -0.10664441
0002d0 b2 11 1f be 7e 3e 5c be 4b aa 38 be 15 70 0d 3f
       -0.15534094 -0.21508214 -0.18033712 0.5524915
0002e0 53 40 d5 3e f5 54 f6 3e a5 0c a4 3e 92 88 e7 bd
       0.41650638 0.48111692 0.32040897 -0.113053456
0002f0 fb aa 46 bc 78 63 1e 3d 8b 52 a9 bc 29 a3 a6 be
       -0.012125726 0.03866908 -0.020669242 -0.32546356
000300 37 21 d6 3b f4 3a fb 3e 63 76 a5 bd b7 d8 f8 be
       0.0065347212 0.49068415 -0.08079221 -0.4860284
000310 8c ab 6e be 63 de 02 3e c9 92 c2 be 4e 03 a5 be
       -0.23307627 0.12780146 -0.38002613 -0.32229084
000320 48 cc b9 3e dc fd a3 3d 2c d2 97 3e 8b 77 b2 3e
       0.36288667 0.08007404 0.29652536 0.3485683
000330 ff 20 f3 bc 0c ab c6 be 01 00 be 3e 67 bc 0d bd
       -0.02967882 -0.38802373 0.37109378 -0.034603503
000340 23 f8 c6 3e 75 d2 1a be c7 91 98 3d 6e 98 15 be
       0.38861188 -0.15119345 0.0744968 -0.14608929
000350 f6 61 82 3e 8b 61 b1 3a 8c 27 ac be 55 24 01 bf
       0.25465363 0.0013533098 -0.33623922 -0.50446063
000360 c9 0b 85 be f9 cc 5e be c5 6a 0a bd 24 97 dc bd
       -0.25985554 -0.21757878 -0.03379323 -0.10771015
000370 45 82 3c 3d 7d c5 be be 05 04 77 3e 10 91 c7 3e
       0.046022672 -0.37260047 0.24122627 0.3897786
000380 61 a5 30 be 77 04 0a 3f 13 a4 a9 be 4b 7b a4 3e
       -0.17250587 0.5391306 -0.3313299 0.32125315
000390 c4 a7 ae 3e 1d d0 ee 3d fb 49 1d be 45 4f f5 be
       0.3411237 0.11660788 -0.15360253 -0.4791204
0003a0 31 b3 9c be cf 34 ce bd 1a 46 52 be 0a 04 89 be
       -0.30605462 -0.10068666 -0.20534554 -0.26760894
0003b0 8e 93 52 be 59 47 cf be 1f 71 d5 3d f6 0f 66 be
       -0.205641 -0.4048412 0.10421967 -0.22467026
0003c0 d3 b1 c2 3e e2 07 96 3d f7 f0 a8 be fb 96 e6 be
       0.38026294 0.07325722 -0.32996342 -0.45037064
0003d0 e8 9b d7 be b0 22 e8 3e 33 1b df 3e cd 9f 99 3e
       -0.42111135 0.45338964 0.4357544 0.3000473
0003e0 79 ac b7 be 88 7a 9d 3e 63 a8 31 3e 33 09 85 3e
       -0.35873774 0.30757546 0.1734939 0.2598358
0003f0 94 d4 98 be 5f 22 af 3e 2b 46 b9 3e 0a 51 cc be
       -0.29849684 0.3420591 0.36186346 -0.39905578

rnn.1.1.bias f4 [56]
000000 16 51 a9 3e e0 1f 99 bd 62 fc 76 3e 35 2b 66 be
       0.33069676 -0.07476783 0.24119714 -0.2247742
000010 27 ec f5 3e ec 9e cd 3e ec 11 af be 96 33 05 3f
       0.48031732 0.4016031 -0.3419336 0.5203184
000020 2f 8f 8b 3e b2 e3 1b bf 32 aa 37 3c 67 8e 52 be
       0.27257678 -0.6089431 0.011210011 -0.20562135
000030 77 18 86 be 71 81 ae 3e 78 88 c2 be 14 37 6c be
       -0.2619054 0.3408313 -0.37994742 -0.23067886
000040 05 9b 02 bd d8 49 b8 be de 0c b1 3d ea 51 0f be
       -0.03188612 -0.35993838 0.08645032 -0.13996091
000050 2d 37 ab be 6e 6b bf 3e c8 d8 53 bb 1a 01 24 3d
       -0.33440533 0.3738665 -0.0032325257 0.040040113
000060 36 a2 c8 3e 75 b7 e6 3e e6 63 81 3e 39 c3 dc be
       0.39186257 0.45061842 0.2527153 -0.43117693
000070 78 8a 2a 3e 2a 8f e2 bd e8 68 19 be 23 64 10 3e
       0.16654384 -0.11062463 -0.14981425 0.14100699
000080 e2 24 88 be 8b 88 09 3f 19 cd 18 3e 54 34 24 be
       -0.2659064 0.53723973 0.14921989 -0.16035587
000090 f4 c5 61 3e 3c 2f c2 be 50 1c 8b ba bd 72 94 3e
       0.2204817 -0.37926662 -0.0010613296 0.28993788
0000a0 ac 0e 5c be 86 4d 8a be ae 2b f3 be 89 16 1b be
       -0.21489972 -0.2701227 -0.47494262 -0.15145315
0000b0 d0 d0 94 3e 3c ea 3a 3e 36 65 b1 be 10 bc 91 3e
       0.2906556 0.18253416 -0.3464753 0.28463793
0000c0 9a 31 34 be ab f2 39 be f9 c7 68 bd 0b 64 91 be
       -0.17597046 -0.18158977 -0.056831334 -0.2839664
0000d0 5a 99 92 be 1f 05 d0 3d 4c 01 a5 3e 74 ff b1 bd
       -0.28632623 0.10157227 0.32227552 -0.08691302

rnn.1.2.weight f4 [56]
000000 bf e5 81 3f 46 ba 6b 3f 93 dc 53 3f 07 ce 6b 3f
       1.0148238 0.92081106 0.82758445 0.9211125
000010 77 45 8a 3f 60 c8 8a 3f cd 48 7b 3f b9 05 74 3f
       1.0802449 1.08424 0.9815796 0.9532123
000020 be a7 57 3f c2 97 80 3f 80 c4 79 3f f4 ea 88 3f
       0.8424033 1.0046313 0.9756546 1.0696702
000030 10 d8 83 3f e3 82 79 3f e7 9d 86 3f 05 5c 57 3f
       1.0300312 0.9746534 1.0516938 0.84124786
000040 b6 c0 72 3f 81 db 75 3f 81 f1 80 3f d2 dd 93 3f
       0.94825304 0.9603806 1.0073701 1.1552069
000050 35 d7 63 3f c2 a1 7d 3f 98 d1 7e 3f 47 79 88 3f
       0.89000255 0.9907495 0.99538565 1.0662011
000060 5d 3d 83 3f ba 9d 6b 3f ff 8c 87 3f 6a 89 87 3f
       1.0253102 0.92037547 1.0589904 1.058881
000070 ac c3 7c 3f 80 c5 86 3f 54 e0 7b 3f b4 c7 84 3f
       0.9873607 1.0529022 0.9838917 1.0373445
000080 93 99 73 3f 12 c4 84 3f 13 7f 8e 3f de 55 54 3f
       0.9515621 1.0372336 1.113253 0.8294352
000090 c2 17 7e 3f 60 07 87 3f 2a 16 74 3f f7 d3 5e 3f
       0.99255 1.0549126 0.9534632 0.8704218
0000a0 8b b2 8f 3f 47 9b 80 3f 5d 0d 75 3f f8 ba 82 3f
       1.1226362 1.0047387 0.95723516 1.0213308
0000b0 7b c6 84 3f 30 47 90 3f ea ad 81 3f 5f 4b 82 3f
       1.0373071 1.1271725 1.0131199 1.0179251
0000c0 0c a7 7e 3f e6 26 84 3f 78 65 82 3f 5a ea 7b 3f
       0.99473643 1.0324371 1.0187216 0.9840447
0000d0 02 37 88 3f 8b f6 87 3f 63 c5 86 3f 99 25 5a 3f
       1.0641787 1.0622114 1.0528988 0.8521362
