DeepHedging_clean/MarketData/trained_models/RNN_BN_simple_AAPL_MSFT.pt (torch, 648083 bytes, 540 tensors)

rnn.0.0.weight f4 [2]
0	0x3f800000	1.0
1	0x3f800000	1.0

rnn.0.0.bias f4 [2]
0	0x3d4944c8	0.04913786
1	0x3d3619db	0.04445825

rnn.0.0.running_mean f4 [2]
0	0x00000000	0.0
1	0x00000000	0.0

rnn.0.0.running_var f4 [2]
0	0x00000002	3e-45
1	0x00000002	3e-45

rnn.0.1.weight f4 [46, 2]
0	0xbe099874	-0.13437063
1	0xbf3344c0	-0.7002678
2	0xbe392593	-0.1808074
3	0x3f2e7c38	0.6815829
4	0x3f235892	0.6380702
5	0xbe283ea6	-0.16430148
6	0xbe88affb	-0.26696762
7	0x3ea3b63b	0.31974968
8	0x3eb0c21e	0.345231
9	0xbf3360f7	-0.7006983
10	0x3f1d40cf	0.61427015
11	0x3f130a84	0.5743792
12	0xbea7531f	-0.32680604
13	0xbe298d1a	-0.16557732
14	0x3ee0baac	0.4389242
15	0x3f0b7f8b	0.5449149
16	0xbef0735a	-0.46963006
17	0x3dcf49b1	0.101214774
18	0xbe98ec1f	-0.29867646
19	0xbe9e47f7	-0.3091428
20	0xbe5fdb17	-0.2186092
21	0xbed0f701	-0.4081345
22	0x3f0da1f6	0.5532526
23	0xbef866e3	-0.48515996
24	0x3f33b43d	0.70196897
25	0xbedcee20	-0.43150425
26	0xbec8727f	-0.39149854
27	0xbe8755ca	-0.2643264
28	0xbf1d101d	-0.6135271
29	0xbe4f8d4f	-0.20268749
30	0xbebe2a98	-0.3714187
31	0x3f13d506	0.5774692
32	0x3eba5924	0.36396134
33	0x3f2dadea	0.67843497
34	0x3f099f29	0.53758484
35	0x3ca230f0	0.019798726
36	0x3e1ca493	0.15297155
37	0xbe7ea87f	-0.24868964
38	0xbe991308	-0.29897332
39	0xbd10fbaa	-0.035396256
40	0xbe831b60	-0.25606823
41	0xbee4a26c	-0.44655168
42	0x3d4cac07	0.049968746
43	0x3ed58fc5	0.4171125
44	0xbf10bd46	-0.5653881
45	0xbf3491ed	-0.70535165
46	0x3f305090	0.6887293
47	0xbe4912fc	-0.19636148
48	0x3f10cd9c	0.56563735
49	0xbf1bd56c	-0.6087253
50	0x3eadadb4	0.33921587
51	0x3cfaa7b2	0.030597541
52	0xbf098445	-0.5371745
53	0xbf069392	-0.52568924
54	0x3ee1ed75	0.44126478
55	0xbe9ff20c	-0.31239355
56	0xbe879b82	-0.2648583
57	0xbececed8	-0.40392184
58	0xbd9cd2d6	-0.07657401
59	0xbda78c3a	-0.08181043
60	0xbf381b83	-0.7191698
61	0xbe4209df	-0.18949078
62	0x3f0d2f9d	0.5515078
63	0xbe5ca06e	-0.21545574
64	0x3e403020	0.18768358
65	0x3d38892b	0.04505269
66	0x3eb64687	0.35600683
67	0x3cb246f8	0.021762356
68	0xbe10aedc	-0.14129204
69	0x3e4b6b4d	0.19865151
70	0xbeee575c	-0.46551025
71	0xbf34bd45	-0.706013
72	0x3e597e1a	0.2123951
73	0xbe18c881	-0.14920236
74	0xbe966f0f	-0.29381606
75	0xbee1d2ae	-0.44106048
76	0x3ee0b7d1	0.4389024
77	0xbf134869	-0.57532364
78	0xbee9ca0f	-0.4566197
79	0xbba1a1d9	-0.004932624
80	0xbeda7616	-0.42668217
81	0x3e75e97c	0.24014848
82	0xbe2152da	-0.15754262
83	0x3db5c61b	0.08875676
84	0xbeae31c0	-0.3402233
85	0x3c024bef	0.007952674
86	0xbd59a97d	-0.053140152
87	0xbef48397	-0.47756645
88	0x3ed71f6a	0.42016155
89	0x3ee400af	0.44531772
90	0x3cc61310	0.024179012
91	0x3e1f2ff0	0.1554563

rnn.0.1.bias f4 [46]
0	0xbe1c0eaa	-0.15239969
1	0xbf0246f4	-0.50889516
2	0xbeac1776	-0.3361165
3	0xbe17751a	-0.14790764
4	0xbe95322b	-0.29139838
5	0xbe8d947e	-0.27652353
6	0x3ec08de0	0.37608242
7	0x3d87feeb	0.066404186
8	0x3f1591b0	0.58425426
9	0xbe2584c6	-0.1616393
10	0xbdd28451	-0.102791436
11	0x3f003585	0.50081664
12	0x3f184596	0.5948118
13	0x3d057e47	0.03259113
14	0x3e3f81af	0.18701814
15	0x3e9ad499	0.30240324
16	0xbe9fdf41	-0.31225017
17	0x3ebd5b94	0.3698393
18	0x3f315258	0.6926627
19	0xbf114f82	-0.56761944
20	0x3eee4aea	0.4654153
21	0x3e52973c	0.20565504
22	0xbe74687d	-0.23867984
23	0x3ef03ff0	0.4692378
24	0x3f1c21cb	0.60989064
25	0x3f3bc2eb	0.73344296
26	0x3e3cda3f	0.1844263
27	0x3e0105f9	0.12599935
28	0xbead6cf1	-0.33872178
29	0xbe260447	-0.16212569
30	0xbcaa29a1	-0.020771803
31	0x3d8ded15	0.069299854
32	0xbe808a3d	-0.25105467
33	0x3a3f1a24	0.0007289967
34	0xbdb7c1ef	-0.08972537
35	0x3ec29cdd	0.38010302
36	0xbed9e804	-0.42559826
37	0xbdb0f545	-0.086405315
38	0xbeb20ea7	-0.34776804
39	0xbe5b84c2	-0.21437362
40	0xbef94677	-0.48686573
41	0x3ef0cb51	0.47030118
42	0x3eefcaf6	0.46834534
43	0x3f09b728	0.537951
44	0x3db00187	0.08594041
45	0xbdb3147c	-0.087441415

rnn.0.2.weight f4 [46]
0	0x3f800000	1.0
1	0x3f800008	1.000001
2	0x3f7ffff8	0.9999995
3	0x3f800002	1.0000002
4	0x3f800000	1.0
5	0x3f7ffffe	0.9999999
6	0x3f7fffff	0.99999994
7	0x3f800000	1.0
8	0x3f7ffffe	0.9999999
9	0x3f800000	1.0
10	0x3f800000	1.0
11	0x3f7fffff	0.99999994
12	0x3f800000	1.0
13	0x3f800000	1.0
14	0x3f800000	1.0
15	0x3f7fffff	0.99999994
16	0x3f800000	1.0
17	0x3f800001	1.0000001
18	0x3f7ffff6	0.9999994
19	0x3f800000	1.0
20	0x3f800001	1.0000001
21	0x3f8000b5	1.0000216
22	0x3f7ffff1	0.9999991
23	0x3f7fffdf	0.99999803
24	0x3f80003c	1.0000072
25	0x3f800015	1.0000025
26	0x3f800000	1.0
27	0x3f7ffffe	0.9999999
28	0x3f800070	1.0000134
29	0x3f800000	1.0
30	0x3f800000	1.0
31	0x3f800000	1.0
32	0x3f80000d	1.0000015
33	0x3f800000	1.0
34	0x3f800000	1.0
35	0x3f7fffdd	0.9999979
36	0x3f7fffe8	0.99999857
37	0x3f7fffff	0.99999994
38	0x3f800001	1.0000001
39	0x3f800000	1.0
40	0x3f8000a4	1.0000196
41	0x3f80000e	1.0000017
42	0x3f800000	1.0
43	0x3f800000	1.0
44	0x3f800000	1.0
45	0x3f800000	1.0

rnn.0.2.bias f4 [46]
0	0xbd1f4f4d	-0.038893986
1	0xbc9a5bf4	-0.018842675
2	0xbd4e2924	-0.050332204
3	0xbd389860	-0.04506719
4	0xbd4a0e71	-0.04933018
5	0xbd31b0d5	-0.04338153
6	0xbd23fa0e	-0.040033393
7	0xbd4941cf	-0.049135026
8	0xbceba9ff	-0.028767584
9	0xbc9f0444	-0.019411214
10	0xbc48cde8	-0.012256123
11	0xbd280fb0	-0.041030586
12	0xbd2d5441	-0.04231668
13	0xbd2a76d5	-0.041617233
14	0xbcddb58d	-0.02706411
15	0xbd212e60	-0.039350867
16	0xbd1f4faf	-0.03889435
17	0xbd370445	-0.044681806
18	0xbd33c55c	-0.04388939
19	0xbce794b0	-0.028269142
20	0xbd3ad20a	-0.045610465
21	0x3e0b9060	0.13629293
22	0x3e338a68	0.17533267
23	0xbd0351f9	-0.032060597
24	0xbc009938	-0.00784903
25	0xbd4c2d88	-0.04984811
26	0xbd24b6a2	-0.040213235
27	0xbd4e77e3	-0.0504073
28	0x3e97d626	0.2965557
29	0xbd185a8f	-0.03719574
30	0xbcb31996	-0.021862786
31	0xbd1525e6	-0.036413096
32	0xbc383776	-0.011243692
33	0xbd421372	-0.047381826
34	0xbbb9e76b	-0.005673339
35	0xbd4108d5	-0.047127564
36	0x3e47e37f	0.19520377
37	0xbd1609e4	-0.036630526
38	0xbd2a8b72	-0.04163689
39	0xbd063982	-0.032769687
40	0x3dc83ce8	0.09777242
41	0xbd01b6fa	-0.03166864
42	0xbca89850	-0.02058044
43	0xbcf86f1d	-0.03032642
44	0xbc1b702e	-0.009487195
45	0xbcf6b79c	-0.030116849

rnn.0.2.running_mean f4 [46]
0	0xbe4252fa	-0.18976966
1	0xbef98942	-0.48737532
2	0xbea03d1e	-0.3129663
3	0xbe1602ab	-0.14649455
4	0xbe9ca251	-0.30592588
5	0xbe632b35	-0.22184451
6	0x3eb4d461	0.35318282
7	0x3de43140	0.11142206
8	0x3f10fbe6	0.56634367
9	0xbe421873	-0.18954639
10	0xbe0668cf	-0.13125919
11	0x3f0177ea	0.505736
12	0x3f1bf40d	0.60919267
13	0x3b12e073	0.0022411614
14	0x3e1861b2	0.14881018
15	0x3e9ed6eb	0.31023344
16	0xbe87a12f	-0.2649016
17	0x3ecaed1c	0.39634025
18	0x3f305f8c	0.6889579
19	0xbf155c11	-0.5834361
20	0x3eddeee9	0.43346336
21	0x3e68a845	0.2272044
22	0xbe97c622	-0.2964335
23	0x3efc9cfd	0.49338523
24	0x3f1c24cc	0.6099365
25	0x3f403f4a	0.7509657
26	0x3e0ad43c	0.13557523
27	0x3e086acb	0.13321988
28	0xbebc95e7	-0.36833116
29	0xbe2d7574	-0.16939336
30	0xbd81e8a3	-0.063432
31	0x3db04133	0.08606186
32	0xbe75e0fe	-0.24011609
33	0x3c98dfa9	0.018661337
34	0xbdb38fab	-0.08767637
35	0x3ea7447c	0.32669437
36	0xbed86004	-0.42260754
37	0xbdf5956c	-0.119913906
38	0xbeb45ee8	-0.35228658
39	0xbe7207c6	-0.23635778
40	0xbefdead1	-0.49593213
41	0x3eeef56e	0.46671623
42	0x3ee7ab62	0.45247942
43	0x3f03a937	0.51430076
44	0x3e00acfb	0.12565987
45	0xbda2a43b	-0.07941481

rnn.0.2.running_var f4 [46]
0	0x26871d08	9.375376e-16
1	0x26ebe666	1.636885e-15
2	0x26ba3a5b	1.292216e-15
3	0x25f6e939	4.2832235e-16
4	0x271e72dd	2.1989172e-15
5	0x26555499	7.401387e-16
6	0x276a7869	3.2539298e-15
7	0x2563ec30	1.9769135e-16
8	0x2783bbb9	3.6563333e-15
9	0x26249f3b	5.711473e-16
10	0x25bd01fe	3.2787624e-16
11	0x263e79d4	6.60846e-16
12	0x27b0afde	4.904049e-15
13	0x1fe6114b	9.74374e-20
14	0x25d559ad	3.7010377e-16
15	0x26ac3d40	1.1951499e-15
16	0x263c2aa0	6.528337e-16
17	0x27216093	2.2395591e-15
18	0x2807a2c3	7.529299e-15
19	0x271373be	2.0463092e-15
20	0x278fb209	3.98835e-15
21	0x2616a771	5.226863e-16
22	0x265c8aba	7.651584e-16
23	0x276ad358	3.2588593e-15
24	0x27661932	3.193257e-15
25	0x285b4bad	1.2173352e-14
26	0x251152fc	1.2604861e-16
27	0x24e72da9	1.0025763e-16
28	0x27956d60	4.1474392e-15
29	0x2612e341	5.096191e-16
30	0x2478770b	5.387726e-17
31	0x2581afdb	2.2497097e-16
32	0x25e09d42	3.8964368e-16
33	0x22a8b040	4.5723103e-18
34	0x25902cd2	2.501039e-16
35	0x26d51407	1.4785272e-15
36	0x26d1ed9a	1.456669e-15
37	0x25a4f9ee	2.8618824e-16
38	0x272ddf70	2.4129699e-15
39	0x25adf5e3	3.0177335e-16
40	0x2695f747	1.0405977e-15
41	0x27b1bb7e	4.933065e-15
42	0x2709a6f5	1.9103077e-15
43	0x278566e2	3.702646e-15
44	0x258ea5df	2.4745472e-16
45	0x24cdd9fb	8.927385e-17

rnn.0.4.weight f4 [64, 46]
0	0xbdb14718	-0.08656138
1	0x3dba16d1	0.09086383
2	0xbd4d89d9	-0.05018029
3	0xbd10d707	-0.035361316
4	0x3d6f318c	0.05839686
5	0x3d793773	0.060843896
6	0x3de829ef	0.11336123
7	0xbe08f29e	-0.13373801
8	0x3dedaffd	0.11605833
9	0x3dd8d7fd	0.105880715
10	0x3e1d4131	0.153569
11	0x3dfc9b44	0.12334302
12	0x3dd2d7f3	0.10295095
13	0xbd955de6	-0.072933
14	0x3e037663	0.1283813
15	0x3e02ce23	0.12773947
16	0xbe00ac57	-0.12565742
17	0x3ddd72ab	0.10812887
18	0x3dc304c7	0.095223956
19	0x3db008a8	0.08595401
20	0xbdb45d62	-0.08806874
21	0xbda08b36	-0.078390524
22	0xbe7ec42b	-0.2487952
23	0x3cd623ef	0.026140181
24	0xbc087d99	-0.008330726
25	0xbde80e56	-0.11330859
26	0x3e082537	0.13295446
27	0xbde45a7c	-0.11150071
28	0x3e2cfb7f	0.16892813
29	0x3d816043	0.063171886
30	0xbd9c3d1c	-0.07628843
31	0x3ded3830	0.115829825
32	0x3de158d0	0.11003268
33	0x3df13587	0.11777788
34	0x3e0d6806	0.13809213
35	0xbd65efef	-0.05613702
36	0x3eb39455	0.35074106
37	0xbe8fa61c	-0.2805642
38	0x3e00b21d	0.12567945
39	0x3d411c6d	0.04714625
40	0x3c14fb3b	0.009093101
41	0x3dc423e5	0.09577159
42	0xbd662e9e	-0.0561968
43	0x3ceeed19	0.029165791
44	0xbd3341f3	-0.043764066
45	0xbe14dd49	-0.14537539
46	0xbd8a0d0b	-0.06740769
47	0xbd4f7cea	-0.050656237
48	0x3cd42c46	0.025900017
49	0xbdc2e7bb	-0.09516855
50	0xbd94b99b	-0.07261964
51	0x3ddf2ad8	0.10896844
52	0x3d025075	0.03181501
53	0x3c049c7b	0.0080939485
54	0xbdc13d06	-0.094354674
55	0x3dfe5430	0.12418401
56	0xbdd58caa	-0.1042722
57	0x3d507a74	0.05089803
58	0x3c895a53	0.016766703
59	0x3ded9b9c	0.11601946
60	0x3caae0ff	0.02085924
61	0xbdbe3a4a	-0.092884615
62	0xbdc27387	-0.09494691
63	0x3e02ddeb	0.12779967
64	0xbd2f9fa4	-0.042876855
65	0xbcf675fd	-0.030085558
66	0xbd840dbe	-0.064479336
67	0x3c9f0d00	0.019415379
68	0xbcb7a5ee	-0.022417989
69	0x3d9b6e3a	0.075893834
70	0x3e1223c7	0.1427146
71	0xbdda9562	-0.10673024
72	0x3d71713c	0.05894588
73	0x3df940fc	0.12170598
74	0xbbf3a58d	-0.0074355067
75	0xbcc0866b	-0.023501595
76	0xbc829847	-0.015941752
77	0x3df08c1c	0.11745474
78	0x3d3244bb	0.043522578
79	0xbe037888	-0.12838948
80	0x3d194baf	0.037425693
81	0x3b878ab2	0.004136407
82	0xbd674530	-0.056462467
83	0x3d145590	0.03621441
84	0xbd9c8630	-0.07642782
85	0xbdf7cf32	-0.12100066
86	0x3cd5c54b	0.026095053
87	0x3d6e9204	0.05824472
88	0xbe06c199	-0.13159789
89	0xbcbfe040	-0.02342236
90	0x3cad9de2	0.021193448
91	0xbdbded13	-0.09273734
92	0x3d946a37	0.072468214
93	0x3d6aedbb	0.057355624
94	0x3d2400d9	0.04003987
95	0xbb7b73e5	-0.003836864
96	0x3dd4776a	0.10374339
97	0xbdb0bbfe	-0.08629607
98	0x3ccd6f54	0.0250775
99	0xbde235fb	-0.11045452
100	0x3e0eed0c	0.13957614
101	0xbdf4a0c2	-0.119447246
102	0x3d4752e1	0.048663024
103	0xbd15ebbd	-0.03660177
104	0x3d340dbf	0.04395842
105	0x3e12ddb0	0.1434238
106	0xbdcde0ff	-0.1005268
107	0x3db09940	0.0862298
108	0xbd8ee2d2	-0.06976856
109	0xbd9c8578	-0.07642645
110	0xbd3ae783	-0.045630943
111	0xbe168471	-0.1469896
112	0x3dc80bbe	0.09767865
113	0xbdee9d22	-0.116510645
114	0x3d17dcd5	0.037075836
115	0x3d802aa1	0.06258131
116	0x3ce93e44	0.028472073
117	0xbe0b3e03	-0.13597874
118	0xbd48659e	-0.048925035
119	0x3d6bd243	0.057573568
120	0xbd8b70d9	-0.06808633
121	0x3c7b0ed5	0.01532336
122	0x3d8a4f20	0.06753373
123	0xbe0b5441	-0.13606359
124	0xbd836a7c	-0.06416795
125	0xbb1f7153	-0.002432902
126	0x3c6b27f6	0.014352789
127	0xbcd55a37	-0.026043994
128	0x3b43038d	0.0029756755
129	0x3d753a7f	0.05987024
130	0x3dc1e9b0	0.094684005
131	0xbcf2e7a5	-0.029651472
132	0x3d894e8a	0.06704433
133	0xbdbbe823	-0.09175136
134	0xbde8af66	-0.113615796
135	0x3cc56e4a	0.024100441
136	0x3d2c4093	0.04205377
137	0x3d113669	0.03545228
138	0x3cf39653	0.029734766
139	0x3e139e06	0.1441575
140	0x3dde4caa	0.10854466
141	0x3d5a65ad	0.05331962
142	0x3d1b1135	0.037858207
143	0x3d966625	0.07343701
144	0xbdb3cca2	-0.08779265
145	0x3d195cd2	0.037442036
146	0xbd2975a5	-0.04137196
147	0x3e0bf7d1	0.13668753
148	0xbdb36eec	-0.08761391
149	0x3bb6b6b8	0.005575981
150	0xbe0d63da	-0.13807622
151	0x3d5bcfdc	0.053665027
152	0xbdc70b28	-0.09718925
153	0xbd8032cf	-0.06259691
154	0x3e10910a	0.14117828
155	0xbc876101	-0.016525747
156	0xbc3662f6	-0.011131993
157	0xbe046214	-0.12928039
158	0x3da07a4a	0.07835825
159	0xbde89840	-0.113571644
160	0xbde011e8	-0.10940915
161	0xbd7219d2	-0.059106655
162	0x3caf0d84	0.02136875
163	0xbd849782	-0.0647421
164	0xbdaabff3	-0.08337393
165	0x3dbdc8b0	0.09266794
166	0xbd3ac854	-0.045601204
167	0xbdb9e07c	-0.0907602
168	0x3d8676a1	0.065655954
169	0xbd163c9a	-0.036678888
170	0x3e0da44a	0.13832203
171	0x3dffe64c	0.124950975
172	0xbcbab82a	-0.022792894
173	0x3cf46b61	0.029836359
174	0x3cf6aba8	0.030111149
175	0x3d0c34d2	0.03423006
176	0x3dff0103	0.12451365
177	0xbcb964b8	-0.022631034
178	0x3da44447	0.08020835
179	0xbdc64a2c	-0.09682116
180	0x3e077bda	0.1323084
181	0xbddc7ac5	-0.10765604
182	0x3c814b10	0.015782863
183	0x3d4009b8	0.04688427
184	0x3d86173e	0.06547402
185	0x3cc59c16	0.02412228
186	0x3df7c753	0.12098565
187	0x3e10fa55	0.14157994
188	0x3e0e6d3d	0.13908859
189	0x3df63d84	0.12023452
190	0x3da6ca35	0.08144037
191	0xbdc862cc	-0.09784469
192	0xbdbca28d	-0.092106916
193	0x3d400ab5	0.04688521
194	0xbdc5b3e0	-0.09653449
195	0xbd613420	-0.05498135
196	0x3cd50337	0.02600251
197	0x3ddebd24	0.108759195
198	0xbde51ef2	-0.11187543
199	0x3da11b96	0.0786659
200	0xbe07ad08	-0.132496
201	0xbd894f9b	-0.06704637
202	0x3dc0ba1f	0.094105
203	0xbda39c81	-0.07988835
204	0xbd94123b	-0.0723004
205	0xbd781931	-0.0605709
206	0xbd621a44	-0.05520083
207	0x3d34b073	0.044113588
208	0x3e205962	0.15659097
209	0x3dd0f6ff	0.10203361
210	0xbdf4069f	-0.119153254
211	0xbd6eb36e	-0.058276586
212	0x3d1c8205	0.038209934
213	0xbd392cbf	-0.04520869
214	0x3dcb5b5e	0.09929536
215	0x3dfa1fee	0.12213121
216	0x3e2047bf	0.15652369
217	0xbd21c48a	-0.039494075
218	0x3d80623a	0.06268735
219	0xbd07d4f8	-0.033162087
220	0xbded1643	-0.11576512
221	0xbd8eb2ed	-0.06967721
222	0xbdba0383	-0.09082701
223	0x3dc50ed2	0.096219674
224	0xbe84e38c	-0.25954854
225	0x3d927c19	0.07152576
226	0x3e127729	0.14303268
227	0xbe119ab1	-0.14219166
228	0xbc51ec40	-0.012812674
229	0x3ca6da79	0.020367848
230	0x3da69b1c	0.081350535
231	0xbd7a678c	-0.061133906
232	0xbdc16785	-0.09443573
233	0xbde65cf7	-0.112482004
234	0xbd9208f4	-0.07130614
235	0xbe001d39	-0.12511148
236	0x3e0c5117	0.13702808
237	0xbde4ecfe	-0.11178015
238	0xbe0d297d	-0.13785358
239	0xbd8e6411	-0.0695268
240	0xbe00f550	-0.1259358
241	0x3ceeab26	0.029134344
242	0xbdfee7f2	-0.12446584
243	0xbe0aefb9	-0.1356801
244	0x3e0d4f59	0.137998
245	0xbe04a5aa	-0.12953821
246	0x3da5d42d	0.0809711
247	0x3cc3fbc6	0.023923766
248	0xbe14d017	-0.14532505
249	0xbd90735c	-0.07053253
250	0x3e010dd7	0.12602936
251	0xbd8ac7ac	-0.06776366
252	0xbd181a5f	-0.037134524
253	0x3d3fccfa	0.04682634
254	0xbd15d29e	-0.036577813
255	0x3d8e6394	0.06952587

rnn.0.4.bias f4 [64]
0	0x3eb18a47	0.3467581
1	0x3cecdf9e	0.028915223
2	0x3e3ca0c1	0.18420698
3	0x3d302f31	0.043013755
4	0x3d57b8cb	0.052666467
5	0x3e17823e	0.14795777
6	0x3d2e08a1	0.042488698
7	0xbe09c5ca	-0.13454357
8	0x3d307e42	0.04308916
9	0xbdf0db28	-0.11760551
10	0xbded04b6	-0.11573164
11	0xbcf0559d	-0.029337699
12	0xbad5ca0a	-0.0016310823
13	0x3d981321	0.074255235
14	0xbdedf26a	-0.116185024
15	0x3de1705e	0.110077605
16	0x3dcf238a	0.101142004
17	0xbdadbf95	-0.08483807
18	0xbc92db42	-0.017926816
19	0xbd985fc7	-0.07440143
20	0x3d7ccd9a	0.061719514
21	0xbd52c2d1	-0.051455323
22	0x3d587092	0.05284173
23	0xbd492870	-0.04911083
24	0xbe139f4f	-0.1441624
25	0x3e1fe63b	0.1561517
26	0x3e06fa57	0.13181435
27	0xbc96edff	-0.018424032
28	0x3ed7f268	0.4217713
29	0xbd8b7308	-0.0680905
30	0x3cb236ef	0.02175471
31	0x3e461684	0.19344527
32	0x3ceec889	0.029148357
33	0xbd2c03f5	-0.04199596
34	0xbc4cf31a	-0.012509132
35	0x3dd1efed	0.1025084
36	0x3ddb43ae	0.10706268
37	0x3d3261f9	0.043550465
38	0x3db06846	0.086136386
39	0x3d1e112d	0.0385906
40	0xbdb42fb4	-0.08798161
41	0x3e132a4d	0.14371605
42	0xbc6f3042	-0.014598908
43	0xbd75685c	-0.059913978
44	0xbdd2818e	-0.10278617
45	0xbd6eeeba	-0.058333136
46	0x3e044109	0.12915434
47	0x3df7321b	0.12070104
48	0x3b641ae6	0.0034806072
49	0xbdfb66bd	-0.12275455
50	0x3c0c1219	0.008549237
51	0x3d81fa72	0.06346597
52	0x3e62117e	0.22076985
53	0x3dc4fa74	0.09618083
54	0xbf12353c	-0.5711248
55	0x3e006483	0.12538342
56	0x3d2d578c	0.04231982
57	0xbdf4d137	-0.11953967
58	0xbd2911c2	-0.0412767
59	0xbd8a6935	-0.06758348
60	0xbb73fb77	-0.0037228742
61	0xbe16f049	-0.14740099
62	0x3e23b2b6	0.15986142
63	0x3d9275e1	0.0715139

rnn.0.5.weight f4 [64]
0	0x3efd0d75	0.4942433
1	0x3f7ad7e8	0.97985697
2	0x3f768232	0.9629241
3	0x3f77e00d	0.9682625
4	0x3f82d43e	1.0221021
5	0x3f7cbe33	0.9872772
6	0x3f7c0c6e	0.98456466
7	0x3f833547	1.0250634
8	0x3f7f5a78	0.9974742
9	0x3f7e8ec7	0.9943661
10	0x3f83c7f0	1.0295391
11	0x3f815f67	1.010724
12	0x3f7f1d82	0.996544
13	0x3f74c664	0.9561522
14	0x3f7e8104	0.9941561
15	0x3f7c4888	0.98548174
16	0x3f784c18	0.9699111
17	0x3f871269	1.0552493
18	0x3f78321e	0.9695147
19	0x3f7d5234	0.98953557
20	0x3f8305cc	1.0236144
21	0x3f85600a	1.0419934
22	0x3f7fa383	0.99858874
23	0x3f859b21	1.0437967
24	0x3f7e2cc2	0.99287045
25	0x3f7a839f	0.9785709
26	0x3f7f1d17	0.9965376
27	0x3f7720e8	0.96534586
28	0x3f7ec6a6	0.99521863
29	0x3f9a9ead	1.2079674
30	0x3f777fc3	0.96679324
31	0x3f844bf1	1.0335675
32	0x3f7f5309	0.99736077
33	0x3f7d3c64	0.98920274
34	0x3f82a049	1.0205165
35	0x3f86ef95	1.0541865
36	0x3f75a05a	0.959478
37	0x3f7cad19	0.98701626
38	0x3f7574f7	0.958816
39	0x3f7fc1fe	0.99905384
40	0x3f97d432	1.1861632
41	0x3f7e0d42	0.9923898
42	0x3f84e69c	1.0382876
43	0x3f7fc722	0.9991323
44	0x3f83d05c	1.0297961
45	0x3f806ba6	1.0032852
46	0x3f7bd00c	0.9836433
47	0x3f8227f0	1.0168438
48	0x3f81577b	1.0104822
49	0x3f74c117	0.9560713
50	0x3f758da6	0.95919263
51	0x3f81f71b	1.0153536
52	0x3f85c3b0	1.0450344
53	0x3f7723e6	0.9653915
54	0x3fbe133c	1.484962
55	0x3f77d421	0.9680806
56	0x3f765de3	0.9623701
57	0x3f7797de	0.96716106
58	0x3f7ae4ad	0.9800518
59	0x3f808fea	1.0043919
60	0x3f7cbefa	0.9872891
61	0x3f819d33	1.0126098
62	0x3f891425	1.0709273
63	0x3f7a91dc	0.97878814

rnn.0.5.bias f4 [64]
0	0x3e9582aa	0.2920125
1	0xbd53b82e	-0.05168932
2	0xbd53b82d	-0.051689316
3	0xbd53b82d	-0.051689316
4	0xbc686afd	-0.014185664
5	0xbcace9d0	-0.021107584
6	0xbd43f971	-0.047845308
7	0xbc7bc51f	-0.015366822
8	0xbd43f976	-0.047845326
9	0xbd43f962	-0.04784525
10	0xbc107d13	-0.0088188825
11	0xbd1e9daa	-0.03872458
12	0xbd43f973	-0.047845315
13	0xbd53b82d	-0.051689316
14	0xbd53b827	-0.051689293
15	0xbd53b82d	-0.051689316
16	0xbd53b82e	-0.05168932
17	0xbd4208cb	-0.047371667
18	0xbd43f976	-0.047845326
19	0xbd36e30e	-0.04465013
20	0xbc2db352	-0.010601835
21	0xbd05564d	-0.032553006
22	0xbd34b91f	-0.044121858
23	0xbc62d4e8	-0.013844706
24	0xbd2c0b38	-0.042002887
25	0xbd53b82d	-0.051689316
26	0xbd53b805	-0.051689167
27	0xbd43f975	-0.047845323
28	0x3e4d0d3c	0.2002458
29	0x3e37c281	0.17945291
30	0xbd53b82e	-0.05168932
31	0xbcb6492f	-0.022251694
32	0xbd34e52e	-0.044163875
33	0xbd53b82e	-0.05168932
34	0xbca8f1f3	-0.020623183
35	0xbc7ffaf3	-0.015623796
36	0xbd53b82e	-0.05168932
37	0xbd3442e1	-0.044009093
38	0xbd53b82f	-0.051689323
39	0xbcbd1439	-0.023080932
40	0x3e75ce69	0.2400452
41	0xbd53b80e	-0.0516892
42	0xbc1d320d	-0.009594453
43	0xbd3c8164	-0.046021834
44	0xbd1da4bc	-0.03848718
45	0xbc95ebbd	-0.018300885
46	0xbc72f953	-0.014829951
47	0xbc2e79b5	-0.010649134
48	0xbc5fa2b1	-0.0136496285
49	0xbc827440	-0.015924573
50	0xbd113d02	-0.035458572
51	0xbd11120d	-0.035417605
52	0xbd077df8	-0.033079118
53	0xbd345d53	-0.044034313
54	0x3e14cdd9	0.1453165
55	0xbd53b82e	-0.05168932
56	0xbd53b82e	-0.05168932
57	0xbd43f975	-0.047845323
58	0xbd53b82d	-0.051689316
59	0xbd462cb3	-0.048382472
60	0xbd53b829	-0.0516893
61	0xbc919e8f	-0.017775802
62	0xbd3e1aa9	-0.046412144
63	0xbd3855fc	-0.045003876

rnn.0.5.running_mean f4 [64]
0	0x3ed27eb2	0.41112286
1	0x3c89aaf6	0.016805153
2	0x3e25d0df	0.16192959
3	0x3c0c0383	0.008545759
4	0xbb269893	-0.0025420531
5	0x3e1e561d	0.15462537
6	0x3d657043	0.056015264
7	0xbe2a703b	-0.16644375
8	0x3d83b45d	0.06430886
9	0xbe19bade	-0.1501269
10	0xbd208df9	-0.039197896
11	0xbce9494f	-0.02847734
12	0xbd3bde3b	-0.045866232
13	0x3e0d80e2	0.13818696
14	0xbdc431cd	-0.09579811
15	0x3e0595a9	0.13045372
16	0x3da0665a	0.07832022
17	0xbd62ffd4	-0.055419758
18	0xbda81107	-0.08206373
19	0xbd9d7717	-0.0768873
20	0x3dda4f6b	0.10659679
21	0xbd363d38	-0.044491976
22	0x3d51a1fd	0.051179875
23	0xbccaf32f	-0.024774162
24	0xbe0028b6	-0.1251553
25	0x3dc3a8f4	0.095537096
26	0x3dc947bd	0.09828136
27	0xbd0f1d77	-0.03494021
28	0x3e7001e8	0.23438227
29	0xbc792220	-0.01520589
30	0xbad57435	-0.0016285243
31	0x3e5392e2	0.206615
32	0x3d396655	0.045263607
33	0x3aa8f3ea	0.0012890075
34	0x3b27b545	0.0025590223
35	0x3d388a09	0.045053516
36	0x3ddb8aa5	0.10719804
37	0x3daa4f41	0.08315898
38	0x3dc476de	0.095929846
39	0x3d241331	0.040057365
40	0xbd1e9bde	-0.038722865
41	0x3e5df6cd	0.21676178
42	0xbe02eca6	-0.12785587
43	0xbddf837f	-0.10913753
44	0xbe1932db	-0.14960806
45	0xbccf898f	-0.025334148
46	0x3d9f7016	0.077850506
47	0x3e0bc911	0.1365092
48	0xbc17494c	-0.009233784
49	0xbe1d646e	-0.15370342
50	0x3d2db9d2	0.04241354
51	0x3db7e08c	0.08978376
52	0x3e8791fd	0.26478568
53	0x3d9ecd3d	0.0775399
54	0xbf2a1c6b	-0.6644961
55	0x3e13fd0f	0.14452003
56	0x3e00aeef	0.12566732
57	0xbde64800	-0.11244202
58	0x3d28191a	0.041039564
59	0xbdc0122f	-0.09378468
60	0xbd17831c	-0.03699027
61	0xbe26855a	-0.16261807
62	0x3de36fb9	0.11105294
63	0x3d464c78	0.04841277

rnn.0.5.running_var f4 [64]
0	0x2763a935	3.1594306e-15
1	0x22ca18c9	5.477845e-18
2	0x25bc67d0	3.2683147e-16
3	0x2121dec1	5.4843734e-19
4	0x200ce20f	1.1933258e-19
5	0x255e6555	1.9289763e-16
6	0x24a5d9b0	7.192612e-17
7	0x2639b6f0	6.4432695e-16
8	0x23c949c8	2.1823711e-17
9	0x2588ca90	2.37295e-16
10	0x239bf495	1.6908718e-17
11	0x23cffbca	2.2549622e-17
12	0x24819d57	5.6211376e-17
13	0x2533e7fd	1.5604376e-16
14	0x24ed9431	1.0303341e-16
15	0x2577d3ba	2.1495571e-16
16	0x24ef9f3c	1.0391948e-16
17	0x244135c2	4.189574e-17
18	0x24576ea4	4.671441e-17
19	0x24e41bb1	9.892615e-17
20	0x2541d3c4	1.681183e-16
21	0x242c912c	3.741952e-17
22	0x2423888f	3.546066e-17
23	0x23586ce7	1.17324444e-17
24	0x2538d095	1.6030126e-16
25	0x2592a80f	2.5440844e-16
26	0x254c8984	1.7740772e-16
27	0x23898c1c	1.4912908e-17
28	0x264e4e57	7.157678e-16
29	0x2275bc6e	3.3303445e-18
30	0x1f7ce51f	5.35526e-20
31	0x25feb754	4.4186204e-16
32	0x23a46ca4	1.7826927e-17
33	0x1f188d34	3.2304052e-20
34	0x1ff2f151	1.0289021e-19
35	0x24093232	2.9749657e-17
36	0x24e88868	1.0084504e-16
37	0x251bc45b	1.3510635e-16
38	0x252d5a1e	1.5035891e-16
39	0x23812b21	1.4004474e-17
40	0x24231356	3.536137e-17
41	0x26208687	5.569347e-16
42	0x2587aac6	2.3534488e-16
43	0x24b51a8f	7.854123e-17
44	0x2581884b	2.2470289e-16
45	0x23b999f7	2.0122947e-17
46	0x2560a1fa	1.9483783e-16
47	0x25250516	1.4313192e-16
48	0x219214ec	9.898883e-19
49	0x25cb762e	3.5294968e-16
50	0x242ac57c	3.703015e-17
51	0x24cb4b6f	8.8165006e-17
52	0x265e547a	7.713621e-16
53	0x24a3acf0	7.098295e-17
54	0x27fc6fb5	7.0065164e-15
55	0x258f5a5a	2.486777e-16
56	0x25552088	1.8485827e-16
57	0x252c9d98	1.4972017e-16
58	0x236df7e8	1.2900292e-17
59	0x25385b4d	1.599039e-16
60	0x232b7eb0	9.296756e-18
61	0x25af2981	3.0385785e-16
62	0x2549cc7f	1.7503257e-16
63	0x243442d7	3.9087894e-17

rnn.0.7.weight f4 [2, 64]
0	0x3ebc23b4	0.3674599
1	0x3cb6be3c	0.022307508
2	0x3d15fae4	0.03661622
3	0xbc394bf1	-0.01130961
4	0xbcc05ffd	-0.02348327
5	0xbbd4cff3	-0.006494516
6	0x3d4b4342	0.04962469
7	0xbd8da1d9	-0.069156356
8	0x3d049172	0.03236527
9	0xbcb6f60d	-0.022334123
10	0x3bd954cb	0.0066324226
11	0xbda1ee2a	-0.07906754
12	0xbc9b8d09	-0.01898815
13	0x3cb75404	0.022378929
14	0xbc8ddd88	-0.017317548
15	0x3cbf8790	0.02338007
16	0x3c81603d	0.01579296
17	0xbb796c29	-0.0038058853
18	0x3c6e4759	0.014543378
19	0x3db1e207	0.086856894
20	0xbc356ed9	-0.011073791
21	0x3c520962	0.01281962
22	0xbc563038	-0.01307302
23	0xbcd97ca6	-0.026548695
24	0x3d8818cf	0.06645357
25	0xbcab3802	-0.02090073
26	0xbd8df92d	-0.06932292
27	0x3c3ffe55	0.011718352
28	0x3eac10b3	0.3360649
29	0x3e932ae1	0.28743652
30	0x3c87d37d	0.016580338
31	0xbd538bc3	-0.05164696
32	0xbdcaaf82	-0.09896757
33	0x3d9ecf03	0.07754328
34	0xbd0298ad	-0.031883884
35	0xbd099336	-0.033587657
36	0x3c81f0bf	0.015861867
37	0xbd4f579d	-0.050620664
38	0x3d794e3c	0.060865626
39	0xbda16735	-0.07881013
40	0x3ec75048	0.38928437
41	0xbd982b42	-0.07430126
42	0xbba1846d	-0.0049291165
43	0xbd89c1ce	-0.067264184
44	0x3d91623b	0.07098814
45	0x3b78760a	0.0037912154
46	0xbdce3cc3	-0.10070183
47	0xbc31e750	-0.010858372
48	0xbcb10acf	-0.0216116
49	0xbc5d13e3	-0.013493511
50	0xbc468608	-0.0121169165
51	0xbd2eea46	-0.04270389
52	0xbcce99ee	-0.025219884
53	0x3b502bbe	0.0031764354
54	0x3e89ab35	0.26888433
55	0x3ce603f6	0.02807806
56	0x3d7801d3	0.060548615
57	0x3c3a0dd1	0.011355833
58	0x3d2fca41	0.042917494
59	0xbd94617f	-0.072451584
60	0xbce104db	-0.027468136
61	0x3a1a6ab4	0.0005890534
62	0xbda7bc6e	-0.08190237
63	0xbcba6f8e	-0.022758272
64	0x3d6cabc5	0.057781
65	0xbc9a2909	-0.018818395
66	0x3d2708a7	0.040779736
67	0xbbc1f0c6	-0.005918595
68	0xbd89a3a7	-0.06720667
69	0xbd3a652e	-0.04550665
70	0xbe1d2648	-0.15346634
71	0xbcbdc00d	-0.023162866
72	0xbc506025	-0.012718235
73	0xbd8f3de1	-0.06994224
74	0xbcbe2b10	-0.023213893
75	0x3ddfa05e	0.109192595
76	0xbcb63005	-0.022239694
77	0x3cd0fcff	0.025511263
78	0x3dfb3b83	0.1226721
79	0x3e0120d2	0.12610176
80	0x3d716ba3	0.05894054
81	0xbba21c20	-0.0049472004
82	0x3d807654	0.06272569
83	0xbce60617	-0.028079076
84	0xbd284b31	-0.041087333
85	0xbccfc710	-0.025363475
86	0x3c16e9b2	0.009210991
87	0xbced266a	-0.028948981
88	0xbc8161a3	-0.015793627
89	0xbc789529	-0.015172281
90	0xbcf5dc37	-0.030012233
91	0x3c8a63a9	0.016893225
92	0xbcc1d20d	-0.02365973
93	0xbcda7643	-0.02666772
94	0x3d9031b0	0.07040727
95	0x3c0f5594	0.008748431
96	0xbd854cf3	-0.065088175
97	0xbc2b5bdc	-0.010458913
98	0xbd62c6b5	-0.055365283
99	0xbcface1c	-0.030615859
100	0xbca0b38a	-0.01961686
101	0xbc6481b5	-0.01394694
102	0xbd67e9f0	-0.056619585
103	0x3d930287	0.071782164
104	0xbd68c93d	-0.05683254
105	0xbd4277d8	-0.047477573
106	0xbd90b5b6	-0.070659086
107	0x3d3b987a	0.04579971
108	0x3d30a2d8	0.04312405
109	0x3aa9aa96	0.0012944515
110	0x3d93cd1f	0.07216858
111	0xbd2630c2	-0.040573843
112	0x3e1ef9c5	0.15524967
113	0xbcfb10f8	-0.03064774
114	0xbca40758	-0.020023033
115	0x3dad65ff	0.0846672
116	0x3c5877d7	0.013212166
117	0xbbaa9dcf	-0.0052068005
118	0xbdb3445a	-0.087532714
119	0xbda484cb	-0.08033141
120	0x3ded5ba0	0.11589742
121	0xbd4249c8	-0.047433645
122	0x3d9b2be4	0.07576731
123	0x3d0612c6	0.032732747
124	0x3d9df5e4	0.077129155
125	0xbd7a75be	-0.061147444
126	0x3d2b1e86	0.041777156
127	0x3d8ea774	0.06965533

rnn.0.7.bias f4 [2]
0	0x3d88dd0a	0.06682785
1	0xbd3b0ac4	-0.045664564

rnn.1.0.weight f4 [2]
0	0x3f5f24f3	0.87165755
1	0x3f8d2ae7	1.1028718

rnn.1.0.bias f4 [2]
0	0xbead715c	-0.3387555
1	0xbdcf2944	-0.10115293

rnn.1.0.running_mean f4 [2]
0	0x3aad4e0e	0.0013222115
1	0x3ab4e99e	0.0013802534

rnn.1.0.running_var f4 [2]
0	0x399f86b3	0.00030427202
1	0x399485f1	0.00028328554

rnn.1.1.weight f4 [46, 2]
0	0x3e1b05c1	0.15138914
1	0x3debb2aa	0.11508687
2	0xbf405790	-0.7513361
3	0x3f16d9b3	0.5892593
4	0x3d36e26f	0.044649538
5	0x3f3fe335	0.74956065
6	0xbe8fc661	-0.2808104
7	0xbe0272c5	-0.12739094
8	0x3eeb11a4	0.45911896
9	0xbe498d55	-0.1968282
10	0xbf2a8092	-0.6660243
11	0x3f1d984e	0.61560524
12	0x3eed4e59	0.46348837
13	0x3f43c3da	0.7647072
14	0x3d069bd0	0.032863438
15	0x3f0a7e3e	0.5409888
16	0x3d3b8441	0.045780424
17	0x3e7fdb08	0.24985898
18	0x3ee3c5b2	0.44486767
19	0x3cda483d	0.026645774
20	0x3e6f4471	0.23365952
21	0x3ecba934	0.3977753
22	0xbeeebdc3	-0.46629152
23	0x3e9e8d5c	0.30967224
24	0x3e9f0427	0.31057855
25	0x3d995040	0.074860096
26	0x3e67babf	0.22629832
27	0xbf04ad53	-0.5182697
28	0xbedce684	-0.4314462
29	0xbe82b065	-0.25525203
30	0xbf00282a	-0.50061285
31	0x3c53ddce	0.0129313
32	0x3e50ff41	0.20409872
33	0x3f17e3a9	0.59331757
34	0xbe0620d3	-0.13098459
35	0x3f021d08	0.5082555
36	0x3f399df6	0.72506654
37	0x3e8d2729	0.2756894
38	0x3ed0f2b6	0.40810174
39	0xbeff97b3	-0.49920425
40	0x3ed78b2b	0.42098364
41	0x3f2abadc	0.66691375
42	0x3d732958	0.0593656
43	0xbee87ab1	-0.45406106
44	0x3ed89e87	0.42308447
45	0x3f13fd46	0.5780834
46	0x3df8b17b	0.12143227
47	0x3f49d493	0.7883999
48	0x3dd37470	0.10324943
49	0x3f384088	0.71973467
50	0x3e225ff6	0.15856919
51	0x3ebad001	0.3648682
52	0x3d875354	0.066076905
53	0x3e8e4ea1	0.27794364
54	0xbe21bcef	-0.15794729
55	0xbe5bf815	-0.21481355
56	0x3b8f1dd6	0.0043675704
57	0x3f1db0fb	0.61598176
58	0x3f02fc84	0.5116656
59	0x3ef4a485	0.47781768
60	0x3f0ec805	0.55773956
61	0x3f04eb44	0.51921487
62	0x3f07f1c7	0.531033
63	0xbea74d55	-0.32676187
64	0x3f129e76	0.5727304
65	0x3e15ca30	0.1462791
66	0xbf134648	-0.57529116
67	0xbeb9a65c	-0.36259735
68	0xbe130462	-0.1435714
69	0xbf115f43	-0.5678598
70	0x3e7ab94f	0.24484752
71	0xbf05954c	-0.52180934
72	0xbd52ec08	-0.05149463
73	0xbf58a3e8	-0.846251
74	0xbec936cb	-0.39299616
75	0x3f102cc8	0.5631833
76	0xbe2ae11a	-0.16687432
77	0xbe8fb27d	-0.28065863
78	0x3f05aafa	0.52214015
79	0x3f0fe855	0.56213886
80	0x3ac6679a	0.0015137077
81	0xbf0bce61	-0.54611784
82	0x3ea1d95c	0.31611145
83	0x3e7cf16b	0.24701469
84	0x3e4c5598	0.19954526
85	0xbf329aad	-0.69767267
86	0xbee378de	-0.44428152
87	0x3f2eb884	0.682503
88	0xbe68cbcc	-0.22733992
89	0x3d547130	0.051865757
90	0x3f043406	0.5164188
91	0x3f144514	0.57917905

rnn.1.1.bias f4 [46]
0	0x3f3c1231	0.7346526
1	0xbe2e3701	-0.1701317
2	0x3efd9554	0.4952799
3	0x3c589704	0.013219599
4	0xbcf854e4	-0.030313917
5	0x3dcca15c	0.09991714
6	0xbebe1137	-0.3712251
7	0x3e4b1236	0.19831166
8	0xbef36130	-0.47535086
9	0x3ec4c665	0.38432613
10	0xbe8aa7e4	-0.27081215
11	0xbea28e11	-0.31749013
12	0x3d869675	0.06571666
13	0xbf13d184	-0.5774157
14	0xbf49c3f8	-0.7881465
15	0x3e9659eb	0.29365477
16	0x3e801222	0.25013834
17	0x3d418bf5	0.047252614
18	0x3f1e8841	0.61926657
19	0xbebb9a89	-0.36641338
20	0xbe57ffe0	-0.21093702
21	0x3ee504dc	0.4473027
22	0xbe83cf4f	-0.257441
23	0x3eeaff97	0.45898125
24	0x3ee76e17	0.4520118
25	0x3d46836a	0.04846517
26	0x3edcfb42	0.43160444
27	0xbed12022	-0.40844828
28	0xbf1901a8	-0.5976815
29	0x3c873344	0.016503938
30	0xbee6a5da	-0.4504841
31	0xbe4e53c3	-0.2014914
32	0xbee0a4e2	-0.43875796
33	0x3eb28276	0.3486516
34	0xbf2af0ff	-0.6677398
35	0xbf0d3b8e	-0.55169
36	0xbecd150b	-0.40055117
37	0x3f21ed4b	0.63252705
38	0x3f2e318b	0.68044347
39	0x3edb895f	0.42878243
40	0xbd496dbd	-0.04917692
41	0xbef68eef	-0.48155925
42	0xbd484a0b	-0.048898738
43	0x3dec32e5	0.11533145
44	0x3e368df4	0.17827588
45	0x3edcca32	0.43123013

rnn.1.2.weight f4 [46]
0	0x3f88bf89	1.0683452
1	0x3f7a0422	0.97662556
2	0x3f94eac1	1.1634141
3	0x3f7a9851	0.97888666
4	0x3f4fd5b5	0.81185466
5	0x3f84ac6d	1.036512
6	0x3f8656d4	1.0495248
7	0x3f77d7d6	0.96813715
8	0x3f81fa9c	1.0154605
9	0x3f8419e6	1.0320404
10	0x3f81267e	1.0089872
11	0x3f7553f2	0.95831215
12	0x3f5db14e	0.8659867
13	0x3f9c54cb	1.2213377
14	0x3f58535e	0.8450221
15	0x3f60543f	0.8762855
16	0x3f841be8	1.0321016
17	0x3f891ec3	1.0712513
18	0x3f8710f6	1.0552051
19	0x3f644caf	0.8917951
20	0x3f8eb2fe	1.1148374
21	0x3f8c136e	1.094343
22	0x3f80b301	1.0054628
23	0x3f9706f1	1.1798993
24	0x3f8dded5	1.1083628
25	0x3f927a59	1.1443588
26	0x3f85004a	1.0390713
27	0x3f81c748	1.0138941
28	0x3f7fb2bc	0.998821
29	0x3f8398ad	1.0280968
30	0x3f7d32d6	0.98905694
31	0x3f75f8ab	0.9608256
32	0x3f86bd23	1.052647
33	0x3f75b39b	0.9597718
34	0x3f76ac1d	0.96356374
35	0x3f3e501f	0.74341005
36	0x3f90c71f	1.1310767
37	0x3f7e1b61	0.99260527
38	0x3f63d901	0.89002997
39	0x3f977f43	1.1835712
40	0x3f9c137c	1.2193446
41	0x3f895f9d	1.0732304
42	0x3f8546b4	1.0412202
43	0x3f826415	1.0186793
44	0x3f751e9d	0.9574984
45	0x3f822b02	1.0169375

rnn.1.2.bias f4 [46]
0	0x3e14e6c6	0.14541158
1	0xbe25a695	-0.16176827
2	0x3e730a48	0.2373439
3	0x3c7a67ca	0.015283534
4	0x3e4308dc	0.19046348
5	0xbe1f4fbe	-0.15557763
6	0x3e2a0775	0.16604407
7	0x3db2ce94	0.08730808
8	0x3e893cd9	0.26804236
9	0x3e2018cc	0.1563446
10	0x3de62894	0.112382084
11	0xbe095a6c	-0.134134
12	0x3e0244c1	0.1272154
13	0x3d330db5	0.043714244
14	0xbd3eabff	-0.046550747
15	0x3c807c6f	0.015684335
16	0x3e6c2c96	0.23063883
17	0x3e1935d6	0.14961943
18	0x3dc028e9	0.09382803
19	0xbd1001d2	-0.035157986
20	0x3e62441e	0.22096297
21	0x3d0f426a	0.034975447
22	0x3de509d9	0.11183519
23	0x3e5de37c	0.2166881
24	0x3ea1e0ac	0.31616724
25	0x3eae7846	0.34076136
26	0x3ddf2b55	0.10896937
27	0xbe2cc646	-0.1687251
28	0x3e060815	0.1308902
29	0x3e552626	0.20815334
30	0x3e1bf5ce	0.15230486
31	0x3e5549d5	0.20828946
32	0x3e1431ba	0.14472094
33	0x3d57f026	0.052719258
34	0xbce47f72	-0.027892802
35	0xbdb147f3	-0.08656301
36	0xbd15806d	-0.03649943
37	0x3c9f13c3	0.019418603
38	0xbd41fe53	-0.047361683
39	0x3e726e6c	0.23674935
40	0x3d34fd5d	0.04418694
41	0x3e81cb43	0.2535039
42	0x3ea7ba3d	0.32759276
43	0x3d65baac	0.056086227
44	0x3c3544be	0.011063753
45	0x3e94a92e	0.29035324

rnn.1.2.running_mean f4 [46]
0	0x3f2b8f40	0.6701546
1	0x3cedb274	0.029015757
2	0x3ececa58	0.4038875
3	0x3de821b7	0.113345556
4	0xbe2addaa	-0.1668612
5	0x3e865afa	0.26241285
6	0xbf1b0c3b	-0.6056554
7	0x3e07a2d1	0.13245703
8	0xbf02f567	-0.51155704
9	0x3e6ec9aa	0.23319116
10	0xbec761f2	-0.38941914
11	0xbe474de1	-0.19463302
12	0xbd3f469e	-0.046698205
13	0xbf1930d3	-0.59840125
14	0xbf1e35b7	-0.6180071
15	0x3eeb3948	0.4594214
16	0x3df9019c	0.1215851
17	0x3d233f1e	0.039855115
18	0x3eb14d3e	0.34629244
19	0xbee61310	-0.4493642
20	0xbed81d92	-0.4221006
21	0x3ef2d3e6	0.4742729
22	0xbeead062	-0.45862108
23	0x3eacd724	0.3375789
24	0x3eb052ec	0.34438264
25	0xbd2d8286	-0.042360805
26	0x3ec2c98b	0.3804439
27	0xbeaa447a	-0.33255368
28	0xbf296511	-0.6616984
29	0xbe50ce1b	-0.20391123
30	0xbf311bb9	-0.69182926
31	0xbeb05d08	-0.34445977
32	0xbf255dcf	-0.64596266
33	0x3f13c258	0.5771842
34	0xbf0f8b4d	-0.5607193
35	0xbf148a4e	-0.58023536
36	0xbe98f0d9	-0.29871252
37	0x3f3437cb	0.70397633
38	0x3f43e963	0.76527995
39	0x3e474cc6	0.1946288
40	0x3b8bbdfa	0.0042645903
41	0xbf1cf7d4	-0.61315656
42	0xbd380ca1	-0.04493392
43	0x3e44b79a	0.19210663
44	0x3e7fb43d	0.24971099
45	0x3e49ccad	0.19706984

rnn.1.2.running_var f4 [46]
0	0x3ac6b7d8	0.0015160991
1	0x3c6580b5	0.014007737
2	0x3caee49e	0.021349248
3	0x3b614efb	0.0034379351
4	0x3b8273de	0.0039810976
5	0x3c57f195	0.013180156
6	0x3d143a64	0.0361885
7	0x3c36c008	0.011154182
8	0x3b2ee774	0.002668825
9	0x3ba7be8c	0.0051191505
10	0x3c1dbcf5	0.00962757
11	0x3b9b334a	0.0047363387
12	0x3b4fc790	0.0031704642
13	0x3bff0ebc	0.007783739
14	0x3c22422f	0.009903475
15	0x3bbf5abf	0.005839675
16	0x3c8c48b9	0.01712452
17	0x3c02ba36	0.007978966
18	0x3cab9f4c	0.020949982
19	0x3bf4d3b1	0.0074715246
20	0x3ce6c310	0.028169185
21	0x3bdfaf67	0.0068263295
22	0x3cbdfcd4	0.023191847
23	0x3cd163d8	0.025560305
24	0x3cacf2d9	0.021111893
25	0x3be6f9b7	0.0070488113
26	0x3b600955	0.003418525
27	0x3b52029e	0.0032045017
28	0x3c62fe88	0.01385463
29	0x3caee238	0.021348104
30	0x3ccf10d6	0.025276583
31	0x3bc11c86	0.005893293
32	0x3c3414dd	0.010991302
33	0x3c97aada	0.018514086
34	0x3c6c9d0d	0.014441741
35	0x3c0063e3	0.007836315
36	0x3cdf5de5	0.027266452
37	0x3c1672dd	0.009182659
38	0x3b9ddee1	0.004817829
39	0x3cd62a44	0.0261432
40	0x3c30d9d8	0.0107941255
41	0x3bde2bd9	0.0067801294
42	0x3c72a1da	0.014809096
43	0x3c5aeb3e	0.01336175
44	0x3a84847c	0.0010110284
45	0x3cdc0db2	0.026862

rnn.1.4.weight f4 [64, 46]
0	0x3defbc3d	0.117058255
1	0xbe430457	-0.19044624
2	0xbea15c1d	-0.3151559
3	0x3cc47647	0.02398218
4	0x3e428d62	0.18999246
5	0xbdd1a233	-0.10236015
6	0x3d73eddf	0.059553023
7	0xbe65f115	-0.22455247
8	0xbd715e86	-0.058928035
9	0x3ea8698a	0.3289302
10	0xbe122438	-0.14271629
11	0xbe11481c	-0.14187664
12	0x3e32de66	0.17467651
13	0xbdf7e14c	-0.12103519
14	0xbe0b1bac	-0.13584775
15	0x3e04b463	0.12959437
16	0xbe336090	-0.17517304
17	0xbea432b0	-0.32069921
18	0x3d88a867	0.06672745
19	0x3e0a43be	0.13502404
20	0xbe03994f	-0.12851451
21	0xbddfde86	-0.10931115
22	0xbd7243d4	-0.059146717
23	0xbdd6c548	-0.10486847
24	0xbe305928	-0.1722151
25	0x3db2e121	0.08734346
26	0xbb7d9158	-0.0038691368
27	0xbc2204bc	-0.009888824
28	0xbe864ef9	-0.26232126
29	0xbda6c71f	-0.08143448
30	0xbd7dc4b8	-0.061955184
31	0x3e905b73	0.2819477
32	0x3e3ab5e8	0.18233454
33	0xbd0b28b5	-0.033974368
34	0xbdb892dd	-0.09012387
35	0xbd8da9f1	-0.069171794
36	0xbe40bdb4	-0.18822366
37	0xbde34eca	-0.11099012
38	0xbd99f77d	-0.07517908
39	0x3de18011	0.11010755
40	0xbe2cbd76	-0.16869149
41	0x3d7d7cac	0.061886474
42	0xbd484042	-0.048889406
43	0xbe5d781a	-0.21627846
44	0x3c951ac7	0.018201245
45	0x3beb8c5f	0.0071883644
46	0xbe8da973	-0.27668342
47	0xbe328595	-0.1743377
48	0x3d65279e	0.055945985
49	0xbe293437	-0.16523825
50	0xbec6d5d9	-0.38835028
51	0xbc35ed8f	-0.011104002
52	0xbd8b2e7f	-0.06795978
53	0x3e38e784	0.18057066
54	0xbd9dfb59	-0.077139564
55	0xbeedbb09	-0.4643176
56	0xbdb4adef	-0.08822238
57	0xbd73876b	-0.059455317
58	0xbe50e78c	-0.20400828
59	0xbceb62ce	-0.028733637
60	0xbced2307	-0.028947366
61	0x3be87824	0.0070944
62	0xbdd0f4cc	-0.10202941
63	0xbc7865ef	-0.015161022
64	0xbe878056	-0.264651
65	0xbe3e0cff	-0.18559645
66	0x3db0b939	0.086290784
67	0x3d87da0b	0.06633385
68	0xbcb46550	-0.022020966
69	0x3d702e7e	0.05863809
70	0xbe089639	-0.13338555
71	0xbe0ec783	-0.13943295
72	0x3cf742aa	0.030183155
73	0xbc881300	-0.016610622
74	0x3d430c78	0.047619313
75	0x3d3d68b6	0.04624244
76	0xbe2649a7	-0.16239034
77	0xbecf133c	-0.40444362
78	0xbe95d471	-0.29263642
79	0xbe13d189	-0.144354
80	0xbe388953	-0.18021135
81	0xbdddb7ca	-0.108260706
82	0xbd978c45	-0.07399801
83	0x3d415420	0.04719937
84	0xbe2b2d54	-0.1671651
85	0xbd56eb1b	-0.052470308
86	0xbe7a5ee3	-0.24450259
87	0xbddd178f	-0.10795509
88	0xbd606a36	-0.05478879
89	0x3d785fb3	0.06063814
90	0xbd2a6151	-0.041596714
91	0x3c4ec6da	0.012620652
92	0xbc71d38c	-0.014759909
93	0x3d12dbc8	0.03585413
94	0xbd3f2e8e	-0.046675257
95	0xbe2f2863	-0.1710525
96	0x3d016173	0.031587075
97	0xbdaca0ac	-0.08429083
98	0xbda5d21b	-0.08096715
99	0x3d1eb736	0.038748942
100	0x3c70778e	0.014676942
101	0xbe38876c	-0.1802041
102	0xbe4658f4	-0.1936987
103	0xbd0342a3	-0.03204597
104	0xbd9e20bc	-0.07721087
105	0xbdc71216	-0.097202465
106	0xbe17bfec	-0.14819306
107	0x3c240818	0.010011695
108	0xbe2a6254	-0.16639072
109	0x3df46c64	0.11934736
110	0xbe5b7357	-0.21430717
111	0xbd716af9	-0.058939908
112	0xbe3a7acd	-0.18210907
113	0xbdabbb5a	-0.08385344
114	0x3bc517a6	0.006014782
115	0x3dd168f4	0.10225096
116	0xbd7b4f36	-0.06135484
117	0xbe83a29c	-0.2571
118	0xbcb2e59b	-0.021838
119	0x3cd90afb	0.026494494
120	0xbd09c06c	-0.033630773
121	0xbe63c655	-0.22243626
122	0x3c8f23f8	0.017473206
123	0xbd9edcc8	-0.077569544
124	0x3b3e3d5e	0.0029028277
125	0x3d718cbc	0.058972105
126	0xbbd6c840	-0.0065546334
127	0xbda00046	-0.07812552
128	0xbb0254d4	-0.0019886987
129	0x3dd108a4	0.10206726
130	0xbe1a4ea5	-0.15069063
131	0xbdeccb02	-0.11562158
132	0x3da3beef	0.07995402
133	0xbd2ffe25	-0.04296698
134	0xbda5e44d	-0.081001855
135	0x3d872380	0.06598568
136	0x3b853e9c	0.0040663015
137	0xbe19314c	-0.14960212
138	0xbdf67cfc	-0.12035558
139	0xbca331fe	-0.0199213
140	0x3e2a65a0	0.1664033
141	0x3c1e1822	0.009649308
142	0xbd0432b8	-0.03227493
143	0x3e417f0c	0.18896121
144	0x3b4a51c6	0.0030871495
145	0x3dcd0bae	0.10011993
146	0x3e5b2e91	0.21404482
147	0xbe073957	-0.13205467
148	0xba11db91	-0.0005564029
149	0x3e448452	0.19191101
150	0xbd8ddc67	-0.06926804
151	0xbe4f2485	-0.20228775
152	0xbd551488	-0.052021533
153	0x3d4f633f	0.050631758
154	0x3e3dcc51	0.18534972
155	0x3dc3d45c	0.09561989
156	0x3d71532f	0.05891722
157	0xbce58dae	-0.02802166
158	0x3d9322df	0.071843855
159	0xbe77c332	-0.24195555
160	0x3c5713a3	0.01312724
161	0x3d137d9b	0.03600846
162	0x3e1b6469	0.15175022
163	0x3e17312c	0.14764851
164	0xbb930067	-0.004486132
165	0xbe4823ba	-0.19544879
166	0x3d6d3aa9	0.05791727
167	0x3e56d7b0	0.20980716
168	0x3de4236c	0.11139569
169	0xbc55b250	-0.013043001
170	0x3d7d0423	0.061771523
171	0xbd2d6f9e	-0.042342775
172	0xbbf42ff8	-0.0074520074
173	0xbdcb7c29	-0.09935791
174	0xbe95b939	-0.29242876
175	0x3db91d44	0.09038785
176	0xbd894e27	-0.067043595
177	0x3e0395a1	0.12850048
178	0xbdaffd50	-0.085932374
179	0x3d9d3d5f	0.07677721
180	0xbe83c782	-0.2573815
181	0x3e24567f	0.1604862
182	0xbd6aa471	-0.05728573
183	0xbd601607	-0.054708507
184	0xbe83638e	-0.25661892
185	0xbcd8829a	-0.026429463
186	0xbe005c82	-0.12535289
187	0xbc3301cd	-0.010925722
188	0xbe7c6226	-0.24646816
189	0x3dfe2862	0.12410046
190	0x3d024c88	0.031811267
191	0xbd7b0632	-0.061285205
192	0x3cef2754	0.029193558
193	0xbe064f12	-0.131161
194	0xbe34bc4e	-0.17649958
195	0x3c3ee3a6	0.011650955
196	0x3cde1506	0.027109634
197	0xbe1969b5	-0.1498173
198	0xbe11cff1	-0.1423948
199	0xbd5ac589	-0.05341104
200	0x3d63c754	0.055610016
201	0x3e07c609	0.13259138
202	0xbd06897a	-0.03284595
203	0xbd2fba0a	-0.04290203
204	0xbcb3dd07	-0.02195598
205	0xbddb6244	-0.10712102
206	0xbdcaf156	-0.099093124
207	0xbdc7ff1b	-0.097654544
208	0xbe3633e5	-0.17793234
209	0xbdd9c782	-0.10633756
210	0xbe141e84	-0.14464766
211	0xbe769c9b	-0.24083178
212	0x3c8506bf	0.016238568
213	0x3d724d87	0.059155967
214	0xbd995292	-0.07486452
215	0xbe2fc5eb	-0.17165343
216	0xbe5510e6	-0.20807227
217	0x3d25f071	0.040512506
218	0x3bd13e01	0.0063855653
219	0xbe374c5b	-0.17900221
220	0xbe24477b	-0.16042893
221	0xbc8e9e3d	-0.017409438
222	0xbdc31051	-0.095245965
223	0xbdaa85bb	-0.08326288
224	0xbdafbecf	-0.08581316
225	0xbdc3c207	-0.09558492
226	0x3c0ab01b	0.008464838
227	0x3d263c56	0.040584885
228	0x3ca2563b	0.019816509
229	0xbe5f43f1	-0.21803261
230	0xbe8a1609	-0.26969936
231	0x3d3a9df5	0.045560796
232	0x3e0e5513	0.1389964
233	0xbe0568d5	-0.13028271
234	0xbe438cbc	-0.19096655
235	0x3cd38cf0	0.02582404
236	0xbe283864	-0.16427761
237	0xbc8b99ab	-0.017041048
238	0x3dd12d4c	0.10213718
239	0xbe5fffbb	-0.21874897
240	0xbe4773ed	-0.19477816
241	0xbe072869	-0.13199009
242	0xbe04172d	-0.12899466
243	0xbd8b3354	-0.067968994
244	0x3d9b8c53	0.07595124
245	0x3da3daf7	0.080007486
246	0xbe529df4	-0.20568067
247	0xbe0f64ca	-0.14003292
248	0x3c11ba89	0.008894571
249	0x3d85817a	0.06518836
250	0x3d258005	0.040405292
251	0x3d8c1e1a	0.06841679
252	0xbe5507d5	-0.20803769
253	0x3dd5abea	0.10433181
254	0x3cb557bc	0.022136562
255	0xbe61b67d	-0.2204227

rnn.1.4.bias f4 [64]
0	0xbb52dc00	-0.0032174587
1	0xbdf9bd36	-0.12194292
2	0x3ddc5d99	0.1076004
3	0x3cc33fd9	0.023834156
4	0x3d969367	0.073523335
5	0xbd86b88a	-0.06578167
6	0xbe730fbb	-0.2373647
7	0x3bcf52d3	0.006327012
8	0x3b98cc2d	0.0046630115
9	0xbd4067dd	-0.04697405
10	0xbc59bc13	-0.013289469
11	0xbdc73960	-0.0972774
12	0x3b1a6e63	0.002356433
13	0x3da9ad8e	0.08285056
14	0x3e8ea071	0.27856782
15	0xbd6544f2	-0.055973954
16	0xbe1f0328	-0.15528548
17	0x3bc62051	0.006046333
18	0x3d851c02	0.06499483
19	0xbe313ab0	-0.17307544
20	0x3e7d2f35	0.2472504
21	0x3b99e9f9	0.004697081
22	0xbe0d4a69	-0.13797916
23	0xbe141fe3	-0.14465289
24	0xbb3ab0a5	-0.0028486636
25	0x3e21e554	0.15810138
26	0x3d814a2f	0.063129775
27	0xbcaea232	-0.021317575
28	0x3d837591	0.064189084
29	0xbde9b298	-0.11411017
30	0xbdd0d7d5	-0.10197417
31	0xbd4dff49	-0.050292287
32	0x3e079a11	0.13242365
33	0xbd1ec4ff	-0.03876209
34	0x3e52126c	0.2051484
35	0xbcff5035	-0.031166175
36	0x3e774b33	0.2414978
37	0x3d020661	0.031744365
38	0x3da08f9c	0.07839891
39	0x3e02f394	0.1278823
40	0xbd9df9c2	-0.07713653
41	0x3df15fcc	0.1178585
42	0x3d5db675	0.054129083
43	0x3d5b101d	0.053482164
44	0x3bf9c10e	0.007621891
45	0xbdd3183f	-0.10307359
46	0xbe2742cc	-0.16334075
47	0x3e04d68c	0.12972468
48	0x3cd254e3	0.025675243
49	0x3d45c688	0.048285037
50	0xbe9bee28	-0.30455136
51	0x3e04e6ae	0.12978622
52	0xbe63a791	-0.2223189
53	0xbe06bd62	-0.13158181
54	0x3e57ef50	0.21087384
55	0x3c7fea94	0.015619893
56	0x3e224bd8	0.15849245
57	0xbd2ac83b	-0.04169486
58	0xbdcc450b	-0.099741064
59	0x3dc8f467	0.09812241
60	0xbe237874	-0.15963918
61	0x3d21ef06	0.03953459
62	0xbe27fa97	-0.16404186
63	0xbdf0ed3f	-0.11764001

rnn.1.5.weight f4 [64]
0	0x3f581c76	0.8441843
1	0x3f621fb1	0.8832961
2	0x3f4bdeea	0.79637015
3	0x3f61e44f	0.88238996
4	0x3f6571ab	0.8962657
5	0x3f300164	0.6875212
6	0x3f56fc76	0.83978975
7	0x3f69d46f	0.9133977
8	0x3f39d91b	0.725969
9	0x3f55d0b3	0.83521575
10	0x3f4b132f	0.79326147
11	0x3f36d2c8	0.71415377
12	0x3f3fb1c1	0.74880606
13	0x3f750c72	0.95722115
14	0x3f736c8f	0.9508752
15	0x3f544507	0.8291783
16	0x3f581caf	0.8441877
17	0x3f72706f	0.9470281
18	0x3f37437d	0.71587354
19	0x3f74b2c1	0.95585257
20	0x3f4c2793	0.79747885
21	0x3f471aa5	0.7777503
22	0x3f6294b7	0.8850817
23	0x3f53e96f	0.82778066
24	0x3f3d84cf	0.74030775
25	0x3f5e94dd	0.869459
26	0x3f1c22cc	0.60990596
27	0x3f508895	0.8145841
28	0x3f850145	1.0391012
29	0x3f57714a	0.8415724
30	0x3f60d9b1	0.8783217
31	0x3f5eeb08	0.8707738
32	0x3f48a258	0.78372717
33	0x3f8515df	1.03973
34	0x3f6a418d	0.9150627
35	0x3f60b177	0.8777079
36	0x3f7976ae	0.97446716
37	0x3f194113	0.5986492
38	0x3f4aea69	0.7926393
39	0x3f657ed0	0.89646626
40	0x3f3ba0b4	0.7329209
41	0x3f5f59ec	0.87246585
42	0x3f6e78e1	0.93153197
43	0x3f743ae7	0.9540238
44	0x3f472a00	0.7779846
45	0x3f7824c6	0.9693111
46	0x3f51a829	0.8189722
47	0x3f44bb2b	0.76848096
48	0x3f5ba29c	0.85795
49	0x3f4d4234	0.8017914
50	0x3f746061	0.9545956
51	0x3f6ef1a4	0.93337464
52	0x3f43ec62	0.76532567
53	0x3f60be56	0.8779043
54	0x3f516ae5	0.81803733
55	0x3f6aed87	0.9176869
56	0x3f372746	0.715443
57	0x3f5770e5	0.8415664
58	0x3f422143	0.75832003
59	0x3f5d2075	0.8637765
60	0x3f51f458	0.82013464
61	0x3f6094aa	0.87726843
62	0x3f7ac100	0.97950745
63	0x3f4c994d	0.7992142

rnn.1.5.bias f4 [64]
0	0xbe524363	-0.20533518
1	0xbde8ad2a	-0.113611534
2	0xbea37b75	-0.31930128
3	0xbd9d1902	-0.076707855
4	0xbe4b6c69	-0.19865574
5	0xbe9d69ce	-0.30744785
6	0xbe982a16	-0.2971961
7	0xbd7ff30c	-0.062487647
8	0xbe50e125	-0.20398386
9	0xbe841c4a	-0.25802833
10	0xbe876de8	-0.2645104
11	0xbe8431ae	-0.25819153
12	0xbe91927c	-0.2843207
13	0x3d71be71	0.05901951
14	0xbcf2fa6d	-0.029660428
15	0xbe87a0ee	-0.26489967
16	0xbe67666f	-0.22597669
17	0xbdca8a94	-0.09889713
18	0xbeacb0f7	-0.33728763
19	0xbdd74fef	-0.10513293
20	0xbde2a60e	-0.11066829
21	0xbe86a3d2	-0.2629686
22	0xbdc95819	-0.098312564
23	0xbe123a42	-0.14280036
24	0xbe047de0	-0.12938643
25	0xbdac0c25	-0.08400754
26	0xbec68199	-0.3877075
27	0xbe236247	-0.15955459
28	0xbe2763cc	-0.16346663
29	0xbe622866	-0.22085723
30	0xbe2cf91d	-0.16891904
31	0xbe114c68	-0.14189303
32	0xbe8a5d4d	-0.27024308
33	0x3d73ece1	0.059552077
34	0xbda8d8c0	-0.08244467
35	0xbe027920	-0.12741518
36	0xbe386722	-0.18008092
37	0xbea76202	-0.32691962
38	0xbe885ad4	-0.26631796
39	0xbe948389	-0.29006603
40	0xbea2d7f4	-0.31805384
41	0xbe3d1747	-0.18465911
42	0x3dde5857	0.10856693
43	0xbde7516f	-0.11294829
44	0xbe888c1b	-0.26669392
45	0xbe03cbb4	-0.12870675
46	0xbe522f2c	-0.20525807
47	0xbe55198b	-0.20810525
48	0xbe1faa65	-0.15592344
49	0xbe27f5a3	-0.16402297
50	0xbd678b44	-0.0565293
51	0xbe9b35cc	-0.3031448
52	0xbe6e2cb9	-0.23259248
53	0xbdf06b13	-0.11739173
54	0xbe64e89b	-0.22354357
55	0xbe0871b1	-0.1332462
56	0xbe192124	-0.14954048
57	0xbe003660	-0.12520742
58	0xbe9442be	-0.2895717
59	0xbe57517e	-0.2102718
60	0xbe8ff2ce	-0.28114933
61	0xbe271f2f	-0.1632049
62	0xbe273ce2	-0.16331819
63	0xbdd72ef8	-0.105070055

rnn.1.5.running_mean f4 [64]
0	0xbf2dce51	-0.6789294
1	0xbfac9587	-1.3483132
2	0xbf3f41ad	-0.7470959
3	0x3eb9b932	0.36274105
4	0xbf6fc589	-0.9366079
5	0xbf80859b	-1.0040773
6	0x3e0f921c	0.1402058
7	0xbf91d663	-1.1393551
8	0xbf4a1bf3	-0.789489
9	0xbdb1fe52	-0.08691086
10	0xbd64c7be	-0.05585455
11	0xbfdd7892	-1.730242
12	0xbfb37ef2	-1.4023116
13	0xbf150747	-0.5821423
14	0xbf91be87	-1.1386269
15	0xbfe09d30	-1.754797
16	0xbfd43ad1	-1.6580449
17	0xbf5d1ce6	-0.8637222
18	0xbf046f8b	-0.517327
19	0xbdaa7cd8	-0.08324593
20	0xbfb7ff86	-1.4374855
21	0xbf88f1b1	-1.0698758
22	0xbfa96472	-1.3233778
23	0xbf3af0fc	-0.7302396
24	0xbfa8b205	-1.3179327
25	0xbfac5740	-1.3464127
26	0xbf8b1f92	-1.086901
27	0xc0068896	-2.1020865
28	0xbfb2ee80	-1.3979034
29	0xbdfeec99	-0.12447471
30	0xbf7838cb	-0.9696166
31	0xbf8a8372	-1.0821364
32	0x3ed2cf5e	0.41173834
33	0xbf35d501	-0.71028143
34	0xbf68ba11	-0.90908915
35	0xbea94c23	-0.330659
36	0xbf812d59	-1.0091964
37	0xc018b1d2	-2.3858533
38	0xbf8b0478	-1.0860739
39	0xbed1f5ce	-0.41007847
40	0xbfa4fcea	-1.2889683
41	0xbe46e38c	-0.1942274
42	0xbebf03ec	-0.3730768
43	0xbeff10e1	-0.49817565
44	0x3ee99287	0.45619604
45	0xbd0df2c1	-0.034655336
46	0x3e9f85aa	0.31156665
47	0xbd2846f8	-0.041083306
48	0xbf5faee4	-0.87376237
49	0xbfd1a1c4	-1.6377492
50	0xbfc28e86	-1.5199745
51	0xbfde2955	-1.7356364
52	0xbfacf8c8	-1.3513422
53	0xbfb8e9b5	-1.4446322
54	0xbf734d89	-0.95040184
55	0xbf9364de	-1.1515157
56	0x3f83dd92	1.0301993
57	0xbf88a8af	-1.0676478
58	0xbe21a431	-0.1578529
59	0xbf8137bb	-1.0095133
60	0xbf98c2a0	-1.1934395
61	0xbfa7e4b6	-1.3116672
62	0x3eb3682f	0.35040423
63	0xbda14630	-0.07874715

rnn.1.5.running_var f4 [64]
0	0x3f900cf2	1.125395
1	0x3f7e64f5	0.993728
2	0x3f33065d	0.69931585
3	0x400cc6ea	2.1996408
4	0x3f3fec50	0.7496996
5	0x3f447d73	0.7675392
6	0x400cb69b	2.1986454
7	0x3f7c3f4b	0.9853408
8	0x3f3af9ed	0.73037606
9	0x402bac9b	2.68241
10	0x40268f78	2.6025066
11	0x403293a5	2.7902615
12	0x4018bbfb	2.3864734
13	0x3ee7f8d4	0.45307028
14	0x3f8f12a1	1.117756
15	0x3fdc7956	1.7224529
16	0x40059b75	2.0876133
17	0x3f57ee3c	0.8434789
18	0x3fe0f021	1.7573282
19	0x3fcb0b84	1.5862889
20	0x406203d5	3.531484
21	0x3f49e2f6	0.7886194
22	0x3f617bda	0.8807961
23	0x3f02bee4	0.51072526
24	0x40361a2c	2.8453474
25	0x4048f49d	3.13993
26	0x3facf001	1.3510743
27	0x40b6bd1d	5.710585
28	0x40082a8c	2.1275969
29	0x3fcf467b	1.6193384
30	0x3f0a5a87	0.54044384
31	0x3f29f718	0.6639266
32	0x3fad4560	1.3536797
33	0x3f10e081	0.56592566
34	0x401fea6b	2.4986827
35	0x3fe327e2	1.7746546
36	0x3fa2e624	1.2726483
37	0x40cbd026	6.3691587
38	0x3f89148e	1.0709398
39	0x402ed3aa	2.731669
40	0x3fb7ba6b	1.4353765
41	0x3fa93e83	1.3222202
42	0x3e529e9f	0.20568322
43	0x3f487372	0.78301156
44	0x400bc070	2.1836205
45	0x4019805d	2.3984597
46	0x3f6eabb9	0.9323078
47	0x4025aceb	2.588679
48	0x3f1f2965	0.6217254
49	0x40095237	2.145643
50	0x3fa3dc74	1.2801652
51	0x4004c858	2.074728
52	0x3f7ca8bd	0.98694974
53	0x400b953c	2.1809835
54	0x3f8b383d	1.0876538
55	0x3f64f3a4	0.89434266
56	0x4080258f	4.004585
57	0x3fdd52d5	1.7290903
58	0x402a674b	2.6625545
59	0x3f359687	0.7093281
60	0x3ff57449	1.9176112
61	0x3fe3bde1	1.7792321
62	0x403f1d96	2.9861808
63	0x3f5a2765	0.8521636
