DeepHedging_clean/MarketData/trained_models/RNN_BN_simple_AAPL_GOOGL_MSFT.pt (torch, 509883 bytes, 540 tensors)

rnn.0.0.weight f4 [3]
1.0 1.0 1.0
00000000: 0000 803f 0000 803f 0000 803f

rnn.0.0.bias f4 [3]
-0.060677815 0.04809683 -0.12590757
00000000: 4d89 78bd 2e01 453d eaed 00be

rnn.0.0.running_mean f4 [3]
0.0 0.0 0.0
00000000: 0000 0000 0000 0000 0000 0000

rnn.0.0.running_var f4 [3]
1e-45 1e-45 1e-45
00000000: 0100 0000 0100 0000 0100 0000

rnn.0.1.weight f4 [28, 3]
-0.3352379 0.33762062 0.09852079 0.21518826 -0.3405269 0.43160903 0.45084423 -0.011609283
0.0006442711 0.39360756 0.47731152 0.14947483 0.009778552 0.1680937 -0.29406196 0.4712831
0.19150363 0.59291375 0.58735585 0.2639224 0.26893198 -0.3663339 -0.056761295 -0.43769193
0.37871104 -0.6313601 -0.36285272 -0.28934485 0.31011394 0.45286483 0.29012507 0.31209573
-0.386475 0.20481503 -0.5535918 -0.47976953 0.53924036 0.024863139 -0.40374708 -0.43792197
-0.51700205 -0.19779974 0.5744516 0.50388336 -0.26011935 0.5673031 0.1957781 0.09997016
0.5129677 -0.23433194 -0.12954478 -0.46756124 0.17158814 -0.44126388 -0.2808889 0.4229017
0.52180547 0.22620517 0.12226664 0.29521468 -0.52313507 0.3663757 -0.23868349 0.2365417
-0.19494094 0.495658 0.50049245 -0.2387942 -0.2697744 0.32222262 0.26878223 -0.012218428
0.040984746 0.11625866 -0.24341533 -0.43229833 -0.34570837 -0.38676223 -0.08062297 0.42118633
0.30404288 0.40704215 -0.08874846 0.16295454
00000000: 4da4 abbe 9cdc ac3e 45c5 c93d 505a 5c3e
00000010: 8b59 aebe dcfb dc3e 0ed5 e63e dd34 3ebc
00000020: 4de4 283a ee86 c93e 2d62 f43e ee0f 193e
00000030: 3836 203c c120 2c3e 4a8f 96be 054c f13e
00000040: 8719 443e 32c9 173f f45c 163f d620 873e
00000050: 74b1 893e 1e90 bbbe 887e 68bd 2819 e0be
00000060: 6ae6 c13e d1a0 21bf d5c7 b9be 0225 94be
00000070: 41c7 9e3e e6dd e73e 468b 943e 03cb 9f3e
00000080: 0de0 c5be 08bb 513e 31b8 0dbf 5aa4 f5be
00000090: a80b 0a3f c8ad cb3c f0b7 cebe 4f37 e0be
000000a0: 3f5a 04bf 048c 4abe 430f 133f 80fe 003f
000000b0: 5d2e 85be c73a 113f 0e7a 483e 28bd cc3d
000000c0: da51 033f b6f4 6fbe 63a7 04be 3064 efbe
000000d0: cdb4 2f3e 57ed e1be abd0 8fbe 9286 d83e
000000e0: 0b95 053f 54a2 673e ef66 fa3d 6126 973e
000000f0: 2eec 05bf 9995 bb3e 7269 74be fd37 723e
00000100: 999e 47be e3c6 fd3e 4620 003f 7786 74be
00000110: df1f 8abe 5dfa a43e d39d 893e cd2f 48bc
00000120: 9fdf 273d 0519 ee3d de41 79be 3556 ddbe
00000130: b000 b1be b305 c6be a81d a5bd bca5 d73e
00000140: 82ab 9b3e d467 d03e c1c1 b5bd 8edd 263e

rnn.0.1.bias f4 [28]
0.64299387 0.2515498 0.23945656 0.18638024 0.010436731 -0.045393568 -0.10976211 0.47992763
0.49942127 0.11314483 -0.10416663 -0.48996517 -0.2665779 0.44365785 -0.34615672 0.5494747
-0.28100565 0.3647271 0.014131456 0.080752015 -0.25175226 0.39229614 -0.50832325 -0.011472594
-0.3408029 -0.06632142 0.08679223 -0.4349687
00000000: 3f9b 243f 23cb 803e 1a34 753e 76da 3e3e
00000010: d3fe 2a3c 9bee 39bd f5ca e0bd 13b9 f53e
00000020: 25b4 ff3e 7ab8 e73d 5055 d5bd b7dc fabe
00000030: e67c 88be 1f27 e33e 743b b1be 60aa 0c3f
00000040: f9df 8fbe 83bd ba3e 9f87 673c 5061 a53d
00000050: ace5 80be 0adb c83e 7921 02bf 8cf7 3bbc
00000060: b87d aebe 86d3 87bd 20c0 b13d 38b4 debe

rnn.0.2.weight f4 [28]
1.000001 1.0002948 0.9999785 0.9999974 1.0008615 1.0001277 1.0000492 0.9999903
1.0016692 1.0000892 0.99857277 0.99999964 1.005401 0.99436116 1.0000272 0.99961954
0.9971053 0.99393433 0.9999943 1.000003 1.0009068 1.000337 0.9972471 0.9998618
0.99812627 1.000023 0.99999577 0.99773127
00000000: 0800 803f a909 803f 97fe 7f3f d4ff 7f3f
00000010: 3b1c 803f 2f04 803f 9d01 803f 5dff 7f3f
00000020: b236 803f ec02 803f 77a2 7f3f faff 7f3f
00000030: fbb0 803f 748e 7e3f e400 803f 11e7 7f3f
00000040: 4b42 7f3f 7b72 7e3f a0ff 7f3f 1900 803f
00000050: b71d 803f 0b0b 803f 964b 7f3f f1f6 7f3f
00000060: 3485 7f3f c100 803f b9ff 7f3f 516b 7f3f

rnn.0.2.bias f4 [28]
-0.06690394 -0.012915911 -0.051879175 -0.027214685 -0.025277298 0.08201746 0.03264775 -0.055069994
0.1130381 0.12757452 -0.052156087 -0.02884692 0.033050306 -0.054214448 -0.057908352 -0.058063004
-0.049662054 -0.05420011 -0.058101002 -0.050970405 0.033414256 0.08018325 -0.018915039 -0.051671248
-0.05494538 -0.054147393 -0.049612187 0.077101074
00000000: ef04 89bd 429d 53bc 427f 54bd 55f1 debc
00000010: 5612 cfbc c5f8 a73d a6b9 053d 1391 61bd
00000020: 8580 e73d e5a2 023e 9fa1 55bd 6050 ecbc
00000030: c25f 073d f80f 5ebd 4f31 6dbd 79d3 6dbd
00000040: 706a 4bbd ef00 5ebd 51fb 6dbd 58c6 50bd
00000050: 63dd 083d 1e37 a43d b6f3 9abc 3ba5 53bd
00000060: 680e 61bd a8c9 5dbd 2636 4bbd 2be7 9d3d

rnn.0.2.running_mean f4 [28]
0.66716665 0.16770294 0.21144597 0.16660084 0.05499442 -0.13956276 -0.16671139 0.5546085
0.49193916 0.08858506 -0.058053993 -0.4685514 -0.24710573 0.47031015 -0.32400805 0.5118489
-0.30709 0.4569872 -0.014248323 0.03568812 -0.17226408 0.305948 -0.51618886 -0.016566785
-0.3070168 -0.00795314 0.07362061 -0.48456952
00000000: 6fcb 2a3f 52ba 2b3e 4b85 583e 6999 2a3e
00000010: d441 613d 8ae9 0ebe 64b6 2abe d3fa 0d3f
00000020: 73df fb3e 156c b53d 06ca 6dbd f8e5 efbe
00000030: 4909 7dbe 7ecc f03e 62e4 a5be 8808 033f
00000040: e73a 9dbe 3afa e93e cc71 69bc b52d 123d
00000050: ff65 30be 37a5 9c3e f424 04bf 11b7 87bc
00000060: 4e31 9dbe e34d 02bc 67c6 963d 7f19 f8be

rnn.0.2.running_var f4 [28]
4.7200015e-13 1.3512889e-14 1.6844705e-14 1.4835665e-14 1.8090777e-15 1.3141879e-14 1.8828792e-14 3.1994863e-13
5.4799054e-14 1.3912088e-15 1.7151677e-15 5.5994766e-14 3.5576133e-14 9.9817785e-14 2.0737372e-14 9.643187e-14
5.553263e-14 5.837591e-14 6.7844434e-17 4.1519279e-16 1.5231626e-14 1.7259508e-14 7.3222055e-14 5.1437618e-17
3.8915933e-14 2.3472855e-17 2.3332367e-15 1.2477108e-13
00000000: 32db 042b 346d 7328 3fb9 9728 b7a0 8528
00000010: 985b 0227 38be 6c28 3d98 a928 751d b42a
00000020: 02cb 7629 8c7e c826 852e f726 922d 7c29
00000030: 7d38 2029 09c5 e029 20c9 ba28 3025 d929
00000040: c318 7a29 6c73 8329 4970 9c24 a457 ef25
00000050: bd31 8928 b775 9b28 a4e1 a429 d236 6d24
00000060: 0443 2f29 b67f d823 9f20 2827 d17a 0c2a

rnn.0.4.weight f4 [64, 28]
0.20219953 -0.06809236 0.17696866 0.1690362 -0.13159707 -0.28608453 0.022005951 0.031743083
0.1274861 -0.07889465 -0.14500728 0.03605953 0.085473135 0.11102537 -0.18834312 0.02530966
-0.018169452 -0.04348732 -0.084629 -0.14376307 -0.31029704 0.13084354 0.045032274 0.019083323
-0.23479433 -0.14662959 -0.055689637 -0.103180915 0.12797514 0.031383976 -0.09885418 -0.14522496
0.06671886 -0.046484694 0.10395546 0.10892124 -0.035716195 0.1696103 -0.10600002 -0.08139236
0.13400362 0.14206825 0.092781544 -0.03456748 -0.17594507 -0.026588464 -0.07625245 -0.108425476
0.15042937 0.036475174 -0.20034403 -0.13794813 0.12581863 0.078525215 0.11150263 -0.13775307
0.08058416 -0.06482647 0.0533186 -0.030123077 0.017193709 0.1590666 0.0765064 0.16197428
-0.077985756 0.02013454 0.05868244 0.04933374 -0.0064660334 0.048195805 0.054545064 -0.02749954
-0.019806435 0.12877645 -0.16248117 0.15467604 -0.17979452 -0.27707052 -0.04648712 -0.11822889
-0.034248903 0.073696434 -0.15667844 -0.04181344 0.18739747 -0.1377013 -0.026500877 0.114084244
-0.16944881 -0.12174308 0.21427064 -0.15658993 0.11067639 0.1542846 0.1800688 0.13989933
0.03302673 -0.17205608 0.16056123 -0.08921827 -0.11000769 0.013296645 0.017393712 0.10623467
0.08392743 -0.05158013 -0.008819327 0.16705933 -0.15725859 -0.010260081 0.10701083 -0.014976246
-0.16436365 -0.11516971 -0.04315009 0.03173883 0.13667706 -0.116832696 -0.008040032 -0.0011296228
0.16442418 0.072909504 -0.055370733 -0.05315919 0.143672 0.010315479 0.16680957 0.04847428
-0.10867703 -0.12651962 0.1338252 0.14339054 0.046598636 -0.059039775 0.16077039 -0.10669326
-0.17414948 0.05568183 -0.119054325 -0.1858196 -0.1871642 -0.0629327 -0.14016345 0.12975164
0.038315963 0.10937273 0.17642505 -0.12715782 0.055819836 -0.17968896 0.08789247 0.026943201
0.071162015 0.04753452 0.061275322 -0.079276696 -0.014123821 -0.040471837 -0.08266012 -0.18102013
-0.18267068 -0.066598594 0.047088366 -0.09327805 -0.007853446 0.004346415 -0.07091747 -0.15615651
0.07528693 -0.18632181 -0.0014294311 -0.0027387005 0.010901751 -0.027621603 -0.057635903 0.049737137
-0.09408451 0.15264434 0.15919785 -0.0017259712 0.0823614 0.17499419 -0.028909393 0.12964454
0.16752638 0.09073213 0.106138185 0.15977854 -0.05153775 0.0148324175 0.20294946 -0.18067437
-0.018375928 0.1521455 -0.11892269 -0.11985477 0.24038085 0.019631721 0.04851733 -0.07312386
0.15388495 0.057204813 0.13315941 0.18223663 0.065646686 0.09617461 0.17057998 -0.15766904
-0.11639852 0.06304013 -0.0973828 -0.17117591 0.06803678 -0.20387895 -0.042120855 0.08398421
0.12400991 0.2102977 0.13180003 -0.17664242 0.20135003 -0.16665582 -0.0601448 0.06541992
-0.022861244 -0.18922426 0.030322984 0.12192035 0.019643784 0.1118127 -0.06964553 -0.038632095
-0.02410919 0.16609417 0.09212946 -0.0044273776 -0.1787524 0.18190128 0.09133052 -0.08434866
-0.019273011 -0.09717663 0.12284923 0.070226185 0.123324946 -0.1253748 0.101078 -0.11671646
-0.16395643 0.16104096 0.13523075 -0.112191215 0.016752642 -0.1248543 0.066830635 -0.08889631
00000000: 650d 4f3e 0274 8bbd 4637 353e d317 2d3e
00000010: 62c1 06be ac79 92be d345 b43c 0905 023d
00000020: b78b 023e 8593 a1bd ca7c 14be 28b3 133d
00000030: 8a0c af3d 4561 e33d 05dd 40be 3456 cf3c
00000040: 1ad8 94bc c31f 32bd f851 adbd a036 13be
00000050: 41df 9ebe d9fb 053e c373 383d a154 9c3c
00000060: ed6d 70be 1126 16be d11a 64bd 8450 d3bd
00000070: ea0b 033e 7c8c 003d 0f74 cabd dab5 14be
00000080: e6a3 883d bc66 3ebd 9ae6 d43d 1912 df3d
00000090: 254b 12bd 53ae 2d3e 8a16 d9bd 0ab1 a6bd
000000a0: 3f38 093e 577a 113e 4004 be3d a196 0dbd
000000b0: f22a 34be 0dd0 d9bc 3f2a 9cbd 2d0e debd
000000c0: 280a 1a3e fe66 153d fc26 4dbe 4642 0dbe
000000d0: 99d6 003e d4d1 a03d 7e5b e43d 240f 0dbe
000000e0: 4f09 a53d bec3 84bd 9b64 5a3d acc4 f6bc
000000f0: d2d9 8c3c 5be2 223e 63af 9c3d 96dc 253e
00000100: ffb6 9fbd 31f1 a43c 005d 703d 2d12 4a3d
00000110: 05e1 d3bb f768 453d a56a 5f3d b746 e1bc
00000120: 1b41 a2bc f9dd 033e 7761 26be 6563 1e3e
00000130: 0e1c 38be 30dc 8dbe 4769 3ebd fd21 f2bd
00000140: 9448 0cbd 28ee 963d 5070 20be 9244 2bbd
00000150: 1fe5 3f3e 9201 0dbe 5e18 d9bc 00a5 e93d
00000160: fd83 2dbe 7054 f9bd c369 5b3e 1c59 20be
00000170: 4eaa e23d c8fc 1d3e f563 383e c541 0f3e
00000180: 0947 073d 782f 30be 2a6a 243e 11b8 b6bd
00000190: b64b e1bd 2cda 593c 427d 8e3c 9091 d93d
000001a0: 25e2 ab3d b045 53bd f07e 10bc 9a11 2b3e
000001b0: 6508 21be e619 28bc 7e28 db3d ee5e 75bc
000001c0: f24e 28be 19de ebbd 26be 30bd 9300 023d
000001d0: 12f5 0b3e fb45 efbd 57ba 03bc da0f 94ba
000001e0: d05e 283e 9451 953d 6ccc 62bd 73bd 59bd
000001f0: c11e 133e 4102 293c 21d0 2a3e f78c 463d
00000200: 1092 debd 5c8e 01be 7909 093e f8d4 123e
00000210: 36de 3e3d b1d3 71bd fea0 243e ff81 dabd
00000220: 3e54 32be a112 643d c1d2 f3bd 7e47 3ebe
00000230: f9a7 3fbe dce2 80bd 0287 0fbe 9ddd 043e
00000240: 33f1 1c3d cffe df3d c5a8 343e a935 02be
00000250: 57a3 643d 6200 38be f800 b43d fdb7 dc3c
00000260: 64bd 913d 8fb3 423d d5fb 7a3d d25b a2bd
00000270: 9967 67bc ccc5 25bd b649 a9bd 575d 39be
00000280: 060e 3bbe d864 88bd bbdf 403d 9008 bfbd
00000290: bdab 00bc 5f6c 8e3b 2e3d 91bd 7ee7 1fbe
000002a0: 0930 9a3d 25cb 3ebe c05b bbba c57b 33bb
000002b0: 429d 323c b346 e2bc a013 6cbd 2bb9 4b3d
000002c0: 61af c0bd cc4e 1c3e c304 233e fc39 e2ba
000002d0: 18ad a83d ad31 333e 64d3 ecbc 8ac1 043e
000002e0: 098c 2b3e c4d1 b93d fa5e d93d fc9c 233e
000002f0: 3f19 53bd ab03 733c fcd1 4f3e b402 39be
00000300: 1d89 96bc 08cc 1b3e bd8d f3bd 6b76 f5bd
00000310: 6626 763e b4d2 a03c 1cba 463d f6c1 95bd
00000320: 0494 1d3e 984f 6a3d f15a 083e 3d9c 3a3e
00000330: c571 863d 32f7 c43d 85ac 2e3e fe73 21be
00000340: 5962 eebd 2f1b 813d a270 c7bd bd48 2fbe
00000350: de56 8b3d a5c5 50be eb86 2cbd eaff ab3d
00000360: e8f8 fd3d 4858 573e 96f6 063e c0e1 34be
00000370: b42e 4e3e d3a7 2abe 655a 76bd e1fa 853d
00000380: 8147 bbbc 01c4 41be e867 f83c 60b1 f93d
00000390: 00ec a03c 0ffe e43d 51a2 8ebd b03c 1ebd
000003a0: a380 c5bc 9714 2a3e 5fae bc3d 8913 91bb
000003b0: df0a 37be 5444 3a3e 7f0b bb3d febe acbd
000003c0: 6fe2 9dbc 8a04 c7bd 6198 fb3d bfd2 8f3d
000003d0: ca91 fc3d 4062 00be fc01 cf3d 0a09 efbd
000003e0: 32e4 27be ece7 243e ee79 0a3e 82c4 e5bd
000003f0: d63c 893c 9cb3 ffbd 80de 883d 450f b6bd

rnn.0.4.bias f4 [64]
-0.22484303 -0.13504387 0.22655901 -0.18257433 -0.07188131 -0.12168795 -0.10008525 -0.102298826
-0.0008097196 -0.04101493 0.1702759 0.11106411 -0.1319191 0.17228146 0.09739511 0.110910475
0.11427093 0.1529288 0.032652862 -0.20177028 0.17901303 -0.033853743 0.029353892 0.15011676
0.14336583 -0.18058163 0.14016254 -0.10052759 0.278047 0.19883332 0.07754605 0.19856504
0.053448264 0.117209524 -0.07511684 -0.008918005 -0.1156312 -0.1571475 0.2772092 0.03990358
0.11040245 -0.024082696 -0.12268106 -0.0696564 0.09333347 0.12950489 0.19648106 -0.22980414
-0.20676684 0.28516388 -0.07520246 -0.04910269 -0.03992889 0.15748446 -0.13610879 0.14279166
-0.006761096 -0.19379558 -0.13745993 0.15675242 -0.021132251 0.042041074 0.10303004 0.22049989
00000000: 403d 66be f148 0abe 16ff 673e c4f4 3abe
00000010: 8236 93bd 8837 f9bd 7ff9 ccbd 0c82 d1bd
00000020: 5d43 54ba 45ff 27bd ce5c 2e3e 9575 e33d
00000030: cd15 07be 8d6a 303e 1677 c73d 0825 e33d
00000040: e106 ea3d 5e99 1c3e 02bf 053d de9c 4ebe
00000050: 314f 373e 39aa 0abd 9377 f03c 35b8 193e
00000060: 7ece 123e 64ea 38be c586 0f3e 69e1 cdbd
00000070: 2d5c 8e3e f69a 4b3e 77d0 9e3d a254 4b3e
00000080: 91ec 5a3d 8c0b f03d dcd6 99bd d31c 12bc
00000090: 0dd0 ecbd 46eb 20be 5dee 8d3e f071 233d
000000a0: ae1a e23d 1349 c5bc 3540 fbbd 04a8 8ebd
000000b0: 9e25 bf3d ee9c 043e 5532 493e c751 6bbe
000000c0: b0ba 53be 0001 923e bf03 9abd e71f 49bd
000000d0: 7a8c 23bd 9b43 213e 1a60 0bbe fa37 123e
000000e0: 2f8c ddbb 5972 46be 4cc2 0cbe b583 203e
000000f0: 8b1d adbc 4333 2c3d 6a01 d33d b9ca 613e

rnn.0.5.weight f4 [64]
1.0225217 0.9486366 1.1887032 0.95856416 0.94855857 0.9959044 0.9865144 0.94101036
0.9461969 0.94037455 0.9552481 0.97866905 0.9587427 0.9498978 1.0035063 0.95140934
1.0474613 0.992004 0.9483322 0.9425295 0.97796667 0.948838 1.0734514 1.0342443
0.9833802 1.0769103 0.96079797 0.9791455 0.96244466 0.98569167 0.9666241 0.9066857
0.97658795 0.97407466 1.0960449 0.9960267 0.94487035 1.0715147 0.9743124 0.9503699
0.9787271 0.94332474 0.9462016 1.1776114 0.95487225 1.0865278 0.94809276 1.006552
0.94703096 1.218181 0.96271974 0.9525609 0.9777704 0.9775468 0.9429478 0.9546546
1.0523136 1.030106 1.00891 0.9499665 0.9870534 1.0448483 1.069451 0.94928914
00000000: fee1 823f d9d9 723f 6d27 983f 7664 753f
00000010: bcd4 723f 97f3 7e3f 358c 7c3f 0ee6 703f
00000020: f639 723f 63bc 703f 248b 743f 0e8a 7a3f
00000030: 2970 753f 812c 733f e572 803f 908f 733f
00000040: 3613 863f f9f3 7d3f e6c5 723f 9d49 713f
00000050: 065c 7a3f 0ce7 723f db66 893f 1e62 843f
00000060: cebe 7b3f 32d8 893f dbf6 753f 48a9 7a3f
00000070: c662 763f 4a56 7c3f ad74 773f 8e1c 683f
00000080: ab01 7a3f f55c 793f 334b 8c3f 9bfb 7e3f
00000090: 06e3 713f 6527 893f 8a6c 793f 714b 733f
000000a0: dc8d 7a3f bb7d 713f 453a 723f f8bb 963f
000000b0: 8272 743f 5813 8b3f 35b6 723f b2d6 803f
000000c0: 9f70 723f 5bed 9b3f cd74 763f 08db 733f
000000d0: 294f 7a3f 8240 7a3f 0765 713f 3e64 743f
000000e0: 36b2 863f 83da 833f f623 813f 0131 733f
000000f0: 88af 7c3f 97bd 853f c5e3 883f 9d04 733f

rnn.0.5.bias f4 [64]
0.086163655 -0.052173503 -0.0018204446 -0.050362423 -0.058598276 -0.054235272 -0.051117774 -0.046197325
-0.05859831 0.10515746 -0.050362527 -0.058598135 -0.058598295 -0.054240473 -0.01527668 -0.039836597
-0.009176384 0.064483166 -0.058598317 -0.058598313 -0.05349102 -0.052173503 -0.019082684 -0.023471532
-0.0199734 -0.01349298 -0.050362468 -0.049517244 -0.008587367 -0.006415373 -0.044019576 -0.024178213
-0.058598273 -0.009309341 0.06596272 -0.0039279326 -0.058598313 -0.046883002 0.07396794 -0.054240517
-0.05859827 -0.05859833 -0.054240532 0.027700366 -0.050019383 -0.04237194 -0.052173503 -0.048684146
-0.04388339 0.039725583 -0.052173488 -0.05036252 -0.04636924 -0.022576125 -0.058598325 -0.058598276
0.061301388 -0.05720588 -0.034262683 -0.058598313 -0.04218346 -0.021607466 -0.032990813 -0.051019285
00000000: 9276 b03d e2b3 55bd fc9b eeba d448 4ebd
00000010: bf04 70bd ce25 5ebd df60 51bd 6839 3dbd
00000020: c804 70bd cb5c d73d f048 4ebd 9904 70bd
00000030: c404 70bd 422b 5ebd 0a4b 7abc b32b 23bd
00000040: 8b58 16bc c00f 843d ca04 70bd c904 70bd
00000050: 6619 5bbd e2b3 55bd 4a53 9cbc 5f47 c0bc
00000060: 419f a3bc a911 5dbc e048 4ebd 98d2 4abd
00000070: 07b2 0cbc 0d38 d2bb df4d 34bd 6311 c6bc
00000080: be04 70bd 3586 18bc 7617 873d e3b5 80bb
00000090: c904 70bd 6408 40bd 817c 973d 4e2b 5ebd
000000a0: bd04 70bd cd04 70bd 522b 5ebd e1eb e23c
000000b0: 20e1 4cbd 338e 2dbd e2b3 55bd 0769 47bd
000000c0: 12bf 33bd 4bb7 223d deb3 55bd ee48 4ebd
000000d0: aced 3dbd 91f1 b8bc cc04 70bd bf04 70bd
000000e0: 2a17 7b3d b650 6abd 0757 0cbd c904 70bd
000000f0: 90c8 2cbd 2402 b1bc 6021 07bd 99f9 50bd

rnn.0.5.running_mean f4 [64]
-0.24813682 -0.11607508 0.20420752 -0.15469126 -0.06662666 -0.14465731 -0.10247853 -0.051275626
0.004050603 -0.12517092 0.22264466 0.1549391 -0.15850507 0.15586108 0.08814657 0.07305874
0.13749428 0.14712039 0.036213264 -0.21527871 0.16025257 -0.01408999 0.057717282 0.13973592
0.19262162 -0.17883201 0.1785523 -0.113588504 0.3122295 0.23899488 0.073381506 0.22195905
0.045085087 0.16204129 -0.1217193 -0.02041918 -0.12120652 -0.09959054 0.29230022 0.06751456
0.09937977 -0.009933047 -0.11905133 -0.066466995 0.07705999 0.16413744 0.1631208 -0.21162866
-0.24369398 0.2378991 -0.06359428 -0.04117879 -0.041250404 0.13712063 -0.14715819 0.14866696
-0.02823242 -0.14208192 -0.1515335 0.15218988 -0.046762183 0.045403976 0.13753246 0.24789543
00000000: 9417 7ebe c6b8 edbd c71b 513e 6367 1ebe
00000010: 8f73 88bd 0c21 14be 43e0 d1bd 6406 52bd
00000020: ecba 843b ce2c 00be f6fc 633e 5ba8 1e3e
00000030: 274f 22be 0c9a 1f3e 3086 b43d d29f 953d
00000040: 4dcb 0c3e baa6 163e 5c54 143d 0672 5cbe
00000050: 4019 243e b4d9 66bc f568 6c3d ef16 0f3e
00000060: 9a3e 453e bd1f 37be 6ad6 363e 17a1 e8bd
00000070: 8cdc 9f3e 13bb 743e 0b49 963d 3c49 633e
00000080: 24ab 383d 27ee 253e f847 f9bd 2046 a7bc
00000090: 203b f8bd 20f6 cbbd 60a8 953e 1345 8a3d
000000a0: 9f87 cb3d 38be 22bc 2fd1 f3bd d91f 88bd
000000b0: a1d1 9d3d a513 283e 2409 273e 2fb5 58be
000000c0: ea8a 79be d29b 733e b83d 82bd 17ab 28bd
000000d0: 2ff6 28bd 5a69 0c3e a3b0 16be 273c 183e
000000e0: ad47 e7bc ec7d 11be 992b 1bbe aad7 1b3e
000000f0: b489 3fbd 85f9 393d 4fd5 0c3e 4dd8 7d3e

rnn.0.5.running_var f4 [64]
1.4186476e-14 5.3554725e-15 3.1009686e-14 1.3891367e-14 2.3719656e-15 1.5603038e-14 7.40059e-16 9.235936e-16
3.4070738e-18 1.5600888e-14 5.515381e-15 2.8734583e-14 2.189017e-14 5.312509e-15 6.603952e-15 1.9935515e-15
1.4827615e-14 1.417575e-14 1.1389656e-15 1.3608893e-14 1.974033e-14 1.4744774e-16 1.5896443e-15 9.854668e-15
1.1283972e-14 2.5071667e-14 1.8276623e-14 3.7089146e-15 4.217285e-14 2.5100243e-14 8.4553513e-16 1.1401907e-14
1.7196948e-15 3.9135006e-15 6.190233e-15 2.6571323e-16 3.648697e-15 2.838194e-15 2.8432084e-14 1.5129097e-15
4.550701e-15 4.331925e-17 6.7381395e-15 1.0567126e-15 4.261291e-15 1.6804146e-14 2.6482267e-14 5.535662e-15
3.905436e-14 2.570151e-14 1.4323235e-15 9.854153e-16 1.1852708e-15 1.1872836e-14 1.5729156e-14 2.0883572e-14
4.0701572e-16 6.933827e-15 1.5140987e-14 1.8953172e-14 9.256925e-16 9.81174e-16 1.8627496e-14 4.507362e-14
00000000: 938f 7f28 84f3 c027 bca7 0b29 9f3e 7a28
00000010: 0beb 2a27 288a 8c28 b74e 5526 971a 8526
00000020: ce65 7b22 3385 8c28 69b6 c627 b868 0129
00000030: 4c2b c528 3f67 bf27 b5ee ed27 89a6 0f27
00000040: 278e 8528 1c5e 7f28 6a24 a426 f127 7528
00000050: 1ace b128 e4fe 2925 8617 e526 a286 3128
00000060: 2346 4b28 54d3 e128 069f a428 b3a0 8527
00000070: fced 3d29 3815 e228 7bb5 7326 0466 4d28
00000080: 8ad5 f726 acff 8c27 d206 df27 5a2c 9925
00000090: 4a75 8327 7083 4c27 f60b 0029 8408 da26
000000a0: cff4 a327 58c6 4724 5ec4 f227 d049 9826
000000b0: 7987 9927 b95b 9728 f387 ee28 7871 c727
000000c0: 9de2 2f29 a67f e728 696b ce26 6803 8e26
000000d0: c6d0 aa26 cbe1 5528 f7ac 8d28 3d1a bc28
000000e0: eba0 ea25 44d1 f927 bd60 8828 0ab7 aa28
000000f0: 0668 8526 ee66 8d26 15c8 a728 59fe 4a29

rnn.0.7.weight f4 [3, 64]
0.22303839 -0.07096592 0.035011243 -0.025185084 -0.021605434 0.0091053415 -0.0029636885 -0.007773451
-0.029888771 0.18066773 0.031090505 0.050195087 -0.01198745 0.08392971 0.003586306 0.07925224
0.026610263 0.16816294 -0.03367322 0.021713328 -0.034940284 0.046987385 -0.0648085 0.057920802
0.080137156 0.10885928 0.028336434 -0.07527733 -0.020321252 0.105517276 -0.020090457 0.053439215
-0.0047119674 0.031224012 0.17660806 -0.00832466 -0.017149223 -0.02020413 0.15063396 0.124299236
0.0405736 -0.04382069 -0.015893491 0.07159427 0.002939982 0.0026568605 0.031896353 -0.019335706
0.010094734 0.065396085 0.007178212 -0.03681323 0.04346421 0.07013521 -0.031107873 0.00817204
0.16735353 -0.0098074665 0.07479548 0.0332335 0.04702977 0.025724785 -0.04057573 0.011302268
0.09718586 -0.011601813 0.043856513 0.057086017 -0.175089 0.041634705 -0.12189996 -0.012316708
-0.11821557 0.0275544 0.037979554 -0.05517238 -0.11645807 0.0016046858 -0.017361457 -0.022754634
0.014818187 0.11149881 0.028098602 0.043618307 -0.112421304 0.06953873 0.07493602 -0.012341217
0.029680336 0.010792159 0.073821194 -0.021092476 0.092818245 0.061836652 -0.015535785 -0.018865222
-0.132615 0.06201647 0.0043123164 -0.00071520376 -0.055819906 0.07780511 0.10640474 -0.007841231
-0.05183892 -0.07116227 0.15998377 -0.006999612 0.05994285 -0.06325727 -0.162018 -0.052234147
-0.054173473 0.13191643 0.030049328 0.06283626 0.005250511 0.014632482 -0.0021790804 -0.1090347
0.10177664 -0.09430161 -0.043146994 0.042714026 -0.07708207 -0.049949225 -0.012044507 0.069924675
0.018423006 -0.020876816 0.017242542 0.113800555 0.014268808 0.12090831 0.041580804 0.048348844
-0.06569325 0.13501678 0.015782075 -0.09981764 -0.05051068 0.04674669 -0.057298303 -0.023051178
-0.04016554 -0.011855239 -0.05216977 0.055461757 -0.0011514979 -0.029145543 0.025105607 0.055849288
-0.0256657 -0.06066177 -0.011364178 0.034162916 0.054896526 -0.050820913 -0.021077922 -0.079435505
-0.06716566 -0.029974552 0.044912104 0.032435246 -0.051616564 0.04289861 0.0031631412 -0.029072957
-0.028223364 -0.17387262 -0.059972033 0.051536396 0.16207507 0.0406731 0.07065828 0.029936656
-0.02215853 0.0296755 -0.16702297 0.02978099 -0.01033623 0.058360625 -0.14953391 -0.14660329
-0.0022137822 0.039342422 0.043535218 -0.150583 -0.019814014 0.061838366 -0.024294646 0.048627693
00000000: 2d64 643e 9556 91bd f367 0f3d f350 cebc
00000010: e1fd b0bc 922e 153c 713a 42bb 6fb8 febb
00000020: 4cd9 f4bc f600 393e 84b1 fe3c 5d99 4d3d
00000030: 0267 44bc 57e3 ab3d 3b08 6b3b 004f a23d
00000040: c4fd d93c e832 2c3e eeec 09bd 26e0 b13c
00000050: 8b1d 0fbd d875 403d 52ba 84bd 5d3e 6d3d
00000060: f31e a43d 9df1 de3d cf21 e83c 002b 9abd
00000070: c178 a6bc 7119 d83d be94 a4bc 14e3 5a3d
00000080: d966 9abb 80c9 ff3c bed8 343e 2864 08bc
00000090: 877c 8cbc 2283 a5bc ca3f 1a3e 9990 fe3d
000000a0: 8130 263d 537d 33bd 1133 82bc 04a0 923d
000000b0: b7ac 403b b91e 2e3b c0a5 023d ea65 9ebc
000000c0: 6264 253c 62ee 853d 3537 eb3b 78c9 16bd
000000d0: 8707 323d 0da3 8f3d f0d5 febc 05e4 053c
000000e0: b95e 2b3e 7faf 20bc 5f2e 993d da1f 083d
000000f0: 4aa2 403d c9bc d23c bd32 26bd 262d 393c
00000100: 6109 c73d 8815 3ebc e3a2 333d 07d3 693d
00000110: 884a 33be 2789 2a3d b0a6 f9bd 05cc 49bc
00000120: 011b f2bd c4b9 e13c 7390 1b3d 6ffc 61bd
00000130: 9281 eebd 5254 d23a 9d39 8ebc ed67 babc
00000140: fbc7 723c 7d59 e43d 0a2f e63c 1ca9 323d
00000150: 243d e6bd 526a 8e3d 0e78 993d d132 4abc
00000160: 2d24 f33c 98d1 303c 912f 973d 21ca acbc
00000170: 7e17 be3d 6e48 7d3d ce89 7ebc 3d8b 9abc
00000180: 3acc 07be fb04 7e3d 554e 8d3b 837c 3bba
00000190: 6aa3 64bd 4958 9f3d baea d93d 8278 00bc
000001a0: 0c55 54bd 86bd 91bd c9d2 233e 005d e5bb
000001b0: a286 753d 078d 81bd 0ce8 25be 79f3 55bd
000001c0: 01e5 5dbd 1a15 073e 022a f63c 4cb0 803d
000001d0: 7b0c ac3b 14bd 6f3c e7ce 0ebb 964d dfbd
000001e0: 4570 d03d 3421 c1bd e7ba 30bd e7f4 2e3d
000001f0: 34dd 9dbd 8f97 4cbd 5356 45bc ab34 8f3d
00000200: d8eb 963c db05 abbc 3b40 8d3c 4410 e93d
00000210: b8c7 693c c79e f73d a250 2a3d 7009 463d
00000220: 2f8a 86bd d741 0a3e 6949 813c 316d ccbd
00000230: 49e4 4ebd 7579 3f3d a0b1 6abd d3d5 bcbc
00000240: 9f84 24bd 7a3c 42bc f8af 55bd de2b 633d
00000250: dced 96ba a2c2 eebc 46aa cd3c 39c2 643d
00000260: e040 d2bc 7a78 78bd d130 3abc 6aee 0b3d
00000270: 2edb 603d 9729 50bd 9bab acbc 15af a2bd
00000280: 268e 89bd 318d f5bc c1f5 373d d2da 043d
00000290: e46b 53bd 74b6 2f3d b44c 4f3b 692a eebc
000002a0: af34 e7bc aa0b 32be 3ca5 75bd d417 533d
000002b0: 02f7 253e d698 263d 4ab5 903d b83d f53c
000002c0: ce85 b5bc 091a f33c 1208 2bbe 43f7 f33c
000002d0: 4a59 29bc 8d0b 6f3d 6b1f 19be 2c1f 16be
000002e0: 1a15 11bb 8525 213d fc51 323d 6e32 1abe
000002f0: 0051 a2bc 3a4a 7d3d 9105 c7bc d52d 473d

rnn.0.7.bias f4 [3]
0.072034776 -0.018564822 0.0385161
00000000: f886 933d 4115 98bc 0fc3 1d3d

rnn.1.0.weight f4 [3]
0.8936509 1.1353277 1.0276767
00000000: 4ec6 643f 6b52 913f e98a 833f

rnn.1.0.bias f4 [3]
-0.11564898 -0.07120008 0.12999924
00000000: 5fd9 ecbd 59d1 91bd 851e 053e

rnn.1.0.running_mean f4 [3]
0.0009782686 0.00048209363 0.0005574321
00000000: 3f39 803a 83c1 fc39 a320 123a

rnn.1.0.running_var f4 [3]
0.00032453382 0.00027894595 0.00029210222
00000000: 3126 aa39 7e3f 9239 4c25 9939

rnn.1.1.weight f4 [28, 3]
-0.015389474 0.009968191 0.29228026 0.1614457 -0.46286267 -0.5841462 -0.59171337 -0.38211498
-0.07329444 -0.27545965 -0.4752726 0.12263177 0.004804153 -0.31038895 -0.17859605 -0.4034584
0.4266932 -0.35223213 -0.3224436 0.2932345 -0.3628148 0.04206904 -0.11663542 -0.6914038
-0.03652791 -0.020780265 0.64743096 -0.009618871 -0.5023119 0.10276397 0.13938218 -0.15528846
-0.53426105 -0.38471925 -0.5465369 0.49888852 0.2506392 0.6377995 0.14460167 -0.036023866
0.2773326 0.43359563 0.09227291 0.45229676 -0.034646712 -0.5697219 0.12797602 0.15918234
0.14118996 0.21304657 -0.14276548 -0.52609795 0.42453626 -0.23746245 0.4666116 -0.54806364
-0.1268283 0.37945622 0.14370438 0.54370695 0.3396392 0.42410553 0.22060156 0.02186376
-0.15512298 -0.30837873 0.037501033 -0.00041397833 0.38846624 -0.15844835 -0.484957 -0.19707574
0.21427372 0.17309122 -0.46625075 -0.31486398 -0.35552543 0.33430192 -0.2370427 -0.44291225
-0.4785977 -0.11343099 0.2915868 0.5606106
00000000: 2224 7cbc a051 233c c2a5 953e 0652 253e
00000010: 56fc ecbe 9b8a 15bf 877a 17bf 93a4 c3be
00000020: 651b 96bd 0c09 8dbe ee56 f3be 5e26 fb3d
00000030: 286c 9d3b 4deb 9ebe e2e1 36be 1992 cebe
00000040: 8877 da3e c557 b4be 5417 a5be d522 963e
00000050: ddc2 b9be 9650 2c3d 8dde eebd d7ff 30bf
00000060: 4a9e 15bd 603b aabc 09be 253f 7898 1dbc
00000070: 8397 00bf eb75 d23d 34ba 0e3e f003 1fbe
00000080: 55c5 08bf ecf9 c4be d8e9 0bbf 516e ff3e
00000090: c853 803e d446 233f 7612 143e c38d 13bd
000000a0: 8afe 8d3e 3f00 de3e 94f9 bc3d 7193 e73e
000000b0: b6e9 0dbd 4bd9 11bf 250c 033e b200 233e
000000c0: 1a94 103e e128 5a3e 1d31 12be 5bae 06bf
000000d0: d15c d93e 5b29 73be b7e7 ee3e e64d 0cbf
000000e0: 47df 01be 1648 c23e 3e27 133e 6130 0b3f
000000f0: 30e5 ad3e 5c24 d93e 60e5 613e a11b b33c
00000100: 8fd8 1ebe d1e3 9dbe af9a 193d 3b0b d9b9
00000110: 0ce5 c63e 4940 22be 494c f8be 39ce 49be
00000120: 926a 5b3e d33e 313e 6bb8 eebe da35 a1be
00000130: 6e07 b6be 9f29 ab3e 52bb 72be 65c5 e2be
00000140: c20a f5be 824e e8bd dd4a 953e 2d84 0f3f

rnn.1.1.bias f4 [28]
0.1921706 0.14275467 -0.34884602 -0.13962503 -0.39655682 -0.24926774 -0.5057889 0.35238367
-0.2349935 0.009830768 -0.26266032 0.23290177 -0.35888106 0.30231342 0.3145807 0.20420705
0.12599853 -0.43905288 -0.22938783 -0.6138447 -0.44470415 -0.114432 -0.1520161 -0.32751936
0.40276137 0.29250544 0.14636722 0.21860209
00000000: 5fc8 443e 482e 123e f29b b2be ddf9 0ebe
00000010: 7f09 cbbe 0b40 7fbe 627b 01bf a26b b43e
00000020: 23a2 70be 3b11 213c 6a7b 86be cd7d 6e3e
00000030: 42bf b7be d3c8 9a3e b910 a13e a71b 513e
00000040: c205 013e 8acb e0be a5e4 6abe ed24 1dbf
00000050: 43b0 e3be 535b eabd 1caa 1bbe 9eb0 a7be
00000060: bd36 ce3e 46c3 953e 4ae1 153e 3ad9 5f3e

rnn.1.2.weight f4 [28]
1.1376728 1.0013214 0.8296206 0.9573827 1.0089465 1.0246388 0.9302584 0.8676875
0.9455645 0.9960112 1.0617812 1.1763607 1.0579075 1.0081782 1.0969899 0.9231889
1.0030038 0.89852136 0.9975261 1.1574863 1.0183194 1.0800283 1.0181295 0.9249176
0.9531432 1.1309161 0.9753402 0.98858273
00000000: 439f 913f 4d2b 803f 0462 543f 0817 753f
00000010: 2925 813f 5d27 833f 6a25 6e3f c520 5e3f
00000020: 8410 723f 97fa 7e3f 72e8 873f fd92 963f
00000030: 8369 873f fc0b 813f 2a6a 8c3f 1c56 6c3f
00000040: 6e62 803f 7f05 663f df5d 7f3f 8328 943f
00000050: 4a58 823f 5e3e 8a3f 1152 823f 66c7 6c3f
00000060: 3101 743f dcc1 903f e5af 793f c213 7d3f

rnn.1.2.bias f4 [28]
0.17332684 0.117675096 -0.13582005 0.08266754 0.08805912 0.15316522 -0.11237204 -0.09121599
0.056506746 0.020521594 0.21104053 0.20881604 0.06731167 0.051594146 0.1926259 -0.059516415
-0.0004451724 -0.059158217 -0.030628052 0.23829868 0.025427664 0.12540418 0.13297197 -0.050552074
-0.10598304 0.11708171 -0.037571277 0.14808775
00000000: 977c 313e a4ff f03d 6914 0bbe 994d a93d
00000010: 5758 b43d 58d7 1c3e 5023 e6bd 73cf babd
00000020: 9e73 673d e71c a83c 021b 583e dfd3 553e
00000030: b3da 893d 6254 533d b93f 453e 7cc7 73bd
00000040: 0766 e9b9 e34f 72bd aee7 fabc 9204 743e
00000050: ad4d d03c f469 003e ce29 083e b10f 4fbd
00000060: a30d d9bd 89c8 ef3d 57e4 19bd 51a4 173e

rnn.1.2.running_mean f4 [28]
0.2311874 0.08109603 -0.26247412 -0.057977386 -0.39825073 -0.2783577 -0.536504 0.26596427
-0.14512338 0.06007649 -0.33711225 0.3809428 -0.41455325 0.3430806 0.26698583 0.28198293
0.07590155 -0.43928522 -0.26082957 -0.5973416 -0.48572934 -0.14603728 -0.10578124 -0.30025727
0.3050757 0.39801317 0.14328952 0.2840611
00000000: 64bc 6c3e ad15 a63d 0263 86be b279 6dbd
00000010: 85e7 cbbe e784 8ebe 5358 09bf 782c 883e
00000020: 399b 14be c412 763d fa99 acbe ef0a c33e
00000030: 5340 d4be 43a8 af3e 5eb2 883e 1160 903e
00000040: 4672 9b3d fee9 e0be 748b 85be 61eb 18bf
00000050: 84b1 f8be cc8a 15be d6a3 d8bd 52bb 99be
00000060: e232 9c3e 62c8 cb3e 7dba 123e 7570 913e

rnn.1.2.running_var f4 [28]
0.05216779 0.48828974 0.47210515 0.2342985 0.13142197 0.13305512 0.110694535 0.34671474
0.23481303 0.15387112 0.2122708 0.26869553 0.5360597 0.24996139 0.16818982 0.10445334
0.0409239 0.1410704 0.18953107 0.46974716 0.42330012 0.107157454 0.100398436 0.34868497
0.08641835 0.13506919 0.60298336 0.3317831
00000000: e4ad 553d 1d01 fa3e c4b7 f13e f2eb 6f3e
00000010: 7b93 063e 9a3f 083e d1b3 e23d 9884 b13e
00000020: d472 703e 6490 1d3e 845d 593e 7692 893e
00000030: 353b 093f e1f5 7f3e f439 2c3e a2eb d53d
00000040: d29f 273d c274 103e 6f14 423e b382 f03e
00000050: cbba d83e 5e75 db3d b29d cd3d d686 b23e
00000060: 1bfc b03d 944f 0a3e 1e5d 1a3f 79df a93e

rnn.1.4.weight f4 [64, 28]
-0.18633507 0.14228924 0.02802303 0.102720626 0.00273332 -0.018252673 -0.2138912 0.0720028
0.011075688 0.091536455 -0.08126413 -0.046211813 -0.059734665 -0.032660812 -0.22212532 -0.20513797
-0.20939772 -0.21741696 0.1732326 -0.14897501 -0.04463171 -0.066242374 -0.113139205 -0.055197448
-0.14770105 -0.07044564 -0.19572388 -0.048244987 -0.15913987 -0.15652667 0.09901472 -0.15827544
-0.12823233 0.095566206 -0.10102796 0.018408986 -0.20925105 -0.20058395 0.07547593 0.2355245
0.12606697 -0.10843194 0.104636975 0.093677245 0.04263635 -0.1276952 -0.25454986 -0.23118088
-0.1568637 -0.1709603 -0.056502108 -0.14790991 0.061005395 0.06411942 0.0738667 0.07897876
0.18997763 -0.034001194 -0.2095287 0.11179905 -0.16168617 -0.16926308 -0.18724777 0.11893921
0.02380165 0.18099 -0.082443796 0.1468566 -0.013361907 0.024784131 -0.1337741 -0.123411484
-0.106553696 -0.19674404 -0.06943478 0.124040544 -0.13429505 0.010858771 0.048349094 0.15504342
0.03868741 0.13457479 -0.15824497 0.10206287 0.020008747 -0.2440795 0.052422184 -0.007148491
-0.028018074 -0.09307398 -0.19369878 -0.00122722 -0.14795034 0.070033476 0.060429454 -0.070283785
-0.09228608 -0.22339886 -0.28134185 0.0681033 -0.24012011 0.12652385 0.19971427 -0.16343318
-0.2520875 0.0057265246 -0.14793491 -0.13254172 0.023777718 -0.041247208 -0.14615375 0.10399972
-0.13079126 -0.24741012 -0.14988028 0.034851547 0.047406554 -0.06734058 -0.17169766 0.073567204
0.048352215 0.06106372 0.0060102474 -0.17467786 0.043636948 -0.051597636 0.23682986 -0.10906864
-0.09279372 -0.073789634 0.0681458 0.08597791 0.17587063 -0.122432075 0.07140924 0.12386782
-0.03130657 -0.2412477 -0.123638555 0.071498916 0.09882641 -0.12004314 -0.073417395 0.051233336
-0.026831398 0.22458166 0.08879487 0.024734007 0.14039996 0.2140053 0.11041309 0.23093708
0.16898166 0.100610085 0.060996994 0.07695014 0.06868157 -0.022985928 -0.018454032 0.009459482
-0.11205561 -0.022255804 -0.13790579 0.2275945 0.028811803 0.15011722 0.02530382 -0.06710361
-0.14388174 -0.13020591 0.22113724 -0.10520049 -0.17315622 0.17452851 0.0060730814 -0.3083428
0.019239496 -0.024516437 -0.16871299 -0.24781774 -0.029975127 -0.015232182 -0.08314744 -0.019215815
-0.049408235 -0.14301738 -0.25094888 -0.2082093 -0.108936846 -0.25648245 -0.11123638 -0.02251269
0.018327165 0.010926106 -0.1382053 0.0210803 -0.076664686 0.0048342245 -0.2506669 -0.25972977
-0.037536353 -0.079512164 -0.31898043 -0.19445224 0.014142303 0.168339 -0.14245251 -0.3082135
-0.08423902 -0.014976505 0.099531926 -0.024889616 -0.31536147 -0.10005961 0.06929432 -0.07690308
0.16587812 0.07870863 -0.09267758 -0.28042033 -0.075433984 -0.041065242 -0.15681042 0.061342902
0.24788858 -0.1692458 -0.025317002 0.023666132 -0.24747385 0.18396623 -0.06431253 0.026959592
0.07956166 -0.017372647 -0.2868988 -0.1533195 -0.048413787 0.03346274 0.06319066 -0.027404243
-0.050168965 -0.16045769 -0.20043626 -0.08895329 -0.02490856 0.05047531 0.08561409 0.06960208
-0.2516437 -0.26926777 -0.28771517 -0.023152716 -0.008651429 0.043706812 0.020491257 -0.03462367
00000000: 9fce 3ebe 45b4 113e 8e90 e53c 315f d23d
00000010: 8021 333b a186 95bc 4b06 5bbe 3476 933d
00000020: cd76 353c 7777 bb3d cf6d a6bd 9948 3dbd
00000030: 56ac 74bd 58c7 05bd d274 63be b00f 52be
00000040: 5b6c 56be 8da2 5ebe e363 313e e88c 18be
00000050: bdcf 36bd 15aa 87bd 87b5 e7bd b816 62bd
00000060: f23e 17be ce45 90bd d76b 48be 899c 45bd
00000070: 90f5 22be 8748 20be 3bc8 ca3d f512 22be
00000080: 564f 03be 37b8 c33d bfe7 cebd 71ce 963c
00000090: e845 56be e165 4dbe 2093 9a3d 562d 713e
000000a0: b317 013e 9111 debd e94b d63d dbd9 bf3d
000000b0: 74a3 2e3d 88c2 02be 5c54 82be aeba 6cbe
000000c0: e1a0 20be 3810 2fbe c16e 67bd b275 17be
000000d0: cbe0 793d 0b51 833d 6d47 973d 9ebf a13d
000000e0: 7f89 423e d644 0bbd b18e 56be e6f6 e43d
000000f0: 0f91 25be 4d53 2dbe e1bd 3fbe 6796 f33d
00000100: aefb c23c 7155 393e 4bd8 a8bd 9461 163e
00000110: e6eb 5abc 1708 cb3c 14fc 08be 29bf fcbd
00000120: d338 dabd 4577 49be d233 8ebd f808 fe3d
00000130: a484 09be fde8 313c b309 463d b4c3 1e3e
00000140: b176 1e3d f9cd 093e f80a 22be 5706 d13d
00000150: 62e9 a33c faef 79be a5b8 563d e43d eabb
00000160: 2986 e5bc 929d bebd f958 46be acda a0ba
00000170: 4b80 17be b66d 8f3d e084 773d f2f0 8fbd
00000180: 7c00 bdbd acc2 64be 0a0c 90be be79 8b3d
00000190: 0ce2 75be 788f 013e e681 4c3e 075b 27be
000001a0: 9d11 81be 92a5 bb3b 407c 17be 04b9 07be
000001b0: 7dc9 c23c d5f2 28bd 54a9 15be cefd d43d
000001c0: 25ee 05be 1459 7dbe 377a 19be 7fc0 0e3d
000001d0: 602d 423d dce9 89bd 83d1 2fbe 67aa 963d
000001e0: f90c 463d f41d 7a3d 9cf1 c43b c1de 32be
000001f0: a8bc 323d 0b58 53bd 8783 723e 615f dfbd
00000200: a20a bebd 051f 97bd 0690 8b3d 3015 b03d
00000210: 6e17 343e abbd fabd 023f 923d 69ae fd3d
00000220: 513b 00bd a309 77be 3636 fdbd 066e 923d
00000230: 8065 ca3d 2ed9 f5bd dc5b 96bd 0cda 513d
00000240: 85cd dbbc bcf8 653e 16da b53d f99e ca3c
00000250: 02c5 0f3e 3524 5b3e 4220 e23d c57a 6c3e
00000260: 8709 2d3e a90c ce3d fcd7 793d 0998 9d3d
00000270: eca8 8c3d fc4c bcbc e92c 97bc f1fb 1a3c
00000280: 697d e5bd ce51 b6bc 2d37 0dbe 880e 693e
00000290: bb06 ec3c 54b8 193e f549 cf3c 9e6d 89bd
000002a0: bc55 13be b354 05be cd71 623e 5b73 d7bd
000002b0: dd4f 31be 9ab7 323e b300 c73b 1cdf 9dbe
000002c0: 269c 9d3c b2d6 c8bc 19c3 2cbe efc3 7dbe
000002d0: 668e f5bc 6790 79bc 3449 aabd 7c6a 9dbc
000002e0: 4a60 4abd 2673 12be 5f7c 80be d234 55be
000002f0: 481a dfbd ab51 83be e6cf e3bd 886c b8bc
00000300: da22 963c 6903 333c b185 0dbe 98b0 ac3c
00000310: 6002 9dbd 6a68 9e3b 6957 80be 4dfb 84be
00000320: b8bf 19bd 46d7 a2bd 6751 a3be 7d1e 47be
00000330: 1eb5 673c 0f61 2c3e 12df 11be 29ce 9dbe
00000340: 8285 acbd 0460 75bc 65d7 cb3d 4fe5 cbbc
00000350: 0f77 a1be 0eec ccbd 2eea 8d3d 5d7f 9dbd
00000360: f4db 293e fd31 a13d becd bdbd 4193 8fbe
00000370: 227d 9abd 0734 28bd e992 20be b242 7b3d
00000380: 81d6 7d3e c54e 2dbe 9a65 cfbc 7adf c13c
00000390: c969 7dbe a561 3c3e 4ab6 83bd 5dda dc3c
000003a0: 39f1 a23d 1551 8ebc 66e4 92be c9ff 1cbe
000003b0: 894d 46bd 3a10 093d 1b6a 813d dd7e e0bc
000003c0: f97d 4dbd 054f 24be 2a3f 4dbe 242d b6bd
000003d0: 090d ccbc 33bf 4e3d 7156 af3d 898b 8e3d
000003e0: 71d7 80be 77dd 89be 674f 93be c4aa bdbc
000003f0: b9be 0dbc ea05 333d 48dd a73c 8dd1 0dbd

rnn.1.4.bias f4 [64]
0.17657684 -0.065797776 -0.090679914 -0.1533691 -0.015292118 -0.011288902 0.18447563 0.22431935
-0.10408565 -0.1803977 -0.02055988 -0.076414004 -0.25638497 0.04287253 0.10628923 -0.14151895
-0.25137115 -0.023186853 0.018877756 -0.10922061 0.02835672 -0.021621697 0.0030254696 0.20127417
0.03987048 0.1542183 0.17321907 -0.11223655 -0.06914492 0.24983169 -0.039309103 0.170774
-0.3135251 -0.21514843 -0.2043517 0.18498121 -0.118463255 -0.12624252 0.035398863 -0.19431996
-0.053891003 0.26542634 -0.12957925 0.15006572 -0.15104972 0.16426715 0.24080227 -0.06827303
0.01911214 0.056975827 0.019754734 0.062964424 -0.21059874 0.090510495 -0.020048646 0.2654227
-0.09055476 -0.05314166 0.24462418 0.08701367 0.14841896 0.019541899 -0.16172478 -0.18690781
00000000: 8fd0 343e fcc0 86bd 64b6 b9bd ca0c 1dbe
00000010: cb8b 7abc 16f5 38bc 2ee7 3c3e f9b3 653e
00000020: db2a d5bd 2dba 38be 326d a8bc f27e 9cbd
00000030: e444 83be 1b9b 2f3d 2bae d93d 58ea 10be
00000040: b8b3 80be 5bf2 bdbc 86a5 9a3c 0eaf dfbd
00000050: 5a4c e83c fc1f b1bc f546 463b d11a 4e3e
00000060: 3a4f 233d 67eb 1d3e 5760 313e 47dc e5bd
00000070: da9b 8dbd e1d3 7f3e 9502 21bd 61df 2e3e
00000080: 5d86 a0be df4f 5cbe 9241 51be b76b 3d3e
00000090: dd9c f2bd b845 01be 66fe 103d d0fb 46be
000000a0: d0bc 5cbd f6e5 873e 6cb0 04be d4aa 193e
000000b0: c7ac 1abe a635 283e df94 763e bbd2 8bbd
000000c0: 1091 9c3c 7c5f 693d aed4 a13c 7ef3 803d
000000d0: 32a7 57be 915d b93d 0f3d a4bc 7ce5 873e
000000e0: c674 b9bd 12ab 59bd c37e 7a3e 3934 b23d
000000f0: 24fb 173e 5516 a03c 2e9b 25be c364 3fbe

rnn.1.5.weight f4 [64]
0.8617318 0.89796746 0.95827925 0.91263133 0.89772296 0.94676554 0.9091623 0.8448258
0.97932863 1.0003462 0.9056297 0.87277377 0.8587623 0.98779 0.9448818 0.8821743
0.87177855 0.8911294 1.0097623 0.91880924 1.0351025 0.8773377 0.975854 0.85450983
0.97667944 0.8894366 0.89601636 0.9764541 0.9584451 0.89561164 0.94078827 0.8619594
0.9076496 0.8598518 0.9258746 0.9403307 0.8709203 0.97961783 0.9857241 0.95240706
0.8870154 0.86069965 0.93631643 0.87214905 0.9896394 1.0104414 0.9966184 0.95593065
0.92794085 0.91431636 0.91441005 0.83691394 0.96481454 0.9015454 0.88120884 0.9569114
0.88983756 1.0066905 0.9594342 0.9504318 0.8997844 0.9167159 0.92667305 0.939651
00000000: 759a 5c3f 32e1 653f ca51 753f 35a2 693f
00000010: 2cd1 653f 3a5f 723f dcbe 683f 8146 583f
00000020: 48b5 7a3f 580b 803f 59d7 673f 1a6e 5f3f
00000030: d9d7 5b3f cedf 7c3f c6e3 713f 2dd6 613f
00000040: e12c 5f3f 0e21 643f e43f 813f 1537 6b3f
00000050: 3d7e 843f 3499 603f 91d1 793f 28c1 5a3f
00000060: aa07 7a3f 1eb2 633f 5461 653f e5f8 793f
00000070: a85c 753f ce46 653f 80d7 703f 5fa9 5c3f
00000080: b95b 683f 3f1f 5c3f 1e06 6d3f 83b9 703f
00000090: a2f4 5e3f 3cc8 7a3f 6a58 7c3f f3d0 733f
000000a0: 7113 633f d056 5c3f 6fb2 6f3f 2945 5f3f
000000b0: 0259 7d3f 2556 813f 6222 7f3f dfb7 743f
000000c0: 888d 6d3f a310 6a3f c716 6a3f fe3f 563f
000000d0: 16fe 763f aecb 663f e796 613f 25f8 743f
000000e0: 65cc 633f 3cdb 803f 7b9d 753f 804f 733f
000000f0: 4558 663f e5ad 6a3f 723a 6d3f f88c 703f

rnn.1.5.bias f4 [64]
-0.11619751 -0.1454471 -0.0078166835 -0.06974485 -0.14171112 0.013882172 -0.096346274 -0.22777134
0.04765576 0.042814706 -0.15757501 -0.19171436 -0.14972405 0.0024476754 -0.100696586 -0.17621274
-0.18185937 -0.054005425 -0.009219502 -0.08919112 0.05261719 -0.12340035 0.068387456 -0.122506395
0.069386296 -0.11102851 -0.15986632 -0.12740174 -0.031645313 -0.028894607 -0.13059877 -0.1300974
-0.07097498 -0.09188548 0.005524359 -0.00718221 -0.11988696 -0.12872574 -0.061862618 -0.023139028
-0.05182461 -0.18276039 -0.07572818 -0.092698395 -0.057077456 0.03586449 0.014290775 -0.07153362
-0.14138849 -0.07544184 -0.0415921 -0.151476 0.032113705 -0.07452015 -0.049045138 -0.07417147
-0.031052923 0.029386064 0.07279217 -0.09383244 -0.05498511 -0.10265039 -0.098252475 -0.025124995
00000000: f6f8 edbd 16f0 14be 8c11 00bc 63d6 8ebd
00000010: b81c 11be 0d72 633c 3251 c5bd e43c 69be
00000020: b032 433d 795e 2f3d 585b 21be c550 44be
00000030: 4351 19be 2e69 203b 033a cebd 1d71 34be
00000040: 5839 3abe cb34 5dbd 650d 17bc d5a9 b6bd
00000050: 1f85 573d 53b9 fcbd b90e 8c3d a2e4 fabd
00000060: 671a 8e3d ea62 e3bd ffb3 23be 9a75 02be
00000070: 849e 01bd 62b4 ecbc afbb 05be 4138 05be
00000080: 555b 91bd 742e bcbd af05 b53b bf58 ebbb
00000090: 4b87 f5bd aed0 03be a863 7dbd 0f8e bdbc
000000a0: 0b46 54bd 8a25 3bbe 6017 9bbd a8d8 bdbd
000000b0: 0dca 69bd a5e6 123d db23 6a3c 3880 92bd
000000c0: 25c8 10be 4081 9abd 7a5c 2abd 861c 1bbe
000000d0: a989 033d 059e 98bd 8ee3 48bd 36e7 97bd
000000e0: b362 febc 0bbb f03c 1014 953d 392b c0bd
000000f0: 1138 61bd 5e3a d2bd 9838 c9bd efd2 cdbc

rnn.1.5.running_mean f4 [64]
-0.50461835 -0.49335453 -0.13297021 -0.87924725 -0.24295129 0.5914426 -0.7442851 -0.5573077
-0.6546659 -0.8702154 -0.45613605 -0.4113964 -1.2141964 -0.9212462 0.21387 -0.17326356
0.2928068 -0.47269967 0.3376303 -0.7942083 -0.50344986 -0.50710046 0.18596019 -0.19419225
-0.5728621 0.10668127 -0.76791704 0.029961947 0.11073693 -0.10208709 -0.060017012 -0.53396916
-0.44399 -1.3136019 -0.5300188 -0.29936337 -0.64663047 -0.26586744 0.17800136 -0.75196433
-0.47902596 -0.008323665 0.16487136 0.68604803 0.14297414 0.16938783 0.60158217 0.02242078
0.60389715 0.5615763 -0.55177677 0.19193593 -0.71677864 -0.6616784 -0.48379865 0.7781163
-0.33908474 -0.3288957 -0.16975848 0.22404732 0.98812383 0.7185195 0.050771836 -0.6398327
00000000: ab2e 01bf f798 fcbe 5829 08be 5916 61bf
00000010: 39c8 78be c868 173f 7889 3ebf b8ab 0ebf
00000020: 2f98 27bf 70c6 5ebf aa8a e9be 8da2 d2be
00000030: ca6a 9bbf cad6 6bbf bd00 5b3e 016c 31be
00000040: c6ea 953e b105 f2be e1dd ac3e 3c51 4bbf
00000050: 17e2 00bf 56d1 01bf 596c 3e3e 55da 46be
00000060: 17a7 12bf b67b da3d 3696 44bf c272 f53c
00000070: 0bca e23d 0913 d1bd 66d4 75bd 34b2 08bf
00000080: a852 e3be 1b24 a8bf 50af 07bf 2846 99be
00000090: 9389 25bf c71f 88be fd45 363e bc80 40bf
000000a0: e442 f5be fb5f 08bc 0ad4 283e d8a0 2f3f
000000b0: d067 123e 0174 2d3e 4a01 1a3f c9ab b73c
000000c0: 0199 1a3f 77c3 0f3f 3e41 0dbf da8a 443e
000000d0: ce7e 37bf c163 29bf 75b4 f7be a132 473f
000000e0: 849c adbe 0465 a8be 2bd5 2dbe a96c 653e
000000f0: aff5 7c3f e5f0 373f 21f6 4f3d 13cc 23bf

rnn.1.5.running_var f4 [64]
0.52991277 0.27388605 0.36231863 0.5966265 0.4920772 0.3124255 0.7736013 0.8113309
0.97872263 0.47366527 0.5893457 0.77995664 0.7773123 0.7690138 0.30742395 0.6895097
0.41635936 0.6670966 1.0499523 0.53092057 0.31478816 0.87553686 0.21698876 0.53152364
0.57283396 1.278316 0.9876983 0.51154524 1.0174063 1.0290459 0.9065557 0.83742946
0.73865694 0.97575617 0.63701123 0.40648413 0.4558181 1.0283061 0.74582815 0.8072549
0.985791 0.6620452 0.8986522 0.44575328 0.6770783 0.19527358 0.5107947 0.5261001
0.8450838 0.67919993 0.8381198 0.567991 0.36046237 0.7105751 0.38687786 0.56263494
0.6979511 0.48157883 0.5746725 0.16470653 0.6482938 0.467341 0.52631056 0.88436294
00000000: 5da8 073f cb3a 8c3e d481 b93e 84bc 183f
00000010: 8bf1 fb3e 3cf6 9f3e bc0a 463f 62b3 4f3f
00000020: 918d 7a3f 4184 f23e 5cdf 163f 3dab 473f
00000030: f0fd 463f 17de 443f ac66 9d3e b583 303f
00000040: 0e2d d53e d8c6 2a3f d664 863f 69ea 073f
00000050: ea2b a13e 2f23 603f 4d32 5e3e ef11 083f
00000060: 3fa5 123f dc9f a33f ccd9 7c3f a1f4 023f
00000070: 5f3a 823f c7b7 833f 0914 683f c761 563f
00000080: 9f18 3d3f 28cb 793f 2b13 233f b01e d03e
00000090: fd60 e93e 899f 833f 98ee 3e3f 42a8 4e3f
000000a0: cd5c 7c3f cb7b 293f 120e 663f c639 e43e
000000b0: 0155 2d3f ccf5 473e 71c3 023f 7fae 063f
000000c0: 6957 583f 0ce0 2d3f 058f 563f dc67 113f
000000d0: 868e b83e 40e8 353f db14 c63e d808 103f
000000e0: ecac 323f 8091 f63e bd1d 133f d4a8 283e
000000f0: 95f6 253f 5247 ef3e 4abc 063f 9c65 623f

rnn.1.7.weight f4 [3, 64]
0.009284237 0.035268396 0.066638425 -0.042946737 -0.009146621 -0.03142203 0.043825213 -0.02021082
0.07311044 0.1365331 -0.01664932 -0.05065169 -0.056663595 0.1076177 -0.11674965 0.04458214
0.0017624651 0.02570738 0.03388874 -0.07340196 0.15478776 -0.03854855 -0.089363016 -0.020372532
0.048006132 0.010173082 -0.039820846 -0.11339541 -0.06960528 -0.014806236 0.12799133 0.0024360837
-0.04171602 0.12613574 0.06882115 0.07500674 -0.021677379 0.10558986 0.047281764 0.096473046
0.07322189 -0.0038285644 0.07393513 -0.018706106 0.108477786 -0.0049576326 -0.099813774 -0.07891185
0.07997048 0.015661161 0.009742375 0.0148890745 0.07879624 -0.09098765 0.026101388 -0.055649552
0.084417045 0.06733151 -0.008249491 -0.081092976 -0.03135698 0.05907355 0.07813493 0.020554274
-0.019397592 -0.042747285 0.019448621 -0.018919509 -0.11545384 0.07931145 0.040480338 -0.131839
-0.11696508 0.047905296 0.03026877 0.03237235 -0.02774107 0.04610209 0.02373831 0.012703208
0.04298693 0.07100496 -0.13890585 0.08892425 0.0971531 -0.017480923 0.18223117 -0.023171747
0.02333405 -0.012514607 0.08022757 -0.019760277 -0.05091592 -0.10901918 -0.037031785 0.002566885
-0.05568468 -0.07352582 -0.005356569 -0.006456776 0.04781149 0.10642378 -0.09637868 0.11283609
-0.031445336 -0.040616184 0.04090124 0.027786719 -0.08930239 -0.021852305 0.0022404676 0.0006465334
0.08376274 0.06284072 -0.05277656 -0.02177558 0.021510271 -0.012503014 0.001404548 0.12860754
-0.017892478 0.0382467 -0.029673414 0.012270523 0.024116391 0.03171225 0.017731214 0.10669489
0.15681349 -0.009341127 0.012118878 0.11963619 0.015934605 -0.052729826 -0.037536234 -0.013381047
-0.05308364 0.09284815 -0.025865369 0.08911479 0.004985754 -0.0005412012 0.0020118307 0.05397003
0.007488601 0.0058066514 0.10313712 0.026612354 0.030966513 0.023736786 -0.0026603136 0.017650796
0.082737 0.0026927565 -0.07444362 -0.033178736 -0.05234291 -0.03646819 -0.015041136 0.016494775
0.04593955 -0.028720085 -0.02017137 -0.08461472 -0.016137743 0.091014326 0.14620796 -0.08252229
-0.100612044 0.078163445 0.018522965 0.011378388 0.059967592 -0.20030917 -0.104251966 -0.09817318
-0.08994922 -0.06744286 -0.010640072 -0.06311711 0.020244831 0.05124995 -0.039085772 -0.04182842
-0.055556092 0.06977265 -0.08354913 0.019970046 0.042821653 0.015314448 -0.10004151 -0.052423056
00000000: ea1c 183c 9875 103d ba79 883d ebe8 2fbd
00000010: b6db 15bc 63b4 00bd 1182 333d 2991 a5bc
00000020: edba 953d 55cf 0b3e 2864 88bc 2678 4fbd
00000030: 1618 68bd ab66 dc3d 711a efbd c39b 363d
00000040: 8402 e73a 4998 d23c ebce 0a3d c453 96bd
00000050: af80 1e3e 16e5 1dbd f503 b7bd 4ce4 a6bc
00000060: 14a2 443d 00ad 263c 2f1b 23bd da3b e8bd
00000070: 378d 8ebd db95 72bc 2910 033e b4a6 1f3b
00000080: 6bde 2abd ba29 013e 1af2 8c3d 229d 993d
00000090: c294 b1bc 7f3f d83d 86aa 413d a993 c53d
000000a0: 5cf5 953d a7e8 7abb 4d6b 973d 8c3d 99bc
000000b0: 9a29 de3d a373 a2bb 2a6b ccbd 899c a1bd
000000c0: 90c7 a33d d64b 803c 7c9e 1f3c 4ef1 733c
000000d0: ec5f a13d bc57 babd 94d2 d53c c9f0 63bd
000000e0: d8e2 ac3d 1ae5 893d e028 07bc 1314 a6bd
000000f0: 2d70 00bd 1bf7 713d 3505 a03d 7061 a83c
00000100: b3e7 9ebc c717 2fbd b752 9f3c 16fd 9abc
00000110: 1073 ecbd 0b6e a23d b6ce 253d ce00 07be
00000120: 638b efbd 5838 443d 36f6 f73c df98 043d
00000130: 3e41 e3bc 8cd5 3c3d d876 c23c 1e21 503c
00000140: 1013 303d 0c6b 913d 563d 0ebe eb1d b63d
00000150: 34f8 c63d 2734 8fbc cf9a 3a3e add2 bdbc
00000160: 0d27 bf3c 110a 4dbc 5a4e a43d 4ee0 a1bc
00000170: 368d 50bd 7345 dfbd a4ae 17bd 2f39 283b
00000180: 9e15 64bd b594 96bd 2886 afbb 5d93 d3bb
00000190: fbd5 433d b6f4 d93d 2f62 c5bd 9c16 e73d
000001a0: d3cc 00bd 285d 26bd 0f88 273d f9a0 e33c
000001b0: 2ce4 b6bd 9b03 b3bc cfd4 123b 1f7c 293a
000001c0: cd8b ab3d a3b2 803d 3c2c 58bd b362 b2bc
000001d0: 4f36 b03c 71d9 4cbc cf18 b83a b2b1 033e
000001e0: 3f93 92bc 92a8 1c3d a915 f3bc 4e0a 493c
000001f0: bd8f c53c b4e4 013d 0d41 913c da82 da3d
00000200: b793 203e 870b 19bc 428e 463c d203 f53d
00000210: 4a89 823c 3bfb 57bd 98bf 19bd 2e3c 5bbc
00000220: 3b6e 59bd 2c27 be3d 9ce3 d3bc d181 b63d
00000230: 895f a33b 66df 0dba ebd8 033b ae0f 5d3d
00000240: f062 f53b b945 be3b 8e39 d33d 2702 da3c
00000250: 7cad fd3c a673 c23c a858 2ebb 6798 903c
00000260: 0472 a93d f578 303b e675 98bd 6de6 07bd
00000270: 8565 56bd ab5f 15bd 196f 76bc 0d20 873c
00000280: 1c2b 3c3d 6246 ebbc 6e3e a5bc 7b4a adbd
00000290: 4d33 84bc b865 ba3d 8ab7 153e 7201 a9bd
000002a0: b00d cebd 2814 a03d 79bd 973c 6b6c 3a3c
000002b0: 94a0 753d d91d 4dbe 0e82 d5bd 050f c9bd
000002c0: 4c37 b8bd 7b1f 8abd b253 2ebc 8b43 81bd
000002d0: 7dd8 a53c 78eb 513d 6718 20bd 4754 2bbd
000002e0: c98e 63bd f7e4 8e3d ce1b abbd 3998 a33c
000002f0: c265 2f3d 73e9 7a3c 90e2 ccbd 8fb9 56bd

rnn.1.7.bias f4 [3]
-0.04154605 -0.14861311 0.027306242
00000000: 312c 2abd 092e 18be 57b1 df3c

rnn.2.0.weight f4 [3]
1.0052978 1.0099705 0.9943849
00000000: 99ad 803f b746 813f 0290 7e3f

rnn.2.0.bias f4 [3]
-0.033334587 -0.105752535 -0.07030012
00000000: d989 08bd c994 d8bd 82f9 8fbd

rnn.2.0.running_mean f4 [3]
0.00091107225 0.0005208136 0.00073658885
00000000: 06d5 6e3a 3687 083a a417 413a

rnn.2.0.running_var f4 [3]
0.00032285022 0.0002834059 0.00028164164
00000000: 3944 a939 1996 9439 4da9 9339
