DeepHedging_clean/MarketData/trained_models/RNN_BN_simple_AAPL_GOOGL_MSFT_AMZN.pt (torch, 641703 bytes, 540 tensors)

rnn.0.0.weight f4 [4]
1.0 1.0 1.0 1.0
00000000: 0000 803f 0000 803f 0000 803f 0000 803f

rnn.0.0.bias f4 [4]
0.14069347 -0.13076653 -0.079449855 -0.14126745
00000000: f311 103e a9e7 05be 9bb6 a2bd 6aa8 10be

rnn.0.0.running_mean f4 [4]
0.0 0.0 0.0 0.0
00000000: 0000 0000 0000 0000 0000 0000 0000 0000

rnn.0.0.running_var f4 [4]
1e-45 1e-45 1e-45 1e-45
00000000: 0100 0000 0100 0000 0100 0000 0100 0000

rnn.0.1.weight f4 [44, 4]
0.036466774 0.14125414 0.19756797 0.09932069 0.15202242 -0.058920026 -0.40637505 -0.46748215
0.19981974 -0.39877433 0.4275596 -0.33886874 -0.21650113 -0.33201444 -0.16039827 -0.23597535
-0.21979207 -0.42470658 0.34754616 -0.086381264 -0.092401825 0.5025511 -0.4674852 0.3820647
-0.22982302 -0.20891751 0.10545341 0.26032734 -0.32016832 0.5232816 0.33093214 0.6860099
-0.37628716 -0.4932222 -0.023114499 0.107180804 -0.1769357 0.29846016 0.1804816 -0.41909695
-0.0049694777 -0.4090904 -0.019284248 -0.12186068 -0.29212272 -0.1198625 -0.45494354 -0.34404278
-0.048421957 -0.10794441 0.44949138 -0.024197932 -0.10718498 -0.008112752 -0.43828937 -0.09489451
-0.3532161 0.5130741 0.107941836 0.15968834 0.20157129 -0.17506374 -0.41327748 -0.33667165
0.1673061 -0.39600074 -0.41947725 -0.19499344 0.08584513 -0.39831576 0.019665385 0.022520646
0.41050068 -0.034589037 0.42906246 -0.3130968 0.44277304 0.40543455 -0.23725952 0.41044912
-0.3760255 -0.18450794 -0.119467564 -0.39815375 0.5697165 -0.11974657 0.06063259 -0.16102982
0.12125259 -0.21236138 0.44657323 0.2143809 -0.40471742 0.08261276 0.30335018 -0.14464085
0.44311032 0.36367765 0.3076557 0.019776093 0.25047275 -0.20558797 -0.34120888 0.3126218
-0.4510209 0.12734438 0.3062859 -0.1293706 -0.40853482 -0.20180672 0.36720145 -0.48489302
-0.21620421 0.09740932 0.11757193 0.31294483 -0.11381665 0.55997735 0.38769776 -0.5260244
0.456682 -0.15575342 -0.22616579 0.21897121 0.38029173 -0.4383391 -0.4555867 0.08048121
-0.44880226 -0.20262077 -0.00630873 -0.31559667 0.24268019 0.3050187 0.32786486 -0.43989515
0.28682268 0.07973208 -0.091811955 -0.28104827 0.38875768 -0.47185013 0.15872003 -0.41537368
0.11863944 0.02828258 0.31156713 0.42595947 -0.15152907 0.34404695 -0.13436341 -0.05643761
-0.4157381 -0.22259969 -0.07383293 0.39653033 -0.026238143 -0.044809997 -0.27726996 0.033023894
0.34974337 0.47534335 0.43751365 0.17668056 0.13836432 -0.47218198 0.25684392 -0.15959197
-0.26719388 0.09094112 0.37999457 0.43034983 0.10670096 -0.44660476 0.17187965 0.34436575
00000000: 2f5e 153d eda4 103e 424f 4a3e a568 cb3d
00000010: c4ab 1b3e 2056 71bd 6410 d0be d259 efbe
00000020: 8c9d 4c3e 262c ccbe 18e9 da3e 3480 adbe
00000030: 79b2 5dbe ccfd a9be 723f 24be 86a3 71be
00000040: 2c11 61be 2473 d9be 92f1 b13e a9e8 b0bd
00000050: 2b3d bdbd 30a7 003f 385a efbe fc9d c33e
00000060: ba56 6bbe 79ee 55be f5f7 d73d a049 853e
00000070: 1aed a3be c8f5 053f f06f a93e 589e 2f3f
00000080: b6a8 c0be 9f87 fcbe 9e5a bdbc 9c81 db3d
00000090: a22e 35be c5cf 983e 2bd0 383e e093 d6be
000000a0: 00d7 a2bb 4c74 d1be 00fa 9dbc 1892 f9bd
000000b0: 1c91 95be 787a f5bd 5cee e8be 6026 b0be
000000c0: 1a56 46bd f511 ddbd bc23 e63e be3a c6bc
000000d0: cc83 dbbd 59eb 04bc 7767 e0be 0e58 c2bd
000000e0: bed8 b4be d358 033f 9c10 dd3d 5785 233e
000000f0: b468 4e3e e943 33be 1b99 d3be 3a60 acbe
00000100: 4a52 2b3e 9cc0 cabe b9c5 d6be 5cac 47be
00000110: 92cf af3d 0bf0 cbbe 4d19 a13c 387d b83c
00000120: 252d d23e 3cad 0dbd 13ae db3e 394e a0be
00000130: 26b3 e23e 1e95 cf3e 29f4 72be 6326 d23e
00000140: 6a86 c0be a6ef 3cbe 69ab f4bd cfda cbbe
00000150: f1d8 113f b13d f5bd e159 783d 00e5 24be
00000160: 4753 f83d 4375 59be 3fa5 e43e ab86 5b3e
00000170: 1f37 cfbe e130 a93d b750 9b3e bb1c 14be
00000180: 5bdf e23e f533 ba3e 0c85 9d3e 7901 a23c
00000190: f73d 803e a785 52be eeb2 aebe f70f a03e
000001a0: 36ec e6be 9166 023e 81d1 9c3e ba79 04be
000001b0: 7a2b d1be 6ca6 4ebe d401 bc3e e643 f8be
000001c0: a364 5dbe 8a7e c73d 8dc9 f03d 4e3a a03e
000001d0: b418 e9bd ad5a 0f3f 5280 c63e 89a9 06bf
000001e0: 39d2 e93e d37d 1fbe 0198 67be fd39 603e
000001f0: 99b5 c23e fc6d e0be a942 e9be 55d3 a43d
00000200: 69c9 e5be d27b 4fbe 77b9 cebb e395 a1be
00000210: 2881 783e 692b 9c3e e7dd a73e f039 e1be
00000220: 6cda 923e 934a a33d e807 bcbd 8fe5 8fbe
00000230: 3f0b c73e 5796 f1be 8187 223e dcab d4be
00000240: 3cf9 f23d dfb0 e73c ba85 9f3e 5c17 da3e
00000250: 702a 1bbe ec26 b03e 9096 09be 202b 67bd
00000260: a0db d4be 2cf1 63be b835 97bd 0606 cb3e
00000270: 60f1 d6bc b08a 37bd 54f6 8dbe 1044 073d
00000280: 9011 b33e 3460 f33e ca01 e03e c0eb 343e
00000290: 60af 0d3e d6c1 f1be 0c81 833e 146c 23be
000002a0: a3cd 88be 573f ba3d a68e c23e d056 dc3e
000002b0: 0886 da3d 61a9 e4be 3801 303e b550 b03e

rnn.0.1.bias f4 [44]
-0.34741303 -0.2765331 -0.13504449 0.2898516 0.16557379 0.04082144 0.54680383 0.38797775
0.23925065 -0.27477804 -0.1570676 -0.19549555 0.3145607 -0.14919366 0.20052783 0.22809444
-0.150454 0.087906584 -0.441862 0.33760324 -0.39385188 -0.2166833 0.17150006 0.40301755
0.18099411 -0.36467153 -0.5384125 0.5499351 -0.6089886 0.073766254 -0.13573141 0.1459135
0.14425556 -0.20418216 0.27167168 -0.22693777 -0.060002252 -0.38580197 -0.39309967 0.51432216
0.14166385 -0.30820295 0.15499891 -0.15583526
00000000: 1fe0 b1be bf95 8dbe 1a49 0abe 6e67 943e
00000010: 2d8c 293e 6234 273d 56fb 0b3f 05a5 c63e
00000020: 1ffe 743e b5af 8cbe 54d6 20be fc2f 48be
00000030: 1a0e a13e 39c6 18be 2b57 4d3e 9791 693e
00000040: 9d10 1abe 5e08 b43d bc3b e2be 55da ac3e
00000050: f4a6 c9be 3ae2 5dbe b69d 2f3e 5158 ce3e
00000060: 8556 393e 3ab6 babe 67d5 09bf 8cc8 0c3f
00000070: ade6 1bbf c312 973d 2dfd 0abe 596a 153e
00000080: bbb7 133e 2115 51be 8d18 8b3e 6062 68be
00000090: ecc4 75bd d687 c5be 5c44 c9be 9eaa 033f
000000a0: 5410 113e c7cc 9dbe 09b8 1e3e 4793 1fbe

rnn.0.2.weight f4 [44]
0.9992608 1.0014076 0.99992394 1.0004475 1.0006924 0.99999315 1.0025026 1.0040723
0.99991405 1.0095489 0.99999934 1.0000013 0.99720186 1.0000863 0.99988866 1.0023799
0.9988114 1.0000317 1.0003496 1.0007701 1.0002992 1.0013869 0.9985545 1.0003221
1.0011674 0.9996634 1.000831 1.0001607 0.98460233 0.99988896 1.0008254 0.9996874
1.0005455 0.9970639 1.0011455 0.9998411 0.99998313 0.9998117 0.99995553 1.0001099
0.99998647 0.9983986 0.99908364 1.0002614
00000000: 8ecf 7f3f 202e 803f 04fb 7f3f aa0e 803f
00000010: b016 803f 8dff 7f3f 0152 803f 7185 803f
00000020: 5efa 7f3f e638 813f f5ff 7f3f 0b00 803f
00000030: 9f48 7f3f d402 803f b4f8 7f3f fc4d 803f
00000040: 1bb2 7f3f 0a01 803f 750b 803f 3c19 803f
00000050: ce09 803f 722d 803f 45a1 7f3f 8e0a 803f
00000060: 4126 803f f1e9 7f3f 3b1b 803f 4405 803f
00000070: e60e 7c3f b9f8 7f3f 0c1b 803f 83eb 7f3f
00000080: e011 803f 943f 7f3f 8925 803f 96f5 7f3f
00000090: e5fe 7f3f a9f3 7f3f 16fd 7f3f 9a03 803f
000000a0: 1dff 7f3f 0d97 7f3f f2c3 7f3f 9108 803f

rnn.0.2.bias f4 [44]
-0.05732232 -0.055337075 -0.056136716 -0.05230336 -0.017999532 -0.050070867 -0.046827592 0.13695453
-0.040883224 -0.011207337 -0.054171044 -0.054329995 0.024911823 -0.049069677 -0.046803623 0.033365592
-0.018166404 -0.05231993 -0.055986375 -0.052150887 -0.002003014 -0.03246185 0.09072597 -0.025500497
-0.011472862 -0.052130364 0.06671103 -0.05342755 0.11502404 -0.05475401 -0.06272163 -0.050268378
-0.041834395 -0.050355814 -0.055941273 -0.050296087 -0.00034920088 -0.056481775 -0.054880317 -0.056164373
-0.055387393 -0.056544386 0.27144784 -0.05226516
00000000: cfca 6abd 21a9 62bd 9def 65bd 0c3c 56bd
00000010: c173 93bc 1c17 4dbd 4ace 3fbd cf3d 0c3e
00000020: 2b75 27bd fa9e 37bc 75e2 5dbd 2189 5ebd
00000030: e113 cc3c 49fd 48bd 28b5 3fbd 5caa 083d
00000040: b6d1 94bc 6c4d 56bd f851 65bd 2b9c 55bd
00000050: 0045 03bb b8f6 04bd 8ace b93d 6be6 d0bc
00000060: acf8 3bbc a686 55bd cb9f 883d d9d6 5abd
00000070: b991 eb3d be45 60bd 3374 80bd 37e6 4dbd
00000080: 8b5a 2bbd e641 4ebd ad22 65bd 4503 4ebd
00000090: f314 b7b9 6f59 67bd 2fca 60bd 9d0c 66bd
000000a0: e4dd 62bd 169b 67bd 36fb 8a3e fe13 56bd

rnn.0.2.running_mean f4 [44]
-0.3904543 -0.14919163 -0.040869243 0.3488642 0.17481843 -0.054747924 0.49666965 0.15146527
0.23751855 -0.2938241 -0.08553758 -0.13622871 0.28972712 -0.11503344 0.052649993 0.35963163
-0.014328034 0.14732108 -0.36943367 0.30772555 -0.35690755 -0.10297105 0.15071908 0.33165324
0.16855946 -0.3196387 -0.6243672 0.55820596 -0.70561326 0.02806188 -0.06411567 0.2814938
0.15269633 -0.17382695 0.34855792 -0.064501904 -0.13188805 -0.4334689 -0.4726015 0.5338261
0.06903703 -0.22484437 0.014741473 -0.14469941
00000000: a0e9 c7be b1c5 18be 8266 27bd 549e b23e
00000010: 9a03 333e 5c3f 60bd 7c4b fe3e b619 1b3e
00000020: 1038 733e 1d70 96be 542e afbd 8a7f 0bbe
00000030: 1d57 943e a796 ebbd 85a7 573d a321 b83e
00000040: 21c0 6abc 56db 163e 6926 bdbe 348e 9d3e
00000050: 96bc b6be 7ce2 d2bd 1a56 1a3e 74ce a93e
00000060: da9a 2c3e afa7 a3be 87d6 1fbf 96e6 0e3f
00000070: 12a3 34bf 07e2 e53c 144f 83bd f51f 903e
00000080: 6d5c 1c3e b1ff 31be 2f76 b23e 9319 84bd
00000090: a90d 07be a3ef ddbe d3f8 f1be d4a8 083f
000000a0: 4963 8d3d 9a3d 66be 3886 713c 152c 14be

rnn.0.2.running_var f4 [44]
8.058704e-14 1.4794035e-14 5.8240784e-16 5.2642484e-14 1.0108799e-14 1.8597417e-15 8.8162584e-14 6.141161e-15
8.455024e-15 6.475393e-14 2.0886344e-15 6.4752556e-15 3.922169e-14 7.2951365e-15 7.2964186e-16 4.0538035e-14
2.5993102e-17 8.281386e-15 5.005742e-14 9.6848724e-14 8.075119e-14 5.7508895e-15 6.7838983e-15 3.7183584e-14
3.7398368e-14 4.0933917e-14 4.5456006e-14 1.8564333e-13 2.2592479e-13 3.286711e-16 1.452921e-15 5.0745666e-14
1.0535723e-14 1.579288e-14 3.2519445e-14 1.343136e-15 5.5615404e-15 1.5708376e-13 6.1231246e-14 2.6716143e-13
3.920303e-15 2.9390847e-14 8.0185466e-17 6.3903147e-15
00000000: 4477 b529 b940 8528 1dde 2726 a714 6d29
00000010: 9b1a 3628 2e02 0627 4586 c629 3642 dd27
00000020: ea4f 1828 19d0 9129 8180 1627 b14b e927
00000030: 88a3 3029 e16a 0328 114e 5226 2c91 3629
00000040: 7abe ef23 272f 1528 4770 6129 7d15 da29
00000050: e4d5 b529 9832 cf27 6b6a f427 c175 2729
00000060: 626d 2829 9859 3829 35b7 4c29 0c04 512a
00000070: 635e 7e2a 4b77 bd25 5363 d126 c589 6429
00000080: 72cb 3d28 e73f 8e28 5e74 1229 f990 c126
00000090: 2860 c827 50dc 302a 69e1 8929 0566 962a
000000a0: 6a3e 8d27 575d 0429 25e5 b824 403c e627

rnn.0.4.weight f4 [60, 44]
-0.008941214 0.08817922 0.009556245 0.01866124 -0.052435216 -0.019549193 -0.1243548 -0.14297758
-0.12877648 0.033638947 -0.14904779 -0.008417065 0.007340108 -0.008286037 -0.032734685 -0.13814302
0.053286903 0.03606807 0.13911186 0.09336883 0.10675112 0.14932029 -0.0680162 0.0608596
-0.013703644 0.11646484 -0.09493652 -0.12066646 0.024685062 -0.06506038 0.0055964077 -0.10551796
-0.033503342 0.13206415 -0.13863584 -0.10794916 -0.022824075 0.122269765 0.08460342 0.023940543
0.14820468 0.12082951 0.045226533 0.07508758 -0.13295801 0.07674524 -0.14249784 0.06333883
0.07372045 -0.14315602 -0.015462576 -0.097938836 0.086046316 0.09794406 0.11183863 -0.017365882
0.014828749 0.047963753 0.09920984 -0.083109684 -0.031056656 0.09206531 0.103119016 0.12138028
0.0906911 0.09929042 0.14211361 -0.116787516 0.040294454 0.10331143 -0.05636864 -0.14739428
0.101530924 0.055053446 -0.058435243 0.11963327 0.041541483 0.11726342 0.18684763 -0.10703919
0.21802475 0.06534699 0.12965871 0.0785076 0.028801091 0.12070415 0.15967676 0.12307952
-0.19764166 0.11070079 0.022602817 -0.12528542 0.026789451 -0.10204293 0.018013177 0.037079234
-0.034168895 -0.17284544 0.1356953 0.051138178 -0.0768322 0.06808181 0.0030029619 0.10113236
0.03399738 0.08655795 0.0026446953 -0.08854847 -0.1380985 0.08539736 0.029144343 0.0791188
-0.11225647 -0.052867025 0.0019758022 -0.04480237 0.13223848 -0.09483309 -0.07169453 0.08950705
0.09663168 -0.00046538937 -0.16090463 0.08540132 -0.113294765 0.02256504 -0.0077188932 -0.12046565
-0.13833523 -0.06833584 0.08893096 -0.13702539 -0.061138052 -0.08881484 -0.018685501 -0.043234468
0.1080187 -0.038543157 0.11355522 0.07464112 0.14113529 0.0046658115 0.14261596 0.015062901
-0.075182475 0.13286509 -0.14172892 -0.072263785 -0.10657677 0.06491141 0.06759379 0.03528363
0.0013106869 -0.11424935 0.088853404 -0.07574995 -0.053520523 0.043577455 -0.12797426 -0.14843969
-0.10446704 -0.14434169 -0.10260049 0.030127348 0.008217466 -0.09780347 -0.10565956 0.11429901
-0.055776976 0.08874083 -0.011939764 -0.1229247 0.13312536 0.107462384 0.09148645 -0.0045680553
0.091179386 0.08413701 0.059491664 0.084711485 0.09925787 0.020836713 -0.19990508 0.035026446
0.19655181 0.06988771 -0.08864988 0.14624713 -0.17534229 0.109202966 -0.028664377 0.091672905
-0.06527897 0.0923003 -0.061368074 -0.1310169 -0.1410082 0.02049091 -0.065043464 -0.11066736
-0.11840322 0.06582659 -0.06222027 0.09277883 -0.06622823 -0.015588692 -0.08993481 -0.061778057
-0.084563054 0.07849048 0.025446923 0.07144799 -0.1703321 -0.11756506 0.100688234 0.019099934
-0.0394645 -0.023113728 -0.13082044 0.014201201 0.08531549 0.05019959 -0.13878566 0.12283793
0.04439674 0.06806072 0.0043674395 0.05277704 0.19076692 0.10820143 0.015664067 -0.023928326
-0.077682965 -0.0020328602 -0.028430909 -0.036684208 -0.040310234 -0.13929376 -0.03659445 0.027871579
-0.17125659 0.0414086 0.2082472 -0.08733293 -0.18693495 -0.12393009 -0.06277585 0.12406343
-0.07927793 0.07251428 -0.009561632 0.05325147 -0.14037664 -0.09016611 -0.17083302 -0.10664942
00000000: 2b7e 12bc 4f97 b43d cc91 1c3c 75df 983c
00000010: 4fc6 56bd a125 a0bc bbad febd b768 12be
00000020: fbdd 03be fec8 093d fc9f 18be bbe7 09bc
00000030: 4a85 f03b 28c2 07bc ce14 06bd 5d75 0dbe
00000040: 5e43 5a3d 1dbc 133d 5773 0e3e 2838 bf3d
00000050: 55a0 da3d 6be7 183e 144c 8bbd ea47 793d
00000060: 4085 60bc 1e85 ee3d 146e c2bd fa1f f7bd
00000070: 5438 ca3c 603e 85bd 1262 b73b cd19 d8bd
00000080: cd3a 09bd d33b 073e 8ef6 0dbe 7314 ddbd
00000090: 8ef9 babc 9268 fa3d 8f44 ad3d f51e c43c
000000a0: f8c2 173e 7675 f73d 753f 393d 84c7 993d
000000b0: 2526 08be 9c2c 9d3d f4ea 11be cab7 813d
000000c0: bffa 963d 7e97 12be bf56 7dbc 2894 c8bd
000000d0: 0d39 b03d e596 c83d a70b e53d e542 8ebc
000000e0: 48f4 723c a475 443d 872e cb3d 6935 aabd
000000f0: 876a febc bd8c bc3d 1030 d33d 3996 f83d
00000100: 41bc b93d c758 cb3d 3b86 113e 4b2e efbd
00000110: cc0b 253d f194 d33d cee2 66bd 87ee 16be
00000120: 72ef cf3d b97f 613d cb59 6fbd 4a02 f53d
00000130: 6727 2a3d ce27 f03d fc54 3f3e 5d37 dbbd
00000140: e141 5f3e a5d4 853d 41c5 043e 98c8 a03d
00000150: 44f0 eb3c bd33 f73d 4e82 233e 1e11 fc3d
00000160: 9362 4abe 19b7 e23d 8b29 b93c d24a 00be
00000170: 8d75 db3c e2fb d0bd 5f90 933c 65e0 173d
00000180: aff4 0bbd 65fe 30be b5f3 0a3e 4476 513d
00000190: 335a 9dbd 7a6e 8b3d 57cd 443b 7c1e cf3d
000001a0: d640 0b3d 4b45 b13d a052 2d3b e658 b5bd
000001b0: b169 0dbe d0e4 ae3d 1ec0 ee3c 0a09 a23d
000001c0: b8e6 e5bd 188b 58bd 767c 013b b182 37bd
000001d0: 8669 073e da37 c2bd 95d4 92bd 794f b73d
000001e0: d5e6 c53d 81ff f3b9 2fc4 24be e3e6 ae3d
000001f0: 1607 e8bd 52da b83c c5ee fcbb b2b6 f6bd
00000200: c0a7 0dbe a9f3 8bbd 6f21 b63d 6250 0cbe
00000210: e56b 7abd 8ee4 b5bd 5612 99bc a016 31bd
00000220: e838 dd3d 6edf 1dbd a48f e83d 72dd 983d
00000230: c585 103e aae3 983b eb09 123e 63ca 763c
00000240: 45f9 99bd c90d 083e 6321 11be 09ff 93bd
00000250: ec44 dabd 46f0 843d 9d6e 8a3d 9185 103d
00000260: 5bcb ab3a 90fb e9bd c6f8 b53d ca22 9bbd
00000270: 5638 5bbd 467e 323d af0b 03be 9300 18be
00000280: d1f2 d5bd 4fce 13be 3520 d2bd a1cd f63c
00000290: 8da2 063c 304d c8bd 0a64 d8bd 9915 ea3d
000002a0: 6676 64bd c1bd b53d 009f 43bc f2bf fbbd
000002b0: 0452 083e 3d15 dc3d 3f5d bb3d a0af 95bb
000002c0: 42bc ba3d 0650 ac3d 88ad 733d 377d ad3d
000002d0: b647 cb3d c1b1 aa3c ebb3 4cbe e477 0f3d
000002e0: e144 493e 4a21 8f3d 118e b5bd cfc1 153e
000002f0: ee8c 33be cea5 df3d 8ed1 eabc 01bf bb3d
00000300: fbb0 85bd f107 bd3d 175d 7bbd 4b29 06be
00000310: 7464 10be 8edc a73c 8235 85bd 92a5 e2bd
00000320: 637d f2bd 17d0 863d afda 7ebd d402 be3d
00000330: aba2 87bd b767 7fbc be2f b8bd fd0a 7dbd
00000340: 652f adbd 9ebf a03d 1176 d03c 5353 923d
00000350: 8a6b 2ebe f3c5 f0bd a235 ce3d 7777 9c3c
00000360: 87a5 21bd 0059 bdbc cbf5 05be 27ac 683c
00000370: e3b9 ae3d 169e 4d3d d41d 0ebe 7492 fb3d
00000380: 5bd9 353d 6b63 8b3d bd1c 8f3b bd2c 583d
00000390: 6758 433e b698 dd3d ee51 803c 5605 c4bc
000003a0: 3f18 9fbd bc39 05bb f0e7 e8bc 2e42 16bd
000003b0: 581c 25bd 06a3 0ebe 10e4 15bd f052 e43c
000003c0: e35d 2fbe 109c 293d c13e 553e 9bdb b2bd
000003d0: e06b 3fbe 0fcf fdbd a090 80bd f814 fe3d
000003e0: 785c a2bd 5e82 943d 64a8 1cbc 371e 5a3d
000003f0: e5be 0fbe 02a9 b8bd daee 2ebe 036b dabd

rnn.0.4.bias f4 [60]
0.10119932 0.015344688 -0.115459 0.18271029 -0.09706848 -0.020263523 -0.047763858 -0.17491588
0.08564032 -0.14351417 0.1138453 0.03617909 -0.08998044 0.028507246 0.09596908 -0.10975294
0.13676143 -0.08064361 -0.028485082 -0.17772213 -0.008402026 -0.07493976 0.09952498 0.10495481
0.045880973 -0.15727466 -0.09198023 0.09180469 -0.083863735 0.13864575 0.14601883 -0.120498106
0.016479466 0.075843714 -0.2260732 0.05287453 -0.044715136 0.099061675 0.12900704 0.1407449
0.108894214 0.1908285 -0.016608873 -0.15068321 0.07149757 -0.14053369 -0.09371721 0.117722526
0.09237624 -0.0640687 0.07885999 -0.07637051 -0.033126455 0.050958518 0.018696114 -0.17620905
0.10603557 -0.14221011 0.07736384 0.10462671
00000000: 9741 cf3d 4968 7b3c c575 ecbd 6818 3b3e
00000010: d7cb c6bd b0ff a5bc 09a4 43bd 261d 33be
00000020: 3164 af3d 61f5 12be ba27 e93d 8730 143d
00000030: aa47 b8bd 0788 e93c 708b c43d 26c6 e0bd
00000040: 300b 0c3e 7a28 a5bd 8c59 e9bc cafc 35be
00000050: a7a8 09bc 047a 99bd c1d3 cb3d 8cf2 d63d
00000060: b0ed 3b3d 9c0c 21be 2160 bcbd 1904 bc3d
00000070: c0c0 abbd 27f9 0d3e f685 153e b6c7 f6bd
00000080: f2ff 863c f353 9b3d bc7f 67be f792 583d
00000090: 3827 37bd d9e0 ca3d 6c1a 043e 6e1f 103e
000000a0: ee03 df3d 8c68 433e 550f 88bc b34c 1abe
000000b0: 516d 923d 10e8 0fbe cfee bfbd 8218 f13d
000000c0: c12f bd3d 7336 83bd 5981 a13d 2468 9cbd
000000d0: 9baf 07bd e1b9 503d 9828 993c 2570 34be
000000e0: 2d29 d93d 879f 11be ef70 9e3d 8746 d63d

rnn.0.5.weight f4 [60]
0.94764256 0.99356055 0.948996 0.9546375 1.1319783 0.98454285 0.95008594 1.0301795
0.9609647 0.9499484 1.0308548 1.0939236 0.9447364 0.93896925 0.94797546 0.9506168
0.95219195 0.9369801 0.96130115 0.94391954 0.94438696 1.1883498 1.12694 1.0032859
0.9489671 0.951616 1.0639669 0.943646 0.9726603 0.9062829 0.9499649 0.95441294
0.95097464 1.023171 0.99323297 0.94783354 0.95411026 0.94459945 1.0888032 0.94686985
1.0814059 0.9488397 1.1827449 0.9616203 0.94429743 0.97802144 0.9498402 0.9524548
1.021193 0.9535991 0.94383585 0.96009564 0.945804 0.97093195 0.9510782 0.98660254
0.94668317 0.9504765 1.0109746 0.94440186
00000000: b498 723f fc59 7e3f 67f1 723f 2063 743f
00000010: aae4 903f 000b 7c3f d538 733f ecdc 833f
00000020: c801 763f d12f 733f 0df3 833f b005 8c3f
00000030: 3fda 713f 4a60 703f 85ae 723f 9f5b 733f
00000040: dac2 733f eedd 6f3f d517 763f b6a4 713f
00000050: 58c3 713f d91b 983f 923f 903f ac6b 803f
00000060: 82ef 723f 1b9d 733f 1130 883f c992 713f
00000070: 4400 793f 2802 683f e630 733f 6854 743f
00000080: 1373 733f 44f7 823f 8444 7e3f 38a5 723f
00000090: 9240 743f 45d1 713f e75d 8b3f 1066 723f
000000a0: 826b 8a3f 29e7 723f 2f64 973f bf2c 763f
000000b0: 7abd 713f 9d5f 7a3f ba28 733f 14d4 733f
000000c0: 74b6 823f 121f 743f 3a9f 713f d4c8 753f
000000d0: 3620 723f ff8e 783f dc79 733f fc91 7c3f
000000e0: d459 723f 6e52 733f 9e67 813f 52c4 713f

rnn.0.5.bias f4 [60]
-0.056569632 -0.03391591 -0.052362744 -0.0523627 -0.036325246 -0.0023186156 -0.052362747 0.05460727
-0.052362602 -0.050367292 -0.03485715 -0.015686134 -0.05656963 -0.048250727 -0.052362755 -0.050367303
-0.04861901 0.0167745 -0.056569636 -0.056569632 -0.05656964 -0.018527683 -0.021252891 -0.03586631
-0.05236274 -0.04861901 0.07891761 -0.05656964 -0.056569617 0.037158437 -0.05236275 -0.049252998
-0.0503673 -0.012985808 0.019153358 -0.052362744 -0.052362747 -0.056569632 0.0321292 -0.056569632
-0.019810563 -0.053098287 0.046089105 -0.056569632 -0.05656964 0.008976508 -0.050367303 -0.056569636
-0.03382743 -0.050367292 -0.05656964 -0.049253006 -0.056569643 -0.052362747 -0.05236274 0.008943827
-0.015973024 -0.050367303 -0.024405146 -0.056569636
00000000: 8fb5 67bd 69eb 0abd 517a 56bd 457a 56bd
00000010: c8c9 14bd eaf3 17bb 527a 56bd dfab 5f3d
00000020: 2b7a 56bd ef4d 4ebd 5fc6 0ebd 3580 80bc
00000030: 8eb5 67bd 8ea2 45bd 547a 56bd f24d 4ebd
00000040: ba24 47bd ad6a 893c 90b5 67bd 8fb5 67bd
00000050: 91b5 67bd 5ec7 97bc 8b1a aebc 8de8 12bd
00000060: 507a 56bd ba24 47bd 8e9f a13d 91b5 67bd
00000070: 8bb5 67bd 7233 183d 537a 56bd 83bd 49bd
00000080: f14d 4ebd 6dc2 54bc 81e7 9c3c 517a 56bd
00000090: 527a 56bd 8fb5 67bd e899 033d 8fb5 67bd
000000a0: c349 a2bc 977d 59bd eec7 3c3d 8fb5 67bd
000000b0: 91b5 67bd 3412 133c f24d 4ebd 90b5 67bd
000000c0: a28e 0abd ef4d 4ebd 91b5 67bd 85bd 49bd
000000d0: 92b5 67bd 527a 56bd 507a 56bd 2189 123c
000000e0: dcd9 82bc f24d 4ebd 4ded c7bc 90b5 67bd

rnn.0.5.running_mean f4 [60]
0.07978875 0.063632615 -0.06678498 0.20098053 -0.14668219 0.05112416 -0.033225834 -0.22998774
0.03640491 -0.13973752 0.143862 0.07552635 -0.12431639 0.02642253 0.09610346 -0.12264729
0.082873605 -0.14589123 0.006587084 -0.13200082 -0.020430423 -0.03768934 0.07846688 0.13879354
0.0779764 -0.17681387 -0.16147779 0.13652925 -0.11438695 0.079771556 0.2461386 -0.16729313
0.038022093 0.14566271 -0.22783947 0.054287575 -0.040328696 0.12684198 0.12921447 0.091411576
0.042825885 0.18393295 -0.07327718 -0.11265398 0.118967555 -0.11113923 -0.13535419 0.1441004
0.058372587 -0.022727463 0.06847265 -0.07979871 -0.060997147 0.08680616 -0.020819029 -0.29568902
0.05325927 -0.11370797 0.1521463 0.09604176
00000000: 4968 a33d d151 823d 90c6 88bd d7cd 4d3e
00000010: db33 16be 9167 513d d017 08bd e881 6bbe
00000020: 511d 153d 5a17 0fbe 8f50 133e 8fad 9a3d
00000030: 9799 febd 1074 d83c e4d1 c43d 812e fbbd
00000040: a3b9 a93d 8364 15be 77d8 d73b 392b 07be
00000050: b45d a7bc 2360 1abd 3eb3 a03d e51f 0e3e
00000060: 17b2 9f3d b20e 35be 6f5a 25be 53ce 0b3e
00000070: b543 eabd 455f a33d c20b 7c3e e44e 2bbe
00000080: 0ebd 1b3d 9b28 153e c04e 69be a65c 5e3d
00000090: b42f 25bd dde2 013e cc50 043e fe35 bb3d
000000a0: 326a 2f3d eb58 3c3e 5912 96bd 21b7 e6bd
000000b0: 43a5 f33d f79c e3bd 4a9a 0abe 0e8f 133e
000000c0: 1818 6f3d f22e babc 643b 8c3d 826d a3bd
000000d0: 25d8 79bd 6ec7 b13d ab8c aabc 8d64 97be
000000e0: 6426 5a3d b9df e8bd 3dcc 1b3e 8bb1 c43d

rnn.0.5.running_var f4 [60]
3.5030947e-15 1.6945283e-15 9.592771e-16 2.4934925e-14 1.1625672e-14 1.2357518e-15 5.4703976e-16 1.5915476e-14
4.6511426e-16 3.9997484e-15 2.079965e-14 4.4362398e-15 1.0726804e-14 3.6122538e-16 9.303224e-16 7.372673e-15
3.3218155e-15 9.515045e-15 2.1840483e-17 4.323679e-15 5.6508334e-17 6.5953707e-16 2.969579e-15 1.4919064e-14
3.7964953e-15 6.45906e-15 9.817411e-15 8.394225e-15 4.6514975e-15 1.8406613e-15 2.6441536e-14 2.2973424e-14
1.3482643e-15 1.072549e-14 3.8436197e-14 6.988568e-16 1.1063111e-15 6.5813655e-15 3.738066e-15 1.9660526e-15
1.1583359e-15 4.198887e-15 3.607802e-15 3.2218056e-15 3.4274398e-15 5.1759752e-15 6.115758e-15 8.678872e-15
3.0504356e-16 3.7547104e-16 2.2605901e-15 4.267111e-15 2.5726227e-15 5.9564784e-15 2.5562385e-16 4.5332187e-14
2.6520157e-15 2.0353319e-15 1.9939521e-14 2.3962073e-15
00000000: b16c 7c27 0f35 f426 143f 8a26 0698 e028
00000010: f36d 5128 3217 b226 69ac 1d26 975a 8f28
00000020: 600f 0626 2b1b 9027 ba58 bb28 17d5 9f27
00000030: a73c 4128 753b d025 d712 8626 74d0 0428
00000040: ae5c 6f27 6668 2b28 6271 c923 e6c6 9b27
00000050: a24c 8224 3f19 3e26 10fb 5527 0561 8628
00000060: 7dc8 8827 50b6 e827 d1da 3028 8837 1728
00000070: 7e96 a727 35a2 0427 082a ee28 1ced ce28
00000080: 2c4e c226 9836 4128 eb19 2d29 886e 4926
00000090: ad6f 9f26 621e ed27 93ad 8627 45ab 0d27
000000a0: 0def a626 e647 9727 1afc 8127 d327 6827
000000b0: 1bf9 7627 f27b ba27 e957 dc27 3c58 1c28
000000c0: 7cd8 af25 bf71 d825 87e4 2227 27bd 9927
000000d0: 8360 3927 d19a d627 6c5b 9325 7428 4c29
000000e0: 0e19 3f27 3fa9 1227 6899 b328 39aa 2c27

rnn.0.7.weight f4 [4, 60]
-0.031429183 -0.06760139 -0.06369213 0.028345115 -0.0023903158 -0.008434497 0.03889732 0.0610331
-0.014783743 -0.05763131 0.12998754 -0.02443571 -0.044128913 -0.009332228 -0.010235353 0.09336866
0.11692769 -0.0050086933 0.041029982 0.027915038 0.057427425 -0.045220174 -0.010748708 0.012392179
-0.008327172 -0.034359764 0.08987985 0.04929604 -0.063600555 0.092429355 0.044113528 0.06970399
0.033262923 -0.04448407 -0.023545682 -0.058894914 -0.056389805 0.06298034 -0.014729347 -0.0101137515
0.06173683 -0.07210228 0.07297168 -0.031232763 0.019352278 0.006256373 -0.041278843 0.00688429
0.06903412 -0.04885137 0.03850212 -0.03263914 0.057615932 0.03191399 0.0113482885 0.03421627
-0.0076371324 0.15600285 -0.005413061 -0.012070515 0.008568896 0.17198643 -0.05725016 -0.14971669
0.0512027 0.12874787 0.052089285 0.13901241 0.005095022 0.0003748482 -0.06449943 0.17167823
0.056555383 0.1943639 -0.0558341 -0.0061425855 -0.06581176 0.14111093 0.0076420144 0.04461803
-0.09725608 0.03648628 0.10623308 0.053120065 0.019341435 -0.023720471 0.08483606 0.061452135
0.0023884207 0.10129326 -0.074371316 -0.065029465 0.101272866 0.014057106 0.17974304 -0.098405875
-0.03410198 0.013264429 0.18107289 -0.022245647 -0.017382752 0.12270068 0.10878731 -0.05205749
-0.012499748 0.07479551 0.1303443 -0.04855525 0.061331995 0.110308774 -0.11568185 -0.010346043
0.041321836 0.0069098747 -0.12837505 0.055499278 0.026342614 0.033806432 -0.041431174 0.053174388
-0.011907126 -0.05214317 0.0022938605 -0.1335147 -0.03710353 -0.021245927 -0.055168815 0.09585427
0.06400632 0.111407906 -0.05580137 0.10373112 -0.028086523 -0.030931862 0.0106679415 -0.023283105
-0.03943358 -0.04310705 0.050298046 -0.045399077 0.06501398 -0.03945486 0.109551795 0.09176003
0.023824038 -0.045060255 -0.07465772 -0.044555336 -0.009640858 -0.018502463 -0.12250314 -0.039678082
0.042346727 0.023611242 0.08838302 -0.0028690402 -0.13811837 -0.01153831 0.12306951 0.047378678
-0.049502883 -0.030060275 0.08189446 0.062344257 0.14141707 0.039453294 0.04870301 0.06403166
0.015429111 0.038733374 -0.033057973 0.03563598 0.020532517 -0.046582777 -0.083293945 0.024242617
0.15719627 -0.06309642 0.037405804 -0.06936049 0.051271334 0.050651766 -0.0155208055 -0.020126507
0.10377008 0.04713136 0.049964953 -0.119518384 -0.1473116 -0.019520788 0.05007487 -0.026664777
0.100752905 -0.02956274 -0.014798315 -0.004179949 0.012435775 -0.092780955 0.11135553 0.1827727
-0.06232722 0.07017693 -0.057737496 -0.05957551 -0.0641958 -0.077253625 -0.21555778 0.08323073
0.048040368 0.09562489 0.059786852 -0.07927094 -0.011118819 0.030896712 -0.0155900745 0.07322519
0.066150166 0.11384998 0.11181033 0.16984844 0.065065324 0.029511089 -0.061346438 0.036056694
0.096904196 -0.051420074 -0.040223353 0.056715272 -0.04488839 -0.01866704 0.005000378 -0.024710184
-0.009718322 0.07053545 -0.012703769 -0.0045411456 -0.044413228 -0.037635412 0.06677315 0.09868009
00000000: e3bb 00bd 9972 8abd 0571 82bd 0434 e83c
00000010: d8a6 1cbb d830 0abc cc52 1f3d d8fd 793d
00000020: 8337 72bc cf0e 6cbd 741b 053e 662d c8bc
00000030: 85c0 34bd 34e6 18bc 2fb2 27bc 1138 bf3d
00000040: c977 ef3d f71f a4bb 0e0f 283d 14ae e43c
00000050: 0539 6b3d ca38 39bd 591b 30bc 9108 4b3c
00000060: b16e 08bc d3bc 0cbd ed12 b83d a5ea 493d
00000070: 0241 82bd 9a4b bd3d 63b0 343d f7c0 8e3d
00000080: b43e 083d ee34 36bd e0e2 c0bc cb3b 71bd
00000090: fff8 66bd d6fb 803d 5c53 71bc 26b4 25bc
000000a0: c2df 7c3d 5caa 93bd 2d72 953d dadb ffbc
000000b0: ab88 9e3c 4302 cd3b 0114 29bd 9c95 e13b
000000c0: c361 8d3d 6018 48bd 66b4 1d3d 9eb0 05bd
000000d0: affe 6b3d 3eb8 023d 2cee 393c 5c26 0c3d
000000e0: e940 fabb 36bf 1f3e 0c60 b1bb 69c3 45bc
000000f0: 8e64 0c3c 361d 303e 257f 6abd 554f 19be
00000100: ecb9 513d 7bd6 033e 935b 553d 4559 0e3e
00000110: 24f4 a63b 4687 c439 4718 84bd 6bcc 2f3e
00000120: 9ea6 673d 5507 473e 4cb2 64bd be47 c9bb
00000130: 51c8 86bd 627f 103e dd69 fa3b 65c1 363d
00000140: 322e c7bd a372 153d bb90 d93d 6d94 593d
00000150: ee71 9e3c 6f51 c2bc 87be ad3d 3cb5 7b3d
00000160: 0d87 1c3b d772 cf3d fd4f 98bd 2b2e 85bd
00000170: 2668 cf3d c74f 663c 8f0e 383e 0589 c9bd
00000180: 85ae 0bbd 0c53 593c 2c6b 393e 813c b6bc
00000190: 4666 8ebc 7e4a fb3d e2cb de3d 3c3a 55bd
000001a0: becb 4cbc 632e 993d fa78 053e dfe1 46bd
000001b0: 4237 7b3d 91e9 e13d 9bea ecbd 7382 29bc
000001c0: 1641 293d 3b6c e23b c074 03be 3653 633d
000001d0: 77cc d73c 9d78 0a3d bcb3 29bd 63cd 593d
000001e0: 1b16 43bc 1494 55bd 9854 163b 14b8 08be
000001f0: dff9 17bd f00b aebc b2f8 61bd 3e4f c43d
00000200: bf15 833d d429 e43d fa8f 64bd fb70 d43d
00000210: b515 e6bc d164 fdbc 97c8 2e3c 36bc bebc
00000220: 1b85 21bd 0591 30bd 5305 4e3d 62f4 39bd
00000230: 0d26 853d 6b9b 21bd b15c e03d afec bb3d
00000240: a12a c33c 1a91 38bd 26e6 98bd a87f 36bd
00000250: b0f4 1dbc 7a92 97bc ede2 fabd 7c85 22bd
00000260: c373 2d3d 5d6c c13c 2802 b53d 8206 3cbb
00000270: e76e 0dbe 2e0b 3dbc de0b fc3d 2510 423d
00000280: 89c3 4abd f740 f6bc 48b8 a73d b15c 7f3d
00000290: a3cf 103e c799 213d cf7c 473d 0823 833d
000002a0: 62ca 7c3c e3a6 1e3d cc67 07bd 09f7 113d
000002b0: cf33 a83c 95cd 3ebd 0496 aabd 7498 c63c
000002c0: 0ff8 203e b238 81bd d436 193d df0c 8ebd
000002d0: e401 523d 3a78 4f3d fa4a 7ebc 58e0 a4bc
000002e0: 6885 d43d d00c 413d 0da8 4c3d 0ec6 f4bd
000002f0: dad8 16be 0fea 9fbc 4f1b 4d3d 1770 dabc
00000300: 8a57 ce3d 8f2d f2bc a274 72bc f4f7 88bb
00000310: 6cbf 4b3c f103 bebd 5e0e e43d c428 3b3e
00000320: d44a 7fbd ecb8 8f3d 277e 6cbd 7305 74bd
00000330: 1679 83bd 2637 9ebd 2ebb 5cbe df74 aa3d
00000340: fac5 443d fbd6 c33d 0fe3 743d cd58 a2bd
00000350: b52b 36bc 1a1b fd3c 836d 7fbc 17f7 953d
00000360: bd79 873d 2e2a e93d d0fc e43d c0ec 2d3e
00000370: f840 853d 3dc1 f13c 6746 7bbd 2fb0 133d
00000380: b575 c63d db9d 52bd 3ec1 24bd 464e 683d
00000390: e3dc 37bd 9feb 98bc 36da a33b 036d cabc
000003a0: 9939 1fbc e474 903d 7823 50bc e4cd 94bb
000003b0: a5ea 35bd 9727 1abd 5cc0 883d c918 ca3d

rnn.0.7.bias f4 [4]
0.048151486 0.18617752 -0.012186727 0.035536993
00000000: 7e3a 453d 52a5 3e3e d6aa 47bc 3d8f 113d

rnn.1.0.weight f4 [4]
1.1158019 1.0057579 0.9812632 0.9497314
00000000: 99d2 8e3f adbc 803f 1134 7b3f 9921 733f

rnn.1.0.bias f4 [4]
-0.061756205 -0.03225436 0.04097049 -0.08315729
00000000: 13f4 7cbd 261d 04bd acd0 273d 5f4e aabd

rnn.1.0.running_mean f4 [4]
0.0010709313 0.000740765 0.0008741704 0.0010328997
00000000: 7e5e 8c3a e62f 423a 9528 653a 5d62 873a

rnn.1.0.running_var f4 [4]
0.00032238176 0.00028155846 0.00027905044 0.00049104745
00000000: 5905 a939 239e 9339 844d 9239 a3b9 003a

rnn.1.1.weight f4 [44, 4]
0.34073415 0.35156634 -0.26878083 0.41935965 -0.14990467 0.049463302 0.22072935 -0.22628148
0.07257559 0.108901404 0.18594302 0.24199685 0.32073802 -0.3082204 0.4786875 0.16570026
0.35325 0.25896144 -0.07740286 0.41801748 -0.31826016 0.41569293 -0.06884438 0.053143263
0.39261553 0.0396528 0.3847767 -0.5243623 0.55382955 0.34089977 -0.37882268 0.0075623537
0.13373227 0.07070941 -0.52954704 0.22649817 -0.5767238 0.16968769 -0.17131098 -0.09034029
0.22711435 0.009218085 0.09868208 -0.09556422 -0.51843154 -0.26675147 -0.2603497 0.037021976
-0.31482163 -0.17234597 0.36437738 0.06035075 0.21239398 0.044732857 -0.46065784 -0.40147853
0.1621209 -0.1901703 0.5826376 0.2528071 0.19714823 0.0850876 0.32023787 0.42955798
-0.30865812 0.27540442 -0.24435881 -0.07936179 -0.5947136 -0.38689867 -0.42328325 0.24394247
-0.07866616 -0.004362838 -0.14151673 -0.47875154 -0.33391023 0.56595683 0.014931272 0.18424235
0.43740466 0.13521324 -0.29609215 0.6065792 0.23459922 0.42220464 0.38012087 -0.26619822
0.07220348 0.28676102 0.47389486 -0.1653166 -0.29475808 0.07737216 -0.093949296 -0.11051268
-0.21680243 -0.23403598 -0.47619313 0.34217024 0.23548031 -0.3883036 0.017305292 -0.5102848
0.48108962 0.12983248 0.44057205 0.020511223 -0.23404458 0.4909401 -0.09075295 -0.19066763
-0.3992811 -0.08746011 0.3270119 -0.024554709 -0.48333785 -0.11828668 -0.2509019 0.15039016
-0.07858373 -0.46470472 -0.43081713 0.5054548 -0.09661317 -0.4195399 0.1987586 -0.21128014
-0.044034958 -0.091677055 0.47832534 0.19961822 0.2088362 0.073653005 0.5239748 -0.41617468
-0.26950923 -0.11944691 0.20798407 -0.26128983 0.04336206 0.038809504 0.1232746 0.15732405
0.41505998 0.0830069 0.13446632 0.42051613 -0.11893863 -0.28303108 -0.24660844 -0.18718947
0.527458 -0.058326688 0.36469123 0.16490935 0.35617563 -0.1155554 0.1905957 0.34606424
-0.58837646 0.0021515586 -0.11370366 -0.25233808 0.27239138 0.34302628 0.13670172 0.4047307
0.4429334 0.05141908 0.119414866 -0.060054354 -0.27480835 -0.3461365 0.45491973 -0.24158393
00000000: b574 ae3e 8100 b43e a49d 89be 4fb6 d63e
00000010: 9c80 19be 089a 4a3d e006 623e 55b6 67be
00000020: 83a2 943d b307 df3d d967 3e3e 06ce 773e
00000030: c637 a43e 10cf 9dbe 8716 f53e 54ad 293e
00000040: 2fdd b43e 9896 843e 6485 9ebd 6306 d63e
00000050: fff2 a2be b4d5 d43e 48fe 8cbd c0ac 593d
00000060: e704 c93e f96a 223d 7401 c53e 9c3c 06bf
00000070: c6c7 0d3f 6a8a ae3e 0cf5 c1be 9fcd f73b
00000080: 1df1 083e 18d0 903d 6590 07bf 23ef 673e
00000090: 2ca4 13bf 9cc2 2d3e 256c 2fbe 5404 b9bd
000000a0: aa90 683e 7307 173c d519 ca3d 2cb7 c3bd
000000b0: eeb7 04bf a693 88be 8e4c 85be 5ba4 173d
000000c0: 4d30 a1be 767b 30be ac8f ba3e 5932 773d
000000d0: cf7d 593e cd39 373d 58db ebbe 988e cdbe
000000e0: 0503 263e 01bc 42be bd27 153f ef6f 813e
000000f0: 3ae1 493e 6842 ae3d 38f6 a33e 06ef db3e
00000100: 7008 9ebe cf01 8d3e 3239 7abe 6f88 a2bd
00000110: 273f 18bf 9517 c6be 95b8 d8be 0ecc 793e
00000120: b91b a1bd 23f6 8ebb c3e9 10be ec1e f5be
00000130: 48f6 aabe 8ce2 103f 4ba2 743c 07aa 3c3e
00000140: 81f3 df3e 5775 0a3e 6499 97be c648 1b3f
00000150: c73a 703e 352b d83e 349f c23e 224b 88be
00000160: 6bdf 933d 57d2 923e 59a2 f23e c148 29be
00000170: 88ea 96be 4c75 9e3d 7d68 c0bd 7954 e2bd
00000180: 7501 5ebe 21a7 6fbe 96cf f3be f030 af3e
00000190: c021 713e bbcf c6be d4c3 8d3c 06a2 02bf
000001a0: 6151 f63e cef2 043e a992 e13e 2707 a83c
000001b0: 62a9 6fbe 805c fb3e afdc b9bd 603e 43be
000001c0: 936e ccbe 491e b3bd 1b6e a73e f526 c9bc
000001d0: 0f78 f7be 4940 f2bd 3776 80be e1ff 193e
000001e0: 82f0 a0bd c7ed edbe 1094 dcbe 7c65 013f
000001f0: 20dd c5bd efcd d6be 6087 4b3e d259 58be
00000200: 005e 34bd 2ec1 bbbd 0fe7 f43e b868 4c3e
00000210: 28d9 553e 63d7 963d 3623 063f d914 d5be
00000220: 1dfd 89be 95a0 f4bd c7f9 543e c8c7 85be
00000230: 6a9c 313d b7f6 1e3d 6577 fc3d 8e19 213e
00000240: be82 d43e 86ff a93d 8ab1 093e e44d d73e
00000250: 1996 f3bd 73e9 90be ec86 7cbe 99ae 3fbe
00000260: 7d07 073f f7e7 6ebd cfb8 ba3e ffdd 283e
00000270: a75c b63e 4fa8 ecbd 852b 433e 552f b13e
00000280: d79f 16bf 2a01 0d3b 77dd e8bd 7532 81be
00000290: e276 8b3e 24a1 af3e 89fb 0b3e dd38 cf3e
000002a0: 2bc8 e23e d09c 523d c88f f43d 8efb 75bd
000002b0: aeb3 8cbe ce38 b1be 3deb e83e c761 77be

rnn.1.1.bias f4 [44]
0.14389828 0.35285836 0.053830836 0.55844736 0.3120158 0.2715302 -0.07513332 -0.51407456
-0.08849697 0.18517302 -0.18373631 0.18866289 -0.21159655 -0.458765 0.511367 0.42161047
-0.021378279 -0.4288915 -0.15534225 0.013624839 0.28415346 0.5101554 0.27407092 -0.46948206
-0.04656717 -0.4499235 0.12825242 0.27071425 -0.03082388 -0.04333499 -0.078074604 0.41988102
0.47192177 -0.18468112 -0.40994054 0.18278399 0.19167863 0.3212284 0.20516503 0.30043587
-0.0553597 0.29540977 0.07751138 -0.10935753
00000000: 125a 133e daa9 b43e b97d 5c3d 68f6 0e3f
00000010: 89c0 9f3e 0206 8b3e 80df 99bd 649a 03bf
00000020: e63d b5bd ff9d 3d3e 5f25 3cbe d830 413e
00000030: c4ac 58be 3fe3 eabe f3e8 023f 54dd d73e
00000040: 8021 afbc ab97 dbbe 0a12 1fbe b73a 5f3c
00000050: 907c 913e 8b99 023f 0653 8c3e f45f f0be
00000060: 38bd 3ebd 5f5c e6be 9a54 033e 0f9b 8a3e
00000070: 5d82 fcbc 0880 31bd 94e5 9fbd a5fa d63e
00000080: bb9f f13e 0c1d 3dbe bae3 d1be ba2b 3b3e
00000090: 6747 443e 0d78 a43e c816 523e bbd2 993e
000000a0: dac0 62bd f33f 973e 49be 9e3d d7f6 dfbd

rnn.1.2.weight f4 [44]
0.9925248 0.9571369 1.0355703 0.95992327 1.1414757 1.0982444 0.90209144 0.84600836
0.9364969 1.0384798 0.89578396 0.93149185 0.909944 0.98481655 0.9660397 0.9815791
1.1019231 1.0101805 0.99750155 0.9013873 0.97402173 0.86762524 1.0403802 0.97661966
1.0055014 0.913073 1.0587622 0.99296844 1.074799 1.0733457 1.0175928 0.9523485
1.0132045 0.9065563 0.9949468 1.1247605 1.1688576 0.94693696 0.93931365 1.0407225
0.98757744 1.1589419 1.0366274 1.1129514
00000000: 1b16 7e3f ed06 753f 918d 843f 88bd 753f
00000010: e01b 923f 4693 8c3f 77ef 663f 0194 583f
00000020: 43be 6f3f e8ec 843f 1952 653f 4076 6e3f
00000030: 17f2 683f f01c 7c3f 614e 773f c548 7b3f
00000040: d10b 8d3f 984d 813f 435c 7f3f 51c1 663f
00000050: 7d59 793f b01c 5e3f 2e2b 853f bf03 7a3f
00000060: 45b4 803f 27bf 693f 8585 873f 2e33 7e3f
00000070: 0393 893f 6463 893f 7b40 823f 1ccd 733f
00000080: afb0 813f 1314 683f d5b4 7e3f 27f8 8f3f
00000090: 209d 953f 766a 723f dc76 703f 6536 853f
000000a0: e0d1 7c3f 3558 943f 35b0 843f 3175 8e3f

rnn.1.2.bias f4 [44]
0.14945596 0.007193158 0.2055112 0.054548945 0.025558546 0.024555814 -0.0695242 -0.07158003
-0.072029024 0.20130259 -0.13186044 0.090745784 -0.077006206 -0.024517702 0.22016948 0.20068328
0.057114128 0.08897578 0.18251759 -0.07729426 -0.025536498 0.04187399 0.09322126 0.049629826
0.025948683 -0.10919454 0.054503474 -0.08438402 -0.015621585 0.15203379 0.024565129 0.073510356
0.0409846 -0.04725984 0.1338145 0.19962896 0.23512349 0.03554843 0.050595455 0.11850622
0.007230084 0.12390206 0.09268197 0.20032611
00000000: fc0a 193e 95b4 eb3b 8771 523e b76e 5f3d
00000010: 2860 d13c 4629 c93c b462 8ebd 8d98 92bd
00000020: f483 93bd 4422 4e3e 6c06 07be edd8 b93d
00000030: 6eb5 9dbd 59d9 c8bc 1c74 613e eb7f 4d3e
00000040: 81f0 693d ef38 b63d e4e5 3a3e 744c 9ebd
00000050: eb31 d1bc 1084 2b3d caea be3d a548 4b3d
00000060: 5592 d43c 63a1 dfbd 093f 5f3d 87d1 acbd
00000070: adf1 7fbc bfae 1b3e cf3c c93c 998c 963d
00000080: 78df 273d 8993 41bd ab06 093e 896b 4c3e
00000090: 36c4 703e 3b9b 113d 2e3d 4f3d 64b3 f23d
000000a0: 57ea ec3b 5dc0 fd3d 0bd0 bd3d 4a22 4d3e

rnn.1.2.running_mean f4 [44]
0.065555684 0.3883769 0.03365201 0.554487 0.2439468 0.27047804 -0.04132761 -0.57498974
-0.13952096 0.2155033 -0.18618779 0.21568026 -0.17685468 -0.45879826 0.51028365 0.384351
-0.0153523665 -0.41746828 -0.116314985 0.0011184723 0.19046083 0.5198198 0.2932564 -0.44873884
-0.073764704 -0.40882567 0.11082051 0.28142843 0.0117125735 -0.03228403 -0.11804095 0.4650627
0.48062375 -0.1438507 -0.3594702 0.17096849 0.13424255 0.34305248 0.17570144 0.2613972
-0.0027920066 0.23952639 0.058535 -0.042765602
00000000: 0f42 863d 56d9 c63e b1d6 093d dcf2 0d3f
00000010: 31cd 793e 197c 8a3e 2447 29bd 8732 13bf
00000020: 95de 0ebe e6ac 5c3e 03a8 3ebe 49db 5c3e
00000030: 6519 35be 9be7 eabe f3a1 023f a7c9 c43e
00000040: 7e88 7bbc 67be d5be 8d36 eebd b499 923a
00000050: 2a08 433e e912 053f b425 963e 19c1 e5be
00000060: f311 97bd 9951 d1be ddf5 e23d 6317 903e
00000070: 18e6 3f3c 423c 04bd 74bf f1bd b31c ee3e
00000080: 5114 f63e 994d 13be 7a0c b8be 5d12 2f3e
00000090: e176 093e 93a4 af3e 14eb 333e dbd5 853e
000000a0: 19fa 36bb 6846 753e 65c2 6f3d fc2a 2fbd

rnn.1.2.running_var f4 [44]
0.37935078 0.038986232 0.14486712 0.2466068 0.4095776 0.08262223 0.20897712 0.28187642
0.090969555 0.2833135 0.04401658 0.4610139 0.08252128 0.22480066 0.30616143 0.42190358
0.10564383 0.660226 0.22685544 0.1877512 0.4608856 0.30156457 0.21503223 0.09537127
0.22308363 0.2726419 0.49552062 0.083902165 0.104382604 0.27384484 0.2333777 0.16191597
0.15314819 0.18005367 0.12704618 0.05226298 0.4709006 0.26631445 0.45363614 0.27872643
0.44068307 0.53258127 0.18078296 0.1851112
00000000: 443a c23e 07b0 1f3d 0c58 143e 7e86 7c3e
00000010: 28b4 d13e d835 a93d 19fe 553e 1b52 903e
00000020: 3f4e ba3d 780e 913e bb4a 343d 040a ec3e
00000030: eb00 a93d 2532 663e 31c1 9c3e bf03 d83e
00000040: cb5b d83d 9204 293f cb4c 683e da41 403e
00000050: 33f9 eb3e ac66 9a3e 6931 5c3e 0352 c33d
00000060: 0970 643e b897 8b3e e1b4 fd3e e6d4 ab3d
00000070: 8cc6 d53d 6435 8c3e 90fa 6e3e 4dcd 253e
00000080: e1d2 1c3e fd5f 383e 6518 023e b511 563d
00000090: e219 f13e 5e5a 883e ff42 e83e 3bb5 8e3e
000000a0: 36a1 e13e 3f57 083f 2b1f 393e ca8d 3d3e

rnn.1.4.weight f4 [60, 44]
-0.26128456 0.082829356 -0.08241332 -0.09554168 -0.064642996 0.104891345 -0.19121619 -0.072544426
-0.24212667 0.038380038 -0.0014959536 -0.11723131 0.27032158 -0.18191454 -0.12665695 0.040820394
-0.0074613146 -0.046047535 -0.05697618 0.109884374 -0.14629984 0.08030848 0.08029542 0.21807103
-0.15159413 -0.12470094 0.028389817 0.08586809 0.30140215 -0.06283351 -0.05171809 0.0063951053
0.0702695 -0.008621587 0.14193003 -0.028359707 -0.18594955 -0.19682431 0.0064916853 -0.049050923
0.16105458 -0.12101013 -0.19335632 0.03327109 -0.19092646 -0.07694289 -0.1772814 -0.10393875
-0.0509075 0.09738235 -0.0637134 -0.19750558 0.020356204 -0.056193538 0.037438914 -0.18107353
0.12499514 -0.14447504 0.13418068 -0.13849343 -0.08812701 -0.07349934 0.043488573 0.021426579
-0.11327012 -0.08452529 0.12555705 -0.088698804 0.026984988 -0.024201704 -0.11714768 0.07326599
-0.08148473 -0.16730061 -0.18994279 0.06514173 -0.029022533 0.035909526 -0.009841518 -0.019680051
-0.10452839 -0.07391356 0.09537015 -0.04550381 -0.12068327 -0.16078307 -0.017199857 0.055966057
0.018127514 -0.10805043 -0.031358283 -0.15109804 -0.0824029 0.0461349 -0.21420489 -0.11542965
-0.1253298 -0.24320893 -0.14245743 -0.10351744 0.0968521 -0.18979812 -0.022207594 0.06340168
-0.07927007 -0.012387783 -0.07757682 0.032456286 -0.16264586 -0.16555773 -0.17243722 0.050457843
0.11825686 -0.20465918 -0.02438878 -0.13655907 0.03158214 0.041785743 0.014276438 0.081755765
-0.015998695 -0.06913572 -0.06252112 0.045797598 -0.0048439912 0.022641793 -0.05048363 0.0049046692
-0.19485855 -0.059984136 -0.18636584 0.10894237 -0.042575926 0.0064678025 0.20546444 0.024638679
0.0521633 -0.10475455 -0.094388 0.18388543 0.071343124 -0.17168082 0.05037481 0.04732192
0.08580777 -0.016530052 0.0839475 -0.06834792 -0.043422725 -0.048583258 -0.048455875 0.047575295
0.072271734 0.1880381 0.17920607 -0.14907275 0.045973018 0.13551426 0.14248061 -0.069451205
-0.18883502 -0.07227994 0.06430071 -0.07119262 -0.09997326 -0.011247599 -0.17217936 0.2001307
0.09616966 0.05485103 -0.09253264 0.0068738717 -0.20391048 0.2449376 0.22821376 0.020372245
0.056099225 -0.13710026 -0.021652175 0.045196284 -0.15114279 -0.16396731 -0.10501403 0.17223196
0.2631994 0.027032401 0.046598643 0.042820476 -0.10443915 -0.07494134 -0.06356413 0.014647768
0.041341215 0.0644677 0.11351962 0.07953166 0.21567786 -0.15518595 -0.18395878 -0.13082474
-0.15409844 -0.092687584 0.08393141 0.0052032545 -0.03763123 -0.12050232 -0.030393694 0.10195318
-0.2737721 -0.13399258 -0.050281145 -0.1942612 -0.13950694 0.08845238 -0.022224622 0.043783303
-0.10127844 -0.15782209 0.029786427 -0.007707784 0.045790173 -0.061201047 0.05948287 0.12506454
0.20074387 -0.14366437 0.13882644 -0.11274638 0.01635102 -0.012339678 -0.04418227 -0.015518557
-0.05989467 -0.08835716 0.014707619 0.023887528 -0.15497428 -0.07136225 -0.10652421 4.886082e-05
0.12505302 -0.025668273 0.13302521 -0.08096988 -0.018500071 -0.20901632 0.024539044 -0.073436856
0.07874973 -0.16913588 -0.10518976 0.010539182 -0.033247422 -0.06419013 -0.030924639 0.16057445
00000000: 17c7 85be 70a2 a93d 51c8 a8bd 5bab c3bd
00000010: 8c63 84bd 46d1 d63d 2dce 43be 2c92 94bd
00000020: 0ef0 77be 6334 1d3d e013 c4ba f816 f0bd
00000030: 9767 8a3e ce47 3abe 5cb2 01be 4933 273d
00000040: 0b7e f4bb 579c 3cbd db5f 69bd 0f0b e13d
00000050: a0cf 15be c678 a43d ed71 a43d 034e 5f3e
00000060: 7e3b 1bbe 3563 ffbd c391 e83c 9cdb af3d
00000070: 6251 9a3e dbae 80bd 59d6 53bd 088e d13b
00000080: 75e9 8f3d 8f41 0dbc 1b56 113e 9e52 e8bc
00000090: 8f69 3ebe 508c 49be 34b8 d43b 9fe9 48bd
000000a0: 7eeb 243e 29d4 f7bd 33ff 45be 4447 083d
000000b0: 3a82 43be 3c94 9dbd 4189 35be d7dd d4bd
000000c0: 6284 50bd 6670 c73d 2c7c 82bd e73e 4abe
000000d0: 0ec2 a63c 322b 66bd 8c59 193d 576b 39be
000000e0: 74fd ff3d 44f1 13be a966 093e 39d1 0dbe
000000f0: ef7b b4bd d286 96bd 1321 323d cb86 af3c
00000100: 2afa e7bd 981b adbd 0792 003e b8a7 b5bd
00000110: 9f0f dd3c a742 c6bc 1feb efbd 7b0c 963d
00000120: 77e1 a6bd da50 2bbe 5d80 42be 0769 853d
00000130: aac0 edbc de15 133d 513e 21bc 0f38 a1bc
00000140: fb12 d6bd fe5f 97bd 6d51 c33d 3462 3abd
00000150: ca28 f7bd 51a4 24be b7e6 8cbc aa3c 653d
00000160: 2780 943c 8b49 ddbd 8b71 00bd 72b9 1abe
00000170: dac2 a8bd f3f7 3c3d 8758 5bbe 6166 ecbd
00000180: 7556 00be c30b 79be 5ce0 11be f400 d4bd
00000190: 655a c63d 705a 42be b3ec b5bc bdd8 813d
000001a0: 5958 a2bd 21f6 4abc 99e0 9ebd e2f0 043d
000001b0: a38c 26be f787 29be 6293 30be e2ac 4e3d
000001c0: a730 f23d 2d92 51be fbca c7bc 24d6 0bbe
000001d0: 465c 013d 8727 2b3d b9e7 693c 916f a73d
000001e0: b20f 83bc 0797 8dbd 130b 80bd 4396 3b3d
000001f0: 58ba 9ebb 487b b93c ecc7 4ebd 59b7 a03b
00000200: 0089 47be edb1 75bd b0d6 3ebe 2d1d df3d
00000210: 1864 2ebd dcef d33b 4565 523e 0ed7 c93c
00000220: 2fa9 553d 8e89 d6bd 7f4e c1bd 764c 3c3e
00000230: 581c 923d 19cd 2fbe d155 4e3d a1d4 413d
00000240: fcbb af3d 086a 87bc abec ab3d fff9 8bbd
00000250: 07dc 31bd 3dff 46bd ab79 46bd 50de 423d
00000260: 3403 943d 0f8d 403e cc81 373e 87a6 18be
00000270: 344e 3c3d 40c4 0a3e 70e6 113e 6f3c 8ebd
00000280: f85d 41be 8107 94bd 17b0 833d 70cd 91bd
00000290: c8be ccbd d947 38bc c94f 30be 10ef 4c3e
000002a0: 99f4 c43d 79ab 603d c181 bdbd 373e e13b
000002b0: e9cd 50be ecd0 7a3e deb0 693e b2e3 a63c
000002c0: 4dc8 653d 0364 0cbe e75f b1bc bd1f 393d
000002d0: 2dc5 1abe 0ce7 27be 9911 d7bd 935d 303e
000002e0: 12c2 863e 0e73 dd3c 38de 3e3d 8664 2f3d
000002f0: 31e4 d5bd d87a 99bd e92d 82bd 31fd 6f3c
00000300: 6855 293d a407 843d f97c e83d 7fe1 a23d
00000310: a8da 5c3e 11e9 1ebe b15f 3cbe ecf6 05be
00000320: fbcb 1dbe fdd2 bdbd 3be4 ab3d 1080 aa3b
00000330: 3423 1abd ecc9 f6bd 32fc f8bc d4cc d03d
00000340: db2b 8cbe 5a35 09be 9af3 4dbd 68ec 46be
00000350: e8da 0ebe 8526 b53d 6910 b6bc 1f56 333d
00000360: 126b cfbd 1d9c 21be aa02 f43c 9491 fcbb
00000370: 7a8e 3b3d f3ad 7abd 4fa4 733d eb10 003e
00000380: cd8f 4d3e c11c 13be 8528 0e3e 93e7 e6bd
00000390: 93f2 853c 5c2c 4abc 78f8 34bd 8c41 7ebc
000003a0: 1d54 75bd 99f4 b4bd 3af8 703c c7af c33c
000003b0: 94b1 1ebe 5f26 92bd 5d29 dabd e8ef 4c38
000003c0: e60d 003e 4546 d2bc c337 083e 89d3 a5bd
000003d0: 768d 97bc 6008 56be 1b06 c93c 1066 96bd
000003e0: 8a47 a13d f531 2dbe bb6d d7bd 89ac 2c3c
000003f0: 732e 08bd 1d76 83bd ab55 fdbc a16d 243e

rnn.1.4.bias f4 [60]
0.04802613 0.06844479 -0.001513707 0.09540064 0.14920703 0.059643403 0.091432616 0.15137213
-0.12653281 0.1266535 0.1371147 0.15505281 0.16339473 0.04289238 0.048280735 -0.07326778
0.03228056 -0.15689994 0.14254557 -0.024246322 0.13756754 0.05880851 0.22644508 -0.025102047
-0.18142146 -0.08923433 0.15830706 -0.19614398 0.080300935 0.13775298 -0.027217532 0.09624262
0.029311035 -0.024231546 0.268652 0.072428584 0.019184941 -0.14089161 0.06639915 0.07038401
0.1308134 0.071449615 -0.072531484 0.020549878 -0.093794316 -0.13554692 0.039848175 -0.020918317
-0.12194199 0.0732263 0.07786498 -0.18045731 0.057432815 0.16594857 -0.09492537 -0.09463026
0.13760176 -0.026771707 0.060558565 0.21804391
00000000: 0cb7 443d c82c 8c3d 9467 c6ba 6961 c33d
00000010: bac9 183e a44c 743d 0641 bb3d 4c01 1b3e
00000020: d191 01be 75b1 013e cc67 0c3e 2ac6 1e3e
00000030: f350 273e ecaf 2f3d 05c2 453d 6b0d 96bd
00000040: 9f38 043d 61aa 20be 77f7 113e 39a0 c6bc
00000050: 81de 0c3e 31e1 703d 38e1 673e cfa2 cdbc
00000060: 8cc6 39be 7dc0 b6bd 3f1b 223e f8d9 48be
00000070: d174 a43d 1e0f 0d3e 4df7 debc da1a c53d
00000080: b21d f03c 3c81 c6bc c18c 893e 7055 943d
00000090: bd29 9d3c e445 10be 47fc 873d 7e25 903d
000000a0: f3f3 053e 2d54 923d 638b 94bd 3858 a83c
000000b0: 3c17 c0bd d0cc 0abe d737 233d e45c abbc
000000c0: b9bc f9bd acf7 953d ad77 9f3d cdc9 38be
000000d0: ac3e 6b3d 6cee 293e 3b68 c2bd 82cd c1bd
000000e0: 7ae7 0c3e 5750 dbbc 420c 783d e746 5f3e

rnn.1.5.weight f4 [60]
1.1713574 0.9573292 0.88124657 0.9920377 0.95596474 0.9734169 1.0213189 0.93358326
0.93561906 0.93826973 0.94717765 0.9111623 1.0564955 0.9058638 1.0051849 0.99632686
0.9640169 0.95426756 0.8882601 0.8837436 0.936138 0.9513359 0.95771974 0.94107133
0.96208715 0.8956371 0.918212 0.9496836 0.87000763 1.0996107 0.92344236 0.8637427
0.91629153 0.9978351 0.9396043 0.88516164 0.8732591 0.94408906 0.936479 0.94209695
0.9201683 0.9381209 0.91663307 0.9266418 0.9912905 0.8948347 0.8539497 0.9092787
0.87411237 0.90982914 0.94869566 0.92337656 0.89289606 0.95026046 0.93601775 1.0245211
0.8811811 0.9233656 0.9670616 1.0441747
00000000: 0aef 953f 8713 753f 6099 613f 2ff6 7d3f
00000010: 1bba 743f da31 793f 94ba 823f 50ff 6e3f
00000020: bb84 6f3f 7232 703f 3c7a 723f ef41 693f
00000030: 3f3b 873f b1e6 673f e6a9 803f 470f 7f3f
00000040: d0c9 763f e14a 743f 0465 633f 053d 623f
00000050: bda6 6f3f c08a 733f 1f2d 753f 0dea 703f
00000060: 584b 763f 7948 653f f10f 6b3f 771e 733f
00000070: d2b8 5e3f 0bc0 8c3f b866 6c3f 3e1e 5d3f
00000080: 1592 6a3f 1f72 7f3f e889 703f f499 623f
00000090: e98d 5f3f d2af 713f 16bd 6f3f 442d 713f
000000a0: 2690 6b3f b128 703f 77a8 6a3f 6638 6d3f
000000b0: 37c5 7d3f e313 653f 739c 5a3f 7dc6 683f
000000c0: d4c5 5f3f 90ea 683f b8dd 723f 6862 6c3f
000000d0: d694 643f 4544 733f dc9e 6f3f 8223 833f
000000e0: 1695 613f b061 6c3f 5991 773f 84a7 853f

rnn.1.5.bias f4 [60]
0.20102245 -0.041737262 -0.16873479 -0.0154560935 -0.15454072 -0.061473854 0.071961984 -0.056539603
0.041893303 -0.05868991 -0.11202323 -0.06807481 0.014347348 -0.059199043 -0.032190215 0.0018361739
-0.08208894 -0.107149184 -0.12591788 -0.12282269 -0.09381964 -0.08205414 -0.13167857 -0.053927165
-0.07218401 -0.14069186 0.002170315 -0.085040495 -0.1501737 0.081388675 -0.03496039 -0.26430783
-0.16272233 -0.06688178 -0.08538547 -0.15105507 -0.13261576 -0.26080513 0.014778128 -0.08485848
-0.09545779 -0.03866192 -0.017807035 -0.108799845 -0.03274634 -0.13706578 -0.090890944 -0.18116218
-0.069740534 -0.033333816 -0.08627503 -0.06966245 -0.1581996 -0.1156035 -0.09531929 -0.1092657
-0.23760332 -0.0072696847 -0.038705446 -0.008974101
00000000: d4d8 4d3e b1f4 2abd d0c8 2cbe 8e3b 7dbc
00000010: ec3f 1ebe 02cc 7bbd ce60 933d 1296 67bd
00000020: 5098 2b3d d564 70bd 6f6c e5bd ce6a 8bbd
00000030: 2411 6b3c b27a 72bd e3d9 03bd c6ab f03a
00000040: 3f1e a8bd 0871 dbbd 9ef0 00be 768a fbbd
00000050: 8324 c0bd 000c a8bd bfd6 06be bbe2 5cbd
00000060: 36d5 93bd 8711 10be d83b 0e3b b629 aebd
00000070: 22c7 19be 1baf a63d a032 0fbd 5b53 87be
00000080: afa0 26be 51f9 88bd 94de aebd 2eae 1abe
00000090: 6dcc 07be 4088 85be f61f 723c 48ca adbd
000000a0: 607f c3bd f65b 1ebd 0fe0 91bc 74d2 debd
000000b0: 0721 06bd f95a 0cbe 0825 babd 9482 39be
000000c0: 20d4 8ebd 0a89 08bd f7b0 b0bd 30ab 8ebd
000000d0: 13ff 21be 87c1 ecbd c336 c3bd b2c6 dfbd
000000e0: 494e 73be 8936 eebb 9a89 1ebd 1c08 13bc
