DeepHedging_clean/MarketData/trained_models/RNN_BN_simple_AAPL.pt (torch, 303143 bytes, 390 tensors)

rnn.0.1.weight f4 [10, 1]
-0.5558777 -0.007686734 0.5489929 0.060515467 -0.05358541 -0.54914623 0.76486254 -0.69065845
0.33759305 0.6464596
00000000: 004e 0ebf 00e1 fbbb cc8a 0c3f 11df 773d
00000010: 607c 5bbd d994 0cbf 08ce 433f fece 30bf
00000020: ffd8 ac3e 607e 253f

rnn.0.1.bias f4 [10]
0.25438723 -0.42132536 0.9926031 -0.42212245 -0.7997974 -0.6944847 -0.052561507 -0.08137588
-0.11685647 -0.7096834
00000000: 0b3f 823e f5b7 d7be 3d1b 7e3f 6f20 d8be
00000010: 86bf 4cbf c0c9 31bf bc4a 57bd 66a8 a6bd
00000020: 7252 efbd d0ad 35bf

rnn.0.2.weight f4 [10]
0.9943161 0.9993264 1.0009997 1.0007236 1.0074021 1.0046864 0.9991392 0.99999994
1.0000194 1.0031276
00000000: 808b 7e3f dbd3 7f3f c220 803f b617 803f
00000010: 8df2 803f 9099 803f 96c7 7f3f ffff 7f3f
00000020: a300 803f 7c66 803f

rnn.0.2.bias f4 [10]
0.21506923 -0.042039838 -0.042098485 -0.03221399 -0.04209236 -0.0067123557 -0.04535014 -0.033410568
-0.038714577 0.051321305
00000000: 1c3b 5c3e f731 2cbd 766f 2cbd d1f2 03bd
00000010: 0a69 2cbd 52f3 dbbb 12c1 39bd 85d9 08bd
00000020: 2d93 1ebd 4a36 523d

rnn.0.2.running_mean f4 [10]
0.21607436 -0.42186174 1.0309143 -0.4178994 -0.80353683 -0.7328064 0.0008135837 -0.12957273
-0.09329795 -0.6644887
00000000: 9942 5d3e 43fe d7be 00f5 833f e9f6 d5be
00000010: 97b4 4dbf 3399 3bbf ae46 553a b7ae 04be
00000020: ff12 bfbd ee1b 2abf

rnn.0.2.running_var f4 [10]
4.95316e-15 1.3794342e-14 9.249248e-14 2.4260838e-14 7.760161e-14 3.506551e-14 5.433218e-20 1.8031064e-15
9.694025e-16 4.6896718e-14
00000000: d674 b227 2d7f 7828 4946 d029 af85 da28
00000010: 48be ae29 c8eb 1d29 ca49 801f 71ed 0127
00000020: a4b4 8b26 3c34 5329

rnn.0.4.weight f4 [60, 10]
0.23812573 0.1694969 0.055061508 -0.27499452 -0.25638258 0.037052512 -0.020410601 -0.1600202
-0.11450091 -0.16193534 -0.17980275 0.052420944 0.05001269 0.0579062 -0.039641827 0.08911839
-0.11216674 -0.09495479 -0.14906819 0.05520469 -0.34607074 -0.06889432 0.2988413 -0.00049311924
0.18562974 -0.21283586 0.07522438 -0.16120887 0.22839539 0.32613644 0.01838395 0.17251694
-0.20945391 -0.17814097 0.091945305 -0.14792587 -0.11756671 -0.12289865 0.008140139 0.32352093
-0.01070383 -0.2304575 -0.058959424 -0.2840248 0.3067691 -0.23290999 0.1990996 -0.076821394
0.30325285 -0.14001521 -0.0045307465 -0.25824353 -0.017100135 0.31789723 -0.009420789 0.15794246
-0.04203932 0.28420287 -0.09068838 0.15231861 0.115230955 0.23030016 0.1677478 0.10866002
0.30925795 -0.048385173 0.19293985 -0.08610603 0.01221749 0.3289697 0.028714513 0.22803265
-0.064144544 0.07919619 0.086817086 -0.07794681 0.23251241 0.11418848 -0.0501769 -0.091901675
0.10519304 -0.20343389 -0.10576582 0.12597448 0.109951474 0.18455829 -0.17504379 -0.12187107
-0.28793705 -0.01785533 0.25168324 -0.106810786 -0.04991015 -0.31261227 0.29936954 -0.15955138
-0.30553308 0.029636929 -0.05542979 -0.1310574 0.11737417 0.2865238 0.021121802 0.27854678
0.11141803 -0.12067483 0.06791386 0.047255944 -0.29911733 0.2535209 0.31577912 -0.26245123
-0.03462915 -0.22426131 0.31172127 0.1630375 -0.07207634 -0.2781771 -0.1260734 -0.036053788
-0.12644924 -0.0994452 -0.08426534 -0.18553025 0.33279398 0.3003862 -0.29087245 -0.13963823
-0.2232526 -0.15386875 0.1193043 0.060810562 -0.13672179 0.24616027 0.15636994 0.19118631
-0.19756724 -0.20776722 -0.2848845 -0.31105947 -0.19550681 -0.17924438 -0.28311953 -0.16219865
0.11681198 -0.053181056 -0.29815933 -0.29348737 0.12151698 -0.22066371 -0.51793855 0.0046792133
0.06359265 0.14029785 -0.09235311 0.35473683 -0.22878401 -0.28654814 0.05975729 -0.15277112
0.2928687 0.116914324 0.17588171 -0.036690127 0.05493051 -0.10505649 -0.20475873 -0.083334416
0.049516253 -0.20754066 -0.19963151 0.10057353 0.26578593 0.1709474 0.19601443 -0.16630311
-0.05366473 -0.13394244 -0.042497538 0.120054506 0.10105876 -0.09687863 -0.28161773 -0.19646378
0.009676442 -0.035744023 0.012432535 0.072249606 0.2396452 0.2853297 -0.059116714 0.023694329
0.06567923 0.02597098 0.25765824 0.08519563 -0.10891866 -0.24127515 -0.017505283 -0.010047714
0.08068577 -0.110378146 0.1920327 -0.029117988 -0.06241732 -0.26072684 -0.055829495 -0.14381096
-0.07596336 0.1112073 -0.05282743 -0.048481915 0.050568648 -0.18488106 0.20477857 0.17981167
0.11017217 -0.12947299 -0.11624154 -0.034013085 0.1470353 -0.15625484 -0.025185822 0.10016426
-0.22505608 0.14586094 -0.046690825 -0.07362852 0.019238876 -0.2787788 -0.17897767 -0.077367574
0.08529147 -0.09496251 0.2194652 0.19107863 -0.050648034 0.10266694 -0.053598758 0.25915164
0.28504393 -0.13584232 -0.16703865 0.31401455 0.2363947 -0.22678876 -0.19339097 0.2978123
0.0027254384 -0.30598944 -0.18611209 -0.20708017 0.11675532 -0.25282386 -0.24184355 0.16251029
00000000: 3bd7 733e 9890 2d3e 2d88 613d 15cc 8cbe
00000010: 9444 83be 60c4 173d 2234 a7bc 56dc 23be
00000020: 747f eabd 61d2 25be 361e 38be 58b7 563d
00000030: 1bda 4c3d 0d2f 6d3d 785f 22bd b483 b63d
00000040: adb7 e5bd a877 c2bd 55a5 18be 501e 623d
00000050: 2f30 b1be 7718 8dbd ba01 993e ac44 01ba
00000060: b915 3e3e a5f1 59be 3d0f 9a3d f013 25be
00000070: 7be0 693e 5bfb a63e f099 963c 48a8 303e
00000080: 167b 56be 966a 36be d24d bc3d e179 17be
00000090: d1c6 f0bd 4ab2 fbbd 385e 053c 89a4 a53e
000000a0: 1e5f 2fbc 0dfd 6bbe 707f 71bd b36b 91be
000000b0: d710 9d3e f57f 6ebe c4e0 4b3e 8954 9dbd
000000c0: f543 9b3e 2660 0fbe a876 94bb 7f38 84be
000000d0: 9515 8cbc 6dc3 a23e a759 1abc abbb 213e
000000e0: 6c31 2cbd 0a83 913e d4ba b9bd 69f9 1b3e
000000f0: 35fe eb3d ced3 6b3e 14c6 2b3e 2589 de3d
00000100: 0f57 9e3e 882f 46bd 0692 453e 5c58 b0bd
00000110: de2b 483c b76e a83e b33a eb3c 6481 693e
00000120: 375e 83bd 9d31 a23d 28cd b13d 94a2 9fbd
00000130: bc17 6e3e a6db e93d 4b86 4dbd f236 bcbd
00000140: 736f d73d f950 50be c09b d8bd 74ff 003e
00000150: 3d2e e13d d9fc 3c3e ae3e 33be 8a97 f9bd
00000160: 7c6c 93be 5745 92bc a0dc 803e 9dbf dabd
00000170: 966e 4cbd b70e a0be f746 993e 7061 23be
00000180: d56e 9cbe 25c9 f23c 590a 63bd e933 06be
00000190: de61 f03d 3fb3 923e a107 ad3c af9d 8e3e
000001a0: 232f e43d 5e24 f7bd 6c16 8b3d 738f 413d
000001b0: e825 99be 7ecd 813e cdad a13e 0260 86be
000001c0: 4cd7 0dbd c2a4 65be ee99 9f3e 4df3 263e
000001d0: c39c 93bd 3b6d 8ebe 6319 01be 23ad 13bd
000001e0: e97b 01be eda9 cbbd 4e93 acbd a4fb 3dbe
000001f0: f963 aa3e 38cc 993e 3ced 94be 53fd 0ebe
00000200: 549c 64be c58f 1dbe d055 f43d 7f14 793d
00000210: cc00 0cbe 7011 7c3e 711f 203e 58c6 433e
00000220: 114f 4abe eec0 54be 62dc 91be 3043 9fbe
00000230: f032 48be d78b 37be 0bf5 90be 6717 26be
00000240: 1f3b ef3d 61d4 59bd 57a8 98be fa43 96be
00000250: e5dd f83d abf5 61be 9f97 04bf 1654 993b
00000260: dd3c 823d 3daa 0f3e a123 bdbd 11a0 b53e
00000270: 5b46 6abe 70b6 92be 0fc4 743d 0870 1cbe
00000280: e3f2 953e c770 ef3d 561a 343e 6348 16bd
00000290: d1fe 603d db27 d7bd 46ac 51be 3cab aabd
000002a0: 8ed1 4a3d 8a85 54be 346c 4cbe 7ff9 cd3d
000002b0: 1815 883e d60c 2f3e 02b8 483e 5d4b 2abe
000002c0: 8ccf 5bbd 3528 09be e611 2ebd 23df f53d
000002d0: e5f7 ce3d 4e68 c6bd 3330 90be cd2d 49be
000002e0: f089 1e3c 5368 12bd d5b1 4b3c 9af7 933d
000002f0: 8d65 753e bc16 923e 5e24 72bd 9c1a c23c
00000300: d582 863d 18c1 d43c c8eb 833e 0c7b ae3d
00000310: bf10 dfbd d510 77be 3d67 8fbc 2b9f 24bc
00000320: 953e a53d f00d e2bd 38a4 443e d988 eebc
00000330: 4ea9 7fbd fd7d 85be 78ad 64bd 2e43 13be
00000340: ae92 9bbd a7c0 e33d 9361 58bd f994 46bd
00000350: 1221 4f3d 7651 3dbe 79b1 513e 8d20 383e
00000360: f2a1 e13d 9194 04be 0b10 eebd 4e51 0bbd
00000370: 6c90 163e 4501 20be 7f52 cebc eb22 cd3d
00000380: 1a75 66be 925c 153e e13e 3fbd 8dca 96bd
00000390: d99a 9d3c 18bc 8ebe ec45 37be e472 9ebd
000003a0: 4bad ae3d b47b c2bd 7cbb 603e 1eaa 433e
000003b0: 5074 4fbd 0b43 d23d 5f8a 5bbd 86af 843e
000003c0: 47f1 913e 401a 0bbe 2e0c 2bbe 84c6 a03e
000003d0: 7411 723e 503b 68be 4808 46be db7a 983e
000003e0: 459d 323b a6aa 9cbe 2b94 3ebe d30c 54be
000003f0: 6a1d ef3d 2172 81be d6a5 77be 1969 263e

rnn.0.4.bias f4 [60]
0.06433382 0.35340527 -0.2716653 0.13224377 0.24413618 0.15312394 -0.054508865 -0.06398701
-0.14050777 0.08025442 -0.03003158 0.3093856 -0.250925 0.08409963 -0.0436759 0.02094769
-0.34761873 -0.15129969 0.2816251 -0.020988034 -0.23431826 0.17791681 -0.16427131 -0.0507146
0.14394133 -0.27258778 0.31911865 0.27185205 0.16046578 -0.27480894 0.25395748 -0.28381383
-0.20398793 -0.21526323 0.057901125 0.083274476 -0.02371691 0.14173816 -0.16416201 -0.02900679
0.115434445 -0.16837662 0.15544525 -0.25657958 -0.19746965 0.31691876 0.010119874 -0.2244192
0.34497002 0.05719786 0.13828759 -0.1178459 0.00387601 -0.1340914 0.14776607 -0.085866876
-0.23146375 -0.13861437 0.025187511 -0.08962099
00000000: 73c1 833d 89f1 b43e b717 8bbe e96a 073e
00000010: d6fe 793e 86cc 1c3e b044 5fbd 9f0b 83bd
00000020: 45e1 0fbe 6e5c a43d ca04 f6bc ca67 9e3e
00000030: 3e79 80be 6d3c ac3d 80e5 32bd 7d9a ab3c
00000040: 15fb b1be 4eee 1abe 2a31 903e 19ef abbc
00000050: 20f1 6fbe d32f 363e bd36 28be 1dba 4fbd
00000060: 5b65 133e a090 8bbe 8563 a33e 3130 8b3e
00000070: 2451 243e c2b3 8cbe b706 823e 0c50 91be
00000080: 36e2 50be f76d 5cbe bb29 6d3d cf8b aa3d
00000090: f749 c2bc cf23 113e 161a 28be a69f edbc
000000a0: e568 ec3d ec6a 2cbe 0a2d 1f3e 665e 83be
000000b0: 7c35 4abe 2d43 a23e d4cd 253c 26ce 65be
000000c0: e99f b03e 4e48 6a3d 439b 0d3e 3159 f1bd
000000d0: a804 7e3b 424f 09be fd4f 173e f9da afbd
000000e0: d504 6dbe edf0 0dbe 0a56 ce3c 368b b7bd

rnn.0.5.weight f4 [60]
1.0284828 0.8775317 0.9643518 1.0656036 0.9621793 1.0349473 0.96802896 0.961244
1.0112041 0.9870778 0.9767926 0.95795393 1.0310234 1.0026524 0.9758693 1.0990746
0.95856965 1.0430655 0.9626761 0.9743937 0.96296567 0.9620787 1.0008812 0.9899382
0.95848596 1.04946 1.0386565 0.9627737 0.9623132 1.0489975 0.9579655 0.97586924
1.2426457 1.0661551 0.96404076 0.96839803 0.96839255 0.96264344 1.0407397 1.0658618
1.0199418 0.96189034 0.9622602 0.96265143 1.0446002 1.0738112 0.9618752 1.0412728
0.96378183 0.97801954 0.96498835 0.97855353 0.981388 0.96411747 0.9633418 0.9580155
0.9634904 1.0685346 0.9916513 0.9583197
00000000: 53a5 833f eba5 603f c2df 763f b365 883f
00000010: 6251 763f 2779 843f bfd0 773f 1614 763f
00000020: 236f 813f 21b1 7c3f 140f 7a3f 783c 753f
00000030: 93f8 833f ea56 803f 92d2 793f 7aae 8c3f
00000040: d264 753f 2c83 853f f171 763f de71 793f
00000050: eb84 763f ca4a 763f e01c 803f 976c 7d3f
00000060: 565f 753f b554 863f b2f2 843f 5678 763f
00000070: 285a 763f 8d45 863f 3a3d 753f 91d2 793f
00000080: 040f 9f3f c577 883f 60cb 763f efe8 773f
00000090: 93e8 773f cd6f 763f f536 853f 296e 883f
000000a0: 748d 823f 723e 763f af56 763f 5370 763f
000000b0: 76b5 853f a572 893f 743d 763f 6d48 853f
000000c0: 68ba 763f 7d5f 7a3f 7a09 773f 7c82 7a3f
000000d0: 3e3c 7b3f 67d0 763f 919d 763f 8140 753f
000000e0: 4fa7 763f bec5 883f dcdc 7d3f 7154 753f

rnn.0.5.bias f4 [60]
-0.026610311 0.28943068 -0.03619453 -0.023400864 -0.03571615 -0.02529705 -0.03898154 -0.04211345
-0.02387414 -0.04211305 -0.02472899 -0.042113442 -0.025407981 -0.011674502 -0.03898152 0.32506803
-0.042113427 -0.017638646 -0.037496056 -0.038981516 -0.03898154 -0.03898154 -0.03669957 -0.03619426
-0.04211344 -0.03670686 -0.012520501 -0.037496045 -0.03898154 -0.036798656 -0.042113446 -0.03665415
0.29910287 -0.026278676 -0.04211344 -0.03898149 -0.03898153 -0.037496053 -0.026180835 -0.0104799885
-0.03655171 -0.04211339 -0.038981535 -0.038981482 -0.025491884 -0.015897553 -0.036660075 -0.023524893
-0.036666527 -0.03680054 -0.03619453 -0.023064334 -0.036666475 -0.036666524 -0.03898154 -0.042113446
-0.036718555 -0.034003288 -0.03898152 -0.042113446
00000000: defd d9bc 4230 943e b740 14bd 2bb3 bfbc
00000010: 194b 12bd c23b cfbc 1bab 1fbd 277f 2cbd
00000020: b393 c3bc bc7e 2cbd 7394 cabc 257f 2cbd
00000030: 6624 d0bc 6946 3fbc 16ab 1fbd 516f a63e
00000040: 217f 2cbd ec7e 90bc 7795 19bd 15ab 1fbd
00000050: 1bab 1fbd 1bab 1fbd 4a52 16bd 6f40 14bd
00000060: 247f 2cbd ef59 16bd ca22 4dbc 7495 19bd
00000070: 1bab 1fbd 30ba 16bd 267f 2cbd a922 16bd
00000080: 0324 993e 6146 d7bc 247f 2cbd 0eab 1fbd
00000090: 19ab 1fbd 7695 19bd 3179 d6bc 42b4 2bbc
000000a0: 3fb7 15bd 177f 2cbd 1aab 1fbd 0cab 1fbd
000000b0: 5bd4 d0bc 963b 82bc e028 16bd 47b7 c0bc
000000c0: a42f 16bd 2abc 16bd b740 14bd 6af1 bcbc
000000d0: 962f 16bd a32f 16bd 1bab 1fbd 267f 2cbd
000000e0: 3266 16bd 0847 0bbd 16ab 1fbd 267f 2cbd

rnn.0.5.running_mean f4 [60]
0.107285164 0.3177742 -0.3294202 0.15283085 0.23463488 0.15997733 -0.012788122 -0.06252766
-0.118774794 0.12771209 0.0082726935 0.3755278 -0.2860615 0.09380089 -0.097115315 -0.098851435
-0.29522398 -0.18811485 0.31805122 -0.034233812 -0.21122865 0.1647935 -0.14693968 -0.07593304
0.18959117 -0.32362393 0.27071393 0.27499303 0.16559696 -0.25530714 0.26588178 -0.25833604
-0.15665312 -0.24685264 0.112918705 0.0047211894 0.04007344 0.17320673 -0.20867528 -0.016082816
0.13243727 -0.22674248 0.21740235 -0.2139087 -0.23198773 0.29586875 0.026584549 -0.23783793
0.3564797 -0.0023442826 0.11997499 -0.16818216 -0.03428892 -0.081017196 0.11016646 -0.0386405
-0.3084389 -0.17818376 0.036250006 -0.050698556
00000000: 53b8 db3d 4db3 a23e c4a9 a8be b17f 1c3e
00000010: 2044 703e 19d1 233e 4585 51bc 800e 80bd
00000020: 3340 f3bd f5c6 023e 318a 073c 2e45 c03e
00000030: a776 92be ae1a c03d 65e4 c6bd 9f72 cabd
00000040: 9927 97be 2ea1 40be 9cd7 a23e c138 0cbd
00000050: 534c 58be a1bf 283e 5b77 16be c882 9bbd
00000060: 3024 423e 09b2 a5be 049b 8a3e e3cb 8c3e
00000070: 4092 293e 9eb7 82be a821 883e 9f44 84be
00000080: ad69 20be f0c6 7cbe ec41 e73d 35b4 9a3b
00000090: 0c24 243d 1b5d 313e f9ae 55be 1cc0 83bc
000000a0: a39d 073e 2e2f 68be b99e 5e3e e20a 5bbe
000000b0: 318e 6dbe 1c7c 973e d7c7 d93c c98b 73be
000000c0: 8284 b63e 89a2 19bb 73b5 f53d f237 2cbe
000000d0: 8a72 0cbd 58ec a5bd f49e e13d 8045 1ebd
000000e0: b4eb 9dbe ce75 36be e37a 143d 4aa9 4fbd

rnn.0.5.running_var f4 [60]
1.0361203e-15 8.1858e-15 5.793915e-15 2.9240755e-15 6.3773776e-15 2.9786485e-15 2.1427024e-17 4.8451714e-16
2.986341e-15 1.9676868e-15 7.971512e-18 8.9862945e-15 1.4200166e-14 5.7459803e-16 8.2473565e-16 8.954036e-16
1.32304674e-14 1.912522e-15 1.383395e-14 1.7424865e-16 5.410952e-15 2.006563e-15 3.3565457e-15 6.181025e-16
4.380122e-15 9.989162e-15 1.2379976e-14 1.06298595e-14 2.0061277e-15 7.222769e-15 7.40209e-15 7.590076e-15
2.7855172e-15 9.931608e-15 2.3229527e-15 2.741003e-18 1.3880006e-16 3.6896967e-15 3.695264e-15 2.2748258e-17
1.9233162e-15 3.3253419e-15 4.0575034e-15 5.8446387e-15 7.49714e-15 1.864664e-14 5.1820192e-17 1.1229494e-14
8.2683265e-15 7.3622766e-19 8.0589526e-16 2.2420774e-15 1.2062821e-16 7.3660627e-16 1.4426781e-15 2.1441698e-16
1.2250838e-14 2.19569e-15 1.1299238e-16 1.6340156e-16
00000000: 1852 9526 5776 1328 6fbf d027 acb3 5227
00000010: edc4 e527 5ea2 5627 21a1 c523 0ea7 0b26
00000020: 4530 5727 6ac9 0d27 670c 1323 f8e1 2128
00000030: b5ce 7f28 da9d 2526 c0b6 6d26 900a 8126
00000040: c356 6e28 cecf 0927 d535 7928 20e5 4825
00000050: 39f3 c227 8e96 1027 57dd 7127 ea27 3226
00000060: 7fcf 9d27 e1f2 3328 9004 5f28 937d 3f28
00000070: 868e 1027 251d 0228 1d58 0528 0cbb 0828
00000080: b9b7 4827 75e9 3228 ea62 2727 1540 4a22
00000090: 8c06 2025 72ef 8427 cb22 8527 ced0 d123
000000a0: ec96 0a27 bb9d 6f27 dd2f 9227 4793 d227
000000b0: 750e 0728 39f4 a728 7cfa 6e24 e74a 4a28
000000c0: edf2 1428 ca4b 5921 9348 6826 078f 2127
000000d0: 2a13 0b25 f34f 5426 6de9 cf26 b934 7725
000000e0: 05b1 5c28 5537 1e27 7745 0225 a163 3c25

rnn.0.7.weight f4 [1, 60]
-0.069101706 0.38394758 0.011885409 -0.007181306 0.029250871 -0.030132184 0.05578735 0.0046590124
-0.011307675 -0.041779656 -0.021792656 0.06547997 -0.032069165 0.024357028 0.021146383 0.3576432
-0.034307275 0.011832129 -0.04412929 0.009910028 0.087051965 0.056113895 -0.012114783 0.035171364
-0.018327596 -0.014132479 0.019062145 -0.0057829027 0.08986705 -0.085249774 0.026865067 -0.0014750911
0.40498453 -0.054791342 -0.018813131 -0.011102747 0.07213939 -0.08859273 -0.05154978 0.023037532
0.01063692 -0.039711777 0.061934173 -0.017317293 -0.033874877 0.0155494055 -0.0029722482 -0.00786484
-0.053055286 -0.09095077 -0.0023503627 -0.0047265682 0.023269014 -0.024250306 0.044500735 0.014079966
-0.018252548 0.036025777 0.016082054 0.037234485
00000000: 3285 8dbd c794 c43e 05bb 423c 2951 ebbb
00000010: 869f ef3c c5d7 f6bc 4781 643d a1aa 983b
00000020: d443 39bc 2521 2bbd 8386 b2bc 5d1a 863d
00000030: f55a 03bd 6488 c73c 2e3b ad3c 021d b73e
00000040: c985 0cbd 8cdb 413c eac0 34bd ac5d 223c
00000050: 4d48 b23d afd7 653d 157d 46bc d90f 103d
00000060: c123 96bc ea8b 67bc 3728 9c3c 817e bdbb
00000070: 370c b83d 6f97 aebd 2114 dc3c d857 c1ba
00000080: 225a cf3e e36c 60bd ff1d 9abc 4ce8 35bc
00000090: d1bd 933d 1b70 b5bd dd25 53bd 35b9 bc3c
000000a0: 7a46 2e3c d1a8 22bd b0ae 7d3d ffdc 8dbc
000000b0: 62c0 0abd efc2 7e3c 0dca 42bb 88db 00bc
000000c0: 8050 59bd 6644 babd 8b08 1abb 54e1 9abb
000000d0: a99e be3c 94a8 c6bc 6746 363d a8af 663c
000000e0: 5e86 95bc c48f 133d 83be 833c 3083 183d

rnn.1.1.weight f4 [10, 1]
-0.37672055 -0.67919374 0.17185552 -0.23303364 0.5487464 -0.38620338 0.2023319 0.20720342
0.056094315 0.18137859
00000000: 84e1 c0be a4df 2dbf e5fa 2f3e 5fa0 6ebe
00000010: a57a 0c3f 73bc c5be 1830 4f3e 222d 543e
00000020: 27c3 653d 4fbb 393e

rnn.1.1.bias f4 [10]
-0.09765677 0.4420205 -0.93567413 0.045470394 -0.22911768 0.8922569 0.5607215 -0.1309766
0.30249456 0.87744004
00000000: 4600 c8bd 8350 e23e 5788 6fbf 2a3f 3a3d
00000010: d39d 6abe f36a 643f 728b 0f3f bb1e 06be
00000020: 91e0 9a3e e99f 603f

rnn.1.2.weight f4 [10]
1.0174387 1.0939492 1.0957315 0.98499024 0.8930443 1.0790579 0.86909205 0.91342443
1.0008947 1.0159622
00000000: 6e3b 823f 8706 8c3f ee40 8c3f 5228 7c3f
00000010: 8d9e 643f 921e 8a3f d17c 5e3f 2fd6 693f
00000020: 511d 803f 0d0b 823f

rnn.1.2.bias f4 [10]
0.139979 0.31716973 0.193377 -0.07736391 0.049372584 0.3089332 -0.054211248 0.04795257
-0.12142031 0.06337957
00000000: a856 0f3e 1264 a23e 9f04 463e f870 9ebd
00000010: e83a 4a3d 7e2c 9e3e 9d0c 5ebd ea69 443d
00000020: 36ab f8bd 26cd 813d

rnn.1.2.running_mean f4 [10]
-0.10435176 0.42888156 -0.9328661 0.041056246 -0.21861352 0.8848171 0.5644378 -0.12711763
0.30357233 0.8809098
00000000: 60b6 d5bd 5d96 db3e 50d0 6ebf 982a 283d
00000010: 39dc 5fbe 6083 623f ff7e 103f 202b 02be
00000020: d56d 9b3e 4e83 613f

rnn.1.2.running_var f4 [10]
0.12998642 0.42268947 0.027035492 0.049756054 0.27591968 0.13668269 0.037539687 0.039325774
0.0028831416 0.03015292
00000000: 291b 053e c16a d83e 8979 dd3c 01cd 4b3d
00000010: 5845 8d3e 8cf6 0b3e 37c3 193d 1014 213d
00000020: 17f3 3c3b 4203 f73c

rnn.1.4.weight f4 [60, 10]
0.33072183 0.050059624 -0.0060147657 -0.056736045 -0.15111493 0.3085109 -0.25962684 0.0724341
0.14643587 0.044955194 -0.11320954 -0.35974237 -0.16608898 0.16377367 0.12349037 -0.26281247
0.09081537 0.06934395 -0.11242595 -0.21923704 -0.16639577 0.29025182 0.038645566 -0.1216132
0.005148084 -0.093714446 -0.27989414 0.14172825 -0.34921497 -0.18804783 -0.34466282 -0.33244517
-0.36093265 0.032624844 0.005226382 -0.3035733 -0.14339732 0.1501575 -0.01657632 0.10227195
-0.24492434 0.034288403 0.13339753 0.046033915 -0.11869039 -0.24310835 -0.06102684 -0.26859736
0.11802757 -0.28228062 -0.14178725 0.16770092 -0.20169133 -0.16777389 -0.097844765 0.22389604
0.21463032 -0.19027226 -0.07109155 -0.24495046 0.078950256 0.23462538 0.05701957 -0.036238443
-0.24052152 0.25373065 0.24142897 0.23839276 0.006133764 0.12109228 0.21804115 -0.1175674
-0.32597116 -0.09205435 -0.20110728 -0.14437011 0.04326361 0.07219389 0.20676571 -0.39753366
-0.30938572 -0.1509338 -0.22515003 0.21056914 -0.31287396 0.17156081 -0.30041444 0.14254129
-0.0965271 -0.2498024 -0.0511481 0.098705314 -0.19689618 0.071116515 -0.31399593 -0.09930907
0.013084517 -0.073687114 -0.46365973 -0.44978723 -0.27042648 -0.18358055 0.28942296 0.1317673
0.33377573 -0.09643135 0.07229066 -0.08542243 -0.087660864 -0.21712 0.14779593 -0.27641597
-0.19592139 -0.25302717 -0.25114003 -0.19973192 -0.030667407 -0.22996177 -0.15716115 -0.040724978
-0.17133786 -0.16716653 -0.051668447 -0.037164662 0.101097606 -0.35870636 0.1953687 0.1611993
-0.24754515 0.18888658 0.11842804 -0.27300936 -0.34607968 0.17285682 -0.12866548 -0.14126408
0.18906349 -0.3198238 -0.264147 -0.37289533 -0.1471918 0.061869197 0.37102392 -0.039801247
-0.15264787 -0.21158797 -0.20197098 -0.014126545 -0.086560756 -0.15559042 -0.23897295 -0.04205714
0.0082867 -0.07465729 0.2562536 0.15072219 -0.03162123 -0.033671565 0.4220032 -0.035596486
0.22772104 0.24897152 0.030060424 0.0493566 -0.012914905 -0.20310391 0.036770668 -0.32730445
0.036046747 -0.21782218 -0.22602993 -0.19987112 0.19590299 0.03659241 0.051891766 -0.3122229
0.0042125327 -0.241697 0.000111757014 -0.15490563 -0.0046207677 0.29314268 -0.051641695 -0.19267772
-0.1914589 0.14902917 0.21122748 -0.14598866 -0.35237184 0.18195426 -0.21413162 -0.38161525
-0.14018321 -0.3985274 0.15394525 -0.6280942 -0.19840522 0.16951978 -0.25996023 0.2925289
0.27859583 0.27822757 -0.1797726 0.07171676 -0.14244567 -0.13876894 -0.118121184 -0.11203202
0.19291344 0.009334001 -0.10373103 0.34608188 0.20122498 0.31580207 0.0843768 -0.077283435
0.29825336 -0.085131854 0.36603057 -0.10818175 -0.114475384 0.14724708 -0.31873658 0.1814832
-0.006164646 0.041682564 -0.2587417 0.1476945 0.2060411 -0.14971499 0.18038447 0.2107535
0.1468656 -0.31788534 0.011028052 0.30322236 -0.03174476 -0.23054388 -0.17677228 -0.28348398
0.23575382 -0.24651377 -0.12242623 0.11287405 -0.013406359 -0.08223836 0.01827154 -0.3075333
-0.38607505 -0.07285118 0.24933328 0.3143341 -0.20241936 -0.041814145 0.00645949 0.07841347
00000000: 5f54 a93e 520b 4d3d 8317 c5bb 0e64 68bd
00000010: dfbd 1abe 24f5 9d3e cfed 84be 5458 943d
00000020: 49f3 153e f022 383d 67da e7bd 2730 b8be
00000030: 3b13 2abe 49b4 273e 85e8 fc3d 5b8f 86be
00000040: 69fd b93d 3304 8e3d 943f e6bd ad7f 60be
00000050: a763 2abe e39b 943e d04a 1e3d 5710 f9bd
00000060: 42b1 a83b 5ced bfbd 494e 8fbe 3621 113e
00000070: 4ecc b2be 9c8f 40be a577 b0be 4136 aabe
00000080: 2acc b8be a1a1 053d 1242 ab3b f66d 9bbe
00000090: bfd6 12be e3c2 193e 10cb 87bc f573 d13d
000000a0: 72cd 7abe ff71 0c3d 5d99 083e 0f8e 3c3d
000000b0: f213 f3bd 65f1 78be 48f7 79bd 9885 89be
000000c0: 70b8 f13d 1687 90be ad30 11be cab9 2b3e
000000d0: 2c88 4ebe ebcc 2bbe d662 c8bd 0145 653e
000000e0: 0dc8 5b3e bbd6 42be 7298 91bd 4bd4 7abe
000000f0: acb0 a13d a341 703e 5a8d 693d c36e 14bd
00000100: 464b 76be fce8 813e 2839 773e 3b1d 743e
00000110: befd c83b 3bff f73d 2e46 5f3e 2dc7 f0bd
00000120: b1e5 a6be fe86 bcbd 11ef 4dbe c2d5 13be
00000130: 2f35 313d 64da 933d 64ba 533e 8889 cbbe
00000140: ce67 9ebe 648e 1abe bb8d 66be 709f 573e
00000150: 0431 a0be a3ad 2f3e eccf 99be 58f6 113e
00000160: 00b0 c5bd 33cc 7fbe ac80 51bd 0326 ca3d
00000170: 279f 49be 89a5 913d 13c4 a0be 8e62 cbbd
00000180: 7160 563c 45e9 96bd cf64 edbe 834a e6be
00000190: 5775 8abe 8afc 3bbe 3f2f 943e 02ee 063e
000001a0: a7e4 aa3e cd7d c5bd 200d 943d f4f1 aebd
000001b0: 8a87 b3bd b554 5ebe d157 173e 6586 8dbe
000001c0: 9e9f 48be c78c 81be 6d95 80be 8686 4cbe
000001d0: 373a fbbc 197b 6bbe daee 20be 3ccf 26bd
000001e0: 3173 2fbe b42d 2bbe 4ba2 53bd f939 18bd
000001f0: 430c cf3d 5ca8 b7be bc0e 483e 6e11 253e
00000200: 7a7c 7dbe 7c6b 413e 668a f23d e2c7 8bbe
00000210: 5b31 b1be 6101 313e e2c0 03be 88a7 10be
00000220: dc99 413e f2bf a3be 473e 87be 23ec bebe
00000230: 72b9 16be 8e6a 7d3d d9f6 bd3e a206 23bd
00000240: b94f 1cbe 84aa 58be 7bd1 4ebe 0673 67bc
00000250: c446 b1bd 1853 1fbe 53b5 74be 1c44 2cbd
00000260: f0c4 073c ece5 98bd ac33 833e eb56 1a3e
00000270: 4385 01bd 32eb 09bd ce10 d83e 9fcd 11bd
00000280: b42f 693e 64f2 7e3e 4741 f63c 252a 4a3d
00000290: 0a99 53bc 79fa 4fbe d79c 163d 7394 a7be
000002a0: c1a5 133d c70c 5fbe 6474 67be 04ab 4cbe
000002b0: cb9a 483e ece1 153d 768c 543d aedb 9fbe
000002c0: 4909 8a3b 6b7f 77be 175f ea38 959f 1ebe
000002d0: cf69 97bb cc16 963e 3e86 53bd 4f4d 45be
000002e0: cd0d 44be 1a9b 183e 044c 583e 0d7e 15be
000002f0: 156a b4be 3852 3a3e 5245 5bbe 1363 c3be
00000300: 308c 0fbe c90b ccbe d3a3 1d3e c8ca 20bf
00000310: bd2a 4bbe 9896 2d3e 8219 85be 59c6 953e
00000320: 1da4 8e3e d873 8e3e 4f16 38be 3de0 923d
00000330: 47dd 11be 7219 0ebe 85e9 f1bd 0b71 e5bd
00000340: 1a8b 453e a3ed 183c ef70 d4bd a531 b13e
00000350: ec0d 4e3e cfb0 a13e becd ac3d c746 9ebd
00000360: aab4 983e 9c59 aebd 5c68 bb3e 658e ddbd
00000370: 1272 eabd f0c7 163e 7131 a3be bbd6 393e
00000380: cc00 cabb 56bb 2a3d cb79 84be 3a3d 173e
00000390: 70fc 523e e34e 19be b5b6 383e c4cf 573e
000003a0: f063 163e dec1 a2be 01af 343c f63f 9b3e
000003b0: cb06 02bd b213 6cbe cb03 35be d024 91be
000003c0: 7369 713e 1b6e 7cbe 9aba fabd 832a e73d
000003d0: 58a6 5bbc 966c a8bd 32ae 953c 0175 9dbe
000003e0: a1ab c5be 0033 95bd 3951 7f3e 66f0 a03e
000003f0: 0547 4fbe 4f45 2bbd 21aa d33b 3e97 a03d

rnn.1.4.bias f4 [60]
0.00015783557 -0.3418201 0.3958878 -0.056264836 -0.25522393 -0.18668923 0.010706206 0.19692522
-0.051445622 0.2040036 0.32610914 0.20956914 -0.15432897 0.32796204 -0.055668123 -0.4237709
0.3186932 0.03947157 0.07286926 0.0071328264 0.191445 0.15123305 0.28779826 -0.030813985
0.21740694 -0.28090632 0.032757614 0.0764961 -0.15370134 -0.38671675 -0.22246036 -0.17011552
-0.15913396 -0.33331567 -0.33339617 0.17916235 0.0953328 -0.24920535 -0.094088316 0.25633264
-0.022365617 0.015102098 -0.14314027 0.2758729 0.16905847 -0.1800478 -0.027753698 -0.23600508
-0.22109674 0.008999889 0.15054278 0.39760134 -0.013494541 -0.14174893 -0.16415788 -0.096774645
-0.15726495 -0.3039745 0.09182198 0.111437716
00000000: aa80 2539 0b03 afbe ceb1 ca3e f575 66bd
00000010: b6ac 82be 762b 3fbe 1569 2f3c c4a6 493e
00000020: a5b8 52bd 52e6 503e c7f7 a63e 4b99 563e
00000030: 6a08 1ebe a4ea a73e 4204 64bd 80f8 d8be
00000040: c12b a33e f1ac 213d 7b3c 953d 7cba e93b
00000050: 280a 443e d6dc 1a3e 4b5a 933e 9c6d fcbc
00000060: ed9f 5e3e f4d2 8fbe d92c 063d fda9 9c3d
00000070: e263 1dbe bdff c5be a6cc 63be c332 2ebe
00000080: 03f4 22be 5aa8 aabe e7b2 aabe 5676 373e
00000090: d83d c33d b02f 7fbe 60b1 c0bd 083e 833e
000000a0: 1938 b7bc ca6e 773c 5d93 12be 363f 8d3e
000000b0: aa1d 2d3e 735e 38be b95b e3bc 51ab 71be
000000c0: 2f67 62be 4574 133c e327 1a3e 6792 cb3e
000000d0: 3518 5dbc a226 11be 0119 28be c931 c6bd
000000e0: 100a 21be 8ca2 9bbe 2a0d bc3d 7539 e43d

rnn.1.5.weight f4 [60]
0.95612025 0.880666 0.92795646 0.90763766 0.9113499 0.90649396 0.89781225 0.8321678
0.9188072 0.8325491 0.7323752 0.91995776 0.9318086 0.84107596 1.0576911 0.94555193
0.8742467 0.88144165 0.9353673 0.9849611 0.919775 0.89877397 0.92169654 0.9199599
0.93817747 0.94478387 0.9556273 0.93044853 0.9370494 0.9133357 0.91571456 0.8775654
0.87718004 0.88313013 0.9383089 0.9427413 0.86541885 0.8871686 0.91041446 0.92963225
0.9028388 0.8968252 0.9126158 0.8757134 0.9367959 0.8966826 0.9710943 0.94920397
0.921432 0.87255377 0.8982992 0.92592216 0.921807 0.9138547 1.0080492 1.0037557
0.9166923 0.9913695 1.0017498 0.89297193
00000000: 4cc4 743f 5473 613f 8e8e 6d3f f15a 683f
00000010: 3a4e 693f fd0f 683f 06d7 653f f308 553f
00000020: f336 6b3f f021 553f f17c 3b3f 5a82 6b3f
00000030: 028b 6e3f c150 573f 6c62 873f b10f 723f
00000040: a2ce 5f3f 29a6 613f 3b74 6f3f 6926 7c3f
00000050: 6076 6b3f 0d16 663f 4ef4 6b3f 7e82 6b3f
00000060: 662c 703f 5bdd 713f fea3 743f e031 6e3f
00000070: 78e2 6f3f 5ed0 693f 456c 6a3f 20a8 603f
00000080: df8e 603f d114 623f 0335 703f 7e57 713f
00000090: 178c 5d3f 7b1d 633f ec10 693f 61fc 6d3f
000000a0: 7220 673f 5696 653f 30a1 693f c12e 603f
000000b0: dbd1 6f3f fe8c 653f a399 783f 08ff 723f
000000c0: f8e2 6b3f af5f 5f3f f0f6 653f 3c09 6d3f
000000d0: 8bfb 6b3f 62f2 693f c207 813f 117b 803f
000000e0: 59ac 6a3f 64ca 7d3f 5639 803f cf99 643f

rnn.1.5.bias f4 [60]
-0.074783765 -0.26778272 -0.0011040275 -0.2258444 -0.115911886 -0.047358047 -0.12125735 -0.20426853
-0.09484598 -0.17784345 -0.4146964 -0.16277511 0.022536432 -0.095321186 -0.15949793 -0.16144004
-0.07833832 -0.23662141 -0.0023234924 0.12861964 -0.010360967 -0.114260145 -0.10806364 -0.023034727
-0.035904296 -0.122281596 0.06270715 -0.10354138 -0.16791871 -0.08166487 -0.1481029 -0.16917793
-0.06623563 -0.10687521 0.044566818 -0.016413212 -0.10174856 -0.08253488 -0.03265235 -0.014492405
-0.15267515 -0.12403979 0.0024022067 -0.08153425 0.03620446 -0.1383287 0.075203866 -0.0014307338
-0.0783533 -0.24497788 -0.09536595 -0.027868262 -0.08307499 -0.05449235 0.08368609 0.07649458
-0.028878393 0.07444213 0.0100556435 -0.16870368
00000000: 3b28 99bd d11a 89be 04b5 90ba c143 67be
00000010: 3663 edbd 83fa 41bd c655 f8bd c52b 51be
00000020: 9c3e c2bd 981c 36be 1653 d4be 85ae 26be
00000030: 539e b83c c137 c3bd 6d53 23be 8a50 25be
00000040: d76f a0bd e24c 72be bc45 18bb deb4 033e
00000050: 0cc1 29bc 3901 eabd 7850 ddbd 53b3 bcbc
00000060: 6210 13bd c66e fabd 9b6c 803d 810d d4bd
00000070: e2f2 2bbe e93f a7bd 49a8 17be fb3c 2dbe
00000080: 8ca6 87bd 64e1 dabd b28b 363d 0075 86bc
00000090: 8d61 d0bd 0c08 a9bd 78be 05bd 8d71 6dbc
000000a0: e056 1cbe 9308 febd 576e 1d3b 6efb a6bd
000000b0: 214b 143d 0aa6 0dbe 7c04 9a3d 7687 bbba
000000c0: b277 a0bd 7bdb 7abe 394f c3bd fb4b e4bc
000000d0: 3823 aabd 5f33 5fbd 9d63 ab3d 31a9 9c3d
000000e0: 6192 ecbc 1e75 983d 6dc0 243c a8c0 2cbe

rnn.1.5.running_mean f4 [60]
0.28238487 -0.7950331 0.21840428 -0.6750187 -0.6200125 -0.3312725 0.4483751 -0.16629979
-0.48156697 -0.32407746 0.22826645 -0.3962484 -0.4127607 -0.2881562 -0.23318294 -0.31112868
0.294431 -0.35914856 0.14694189 -0.7428514 0.2663875 0.5973394 0.22435646 0.06359655
-0.13464735 -0.0559036 0.09146001 0.7347754 -0.42726594 -0.57438856 -0.35771263 -0.052531056
-0.12264578 -0.8202447 -0.5588905 0.09488727 0.22398327 0.16729233 -0.40481567 -0.21650124
-0.19197316 0.3687321 -0.11815597 0.47011605 0.30616853 -0.54619753 -0.6658145 -0.37007174
-0.59723985 -0.32309833 -0.054957706 -0.07287856 -0.2960543 -0.6731143 -0.88998795 -0.5221875
-0.21902037 -0.13184428 -0.23865625 -0.03962486
00000000: c094 903e 4a87 4bbf 5fa5 5f3e 07ce 2cbf
00000010: 24b9 1ebf 8d9c a9be 6c91 e53e 7e4a 2abe
00000020: f28f f6be 7bed a5be aebe 693e 12e1 cabe
00000030: 5f55 d3be 3689 93be 82c7 6ebe 424c 9fbe
00000040: a9bf 963e 52e2 b7be ef77 163e 822b 3ebf
00000050: f163 883e 3ceb 183f b3bd 653e e83e 823d
00000060: ffe0 09be 2cfb 64bd 634f bb3d 3e1a 3c3f
00000070: 9ac2 dabe 210b 13bf 1c26 b7be ce2a 57bd
00000080: b62d fbbd 8ffb 51bf 7313 0fbf 4254 c23d
00000090: df5b 653e ae4e 2b3e 0044 cfbe 80b2 5dbe
000000a0: 9d94 44be 74ca bc3e c2fb f1bd 0db3 f03e
000000b0: 1fc2 9c3e 9ad3 0bbf d272 2abf 0b7a bdbe
000000c0: b6e4 18bf 256d a5be 551b 61bd 5b41 95bd
000000d0: 6e94 97be 3851 2cbf 40d6 63bf 14ae 05bf
000000e0: e046 60be 3002 07be 4e62 74be ad4d 22bd

rnn.1.5.running_var f4 [60]
0.2473063 0.16783985 0.1233337 0.41066724 0.0946089 0.21543181 0.14279 0.14220132
0.34177998 0.79591143 0.20145407 0.28208768 0.4174002 0.5155988 0.056775935 0.14636737
0.1675004 0.258024 0.13289526 1.3751817 0.22707815 0.19396535 0.13548096 0.30006266
0.24487965 0.2668283 0.24041167 0.5045636 0.051782448 0.2324615 0.03750214 0.15420382
0.3479819 0.20099397 0.20928438 0.5707571 0.14624082 0.13220066 0.74385405 0.34245196
0.01562539 0.17559053 0.42638734 0.2342448 0.5041075 0.20085493 0.59780717 0.50771475
0.25954255 0.26582035 0.09621695 0.5326627 0.20056893 0.28745192 0.7429091 0.36794937
0.19554101 0.1895891 0.09495856 0.083519764
00000000: dd3d 7d3e 36de 2b3e 6196 fc3d fa42 d23e
00000010: 50c2 c13d 289a 5c3e 8b37 123e 399d 113e
00000020: c9fd ae3e dac0 4b3f fa49 4e3e cc6d 903e
00000030: 7bb5 d53e 48fe 033f e28d 683d 54e1 153e
00000040: 3a85 2b3e b91b 843e b215 083e f405 b03f
00000050: 2d87 683e da9e 463e 85bb 0a3e d0a1 993e
00000060: bbc1 7a3e b89d 883e 7a2e 763e 152b 013f
00000070: d519 543d 630a 6e3e d89b 193d 9be7 1d3e
00000080: af2a b23e 5dd1 4d3e a54e 563e 231d 123f
00000090: 27c0 153e 9c5f 073e 386d 3e3f dd55 af3e
000000a0: d100 803c 01ce 333e 714f da3e dedd 6f3e
000000b0: 300d 013f eaac 4d3e e409 193f 98f9 013f
000000c0: c3e2 843e 9b19 883e 640d c53d 955c 083f
000000d0: f161 4d3e e62c 933e 4a2f 3e3f dc63 bc3e
000000e0: e73b 483e a523 423e a279 c23d 690c ab3d

rnn.1.7.weight f4 [1, 60]
-0.09263078 -0.0017144779 0.02785372 -0.016827995 -0.07639997 -0.0075991163 -0.034129217 0.07387983
0.025355704 0.001861495 -0.004955976 -0.072676994 0.016650202 0.049426053 -0.100978576 -0.07077132
0.019129753 -0.0070634303 0.035325833 0.13582002 0.052475907 -0.051840115 -0.0048525548 0.05040624
0.042572137 -0.062815845 0.07201322 -0.09548535 0.010368112 0.03168334 -0.06249178 -0.013684933
0.020699926 -0.01125384 0.017272534 -0.06926395 0.008429975 0.009031677 0.05581313 0.06415162
-0.0024180885 -0.03972789 0.043312203 0.014115286 0.08661254 0.020899072 0.047951538 -0.08945504
0.033964578 -0.0067086923 -0.024830801 -0.029384112 0.04567689 0.03135287 0.09378797 0.020327535
0.050660156 0.13757063 0.123797506 0.025843192
00000000: 35b5 bdbd 55b8 e0ba 7c2d e43c ddda 89bc
00000010: 9677 9cbd 0202 f9bb 14cb 0bbd 4f4e 973d
00000020: c4b6 cf3c 68fd f33a bd65 a2bb add7 94bd
00000030: 0166 883c f972 4a3d dbcd cebd 8ef0 90bd
00000040: 00b6 9c3c 5974 e7bb d2b1 103d 6714 0b3e
00000050: faf0 563d 4d56 54bd 2e02 9fbb c676 4e3d
00000060: 1f60 2e3d 98a5 80bd ab7b 933d d38d c3bd
00000070: 03df 293c 64c6 013d 61f7 7fbd c536 60bc
00000080: e492 a93c 0762 38bc 217f 8d3c 42da 8dbd
00000090: e11d 0a3c 99f9 133c 4f9c 643d ed61 833d
000000a0: cb78 1ebb b6b9 22bd 2368 313d cd43 673c
000000b0: ea61 b13d 8834 ab3c d568 443d 3434 b7bd
000000c0: 711e 0b3d 97d4 dbbb f769 cbbc f3b6 f0bc
000000d0: b117 3b3d de6b 003d e813 c03d ee85 a63c
000000e0: 0681 4f3d 51df 0c3e 8c89 fd3d 1ab5 d33c

rnn.2.1.weight f4 [10, 1]
0.52191406 -0.64047223 -0.7149688 -0.07602951 -0.21294612 -0.7897533 0.6502688 0.035563257
-0.2531696 -0.582998
00000000: 299c 053f fdf5 23bf 3208 37bf 5cb5 9bbd
00000010: 8c0e 5abe 462d 4abf 0478 263f c7aa 113d
00000020: 729f 81be 5b3f 15bf

rnn.2.1.bias f4 [10]
-0.7836886 0.8788787 0.2942046 0.70578957 -0.80898297 0.96491313 -0.38579246 0.7454948
0.60468656 -0.8453472
00000000: d19f 48bf 32fe 603f fca1 963e a0ae 343f
00000010: 8219 4fbf 8c04 773f 9786 c5be bfd8 3e3f
00000020: bdcc 1a3f ad68 58bf

rnn.2.2.weight f4 [10]
0.96434766 1.0422015 1.0743369 0.96721387 1.1209277 0.9447377 0.91839635 0.85663474
1.0287986 1.0038686
00000000: 7ddf 763f dc66 853f df83 893f 549b 773f
00000010: 8f7a 8f3f 54da 713f 061c 6b3f 6a4c 5b3f
00000020: acaf 833f c47e 803f

rnn.2.2.bias f4 [10]
0.034522302 0.070667244 -0.05692015 -0.060918797 0.12411326 -0.041975092 0.08256947 0.099833764
0.065146394 0.19892056
00000000: 4267 0d3d fdb9 903d 1a25 69bd fd85 79bd
00000010: 182f fe3d 13ee 2bbd 2f1a a93d a575 cc3d
00000020: 796b 853d d5b1 4b3e

rnn.2.2.running_mean f4 [10]
-0.8422244 0.9506269 0.37453884 0.7141569 -0.785104 1.0535904 -0.4587009 0.74154085
0.6330691 -0.77953464
00000000: 059c 57bf 495c 733f 8ec3 bf3e fdd2 363f
00000010: 93fc 48bf 0ddc 863f d8da eabe 9fd5 3d3f
00000020: d110 223f 958f 47bf

rnn.2.2.running_var f4 [10]
0.22282602 0.33525404 0.41788468 0.004726828 0.03706459 0.5097855 0.34557807 0.001033912
0.052391704 0.27785838
00000000: 812c 643e 6ba6 ab3e fbf4 d53e 82e3 9a3b
00000010: 0ad1 173d 4d81 023f 9cef b03e 5484 873a
00000020: af98 563d 7443 8e3e

rnn.2.4.weight f4 [60, 10]
-0.20831998 0.29121625 0.025635006 0.24623017 -0.038605746 -0.15040629 0.09850079 -0.14475533
0.18481648 0.14189905 0.10252882 -0.2772051 -0.17380254 -0.04305694 -0.29702568 0.2405863
-0.116768196 -0.28539604 0.015574552 -0.15604515 0.05966659 -0.100393154 -0.00041645666 -0.044211425
-0.36785427 -0.41260794 -0.13049312 -0.14696951 0.10179469 -0.44324923 -0.08193009 0.1044099
0.22577998 0.18590721 -0.09403305 0.027347755 0.12947738 0.15236284 0.072475195 0.20773627
-0.05681755 -0.13811347 0.043945476 0.25022826 -0.14225936 -0.08240386 -0.10034108 0.11499587
-0.24671718 -0.2540816 0.09038638 0.20682967 -0.18174799 -0.043984164 -0.28316802 -0.041937374
-0.2962962 0.20226654 -0.2958812 0.17996593 -0.25671703 0.2900874 -0.2705798 0.051218033
-0.11068182 -0.22691719 -0.39582166 0.18895914 0.14737687 -0.2764352 0.055631667 0.35562205
0.038698774 0.21729371 -0.23850526 0.17925109 0.05376513 -0.015596838 0.30600253 -0.09000307
-0.036344808 -0.1596996 0.19301546 -0.31829703 0.06456572 -0.0620121 -0.050330758 -0.041854516
-0.2972896 -0.11486716 0.1621855 0.2115243 -0.17475529 0.35756752 0.08638495 0.2300428
0.068481326 0.045665786 0.17526013 -0.014862496 -0.08323335 -0.039521124 -0.17189163 -0.3196479
0.1574153 0.25229147 -0.0029205256 -0.30976418 0.040965743 -0.34221604 0.110246986 0.37977764
0.026374051 -0.12960437 0.32872477 0.37827155 0.027656216 -0.18082802 -0.16399597 0.3212199
-0.29592258 -0.23555179 0.057394356 -0.17971551 -0.27796194 0.23191582 0.23325142 0.16389196
0.15681188 -0.3041423 -0.31613582 -0.20130213 0.22845477 0.13004898 -0.03102486 -0.11294473
-0.29104137 0.026292847 0.23360372 0.07938417 -0.4410376 -0.23187855 0.14827818 0.07424758
-0.16214463 0.32461876 -0.22336139 -0.30786648 0.06546714 -0.20466895 -0.33593744 0.03720147
-0.25992513 0.21149234 0.22022974 -0.041975915 0.18934658 -0.07028508 -0.14581896 0.4248279
0.29159477 0.16911533 0.2627132 -0.22406575 -0.025029665 0.27817935 0.2448147 0.19498377
0.20656857 -0.11245749 -0.3608494 0.21996501 0.25393608 0.104704656 0.10328681 0.0014980086
0.07259128 -0.20458265 -0.2606708 -0.08210274 0.2057608 0.0547859 -0.11550987 0.20549327
-0.38014278 -0.28951216 0.22124761 0.018833185 -0.13493137 -0.04647607 -0.2817015 -0.04863898
0.35909086 -0.25369966 0.14836816 -0.1587789 -0.049390096 -0.3751812 -0.03409707 -0.07060515
-0.31709042 -0.2983925 -0.29801738 -0.37899753 -0.15420252 0.16217713 -0.06742476 0.21206214
-0.21471399 0.16030452 0.09754782 0.15395565 -0.043587673 0.093238 0.12141893 0.18701805
-0.0306612 -0.4247761 0.27566898 0.40920314 -0.054144155 0.032729723 0.34406498 0.2852908
0.034864403 0.221921 0.016526356 0.139711 0.08434814 0.1907812 0.07828344 -0.22753328
-0.02815862 0.18576807 0.23971547 0.24144283 0.24785872 0.093203776 0.3305976 -0.015112592
-0.20507084 -0.059457827 -0.28286552 0.2618485 -0.19572568 -0.10934703 -0.028762093 0.17514858
0.21110079 -0.13092797 0.16065833 -0.09985691 0.055994004 -0.11521507 -0.31814238 0.3014438
00000000: d551 55be 4c1a 953e 8100 d23c c323 7c3e
00000010: 0f21 1ebd 1b04 1abe c8ba c93d be3a 14be
00000020: 8840 3d3e fc4d 113e a1fa d13d d4ed 8dbe
00000030: 4bf9 31be 795c 30bd c013 98be 415c 763e
00000040: 2a24 efbd 6e1f 92be 682c 7f3c 4dca 1fbe
00000050: f464 743d ed9a cdbd de57 dab9 0a17 35bd
00000060: 6557 bcbe 5941 d3be fd9f 05be 2d7f 16be
00000070: bc79 d03d 90f1 e2be f7ca a7bd dcd4 d53d
00000080: de32 673e 765e 3e3e 6694 c0bd 6608 e03c
00000090: b895 043e 0105 1c3e e06d 943d d1b8 543e
000000a0: 85b9 68bd 9e6d 0dbe 2c00 343d eb1d 803e
000000b0: 70ac 11be 5bc3 a8bd a07f cdbd f482 eb3d
000000c0: 6ea3 7cbe fc16 82be 7f1c b93d 28cb 533e
000000d0: 251c 3abe bd28 34bd 66fb 90be 86c6 2bbd
000000e0: 23b4 97be f61e 4f3e be7d 97be fd48 383e
000000f0: 6a70 83be 5686 943e 6f89 8abe 00ca 513d
00000100: 26ad e2bd fb5c 68be 23a9 cabe 817e 413e
00000110: f6e9 163e ea88 8dbe 08de 633d 1814 b63e
00000120: 9b82 1e3d 3e82 5e3e b93a 74be 998d 373e
00000130: d338 5c3d e189 7fbc 5dac 9c3e 8853 b8bd
00000140: 4bde 14bd 4b88 23be d8a5 453e d4f7 a2be
00000150: 083b 843d 6600 7ebd a027 4ebd a46f 2bbd
00000160: 5836 98be 793f ebbd f513 263e d399 583e
00000170: 0df3 32be 1713 b73e 98ea b03d 5790 6b3e
00000180: f03f 8c3d 0c0c 3b3d 6477 333e d481 73bc
00000190: 3f76 aabd e7e0 21bd 5c04 30be e4a8 a3be
000001a0: 7a31 213e 592c 813e 4a66 3fbb 6999 9ebe
000001b0: b2cb 273d f136 afbe 2cc9 e13d 3772 c23e
000001c0: 650e d83c 02b7 04be 9d4e a83e cfac c13e
000001d0: 4a8f e23c fb2a 39be 8fee 27be ef76 a43e
000001e0: 2a83 97be 7d34 71be 5816 6b3d 5807 38be
000001f0: 0751 8ebe 577b 6d3e 76d9 6e3e 4bd3 273e
00000200: 4b93 203e 8ab8 9bbe 8edc a1be 2522 4ebe
00000210: 0cf0 693e 8f2b 053e d927 febc 914f e7bd
00000220: 6003 95be 1964 d73c d035 6f3e 2b94 a23d
00000230: aecf e1be 9271 6dbe 3cd6 173e 1d0f 983d
00000240: 3e09 26be 6e34 a63e d9b8 64be ada0 9dbe
00000250: a313 863d bd94 51be feff abbe 9260 183d
00000260: e814 85be 7391 583e e883 613e f0ee 2bbd
00000270: 12e4 413e a0f1 8fbd 9151 15be 0b83 d93e
00000280: e94b 953e 922c 2d3e 5882 863e 7e71 65be
00000290: 030b cdbc 866d 8e3e b4b0 7a3e d3a9 473e
000002a0: b686 533e 1d50 e6bd 41c1 b8be 823e 613e
000002b0: e903 823e 656f d63d 0988 d33d d458 c43a
000002c0: bdaa 943d 1d7e 51be a576 85be 7b25 a8bd
000002d0: f6b2 523e 2e67 603d 7090 ecbd d46c 523e
000002e0: 13a2 c2be f03a 94be bc8e 623e 0d48 9a3c
000002f0: 732b 0abe b15d 3ebd 2e3b 90be ab39 47bd
00000300: c2da b73e ece4 81be d3ed 173e f096 22be
00000310: 454d 4abd c017 c0be 5fa9 0bbd 6f99 90bd
00000320: ad59 a2be e7c6 98be bc95 98be f70b c2be
00000330: 44e7 1dbe c311 263e fe15 8abd d126 593e
00000340: fcdd 5bbe de26 243e 27c7 c73d 8da6 1d3e
00000350: fd88 32bd 91f3 be3d 7daa f83d a981 3f3e
00000360: 322d fbbc 417c d9be 7c24 8d3e 1383 d13e
00000370: 43c6 5dbd 9a0f 063d 4929 b03e a311 923e
00000380: facd 0e3d 423f 633e 4862 873c 6610 0f3e
00000390: b8be ac3d 265c 433e 1153 a03d 7cfe 68be
000003a0: e8ac e6bc fc39 3e3e f977 753e ca3c 773e
000003b0: adce 7d3e 9fe1 be3d 1744 a93e ce9a 77bc
000003c0: 17fe 51be 0d8a 73bd c0d3 90be 0211 863e
000003d0: 506c 48be 56f1 dfbd 7b9e ebbc 265a 333e
000003e0: ce2a 583e fb11 06be 9e83 243e c881 ccbd
000003f0: f859 653d e1f5 ebbd 8fe3 a2be d756 9a3e

rnn.2.4.bias f4 [60]
0.27423337 -0.09363499 0.28216732 -0.15115853 -0.09183497 -0.02831632 -0.2916829 -0.009221676
-0.030375153 0.094759494 0.2043466 -0.30314237 -0.29306874 0.04795252 -0.18729353 -0.28546542
0.24687035 0.10599913 -0.21591239 -0.041508086 -0.12388462 -0.32998422 0.18173143 0.25757185
-0.15952209 -0.3109303 -0.10721715 0.17442751 0.120456204 0.20646909 0.22759032 -0.23896603
0.16777493 0.33601248 0.1425359 -0.32169333 -0.14164662 0.03605305 -0.20681238 -0.28035372
-0.11979287 0.1931897 -0.23723508 -0.015065798 -0.14724886 0.08087937 -0.28361017 -0.07150401
-0.006702363 0.34002823 0.16663976 -0.43973884 -0.26201066 -0.10291337 0.11245733 -0.009402055
-0.0052113216 0.1897801 0.123267956 0.027649445
00000000: 5168 8c3e b4c3 bfbd 3c78 903e 4dc9 1abe
00000010: f913 bcbd a1f7 e7bc 7657 95be 8316 17bc
00000020: 50d5 f8bc 4411 c23d 3c40 513e 7a35 9bbe
00000030: 1b0d 96be dd69 443d e0c9 3fbe 8628 92be
00000040: 95cb 7c3e 1216 d93d 2318 5dbe 6204 2abd
00000050: 38b7 fdbd b1f3 a8be ce17 3a3e 75e0 833e
00000060: c259 23be 4232 9fbe aa94 dbbd 209d 323e
00000070: beb1 f63d a26c 533e 700d 693e 83b3 74be
00000080: 31cd 2b3e d409 ac3e eef4 113e fdb4 a4be
00000090: d00b 11be 5dac 133d a0c6 53be 868a 8fbe
000000a0: f755 f5bd 85d3 453e c1ed 72be 89d6 76bc
000000b0: 68c8 16be 15a4 a53d 5a35 91be b270 92bd
000000c0: 7f9f dbbb 2e18 ae3e 9da3 2a3e 7325 e1be
000000d0: 4326 86be 3fc4 d2bd 0750 e63d 140b 1abc
000000e0: bcc3 aabb b755 423e e973 fc3d 1781 e23c

rnn.2.5.weight f4 [60]
0.9860701 0.83191127 1.0325673 0.92578834 0.97420007 0.8992187 0.86094874 0.9035849
1.0520426 0.94749266 0.8622831 0.956555 0.96741194 0.93343025 0.9351577 0.9689203
0.97755927 0.96134716 0.9675736 0.88574845 0.9709324 0.9162139 0.9164645 0.93494666
0.9567362 0.9761429 0.96179014 0.9370148 0.93881565 0.8983188 0.95118266 0.9901624
0.92688376 0.9810842 1.023589 0.96999 0.90504736 0.97831225 0.9785891 0.9529664
0.9415168 0.94852924 0.8632438 0.95470345 0.90852886 0.90181315 0.9284653 0.9637043
0.91090214 0.9553199 0.8704956 0.9653986 0.9605375 0.97859997 0.91814417 0.8234241
0.9892975 0.96621394 0.97559726 0.90128946
00000000: 176f 7c3f 23f8 543f 2a2b 843f 7700 6d3f
00000010: 2d65 793f 3233 663f 2367 5c3f 5751 673f
00000020: 55a9 863f e18e 723f 96be 5c3f cae0 743f
00000030: 4fa8 773f 49f5 6e3f 7f66 6f3f 290b 783f
00000040: 5341 7a3f d91a 763f e7b2 773f 69c0 623f
00000050: 078f 783f ff8c 6a3f 6b9d 6a3f aa58 6f3f
00000060: aaec 743f 80e4 793f e137 763f 34e0 6f3f
00000070: 3956 703f 39f8 653f b580 733f 487b 7d3f
00000080: 4148 6d3f 5628 7b3f f704 833f 4451 783f
00000090: 2fb1 673f ac72 7a3f d184 7a3f 9bf5 733f
000000a0: 3f07 713f d0d2 723f 8cfd 5c3f 7267 743f
000000b0: 5995 683f 3add 663f e7af 6d3f 53b5 763f
000000c0: e230 693f d88f 743f cdd8 5e3f 5d24 773f
000000d0: c9e5 753f 8785 7a3f 7f0b 6b3f eccb 523f
000000e0: 9a42 7d3f cc59 773f bec0 793f e8ba 663f

rnn.2.5.bias f4 [60]
0.10472185 -0.15915771 0.08287696 -0.09168829 -0.032830693 -0.15193258 -0.11966672 -0.10148549
-0.21482126 -0.10655941 -0.06671562 -0.11856588 0.039908472 -0.0066593806 0.05248156 0.08274225
-0.094166376 0.07148296 0.021494053 -0.07627226 -0.013929295 -0.031144805 -0.18381152 0.0071439287
-0.15645254 -0.17706302 0.03550003 -0.14747138 -0.16713913 -0.17323676 0.0416873 -0.021589814
-0.05569202 0.123023055 0.05549184 -0.02051845 -0.18772657 0.02122284 0.025936786 0.0048525706
-0.17710197 -0.1380621 -0.21032436 0.07320932 -0.07014227 -0.08003943 -0.08507335 0.031011142
-0.09639242 0.038264222 -0.20400159 0.018112123 -0.16912481 0.06459035 -0.18348528 -0.1853219
0.041363314 0.050434496 0.05046326 -0.077855796
00000000: 6978 d63d 3dfa 22be 65bb a93d 12c7 bbbd
00000010: 7a79 06bd 3794 1bbe d313 f5bd a0d7 cfbd
00000020: 1bfa 5bbe d23b dabd 33a2 88bd abd2 f2bd
00000030: 1177 233d ef36 dabb e7f6 563d c574 a93d
00000040: 4dda c0bd a865 923d 4c14 b03c a134 9cbd
00000050: b337 64bc 6423 ffbc 1639 3cbe 9e17 ea3b
00000060: 1835 20be 0250 35be 7b68 113d bd02 17be
00000070: 8526 2bbe fa64 31be 4dc0 2a3d 1fdd b0bc
00000080: 511d 64bd 83f3 fb3d 694b 633d 4f16 a8bc
00000090: 653b 40be 85db ad3c 6279 d43c 5002 9f3b
000000a0: 385a 35be 2760 0dbe 455f 57be c5ee 953d
000000b0: c0a6 8fbd b6eb a3bd f03a aebd 140b fe3c
000000c0: 6469 c5bd f2ba 1c3d cbe5 50be e05f 943c
000000d0: 0e2f 2dbe f247 843d 91e3 3bbe 06c5 3dbe
000000e0: 946c 293d 6794 4e3d 90b2 4e3d dc72 9fbd

rnn.2.5.running_mean f4 [60]
0.45994708 -0.50834465 -0.30579197 0.18583257 -0.37386143 -0.20234929 -0.6120661 0.27129084
-0.32396644 0.49771008 -0.09843211 0.15249111 -0.51723593 -0.044248 -0.59303856 -0.14743444
0.69982034 0.04899895 -0.34777832 -0.28949013 -0.555261 0.025367068 0.6409504 0.6696061
-0.32197982 -0.5682332 -0.28205875 -0.024339978 0.0013860982 -0.098177545 0.56691426 -0.41027108
-0.0949149 0.38648778 -0.49991342 -0.89683664 -0.39002725 -0.24778894 -0.41043648 -0.00953597
-0.025828915 0.3051415 -0.7251414 0.003970086 -0.45871603 -0.17819849 0.23555335 -0.46773311
-0.2558212 -0.21107665 0.29526126 -0.7745481 0.2841716 0.07672316 0.57965636 -0.36374763
-0.27371463 -0.071880385 -0.09117999 -0.17656918
00000000: 2f7e eb3e e022 02bf c490 9cbe e54a 3e3e
00000010: c46a bfbe a734 4fbe 5db0 1cbf a2e6 8a3e
00000020: eede a5be dbd3 fe3e c696 c9bd a126 1c3e
00000030: 9369 04bf 643d 35bd 60d1 17bf 0ef9 16be
00000040: 6d27 333f 1fb3 483d 0010 b2be 0d38 94be
00000050: 9625 0ebf 99ce cf3c 5315 243f 4e6b 2b3f
00000060: 8ada a4be bb77 11bf 016a 90be a264 c7bc
00000070: bdad b53a 4f11 c9bd 4b21 113f 0d0f d2be
00000080: be62 c2bd bae1 c53e a7f4 ffbe 1697 65bf
00000090: a7b1 c7be 62bc 7dbe bb24 d2be c23c 1cbc
000000a0: 2997 d3bc 823b 9c3e dea2 39bf 7f17 823b
000000b0: d4dc eabe aa79 36be e634 713e b77a efbe
000000c0: fffa 82be 7a24 58be 7c2c 973e c948 46bf
000000d0: f17e 913e 0821 9d3d 5c64 143f 213d babe
000000e0: 5324 8cbe 0636 93bd 93bc babd 8dce 34be

rnn.2.5.running_var f4 [60]
0.29396868 0.2256407 0.68224746 0.20285286 0.1684113 0.10279121 0.09185615 0.21519224
0.18146189 0.27574906 0.07736327 0.6421033 0.19157165 0.20441972 0.25155923 0.14774854
0.20074928 0.1682872 0.40919402 0.14750353 0.44767156 0.8096295 0.58185506 0.20377018
0.051698245 0.091416776 0.3867067 0.037785165 0.040267807 0.10055287 0.37573418 0.023687785
0.09109664 0.28333536 0.9289623 0.69106865 0.20670708 0.14128129 0.08715227 0.16637559
0.18730913 0.07780183 0.47388807 0.07349644 0.38895518 0.14545886 0.4501136 0.8859886
0.203129 0.66113126 0.044650108 0.47983757 0.4557993 0.15852068 0.5688467 0.43088457
0.18438378 0.30478376 0.09987947 0.1251691
00000000: 1083 963e 5b0e 673e c5a7 2e3f a9b8 4f3e
00000010: 0374 2c3e 3384 d23d 141f bc3d 5b5b 5c3e
00000020: 25d1 393e fb2e 8d3e a270 9e3d e260 243f
00000030: 5c2b 443e 6753 513e 5fcc 803e 654b 173e
00000040: 3891 4d3e 7b53 2c3e e181 d13e 2a0b 173e
00000050: 3535 e53e e143 4f3f 74f4 143f 21a9 503e
00000060: 8ac1 533d b838 bb3d 6cfe c53e 9ec4 1a3d
00000070: dbef 243d aaee cd3d 3b60 c03e e30c c23c
00000080: e090 ba3d 5511 913e 79d0 6d3f e0e9 303f
00000090: 05ab 533e 0bac 103e e47c b23d 5d5e 2a3e
000000a0: f7cd 3f3e 9156 9f3d 75a1 f23e 4d85 963d
000000b0: 2225 c73e 2bf3 143e 4a75 e63e 26d0 623f
000000c0: 0c01 503e e63f 293f 08e3 363d 45ad f53e
000000d0: 875e e93e 3f53 223e f09f 113f e79c dc3e
000000e0: 1acf 3c3e 9e0c 9c3e 9c8d cc3d 542c 003e

rnn.2.7.weight f4 [1, 60]
0.12809415 -0.029007314 0.13624671 -0.055628844 -0.015034303 -0.025526935 -0.0011580065 -0.0086571295
-0.13403906 -0.09662256 0.020377308 -0.079998665 0.07608924 0.023686303 0.09924613 0.064132504
-0.12908837 0.09474061 0.05110561 0.038673423 0.030443577 0.021536266 -0.03504026 0.051711336
-0.07758131 -0.1230813 0.06313935 -0.0134748975 -0.047230437 -0.015681494 0.06684478 0.10427212
0.04021723 0.11421638 0.04909512 0.050220758 -0.015098918 0.09847483 0.007770607 0.05542946
-0.08469531 -0.08889789 -0.020231334 0.046924774 -0.011027479 0.0032579938 -0.04424337 0.060309526
-0.008909793 0.049624987 -0.020961273 0.017647797 -0.09060837 0.10723178 -0.034995098 -0.018437322
0.034042496 0.087250315 0.079401426 0.045259174
00000000: 1d2b 033e bfa0 edbc 4284 0b3e 12db 63bd
00000010: 7052 76bc dd1d d1bc 40c8 97ba a2d6 0dbc
00000020: 8941 09be 0ce2 c5bd 50ee a63c 57d6 a3bd
00000030: add4 9b3d c709 c23c 8e41 cb3d e757 833d
00000040: be2f 04be 5d07 c23d 1e54 513d 0668 1e3d
00000050: cf64 f93c d36c b03c 6086 0fbd 44cf 533d
00000060: f3e2 9ebd 0c12 fcbd 344f 813d d1c5 5cbc
00000070: b474 41bd 7a76 80bc ebe5 883d 9f8c d53d
00000080: d2ba 243d 47ea e93d f717 493d 48b4 4d3d
00000090: 7461 77bc 2cad c93d 93a0 fe3b 000a 633d
000000a0: bc74 adbd 1910 b6bd 2fbc a5bc 3134 403d
000000b0: 99ac 34bc 1184 553b 8938 35bd 1f07 773d
000000c0: 61fa 11bc 9243 4b3d fab6 abbc 1d92 903c
000000d0: e290 b9bd 569c db3d 0557 0fbd de09 97bc
000000e0: 2570 0b3d 4bb0 b23d 379d a23d af61 393d

rnn.3.1.weight f4 [10, 1]
0.05036393 -0.72860694 -0.23949257 0.80637056 -0.75733757 -0.38726357 0.39976427 0.7133182
-0.53988105 0.045558184
00000000: 694a 4e3d fc85 3abf 8a3d 75be 4d6e 4e3f
00000010: e0e0 41bf 6947 c6be e7ad cc3e 069c 363f
00000020: a535 0abf 389b 3a3d

rnn.3.1.bias f4 [10]
0.32001585 0.31823987 -0.81190395 0.89316607 -0.088260345 0.40380955 -0.9367633 0.80281144
0.8050175 0.884029
00000000: 1ed9 a33e 56f0 a23e f0d8 4fbf 88a6 643f
00000010: d7c1 b4bd 20c0 ce3e b8cf 6fbf 0d85 4d3f
00000020: a015 4e3f b94f 623f

rnn.3.2.weight f4 [10]
0.92281926 1.040629 1.0919017 0.93221843 1.0778272 1.139014 0.8863564 1.0115271
1.0228177 0.8708016
00000000: e23d 6c3f 5533 853f 6fc3 8b3f dea5 6e3f
00000010: 3ef6 893f 36cb 913f 41e8 623f b879 813f
00000020: b1eb 823f dbec 5e3f

rnn.3.2.bias f4 [10]
0.036645737 0.18385923 0.18590817 0.082175784 -0.021253321 0.22463669 -0.0102719795 0.19839607
-0.060235284 0.10421603
00000000: d719 163d 9845 3c3e b65e 3e3e c74b a83d
00000010: 721b aebc 2907 663e ce4b 28bc 5728 4b3e
00000020: 46b9 76bd 376f d53d
