DeepHedging_clean/MarketData/trained_models/RNN_BN_simple_AAPL_GOOGL.pt (torch, 479823 bytes, 540 tensors)

rnn.0.0.weight f4 [2]
1.0 1.0
00000000: 0000 803f 0000 803f

rnn.0.0.bias f4 [2]
-0.11606157 0.12552606
00000000: b0b1 edbd e789 003e

rnn.0.0.running_mean f4 [2]
0.0 0.0
00000000: 0000 0000 0000 0000

rnn.0.0.running_var f4 [2]
1e-45 1e-45
00000000: 0100 0000 0100 0000

rnn.0.1.weight f4 [28, 2]
-0.20937446 0.42054412 0.686339 -0.47194618 -0.20454703 0.09962132 0.022621056 0.44933766
-0.6023345 0.39469016 0.06268846 -0.06311903 0.24024047 0.06323972 0.18646386 0.3494126
0.22494005 0.3056687 0.3727313 -0.2580246 0.59654534 0.039286286 0.15330267 -0.43200377
-0.40931833 -0.049238615 0.59192854 0.17560527 0.47379667 0.40424356 -0.02312252 -0.3676012
0.6730844 0.7308207 -0.013841362 0.6396764 0.19389705 -0.54667264 0.45583808 0.22209962
-0.39745027 -0.5662627 -0.12385209 -0.37142134 -0.6030847 -0.6066238 0.7391097 0.51728874
-0.54660404 0.0313364 -0.48681173 -0.048339706 0.3584113 0.1558703 0.60822636 0.38005134
00000000: 4266 56be 8f51 d73e eab3 2f3f eea2 f1be
00000010: c774 51be 4306 cc3d cb4f b93c 960f e63e
00000020: 9832 1abf d414 ca3e cf62 803d 8d44 81bd
00000030: 9901 763e d483 813d 62f0 3e3e 35e6 b23e
00000040: af56 663e 9c80 9c3e a3d6 be3e cd1b 84be
00000050: 32b7 183f a8ea 203d 60fb 1c3e 992f ddbe
00000060: 2c92 d1be 6eae 49bd a188 173f ded1 333e
00000070: 7a95 f23e 03f9 ce3e 706b bdbc 3936 bcbe
00000080: 424f 2c3f 1117 3b3f e1c6 62bc d5c1 233f
00000090: f38c 463e bdf2 0bbf 9c63 e93e 156e 633e
000000a0: 9a7e cbbe 98f6 10bf 2aa6 fdbd f02a bebe
000000b0: c263 1abf b34b 1bbf 4b36 3d3f 096d 043f
000000c0: 3eee 0bbf 995a 003d 633f f9be dbff 45bd
000000d0: b081 b73e 779c 1f3e b9b4 1b3f 1796 c23e

rnn.0.1.bias f4 [28]
0.20481357 -0.20134915 0.24583216 -0.15024349 0.2643003 -0.7195463 0.25680086 -0.5096343
0.24117212 0.39172107 -0.4669424 0.6456864 -0.50199926 -0.042728577 0.23456357 -0.32525727
-0.53242624 -0.090080485 0.13351013 -0.46088326 -0.5668757 0.19176593 -0.2915481 -0.44400275
-0.62477696 -0.010763787 -0.06994635 0.4249993
00000000: a6ba 513e 792e 4ebe 6dbb 7b3e 6ed9 19be
00000010: 5e52 873e 3034 38bf 677b 833e 6577 02bf
00000020: d3f5 763e aa8f c83e 1313 efbe b44b 253f
00000030: 0683 00bf 2904 2fbd 6f31 703e 1f88 a6be
00000040: 164d 08bf 1e7c b8bd e1b6 083e e4f8 ebbe
00000050: c41e 11bf 4a5e 443e cb45 95be 5454 e3be
00000060: 62f1 1fbf 985a 30bc 0840 8fbd 8299 d93e

rnn.0.2.weight f4 [28]
1.0220807 0.99845177 0.9878772 0.9647196 1.0495363 0.9603858 1.0209177 1.0336127
0.98345625 1.035038 1.0826591 0.9584114 1.009352 0.98665065 0.97524166 0.7095728
0.9816262 1.0327423 1.0013863 0.963562 0.9807316 1.0079142 1.040937 1.029202
1.0069609 0.9513753 0.9963619 1.1382766
00000000: 8ad3 823f 899a 7f3f 85e5 7c3f ddf7 763f
00000010: 3557 863f d8db 753f 6ead 823f 6c4d 843f
00000020: cac3 7b3f 207c 843f 9394 8a3f 735a 753f
00000030: 7232 813f 2395 7c3f 70a9 793f 90a6 353f
00000040: db4b 7b3f e630 843f 6d2d 803f 00ac 763f
00000050: 3a11 7b3f 5503 813f 6c3d 853f e4bc 833f
00000060: 18e4 803f 558d 733f 9311 7f3f 0cb3 913f

rnn.0.2.bias f4 [28]
-0.040235378 -0.036072377 -0.032114204 -0.042366974 -0.019045355 -0.04236531 -0.037465703 -0.013262802
-0.0365741 -0.039216314 -0.008275372 -0.0423659 -0.040115826 -0.025731398 -0.042366978 0.30367342
-0.039216287 -0.042366978 0.19233672 -0.037721813 -0.042366605 -0.02059408 -0.029921217 -0.006713244
-0.023880102 0.062394112 -0.0047881515 0.1518207
00000000: dacd 24bd a1c0 13bd 2f8a 03bd fe88 2dbd
00000010: 0105 9cbc 3f87 2dbd a375 19bd 394c 59bc
00000020: b9ce 15bd 49a1 20bd 6d95 07bc de87 2dbd
00000030: 7e50 24bd a7ca d2bc ff88 2dbd 157b 9b3e
00000040: 42a1 20bd ff88 2dbd ebf3 443e 3082 1abd
00000050: 9b88 2dbd ebb4 a8bc 571d f5bc c6fa dbbb
00000060: 34a0 c3bc f890 7f3d ede5 9cbb e376 1b3e

rnn.0.2.running_mean f4 [28]
0.28029856 -0.3369138 0.2811707 -0.09734271 0.38086724 -0.7343978 0.2375383 -0.48752376
0.25355014 0.31788707 -0.52930343 0.5751044 -0.46195957 -0.087747216 0.2310687 -0.3672731
-0.51807266 -0.009583285 0.049854655 -0.4848319 -0.5919763 0.15988538 -0.29846162 -0.46343842
-0.5593273 0.034750752 -0.0910914 0.40732163
00000000: 4b83 8f3e f77f acbe 9bf5 8f3e 9d5b c7bd
00000010: 0801 c33e 7f01 3cbf 3d3d 733e b79c f9be
00000020: 53d1 813e 18c2 a23e 6e80 07bf 0b3a 133f
00000030: f785 ecbe d0b4 b3bd 469d 6c3e 380b bcbe
00000040: 69a0 04bf 3603 1dbc 6534 4c3d e33b f8be
00000050: c28b 17bf feb8 233e f6cf 98be cd47 edbe
00000060: 1330 0fbf ce56 0e3d 218e babd 768c d03e

rnn.0.2.running_var f4 [28]
1.9982429e-13 2.835451e-13 2.6826628e-14 2.1107619e-14 1.48143e-13 8.310508e-13 1.1891428e-13 3.220567e-13
2.7349672e-13 9.152716e-14 3.365987e-13 2.6916395e-13 4.9491607e-13 1.6568564e-14 7.1844853e-14 2.14944e-13
8.22553e-13 2.4800995e-16 5.8061567e-15 2.052229e-13 1.2365485e-12 7.558747e-14 1.5626473e-13 4.609902e-13
3.970835e-13 2.2927219e-15 1.1004398e-14 2.9333068e-13
00000000: 6efb 602a 289f 9f2a fea1 f128 db1e be28
00000010: 50cb 262a 85eb 692b b5e2 052a 434d b52a
00000020: 08f7 992a d119 ce29 fc7c bd2a 9d86 972a
00000030: 764e 0b2b 823c 9528 bdc7 a129 6401 722a
00000040: 3187 672b cff7 8e25 5830 d127 790f 672a
00000050: 5b07 ae2b 3635 aa29 3ef0 2f2a d8c1 012b
00000060: c389 df2a 4135 2527 d43c 4628 6821 a52a

rnn.0.4.weight f4 [60, 28]
-0.1102876 -0.021731058 0.05940639 -0.005322659 -0.21051042 0.112979375 0.07672179 0.019946638
0.17426607 -0.08329239 -0.006280723 0.11830494 -0.08505749 -0.042659063 0.013573587 -0.109084785
0.16416243 0.10950071 0.013944123 -0.14490318 -0.0033785221 0.11227862 0.021587064 -0.013801677
0.13925351 -0.39556333 -0.16657805 0.19190058 0.040010896 0.037993923 -0.03992819 0.0916617
0.10124113 0.005907542 0.20952381 0.25674626 0.11926771 -0.02404749 -0.13579951 -0.11650456
-0.13124385 -0.07670247 -0.07471032 0.0943284 -0.030508608 -0.13424699 -0.09614081 -0.17229895
-0.08448912 -0.05959306 -0.15426007 -0.17227831 -4.7645954e-05 -0.26801303 0.057883013 0.28293628
-0.025282456 -0.11395854 0.06576424 -0.11458892 0.14230782 -0.15793136 0.11208139 -0.06601209
0.03601785 -0.0895937 0.15190716 -0.13673352 0.10597043 -0.09138542 0.16826591 0.04974157
-0.089980386 0.07705404 -0.11765502 0.042813618 0.119703524 0.060985815 -0.1395506 -0.11007621
-0.11303114 0.21326402 0.2262902 -0.047668215 0.0020207432 -0.06806809 -0.12797213 0.06439283
0.12806837 -0.092276484 -0.015575579 -0.18045281 -0.1596179 0.098508716 0.18454391 0.045098487
0.20194578 -0.20211825 0.093236685 -0.0493886 -0.16884777 0.014970913 0.030675465 0.17305914
0.00960563 -0.1265673 -0.1531026 0.11793478 -0.002435279 -0.042390425 0.010654487 0.08560352
0.0005521709 0.19993325 -0.17212926 0.13276078 -0.1276731 -0.067462645 0.060929157 -0.045216173
-0.09144011 -0.1368972 -0.031081945 -0.01563593 0.051822685 -0.19659984 -0.07164314 -0.11056324
0.107968405 0.08529929 0.03304859 0.005730311 0.10935123 -0.12675019 0.09421181 -0.14879867
0.14907515 -0.059532925 0.10491521 -0.08232111 -0.2039266 0.07979582 -0.15653528 -0.11523756
-0.018075174 -0.14175655 0.01587478 0.21701017 0.120554015 -0.10803977 0.0020162633 -0.13090725
-0.1371211 -0.02602778 -0.04784781 -0.12037967 -0.06070871 0.13068843 0.038822625 -0.057345666
-0.16500929 -0.08818076 0.063492864 -0.14809078 0.07164622 -0.0256119 0.00477297 0.0007549186
-0.13129681 0.07279072 -0.02601322 -0.13317387 -0.21453154 0.003162564 -0.13103835 -0.016715402
-0.07767279 0.18516035 0.122934505 -0.119376644 0.15402126 -0.15170956 -0.027981147 -0.019424899
0.110207655 0.06426498 -0.13684778 0.14225176 -0.04319949 -0.094501466 -0.067007005 -0.09737233
-0.031038443 0.110917054 -0.12017897 0.00895599 -0.21638916 0.06856031 0.040581554 -0.10711335
0.0095669115 0.13220224 -0.09060482 -0.18293652 -0.20563607 0.07901647 -0.12550879 -0.21421397
-0.12138992 -0.18741575 -0.21057355 0.104144916 -0.010711552 -0.19741592 0.105492905 0.11727444
-0.22037935 -0.07915447 -0.06690669 -0.19631423 -0.09582135 0.01906041 0.0039980994 -0.037209626
-0.1619209 0.08959052 0.026174828 0.06506206 -0.2023236 0.12495916 0.23602507 -0.076744355
-0.17809132 0.06318233 -0.13565691 0.18442565 -0.09514201 0.1559634 -0.04449529 -0.097622775
0.107599266 0.14739925 0.0118457 -0.0410966 -0.14757091 -0.13832173 0.06954726 -0.059043106
-0.08777928 0.024127455 -0.06398369 0.12552302 0.035668824 0.008468548 -0.14309114 -0.1122002
00000000: 77de e1bd 5505 b2bc 1d54 733d b369 aebb
00000010: 0b90 57be bb61 e73d 5020 9d3d 2267 a33c
00000020: ce72 323e 3395 aabd 86ce cdbb dc49 f23d
00000030: 9f32 aebd 45bb 2ebd c063 5e3c d867 dfbd
00000040: 321a 283e e941 e03d e475 643c 8061 14be
00000050: 326a 5dbb 55f2 e53d 5bd7 b03c 6e20 62bc
00000060: 7998 0e3e 4787 cabe 7093 2abe 9681 443e
00000070: 77e2 233d 849f 1b3d be8b 23bd 21b9 bb3d
00000080: 8257 cf3d 0e94 c13b 698d 563e 3f74 833e
00000090: a142 f43d 3eff c4bc 070f 0bbe f199 eebd
000000a0: ca64 06be 2f16 9dbd b901 99bd 402f c13d
000000b0: 30ed f9bc 0b78 09be 79e5 c4bd 236f 30be
000000c0: a208 adbd da17 74bd 5af6 1dbe ba69 30be
000000d0: 74d7 47b8 0139 89be bd16 6d3d 06dd 903e
000000e0: 271d cfbc 1863 e9bd 67af 863d 98ad eabd
000000f0: 24b9 113e c2b8 21be ee8a e53d 5931 87bd
00000100: 7487 133d e77c b7bd 8d8d 1b3e df03 0cbe
00000110: 0607 d93d 4728 bbbd e64d 2c3e d1bd 4b3d
00000120: a347 b8bd 82ce 9d3d 1df5 f0bd 555d 2f3d
00000130: 1f27 f53d 43cc 793d 5ae6 0ebe a36f e1bd
00000140: df7c e7bd e261 5a3e 9eb8 673e bf3f 43bd
00000150: 726e 043b 4867 8bbd 200b 03be 63e0 833d
00000160: 5b24 033e 74fb bcbd b730 7fbc 9fc8 38be
00000170: e072 23be f0be c93d 14f9 3c3e 31b9 383d
00000180: e0ca 4e3e 16f8 4ebe e0f2 be3d b34b 4abd
00000190: 6ee6 2cbe 8f48 753c 1d4b fb3c 6a36 313e
000001a0: ef60 1d3c dc9a 01be eec6 1cbe ca87 f13d
000001b0: 3499 1fbb 95a1 2dbd 2890 2e3c e650 af3d
000001c0: 90bf 103a 4dbb 4c3e a742 30be 71f2 073e
000001d0: bdbc 02be db29 8abd da90 793d 9834 39bd
000001e0: f444 bbbd c82e 0cbe 909f febc ec16 80bc
000001f0: 0644 543d 7851 49be a3b9 92bd fb6e e2bd
00000200: 8a1e dd3d 65b1 ae3d f55d 073d 55c5 bb3b
00000210: 8af3 df3d cdca 01be 1ff2 c03d ae5e 18be
00000220: 28a7 183e ccd8 73bd c9dd d63d f897 a8bd
00000230: 22d2 50be fe6b a33d c94a 20be ab01 ecbd
00000240: 6312 94bc a128 11be d40b 823c ea37 5e3e
00000250: 06e5 f63d f443 ddbd 4923 043b 8d0c 06be
00000260: 7969 0cbe 3638 d5bc 11fc 43bd 9e89 f6bd
00000270: b2a9 78bd 30d3 053e 7904 1f3d 4ae3 6abd
00000280: 32f8 28be 1d98 b4bd 8c08 823d 1ca5 17be
00000290: 41bb 923d 0cd0 d1bc 9366 9c3b bbe5 453a
000002a0: ac72 06be 4d13 953d ad19 d5bc bb5e 08be
000002b0: 28ae 5bbe 0543 4f3b eb2e 06be bdee 88bc
000002c0: e912 9fbd ad9a 3d3e 16c5 fb3d be7b f4bd
000002d0: c0b7 1d3e c059 1bbe b838 e5bc f720 9fbc
000002e0: 8db4 e13d 5c9d 833d d321 0cbe 72aa 113e
000002f0: f3f1 30bd fc89 c1bd f83a 89bd 256b c7bd
00000300: 5544 febc 7b28 e33d 6420 f6bd 25bc 123c
00000310: 1f95 5dbe 5969 8c3d d838 263d 3e5e dbbd
00000320: 89be 1c3c 0660 073e 058f b9bd b653 3bbe
00000330: 4392 52be 63d3 a13d 6085 00be e85a 5bbe
00000340: 479b f8bd eae9 3fbe 98a0 57be ee49 d53d
00000350: 817f 2fbc 6627 4abe aa0c d83d 952d f03d
00000360: 20ab 61be bd1b a2bd 6006 89bd 9906 49be
00000370: fc3d c4bd 9424 9c3c 7d02 833b 1f69 18bd
00000380: 98ce 25be 3c7b b73d 986c d63c 423f 853d
00000390: eb2d 4fbe 97ea ff3d 8eb0 713e 252c 9dbd
000003a0: 925d 36be bd65 813d a5e9 0abe 14da 3c3e
000003b0: d0d9 c2bd dfb4 1f3e b140 36bd 73ee c7bd
000003c0: 015d dc3d d4ef 163e 7814 423c e954 28bd
000003d0: d41c 17be 36a4 0dbe cb6e 8e3d 2fd7 71bd
000003e0: a0c5 b3bd f1a6 c53c e209 83bd 1b89 003e
000003f0: 7919 123d aabf 0a3c 7c86 12be 38c9 e5bd

rnn.0.4.bias f4 [60]
0.10045727 -0.16596504 -0.11107462 0.06770876 0.0039506163 -0.030774236 0.050386783 -0.12904838
-0.21952288 0.102181785 0.024866126 0.1825739 -0.2107162 0.10947766 0.13802844 -0.22784254
0.4570884 0.0754227 0.10601158 0.029090121 -0.14252491 0.031918265 0.022844885 -0.01437602
0.012685327 0.069081835 0.27646255 0.0752574 -0.074528985 -0.11863009 -0.010277598 0.051046368
-0.1458988 0.13213086 -0.13377897 -0.036076043 -0.18591711 0.22484127 0.12574153 0.12696385
0.061525926 0.17817917 -0.008510359 -0.16592802 0.21115 0.01270016 0.5010887 -0.079543024
0.021568116 -0.01574518 -0.20000663 -0.13274626 -0.05710084 0.09948181 0.18353091 0.19901626
0.11167995 0.14203237 0.024358978 0.033790603
00000000: 8bbc cd3d bdf2 29be 177b e3bd e4aa 8a3d
00000010: 2c74 813b 401a fcbc 5f62 4e3d 4225 04be
00000020: 9bca 60be af44 d13d 0cb4 cb3c a7f4 3a3e
00000030: fdc5 57be d335 e03d 5457 0d3e 8e4f 69be
00000040: 7e07 ea3e 3777 9a3d 991c d93d 684e ee3c
00000050: 0df2 11be babc 023d 3225 bb3c 6689 6bbc
00000060: 1ed6 4f3c c77a 8d3d 808c 8d3e 8d20 9a3d
00000070: a7a2 98bd 55f4 f2bd 5f63 28bc ff15 513d
00000080: 7f66 15be 504d 073e 5bfd 08be 79c4 13bd
00000090: 0e61 3ebe ca3c 663e 63c2 003e d002 023e
000000a0: 9c02 7c3d 9a74 363e 086f 0bbc 09e9 29be
000000b0: b537 583e 5514 503c 5947 003f 74e7 a2bd
000000c0: 9eaf b03c 09fc 80bc 8ace 4cbe a3ee 07be
000000d0: 92e2 69bd 1fbd cb3d 87ef 3b3e ebca 4b3e
000000e0: 75b8 e43d ef70 113e 7b8c c73c 0468 0a3d

rnn.0.5.weight f4 [60]
1.0989268 1.0972117 0.96227896 0.9607843 0.96078664 0.96438885 0.9576349 0.9576346
1.045681 0.94644445 0.96227896 0.96078384 0.9576334 0.96079934 0.9622785 0.9576335
1.1438762 1.1549014 0.8961958 0.9608252 0.9862786 0.95763844 0.930055 1.1776184
0.9576342 0.9576334 0.74508846 0.71919954 0.95763344 0.95763814 0.9576339 0.9402963
0.9622785 0.95763355 0.95763427 0.95763427 0.9576347 0.9576335 0.97214735 0.9607852
0.97063583 0.93854064 1.1854916 0.9576342 1.0363451 1.0602666 0.88459444 0.95763355
0.9308658 0.9607864 1.1300069 0.9607843 0.9719992 0.9576335 0.9576334 1.0681322
0.9576335 1.0365181 0.9607842 0.9576336
00000000: a2a9 8c3f 6f71 8c3f ea57 763f f6f5 753f
00000010: 1df6 753f 30e2 763f 9027 753f 8b27 753f
00000020: e0d8 853f 2f4a 723f ea57 763f eef5 753f
00000030: 7627 753f f2f6 753f e257 763f 7827 753f
00000040: 896a 923f cfd3 933f 176d 653f a4f8 753f
00000050: c17c 7c3f cb27 753f 1618 6e3f 33bc 963f
00000060: 8427 753f 7627 753f 1ebe 3e3f 761d 383f
00000070: 7727 753f c627 753f 7f27 753f 42b7 703f
00000080: e257 763f 7927 753f 8527 753f 8527 753f
00000090: 8c27 753f 7827 753f a6de 783f 05f6 753f
000000a0: 977b 783f 3344 703f 30be 973f 8427 753f
000000b0: f5a6 843f d1b6 873f c874 623f 7927 753f
000000c0: 394d 6e3f 19f6 753f 11a4 903f f6f5 753f
000000d0: f1d4 783f 7827 753f 7627 753f 8eb8 883f
000000e0: 7827 753f a0ac 843f f4f5 753f 7a27 753f

rnn.0.5.bias f4 [60]
0.148835 0.1979392 -0.03772189 -0.03921638 -0.03921638 -0.036071993 -0.04236707 -0.04236707
-0.014558547 0.10345762 -0.03772189 -0.039216384 -0.04236707 -0.039216373 -0.037721895 -0.04236707
0.12630263 0.15993689 0.16114224 -0.039216384 -0.01899431 -0.04236707 0.14373906 0.14386937
-0.04236707 -0.04236707 0.104819864 0.161266 -0.042367075 -0.042367067 -0.04236707 0.1332734
-0.037721895 -0.04236707 -0.04236707 -0.04236707 -0.04236707 -0.04236707 -0.025983104 -0.03921638
-0.022577671 0.1154345 0.101691574 -0.04236707 0.17555435 0.18881078 0.14615421 -0.04236707
0.18461713 -0.039216384 0.15345398 -0.03921638 -0.032048196 -0.04236707 -0.04236707 0.08519485
-0.04236707 0.1574647 -0.039216384 -0.04236707
00000000: 3468 183e 93b0 4a3e 4582 1abd 5ba1 20bd
00000010: 5ba1 20bd 3ac0 13bd 1889 2dbd 1889 2dbd
00000020: f986 6ebc 97e1 d33d 4582 1abd 5ca1 20bd
00000030: 1889 2dbd 59a1 20bd 4682 1abd 1889 2dbd
00000040: 7a55 013e 7fc6 233e 7902 253e 5ca1 20bd
00000050: f599 9bbc 1889 2dbd 5530 133e 7e52 133e
00000060: 1889 2dbd 1889 2dbd ccab d63d ea22 253e
00000070: 1989 2dbd 1789 2dbd 1889 2dbd d278 083e
00000080: 4682 1abd 1889 2dbd 1889 2dbd 1889 2dbd
00000090: 1889 2dbd 1889 2dbd 85da d4bc 5ba1 20bd
000000a0: cff4 b8bc ec68 ec3d ac43 d03d 1889 2dbd
000000b0: 85c4 333e 9d57 413e 73a9 153e 1889 2dbd
000000c0: 460c 3d3e 5ca1 20bd 0a23 1d3e 5ba1 20bd
000000d0: f844 03bd 1889 2dbd 1889 2dbd a37a ae3d
000000e0: 1889 2dbd 6d3e 213e 5ca1 20bd 1889 2dbd

rnn.0.5.running_mean f4 [60]
0.07457739 -0.12916803 -0.11169075 0.06853455 -0.03933481 -0.061429895 0.02696458 -0.081721894
-0.22669317 0.18791701 0.024130408 0.26325345 -0.22948442 0.2074481 0.09068108 -0.27836514
0.55740464 0.03232686 0.08801649 0.11128755 -0.13019685 0.023078673 0.072140224 0.0043106535
-0.06539768 0.048018306 0.13499168 0.08846767 -0.045845877 -0.14321873 -0.020162242 -0.026067657
-0.21146262 0.082522735 -0.18663608 0.030319588 -0.13847977 0.28178582 0.1496843 0.19743733
0.011270835 0.29392383 -0.111014456 -0.15382352 0.20546556 0.07791856 0.3954425 -0.03842737
0.08119438 0.009691825 -0.4398236 -0.09126612 -0.030689223 0.10924123 0.12727734 0.2766825
0.14232604 0.2335012 0.012767028 0.14136454
00000000: 08bc 983d a044 04be 1fbe e4bd d85b 8c3d
00000010: 8a1d 21bd ea9d 7bbd d3e4 dc3c cf5d a7bd
00000020: 4122 68be 516d 403e 22ad c53c 28c9 863e
00000030: f7fd 6abe 466d 543e 01b7 b93d e085 8ebe
00000040: 12b2 0e3f 2b69 043d fd41 b43d baea e33d
00000050: 5352 05be 7c0f bd3c 41be 933d 6240 8d3b
00000060: 38ef 85bd d8ae 443d 423b 0a3e 8a2e b53d
00000070: e3c8 3bbd eea7 12be 492b a5bc d78b d5bc
00000080: a889 58be ae01 a93d 871d 3fbe c960 f83c
00000090: a4cd 0dbe 3b46 903e d746 193e 032d 4a3e
000000a0: 4fa9 383c 2f7d 963e 8c5b e3bd ea83 1dbe
000000b0: 9065 523e c493 9f3d 7077 ca3e 0566 1dbd
000000c0: 3d49 a63d 76ca 1e3c 8f30 e1be bbe9 babd
000000d0: f767 fbbc deb9 df3d fe54 023e 54a9 8d3e
000000e0: ebbd 113e f01a 6f3e cc2c 513c dec1 103e

rnn.0.5.running_var f4 [60]
1.3199869e-14 5.012134e-14 5.5614327e-14 4.1105992e-15 2.6239785e-15 1.0555454e-14 9.88458e-16 3.335375e-15
7.289308e-14 1.1179398e-13 4.7408603e-16 5.846427e-14 6.616085e-14 6.84288e-14 1.3899337e-14 4.098594e-14
7.767845e-13 3.3287455e-15 1.2927561e-14 2.8302224e-14 2.0310683e-14 1.4017098e-15 9.576092e-15 8.654007e-18
8.047872e-15 2.7210544e-15 1.7965982e-14 2.7583931e-14 6.2124906e-16 1.4924185e-14 6.1122787e-16 2.5397796e-15
1.1387698e-13 1.781668e-14 1.0853964e-13 2.5092851e-15 3.8669897e-14 7.204641e-14 1.7146274e-14 9.300232e-14
2.65644e-16 1.6159474e-14 3.215018e-14 5.1133936e-14 6.134777e-14 2.2189422e-14 1.3480295e-13 1.2758799e-15
2.0586704e-14 1.837176e-16 5.7396855e-13 5.864747e-15 4.4519857e-15 1.979669e-14 2.8399632e-14 2.8957904e-13
5.8846835e-15 9.886644e-14 2.0325096e-16 4.6620046e-14
00000000: a7c9 6d28 f9b9 6129 f476 7a29 9619 9427
00000010: dc13 3d27 7126 3e28 aa73 8e26 cf56 7027
00000020: 0024 a429 d8bc fb29 60a5 0826 5ba6 8329
00000030: 22fb 9429 8416 9a29 6163 7a28 9295 3829
00000040: 39a5 5a2b 84dc 6f27 dae1 6828 7cec fe28
00000050: 3ff1 b628 f701 ca26 ee81 2c28 65a3 1f23
00000060: 42fa 1028 9812 4427 bcd2 a128 3774 f828
00000070: 1710 3326 d46c 8628 a82c 3026 aa02 3727
00000080: ce36 002a 787a a028 d868 f429 24d0 3427
00000090: 5b27 2e29 ed3b a229 9e70 9a28 306c d129
000000a0: 2322 9925 368d 9128 a2ca 1029 6a49 6629
000000b0: 9524 8a29 53dd c728 4ec6 172a a9df b726
000000c0: b56d b928 ddcf 5325 cb8e 212b be4c d327
000000d0: 5266 a027 0f50 b228 18cd ff28 bd04 a32a
000000e0: a004 d427 9fa0 de29 1855 6a25 41f5 5129

rnn.0.7.weight f4 [2, 60]
0.21329652 0.32078755 0.004998153 -0.07242557 0.12892102 -0.10088969 0.08616297 -0.04123854
-0.07220467 0.2038499 -0.059606582 -0.05103291 -0.018197209 0.13207486 -0.047752377 -0.06384385
0.25463665 0.27817518 0.311159 0.13931641 0.022871101 0.0036507633 0.2900167 0.24714872
0.025930176 -0.07684176 0.20897684 0.33453074 0.100310944 -0.07049337 0.017768478 0.21694033
-0.08804567 0.029973391 0.117009126 0.07680966 0.07190585 0.077732176 -0.08129586 0.056945145
-0.0075279446 0.21730986 0.20347239 0.16374834 0.33062637 0.25123984 0.21673039 0.06877479
0.26216963 0.1273952 0.22709236 0.075697154 -0.029189715 -0.008328866 -0.00038128317 0.18094409
-0.015846757 0.22715433 -0.0057014697 0.121850796 -0.047021925 -0.083370864 0.0036659362 -0.009143601
0.039803024 -0.0063129575 -0.05822288 0.07029806 -0.038540676 -0.105882145 0.057198882 0.055468548
0.00015505882 0.0806496 0.09359414 0.048067477 0.07551345 0.01624577 0.07879475 0.048400987
0.024727082 0.0295481 0.10343532 0.09754938 0.030835817 -0.06825487 0.06041846 0.09595824
-0.058424555 0.09918346 -0.055241138 -0.09647537 0.087840475 0.015990933 -0.018055603 -0.06731462
0.019834843 -0.0130313495 0.00450446 0.02310801 0.07194026 0.057581037 -0.10825157 -0.05935112
0.054701507 0.005064723 0.020573227 -0.051247455 -0.08302106 0.045781802 -0.078356765 0.041968383
0.07324902 -0.07454344 -0.008559059 0.034922432 -0.06716085 0.021508962 0.059664834 -0.083640754
00000000: 676a 5a3e 443e a43e 8cc7 a33b db53 94bd
00000010: df03 043e 419f cebd 3676 b03d bee9 28bd
00000020: 0be0 93bd 07be 503e 0826 74bd e207 51bd
00000030: 5012 95bc a23e 073e ff97 43bd 90c0 82bd
00000040: bc5f 823e fa6c 8e3e 3c50 9f3e f6a8 0e3e
00000050: 2d5c bb3c a541 6f3b 127d 943e 8e14 7d3e
00000060: 856b d43c 365f 9dbd 06fe 553e 9d47 ab3e
00000070: d36f cd3d d45e 90bd 338f 913c 9b25 5e3e
00000080: 4a51 b4bd c28a f53c 7ba2 ef3d 624e 9d3d
00000090: 6043 933d 0c32 9f3d 727e a6bd 503f 693d
000000a0: faac f6bb 7a86 5e3e 115b 503e a5ad 273e
000000b0: dc47 a93e 82a2 803e 92ee 5d3e ccd9 8c3d
000000c0: 193b 863e e373 023e e68a 683e 1c07 9b3d
000000d0: 451f efbc cc75 08bc f6e6 c7b9 6849 393e
000000e0: 0fd1 81bc 259b 683e 65d3 babb e98c f93d
000000f0: 109a 40bd 58be aabd 3440 703b 0bcf 15bc
00000100: 7f08 233d eddc cebb 1d7b 6ebd 6ef8 8f3d
00000110: d4dc 1dbd bdd8 d8bd 6049 6a3d fd32 633d
00000120: 4997 2239 9e2b a53d 49ae bf3d 67e2 443d
00000130: cca6 9a3d d915 853c 245f a13d 1d40 463d
00000140: 7390 ca3c db0e f23c e6d5 d33d f8c7 c73d
00000150: 659b fc3c 36c9 8bbd 5979 773d c185 c43d
00000160: 964e 6fbd b320 cb3d 8844 62bd e194 c5bd
00000170: b5e5 b33d 6bff 823c 58e9 93bc 3fdc 89bd
00000180: ae7c a23c 7181 55bc 269a 933b 024d bd3c
00000190: 6a55 933d 18da 6b3d 00b3 ddbd 291a 73bd
000001a0: b00e 603d faf5 a53b 2f89 a83c dae8 51bd
000001b0: f206 aabd b385 3b3d 8379 a0bd 0ae7 2b3d
000001c0: 9503 963d 3baa 98bd 4c3b 0cbc d30a 0f3d
000001d0: a18b 89bd 9033 b03c 1d63 743d d84b abbd

rnn.0.7.bias f4 [2]
0.20203663 -0.017163588
00000000: b1e2 4e3e a79a 8cbc

rnn.1.0.weight f4 [2]
0.99049234 1.0224736
00000000: e890 7d3f 6ae0 823f

rnn.1.0.bias f4 [2]
0.01856354 -0.089567125
00000000: 9112 983c f86e b7bd

rnn.1.0.running_mean f4 [2]
0.0008460826 -0.00020910491
00000000: a4cb 5d3a 2c43 5bb9

rnn.1.0.running_var f4 [2]
0.00037374868 0.00031606693
00000000: b3f3 c339 c9b5 a539

rnn.1.1.weight f4 [28, 2]
0.6807494 0.039190985 0.44649422 0.39869952 -0.07747739 0.66766536 0.12467157 -0.28339478
-0.25606352 -0.16654979 -0.32451853 0.6426638 -0.1903431 0.37407705 -0.4480845 -0.32273355
-0.5986696 0.052904464 -0.34606573 -0.17127782 -0.2596047 0.4865641 -0.12291709 0.7429497
-0.051707108 0.7730861 -0.24979804 -0.06681174 0.5283539 0.5518598 -0.63988334 -0.15964724
0.012312855 0.5389871 0.03953752 0.5788489 0.58058894 0.37238088 -0.3972654 0.77807516
0.42118862 0.3266509 -0.41737244 -0.11742756 -0.14457478 -0.034350585 -0.7755963 -0.0028586104
-0.08427293 0.4523017 -0.026417766 -0.20858987 0.4094303 -0.25161725 -0.39443246 -0.124781236
00000000: 9845 2e3f ba86 203d e49a e43e 5822 cc3e
00000010: 77ac 9ebd 1eec 2a3f cf53 ff3d 1f19 91be
00000020: c21a 83be 078c 2abe 4b27 a6be 9d85 243f
00000030: 4de9 42be 0787 bf3e 556b e5be 553d a5be
00000040: 6942 19bf 5ab2 583d 872f b1be 7463 2fbe
00000050: e8ea 84be ee1e f93e f5bb fbbd f431 3e3f
00000060: d5ca 53bd f8e8 453f 0fcb 7fbe 98d4 88bd
00000070: 3442 073f af46 0d3f 65cf 23bf 917a 23be
00000080: dbbb 493c 0ffb 093f 18f2 213d 712f 143f
00000090: 7aa1 143f b5a8 be3e 5f66 cbbe ef2f 473f
000000a0: 09a6 d73e c93e a73e d7b1 d5be dc7d f0bd
000000b0: 690b 14be 33b3 0cbd 7b8d 46bf 8657 3bbb
000000c0: 4997 acbd 1794 e73e 126a d8bc 9598 55be
000000d0: d9a0 d13e fad3 80be 0df3 c9be 4e8d ffbd

rnn.1.1.bias f4 [28]
-0.12629618 -0.13750465 -0.19285047 0.16564304 0.117124595 0.50816256 0.5551062 -0.060519546
0.43667918 -0.2939121 0.8875912 -0.5856343 0.3308226 0.24596696 -0.55827 -0.32062417
0.06616115 -0.40570024 0.391195 0.0639988 -0.1418991 -0.20219083 0.8254944 0.21110722
-0.36001763 0.014180739 0.5822821 0.026424553
00000000: c953 01be 05ce 0cbe 987a 45be 549e 293e
00000010: 05df ef3d f116 023f 711b 0e3f 58e3 77bd
00000020: 6a94 df3e a67b 96be 2d39 633f 21ec 15bf
00000030: 9461 a93e c3de 7b3e c8ea 0ebf da28 a4be
00000040: 7f7f 873d f1b7 cfbe b64a c83e ce11 833d
00000050: ff4d 11be 1d0b 4fbe 9a53 533f 7e2c 583e
00000060: 3b54 b8be 5556 683c 7110 153f 4e78 d83c

rnn.1.2.weight f4 [28]
1.070167 0.97037894 1.0273418 0.90429854 1.0271901 1.0592701 0.9257601 1.0395061
1.0156556 1.0190839 0.99913067 0.9865887 0.8809642 0.8562444 1.0019838 0.99082875
0.8806858 0.91413015 0.8703714 1.0517167 1.0321846 1.070767 1.0912063 1.0825095
0.96856713 0.94878733 1.0350397 1.0127302
00000000: 3bfb 883f c16a 783f f07f 833f 1c80 673f
00000010: f77a 833f 2a96 873f 9dfe 6c3f 890e 853f
00000020: 0101 823f 5771 823f 07c7 7f3f 1491 7c3f
00000030: df86 613f d532 5b3f 0141 803f f4a6 7d3f
00000040: a074 613f 6f04 6a3f a9d0 5e3f a79e 863f
00000050: a01e 843f e50e 893f a6ac 8b3f ac8f 8a3f
00000060: 04f4 773f bae3 723f 2e7c 843f 25a1 813f

rnn.1.2.bias f4 [28]
0.2984087 0.013712079 0.08241342 -0.11792713 -0.068661146 0.16218662 0.09593896 0.004359605
0.10255199 0.13937989 -0.02815538 -0.033144537 -0.12480841 -0.29842415 0.053564817 0.2794694
-0.07629252 -0.08071887 0.0039647343 0.052035064 -0.0025101346 0.08280037 0.24106573 0.16806772
0.0129875075 0.034110654 -0.016576234 0.12102877
00000000: 06c9 983e a1a8 603c 5ec8 a83d c783 f1bd
00000010: 379e 8cbd 4014 263e a57b c43d 04db 8e3b
00000020: c706 d23d 9ab9 0e3e 1da6 e6bc 91c2 07bd
00000030: 8d9b ffbd 0dcb 98be c866 5b3d 9d16 8f3e
00000040: 413f 9cbd ef4f a5bd 9aea 813b b822 553d
00000050: 1281 24bb 3e93 a93d efd9 763e f219 2c3e
00000060: 8ec9 543c 9db7 0b3d e2ca 87bc efdd f73d

rnn.1.2.running_mean f4 [28]
-0.11757181 -0.16595732 -0.25580746 0.19458416 0.12877299 0.44501853 0.51834655 -0.04181247
0.41992927 -0.2860672 0.8359546 -0.6572614 0.26017493 0.24634004 -0.59974533 -0.31618056
0.01919159 -0.45252213 0.36743176 -0.01385891 -0.16433449 -0.1975552 0.8258595 0.19736601
-0.40281028 0.031957246 0.61453915 0.03256607
00000000: 7dc9 f0bd b7f0 29be 32f9 82be 1241 473e
00000010: 11dd 033e 78d9 e33e 5cb2 043f 8d43 2bbd
00000020: f800 d73e 6677 92be 1f01 563f 4842 28bf
00000030: a635 853e 9040 7c3e e988 19bf 6be2 a1be
00000040: ae37 9d3c fbb0 e7be 0420 bc3e 7b10 63bc
00000050: 4d47 28be e94b 4abe 876b 533f 511a 4a3e
00000060: 263d cebe 9ae5 023d 7052 1d3f 0064 053d

rnn.1.2.running_var f4 [28]
0.19577883 0.22337651 0.1481992 0.019873025 0.05633556 0.09897423 0.033443663 0.18737508
0.12663852 0.08640521 0.056556657 0.17264146 0.20840394 0.034157567 0.3639505 0.21943498
0.113441624 0.13823994 0.28800625 0.14484379 0.17562695 0.097025044 0.010868945 0.2372727
0.06256986 0.019393465 0.041355997 0.0904568
00000000: 3f7a 483e d0bc 643e 88c1 173e c1cc a23c
00000010: 1ec0 663d 00b3 ca3d 39fc 083d 41df 3f3e
00000020: 87ad 013e 37f5 b03d f4a7 673d ecc8 303e
00000030: d867 553e cee8 0b3d b857 ba3e 90b3 603e
00000040: 1554 e83d c58e 0d3e 8e75 933e ee51 143e
00000050: 8dd7 333e 11b5 c63d a913 323c 9df7 723e
00000060: a024 803d 0bdf 9e3c e864 293d 6a41 b93d

rnn.1.4.weight f4 [60, 28]
-0.07901677 -0.058602784 -0.2549364 -0.015250257 -0.17789258 0.10855548 -0.0064857635 0.104873896
-0.0863901 -0.09048525 -0.111065365 -0.19796935 -0.074599616 -0.230659 -0.26837733 0.12996458
-0.2774315 -0.10313534 -0.18851593 -0.081325784 0.053717382 -0.08020207 0.1026205 -0.11487774
-0.21639459 -0.11445723 -0.2586676 -0.017584767 -0.08570301 -0.07776357 -0.042141493 0.023578273
-0.15147385 -0.0826334 -0.061673168 0.11988057 -0.0177649 -0.12800363 -0.22042045 -0.13902515
-0.15136075 0.019228669 0.062352646 0.059418373 -0.03017387 -0.22592856 -0.107508816 -0.22914377
-0.23729044 0.12025111 -0.018443687 0.089060746 -0.12150739 0.12035965 0.043640386 -0.14257675
-0.1277762 0.12911597 0.062085852 -0.15228014 -0.047886524 -0.004231218 -0.15320946 0.14671955
0.086600915 0.20825396 -0.17051385 -0.13972637 0.05424569 0.0039953706 0.140448 0.06839853
-0.015307936 0.117887855 0.039925635 -0.2070337 -0.2085937 0.19822253 0.22207627 0.07214651
-0.19679424 -0.039507456 -0.20693529 0.22025812 0.031996865 -0.24876952 -0.22056438 0.16749418
-0.2522706 -0.12261783 -0.037464056 0.030637605 -0.042943824 -0.18266523 -0.1464076 -0.22938363
-0.10564955 -0.012999042 0.070955984 0.045607824 0.088188834 -0.232514 -0.004397551 0.18702148
-0.06996089 -0.12831053 -0.17836523 -0.050933212 -0.23750466 0.14045417 0.23412824 -0.250772
0.2886841 0.06839943 -0.01948828 0.19214447 -0.3050775 -0.17894658 -0.21010101 -0.0543401
-0.07782346 -0.052667234 -0.09158012 0.099867806 -0.18156028 -0.19626875 0.08162089 -0.15010001
0.025734877 0.044914495 0.1543258 -0.15442331 0.09035968 -0.2654151 -0.108722314 -0.06965884
-0.0355025 0.11689137 0.0024737727 -0.10898272 0.11636334 0.3699396 0.3291235 -0.00819607
-0.030026548 0.1737735 0.009821845 0.18245754 -0.041725077 0.16589762 0.1343603 0.23231113
0.15267207 0.13282835 0.23389517 0.16686453 0.23474573 0.023240203 0.35332927 0.15080087
0.11208882 0.14616017 -0.018838793 -0.09601866 0.06913306 0.0353866 0.15138923 0.15468419
-0.08658948 0.048398826 -0.117497936 -0.032277804 -0.10948397 0.07540438 0.033037994 0.15340492
-0.021916484 -0.054265242 -0.035212703 -0.27266455 -0.023284594 -0.041255776 -0.0727022 -0.012749932
-0.009850998 -0.28995544 -0.16455616 -0.05629123 -0.21125963 -0.15187721 0.15376717 -0.11584158
0.02208443 -0.065513 -0.054579493 0.083435744 -0.07914849 -0.20778525 -0.014655565 -0.1482308
-0.013536851 0.03490265 0.012361024 0.2128525 0.23116992 0.055017818 -0.24379386 -0.17504698
-0.2269696 0.092783935 0.040811095 0.061573993 -0.08950257 -0.1248868 -0.20644698 -0.24870102
0.062284242 0.21026252 -0.020917654 -0.09958283 -0.19904833 0.19509614 0.17493218 -0.01565137
-0.37257212 -0.0581362 -0.12896056 -0.31345177 0.03660491 -0.06649833 0.15520504 -0.060981415
0.1469695 -0.10444345 -0.15754505 -0.18046449 0.08407889 0.031012023 -0.3035445 -0.0015344094
0.025432765 -0.09639661 -0.23335506 0.18206766 -0.1572003 0.082727954 0.19434336 0.19563942
0.037449554 0.029540103 -0.3767828 -0.039531663 0.19673604 0.17351685 -0.05638861 0.09297776
00000000: 8bd3 a1bd 7909 70bd 0687 82be 37dc 79bc
00000010: 7929 36be 5652 de3d 8786 d4bb 20c8 d63d
00000020: 4bed b0bd 5550 b9bd 3d76 e3bd 7ab8 4abe
00000030: afc7 98bd df31 6cbe c168 89be 6f15 053e
00000040: 800b 8ebe 9f38 d3bd 520a 41be 228e a6bd
00000050: c206 5c3d fc40 a4bd b22a d23d 0545 ebbd
00000060: 8b96 5dbe 8d68 eabd 1470 84be ee0d 90bc
00000070: 0f85 afbd 8242 9fbd 8f9c 2cbd 3927 c13c
00000080: f61b 1bbe b33b a9bd 019d 7cbd f283 f53d
00000090: b287 91bc 6213 03be e6b5 61be 9c5c 0ebe
000000a0: 50fe 1abe 7185 9d3c 7d65 7f3d ae60 733d
000000b0: 312f f7bc d159 67be 952d dcbd aaa4 6abe
000000c0: 44fc 72be 3746 f63d 3717 97bc 7b65 b63d
000000d0: ded8 f8bd 1f7f f63d 43c0 323d a4ff 11be
000000e0: c4d7 02be fa36 043e bc4d 7e3d 53ef 1bbe
000000f0: a924 44bd 07a6 8abb f1e2 1cbe a63d 163e
00000100: d25b b13d 8740 553e 2f9b 2ebe 6e14 0fbe
00000110: bb30 5e3d 99eb 823b 9ad1 0f3e 8714 8c3d
00000120: 23ce 7abc 306f f13d 1089 233d a400 54be
00000130: 9699 55be d9fa 4a3e f667 633e 8dc1 933d
00000140: 6e84 49be 92d2 21bd d8e6 53be 588b 613e
00000150: 250f 033d 70bd 7ebe a1db 61be 9883 2b3e
00000160: 9d29 81be 0f1f fbbd e973 19bd b7fb fa3c
00000170: dde5 2fbd 980c 3bbe e0eb 15be 8be3 6abe
00000180: cb5e d8bd eff9 54bc 5f51 913d 45cf 3a3d
00000190: 599c b43d 2618 6ebe 5519 90bb 8f82 3f3e
000001a0: a847 8fbd d663 03be 60a5 36be 589f 50bd
000001b0: 6c34 73be 38d3 0f3e 50bf 6f3e 3065 80be
000001c0: 67ce 933e 0015 8c3d e3a5 9fbc 85c1 443e
000001d0: 1e33 9cbe c63d 37be b824 57be ba93 5ebd
000001e0: e861 9fbd 99b9 57bd 5c8e bbbd 7e87 cc3d
000001f0: f0ea 39be adfa 48be da28 a73d d1b3 19be
00000200: f3d1 d23c 43f8 373d 9507 1e3e 2521 1ebe
00000210: 7f0e b93d 7de4 87be cea9 debd 4ba9 8ebd
00000220: 126b 11bd be64 ef3d 051f 223b 5532 dfbd
00000230: e74f ee3d b968 bd3e e082 a83e cf48 06bc
00000240: 3cfa f5bc aef1 313e ceeb 203c 26d6 3a3e
00000250: eae7 2abd 11e1 293e bf95 093e f8e2 6d3e
00000260: 1156 1c3e 2804 083e 3782 6f3e 89de 2a3e
00000270: 2f61 703e 3d62 be3c 93e7 b43e 8b6b 1a3e
00000280: d38e e53d 03ab 153e d053 9abc 6ea5 c4bd
00000290: a295 8d3d 8af1 103d c705 1b3e 8865 1e3e
000002a0: d355 b1bd d93d 463d c2a2 f0bd bb35 04bd
000002b0: 2239 e0bd 9d6d 9a3d d952 073d 2e16 1d3e
000002c0: 338a b3bc 3b45 5ebd 323b 10bd b09a 8bbe
000002d0: 55bf bebc d1fb 28bd e4e4 94bd 17e5 50bc
000002e0: 1566 21bc 0a75 94be 6981 28be a291 66bd
000002f0: 7254 58be b385 1bbe 2475 1d3e 5a3e edbd
00000300: 68ea b43c ae2b 86bd bf8e 5fbd 5ce0 aa3d
00000310: 9b18 a2bd a8c5 54be e51d 70bc d1c9 17be
00000320: abc9 5dbc 15f6 0e3d e485 4a3c 01f6 593e
00000330: cfb7 6c3e 5d5a 613d 19a5 79be 843f 33be
00000340: b86a 68be 8105 be3d 8929 273d 0335 7c3d
00000350: 204d b7bd a7c4 ffbd d666 53be 7bab 7ebe
00000360: c31d 7f3d 0f4f 573e 805b abbc 15f2 cbbd
00000370: 53d3 4bbe 48c7 473e 6c21 333e 4d37 80bc
00000380: c6c1 bebe 3920 6ebd 3d0e 04be c07c a0be
00000390: 08ef 153d 4730 88bd 12ee 1e3e a6c7 79bd
000003a0: 2c7f 163e 73e6 d5bd 7d53 21be afcb 38be
000003b0: 8e31 ac3d ed0c fe3c 2f6a 9bbe 3c1e c9ba
000003c0: 6058 d03c 966b c5bd a1f4 6ebe f26f 3a3e
000003d0: 1ef9 20be 466d a93d f201 473e b355 483e
000003e0: b464 193d 16fe f13c ade9 c0be f4eb 21bd
000003f0: 2c75 493e 67ae 313e bef7 66bd 206b be3d

rnn.1.4.bias f4 [60]
-0.009773534 0.15666026 -0.1457959 0.0077826227 0.27628946 -0.18732087 -0.10169075 0.31766963
-0.06342166 0.16649546 -0.061175868 0.02237151 -0.09489559 -0.11186311 0.10733545 0.018911082
-0.043461964 0.020335669 -0.20664135 0.026443059 0.12632239 0.25210097 -0.034486063 -0.096935384
-0.062782295 0.09764957 0.050110035 -0.07551796 -0.10469414 -0.35728493 0.06004824 -0.001130455
-0.11409136 0.14892906 0.21309647 -0.010709989 -0.0014942 0.068986654 0.07671497 0.0012122374
0.007427087 0.1785671 0.05483142 -0.031778667 0.06980931 0.24235508 -0.10403733 0.11492498
0.098067336 -0.017333077 -0.08952978 0.31765676 0.1230665 0.12697259 -0.15192541 0.031831294
0.26585943 -0.24368656 0.080612816 -0.07394482
00000000: 2c21 20bc 8c6b 203e 854b 15be 5f05 ff3b
00000010: d075 8d3e 0bd1 3fbe 3d43 d0bd 98a5 a23e
00000020: 37e3 81bd c97d 2a3e 8c93 7abd 7544 b73c
00000030: 9e58 c2bd 7c18 e5bd b0d2 db3d 6aeb 9a3c
00000040: 2c05 32bd fd96 a63c ca99 53be 1d9f d83c
00000050: a85a 013e 6113 813e 4241 0dbd 0f86 c6bd
00000060: 0194 80bd 7ffc c73d 2e40 4d3d 29a9 9abd
00000070: e269 d6bd 0dee b6be 25f5 753d c72b 94ba
00000080: bba8 e9bd dc80 183e f635 5a3e f378 2fbc
00000090: 08d9 c3ba e048 8d3d bd1c 9d3d f0e3 9e3a
000000a0: ec5e f33b 4bda 363e e996 603d 592a 02bd
000000b0: 2ff8 8e3d ee2b 783e 8611 d5bd ca5d eb3d
000000c0: 87d7 c83d 19fe 8dbc 645b b7bd e8a3 a23e
000000d0: 4a0a fc3d 1a05 023e 5692 1bbe 8861 023d
000000e0: ba1e 883e f888 79be 5518 a53d 6270 97bd

rnn.1.5.weight f4 [60]
0.7375274 0.8862005 1.0417362 0.9533403 0.96698827 0.9309272 0.82247096 0.8979321
0.7727865 0.92492825 0.8625353 0.99034745 0.7809225 0.9336903 0.6746951 0.93881595
0.8641239 0.95183384 0.84032166 0.78476644 0.8460433 0.9157198 0.75841707 0.8699691
0.750554 0.8192296 0.72519803 0.8855418 1.0137721 1.0523552 0.9162561 0.8569578
0.976436 0.96602845 0.9907626 0.87251097 0.9976625 0.82514393 0.8822522 0.71098334
0.85889757 0.9909596 0.7090642 0.97143525 0.81165946 0.8094528 0.76417464 0.97430795
0.8038081 0.7250117 0.8674385 0.8793675 0.7363872 0.8843604 0.9930662 0.90494615
0.9606447 0.6838275 0.97520316 0.8933657
00000000: 98ce 3c3f 09de 623f 9d57 853f 1c0e 743f
00000010: 8b8c 773f 3f51 6e3f 758d 523f e1de 653f
00000020: 56d5 453f 19c8 6c3f 1dcf 5c3f 6987 7d3f
00000030: 89ea 473f 5406 6f3f d1b8 2c3f 3e56 703f
00000040: 3937 5d3f 62ab 733f 521f 573f 74e6 483f
00000050: 4b96 583f 9d6c 6a3f 9f27 423f 4cb6 5e3f
00000060: 4f24 403f 08b9 513f 94a6 393f deb2 623f
00000070: 49c3 813f 93b3 863f c38f 6a3f 9661 5b3f
00000080: b6f7 793f a44d 773f 9ea2 7d3f e15c 5f3f
00000090: cf66 7f3f a23c 533f 48db 613f 0103 363f
000000a0: b6e0 5b3f 87af 7d3f 3b85 353f fbaf 783f
000000b0: eac8 4f3f 4c38 4f3f f3a0 433f 3f6c 793f
000000c0: 5ec6 4d3f 5e9a 393f 7310 5e3f 3a1e 613f
000000d0: df83 3c3f 7165 623f 9639 7e3f 8daa 673f
000000e0: d0ec 753f 520f 2f3f eaa6 793f 9db3 643f

rnn.1.5.bias f4 [60]
-0.22964323 -0.15234905 0.005806605 -0.095308825 0.019445673 -0.4043704 -0.22949804 -0.13644288
-0.064363554 -0.0073248926 -0.12237419 -0.029789815 -0.2672579 -0.08077898 -0.3689482 -0.07853565
-0.1458236 0.0070476984 -0.2262097 -0.30928558 -0.15595546 -0.027131265 -0.20840544 -0.08075419
-0.2578712 -0.108687535 -0.14751273 -0.15564762 -0.019008009 -0.31858373 -0.09803743 -0.14448273
-0.055530354 -0.06102424 0.02619525 -0.1037178 0.018154373 -0.16610783 0.014648477 -0.26253295
-0.15794915 -0.038443025 -0.21994458 0.00820344 -0.16031319 -0.23919927 -0.17398441 -0.03633185
-0.31254575 -0.21560834 -0.16216363 -0.054090418 -0.2602612 -0.061142303 0.010706787 -0.12779601
0.0015631216 -0.28383088 0.001550281 -0.054154556
00000000: 9827 6bbe 6401 1cbe 5545 be3b 4631 c3bd
00000010: 884c 9f3c a309 cfbe 8901 6bbe afb7 0bbe
00000020: 0ad1 83bd a705 f0bb 529f fabd c509 f4bc
00000030: 07d6 88be 736f a5bd c7e6 bcbe 4dd7 a0bd
00000040: c852 15be 61f0 e63b 84a3 67be ae5a 9ebe
00000050: cab2 1fbe 6342 debc 3c68 55be 7462 a5bd
00000060: b207 84be 9297 debd 940d 17be 1762 1fbe
00000070: afb6 9bbc 681d a3be d9c7 c8bd 48f3 13be
00000080: cc73 63bd 8ef4 79bd 6c97 d63c ff69 d4bd
00000090: 7bb8 943c 2c18 2abe 2a00 703c b86a 86be
000000a0: 6cbd 21be 6f76 1dbd 2739 61be b967 063c
000000b0: 2429 24be a7f0 74be f828 32be b5d0 14bd
000000c0: ff05 a0be 6fc8 5cbe 390e 26be ea8d 5dbd
000000d0: f540 85be 5a70 7abd 856b 2f3c f5dc 02be
000000e0: a8e1 cc3a 4852 91be cc32 cb3a 2bd1 5dbd

rnn.1.5.running_mean f4 [60]
-0.8283667 -0.3803447 -0.03559292 -0.64738166 -0.12152011 1.1040454 -0.5619166 0.13625808
-0.55461144 -0.51293033 -0.08037808 -0.11433303 0.44732404 -0.19596308 0.42101973 -0.56100506
0.7131002 0.3660938 -0.40988165 -0.6146417 -0.50614244 -0.7999822 -0.8050912 -0.81951874
0.9464305 -0.53672796 -0.55987006 -0.85184234 -0.22854078 0.22803015 -0.55822045 -0.76000845
0.47271812 0.18006776 0.1881264 0.038247645 -0.4613219 -0.8028284 -0.3644666 -1.0638274
0.6657969 0.18224727 0.4952771 -0.03316272 -0.44604897 -0.4473983 0.3313991 -0.21409266
0.61679685 -0.0022527364 -0.46402243 -0.6210402 -0.5131317 0.33030605 0.27528352 -0.56900185
-0.29318327 -0.28003222 0.45063916 -0.40220213
00000000: d70f 54bf 8abc c2be e2c9 11bd ceba 25bf
00000010: 89df f8bd 5c51 8d3f c4d9 0fbf 3d87 0b3e
00000020: 04fb 0dbf 674f 03bf 439d a4bd 7027 eabd
00000030: a807 e53e 8caa 48be e68f d73e 079e 0fbf
00000040: bc8d 363f a670 bb3e 02dc d1be 2959 1dbf
00000050: 8d92 01bf a2cb 4cbf 751a 4ebf fbcb 51bf
00000060: 4549 723f 0167 09bf a553 0fbf 5712 5abf
00000070: 9806 6abe bc80 693e 89e7 0ebf ea8f 42bf
00000080: 1c08 f23e af63 383e 35a4 403e 90a9 1c3d
00000090: 6232 ecbe 2986 4dbf 5e9b babe 7f2b 88bf
000000a0: aa71 2a3f 079f 3a3e f694 fd3e a2d5 07bd
000000b0: 8860 e4be 6411 e5be 25ad a93e 1b3b 5bbe
000000c0: 66e6 1d3f a5a2 13bb 5994 edbe 7efc 1ebf
000000d0: 995c 03bf e01d a93e f6f1 8c3e 1baa 11bf
000000e0: 1e1c 96be 6260 8fbe 2dba e63e 70ed cdbe

rnn.1.5.running_var f4 [60]
0.7635367 0.74578744 0.9311407 0.68098885 1.1477317 1.5230588 0.3219354 1.0852612
1.1622263 1.4654455 2.142292 1.2478565 0.6100923 2.1102636 1.3345512 0.6246616
1.74169 1.3260571 1.4173445 1.2813494 0.92082775 2.598733 2.0628886 0.7422213
1.311127 1.8643004 1.1416016 0.7067773 2.1501603 0.8409831 1.1875542 0.63208586
1.4103614 1.5640265 1.0214367 1.1173917 1.9273496 1.2265806 0.49035588 0.896098
0.46362266 0.6571867 0.8222513 0.89589447 1.8311942 1.3663855 1.1243526 1.1652142
0.77668166 1.1292573 0.2122082 0.58684516 0.9673272 0.45989403 1.2710581 0.60182947
2.0914202 0.30113935 0.85421216 0.51863045
00000000: 2477 433f edeb 3e3f 3d5f 6e3f 4955 2e3f
00000010: dfe8 923f 97f3 c23f b7d4 a43e d7e9 8a3f
00000020: d5c3 943f b893 bb3f 501b 0940 c3b9 9f3f
00000030: 022f 1c3f 8f0e 0740 93d2 aa3f d3e9 1f3f
00000040: b3ef de3f 3dbc a93f 8b6b b53f 4203 a43f
00000050: 5ebb 6b3f a451 2640 5e06 0440 3702 3e3f
00000060: 02d3 a73f 65a1 ee3f 0020 923f 5bef 343f
00000070: 3a9c 0940 ab4a 573f c701 983f 61d0 213f
00000080: b986 b43f 0532 c83f 70be 823f b106 8f3f
00000090: 64b3 f63f 9800 9d3f ed0f fb3e ae66 653f
000000a0: f35f ed3e 633d 283f 107f 523f 5759 653f
000000b0: 9264 ea3f b8e5 ae3f c9ea 8f3f bd25 953f
000000c0: 9cd4 463f 818b 903f 1b4d 593e 7c3b 163f
000000d0: c1a2 773f 3b77 eb3e 08b2 a23f 7f11 1a3f
000000e0: d4d9 0540 f02e 9a3e a6ad 5a3f f7c4 043f

rnn.1.7.weight f4 [2, 60]
-0.02299026 0.023258023 0.1896031 0.11732033 0.08701866 -0.03422247 0.017981442 0.08953608
-0.057252523 0.045425605 -0.013629698 0.13899186 -0.07178115 0.04431207 -0.029593186 0.0732954
0.07913743 0.033460706 0.02916953 -0.00087354414 -0.009769293 0.010256765 0.031958956 0.03187151
-0.014830993 0.07954661 -0.078395076 0.034246206 0.16436811 -0.17002967 0.078973986 -0.0051157856
0.11923149 0.08488954 0.11152613 0.04666744 0.06887516 0.024878237 0.05807974 0.03561163
-0.027821213 0.109603375 -0.03350349 0.08568627 0.011345872 -0.122965954 0.063616686 0.12929022
-0.0361444 -0.01593975 -0.0063992664 -0.006071132 -0.020115048 0.015040165 0.11906172 -0.010493551
0.08896095 0.02299748 0.09505461 0.071084306 0.009509067 -0.028110413 0.03989227 -0.047615692
-0.016458202 -0.1895472 -0.007861851 -0.04549831 0.049537484 0.10047252 -0.005238438 -0.052043382
0.05131469 0.12039504 -0.011782293 -0.054443825 -0.05675464 0.055226605 -0.037341893 0.011217646
-0.0048925476 0.0576951 0.0044683465 -0.0752878 0.035615046 -0.016664501 0.04184813 -0.03025547
-0.08052138 -0.17848435 -0.076914646 0.033609517 -0.07140627 -0.077443644 -0.020833181 0.055157095
0.11322607 -0.018656224 -0.066566385 -0.027854165 -0.05518215 0.10240852 0.035578255 0.087125145
-0.053328898 0.0561714 -0.027908625 -0.016213026 -0.091348976 0.064398065 -0.008858909 0.052745696
0.053563688 0.09592014 -0.03287586 0.07846534 0.07419608 -0.023930877 -0.010932342 -0.009135776
00000000: 1256 bcbc 9c87 be3c 5127 423e a445 f03d
00000010: d736 b23d dc2c 0cbd d14d 933c b15e b73d
00000020: 9f81 6abd 3310 3a3d 194f 5fbc e253 0e3e
00000030: ff01 93bd 9380 353d 696d f2bc e61b 963d
00000040: ce12 a23d 180e 093d f0f4 ee3c 8efe 64ba
00000050: 620f 20bc fe0b 283c 65e7 023d b38b 023d
00000060: b1fd 72bc 55e9 a23d 998d a0bd c045 0c3d
00000070: 1d50 283e 421c 2ebe 1dbd a13d 52a2 a7bb
00000080: a42f f43d 91da ad3d d067 e43d 5c26 3f3d
00000090: 6b0e 8d3d 72cd cb3c 05e5 6d3d 80dd 113d
000000a0: 50e9 e3bc bc77 e03d f53a 09bd 487c af3d
000000b0: 09e4 393c 93d5 fbbd 7749 823d a864 043e
000000c0: 260c 14bd 1494 82bc f0b0 d1bb 59f0 c6bb
000000d0: 50c8 a4bc 066b 763c a2d6 f33d 25ed 2bbc
000000e0: 2931 b63d 3665 bc3c feab c23d a694 913d
000000f0: ebcb 1b3c cf47 e6bc 1466 233d ac08 43bd
00000100: 5ad3 86bc a918 42be fece 00bc 705c 3abd
00000110: d1e7 4a3d 89c4 cd3d 34a7 abbb 712b 55bd
00000120: 5a2f 523d ad91 f63d 850a 41bc 7d00 5fbd
00000130: 8e77 68bd 4b35 623d d0f3 18bd 38ca 373c
00000140: aa51 a0bb b251 6c3d 356b 923b 7d30 9abd
00000150: 15e1 113d fe83 88bc f268 2b3d 52da f7bc
00000160: 65e8 a4bd 9ac4 36be 6d85 9dbd 22aa 093d
00000170: 733d 92bd c69a 9ebd 59aa aabc 68ec 613d
00000180: 12e3 e73d f0d4 98bc f553 88bd 6b2e e4bc
00000190: ae06 62bd 8fbb d13d 81ba 113d ab6e b23d
000001a0: 676f 5abd fb13 663d a1a0 e4bc 2ed1 84bc
000001b0: 2c15 bbbd 22e3 833d f524 11bc df0b 583d
000001c0: 9965 5b3d c771 c43d d6a8 06bd 70b2 a03d
000001d0: 1df4 973d b00a c4bc 911d 33bc 39ae 15bc

rnn.1.7.bias f4 [2]
0.17285956 0.12675646
00000000: 1902 313e 72cc 013e

rnn.2.0.weight f4 [2]
1.0559193 0.9473362
00000000: 5d28 873f a084 723f

rnn.2.0.bias f4 [2]
0.06993328 -0.014697221
00000000: 2e39 8f3d 9dcc 70bc

rnn.2.0.running_mean f4 [2]
0.0010139213 0.001338635
00000000: 8ee5 843a 2375 af3a

rnn.2.0.running_var f4 [2]
0.0003739388 0.00028210264
00000000: 370d c439 2de7 9339

rnn.2.1.weight f4 [28, 2]
-0.4338863 -0.5395852 -0.1286824 -0.08398193 0.10835678 -0.16745192 0.54406744 0.446072
-0.113730505 -0.49341697 -0.36077952 -0.42744118 0.366924 -0.41169822 -0.530049 -0.4001025
0.13145788 -0.59886193 -0.4283852 -0.077482454 0.29698202 -0.10084792 -0.4942976 -0.13359094
-0.47629502 0.32117864 -0.28563678 -0.21491347 -0.10877168 0.687652 0.55438626 0.14973706
0.2451729 -0.30458724 0.36259684 -0.14588751 0.49233538 -0.092201956 0.4071466 -0.10404925
0.43390754 0.6462866 0.19655815 0.41080582 -0.26053375 0.24048203 -0.057096433 0.48356184
-0.095170006 -0.33387914 0.66149634 -0.047274858 -0.24377413 -0.44244286 -0.50216705 0.15102553
00000000: 5826 debe 4122 0abf 52c5 03be b8fe abbd
00000010: 29ea dd3d 8478 2bbe 0148 0b3f 8d63 e43e
00000020: 8aeb e8bd 26a1 fcbe 18b8 b8be 92d9 dabe
00000030: 76dd bb3e 1cca d2be 4bb1 07bf 3cda ccbe
00000040: e59c 063e 044f 19bf 4e55 dbbe 1faf 9ebd
00000050: 070e 983e 5b89 cebd 9314 fdbe 10cc 08be
00000060: f1dc f3be 8771 a43e fc3e 92be 4712 5cbe
00000070: b0c3 debd f609 303f 42ec 0d3f ac54 193e
00000080: 9b0e 7b3e dcf2 9bbe 4ba6 b93e 8963 15be
00000090: 6213 fc3e 61d4 bcbd 8575 d03e c617 d5bd
000000a0: 2129 de3e 0a73 253f 8a46 493e 2455 d23e
000000b0: ae64 85be ec40 763e f3dd 69bd 6b95 f73e
000000c0: 7ee8 c2bd 35f2 aabe d357 293f 48a3 41bd
000000d0: ed9f 79be df87 e2be 058e 00bf 70a6 1a3e

rnn.2.1.bias f4 [28]
-0.41915157 -0.54305494 -0.5059701 0.6916902 0.4463963 0.14409558 -0.24563174 0.6813142
-0.19799376 -0.49282545 0.20758718 0.37035725 0.42450997 0.20014705 -0.18145475 0.32271236
0.31964093 -0.38261896 0.0776226 0.8181258 -0.52986866 -0.4908974 0.55716205 -0.28332725
0.48065186 -0.6223932 -0.20811076 0.032707438
00000000: 099b d6be a605 0bbf 4287 01bf 9c12 313f
00000010: 0e8e e43e cb8d 133e e386 7bbe 9b6a 2e3f
00000020: e0be 4abe 9e53 fcbe bc91 543e 779f bd3e
00000030: 5f59 d93e 59f3 4c3e 46cf 39be 8e3a a53e
00000040: faa7 a33e a2e6 c3be 99f8 9e3d b170 513f
00000050: 79a5 07bf e756 fbbe 2ca2 0e3f 4510 91be
00000060: 0018 f63e 2955 1fbf fd1a 55be 3cf8 053d

rnn.2.2.weight f4 [28]
1.1018269 1.1130111 0.9706362 0.93054324 1.112917 1.0445117 1.0118676 1.0805537
0.77648765 1.1121125 1.0873668 1.1953526 1.0231634 1.1276635 0.9269538 0.98632866
1.192174 0.9223783 0.8714912 1.0723358 0.8807069 0.96272737 1.0972115 0.89346206
1.0292748 0.86803305 1.0755839 1.053509
00000000: aa08 8d3f 2677 8e3f 9d7b 783f 1538 6e3f
00000010: 1074 8e3f 8fb2 853f e184 813f 954f 8a3f
00000020: e5c7 463f b459 8e3f d62e 8b3f 5001 993f
00000030: 05f7 823f 4757 903f d84c 6d3f 0980 7c3f
00000040: 2899 983f fc20 6c3f 0c1a 5f3f 4d42 893f
00000050: 0276 613f 4d75 763f 6d71 8c3f eeb9 643f
00000060: 47bf 833f 6a37 5e3f bcac 893f 62d9 863f

rnn.2.2.bias f4 [28]
-0.0919615 -0.06964804 0.04485021 0.007818533 -0.011960805 -0.1905596 0.06073249 -0.0371801
-0.20782264 0.05437854 0.20868045 0.08134346 0.08700266 -0.09894429 -0.052226253 -0.030534409
0.08978323 0.124092124 -0.06638429 0.15404937 -0.022820275 -0.05742309 0.22100347 0.037125785
0.078664385 0.06373456 0.0622665 0.14734392
00000000: 5056 bcbd a2a3 8ebd dbb4 373d 4e19 003c
00000010: 41f7 43bc 0e22 43be a2c2 783d 294a 18bd
00000020: 75cf 54be 08bc 5e3d 54b0 553e 6697 a63d
00000030: 732e b23d 4ea3 cabd 32eb 55bd 4c23 fabc
00000040: 45e0 b73d 0324 fe3d 7df4 87bd 1ebf 1d3e
00000050: 96f1 babc 7934 6bbd bc4e 623e 3511 183d
00000060: cb1a a13d 4487 823d 280b 7f3d 53e1 163e

rnn.2.2.running_mean f4 [28]
-0.4371209 -0.5525452 -0.49434638 0.72177845 0.44547454 0.12625743 -0.20718014 0.65178704
-0.17797577 -0.52002835 0.23129529 0.33641255 0.3855866 0.18355751 -0.20043872 0.35857114
0.34388137 -0.35625947 0.11235857 0.84780437 -0.51098895 -0.4841492 0.5387508 -0.29675633
0.47719473 -0.5762521 -0.22115703 -0.003877308
00000000: 50ce dfbe 9a73 0dbf f81a fdbe 79c6 383f
00000010: 3d15 e43e a149 013e 0827 54be 84db 263f
00000020: 483f 36be 9420 05bf acd8 6c3e 443e ac3e
00000030: 9b6b c53e 80f6 3b3e cf3f 4dbe a396 b73e
00000040: 3811 b03e a467 b6be 401c e63d b509 593f
00000050: 2cd0 02bf 67e2 f7be 93eb 093f 72f0 97be
00000060: de52 f43e 4285 13bf fd76 62be 6f1a 7ebb

rnn.2.2.running_var f4 [28]
0.2667956 0.013957758 0.0062378384 0.29041708 0.1013091 0.17582291 0.050081387 0.26035905
0.08297959 0.09884205 0.030595059 0.14201681 0.07156215 0.075428955 0.11567592 0.17844324
0.024566129 0.044570766 0.093998976 0.060408708 0.32320574 0.100601025 0.022440203 0.058986224
0.050039787 0.18528311 0.12901995 0.09106917
00000000: 6f99 883e 15af 643c c866 cc3b 8cb1 943e
00000010: 257b cf3d ec0a 343e 2422 4d3d c84d 853e
00000020: 34f1 a93d b36d ca3d 7da2 fa3c db6c 113e
00000030: 2d8f 923d 7f7a 9a3d 7fe7 ec3d d3b9 363e
00000040: e83e c93c d68f 363d 8982 c03d 1f6f 773d
00000050: 397b a53e e907 ce3d 84d4 b73c 8a9b 713d
00000060: 85f6 4c3d dbba 3d3e ce1d 043e 7982 ba3d
