DeepHedging_clean/BS/trained_models/RNN_BN_simple_AAPL.pt (torch, 368880 bytes, 511 tensors)

embedding.weight f4 [4, 11]
1.0405831 -0.3092878 0.6260878 0.9213573 -0.09924712 0.35419035 -0.6288018 -1.4262345
0.7997824 -0.45727026 -1.8509692 0.8736066 0.21211772 0.44381526 0.6667616 -0.6030901
-1.2271729 0.9775642 -0.23708577 1.1846614 0.3135463 -2.103438 -0.40217945 -0.53875357
2.1295786 -0.38718262 -0.5237754 -1.168083 -0.13807906 0.14761092 -0.20256592 -1.3647555
-0.41789204 -0.3904832 -0.51396203 0.055837896 1.5867566 -1.0083255 2.7093587 0.7511177
-2.0274549 1.2270526 2.3616328 -1.2707893
00000000: d431 853f f85a 9ebe 4a47 203f 12de 6b3f
00000010: 1342 cbbd 7058 b53e 28f9 20bf da8e b6bf
00000020: 8abe 4c3f 541f eabe 8fec ecbf afa4 5f3f
00000030: 6335 593e c13b e33e e3b0 2a3f 1d64 1abf
00000040: 0014 9dbf a641 7a3f 9dc6 72be fca2 973f
00000050: 2489 a03e ba9e 06c0 77ea cdbe c1eb 09bf
00000060: 044b 0840 cd3c c6be 2516 06bf be83 95bf
00000070: 9964 0dbe 5127 173e 716d 4fbe 4fb0 aebf
00000080: f2f5 d5be 6aed c7be 0493 03bf 47b6 643d
00000090: d71a cb3f cf10 81bf 2266 2d40 4049 403f
000000a0: d2c1 01c0 0f10 9d3f fe24 1740 39a9 a2bf

rnn.0.0.weight f4 [12]
1.0 0.9990463 1.0448891 0.9379499 1.0609068 1.0221078 0.9623938 1.0287734
0.9650702 1.0111874 1.0129354 0.97738636
00000000: 0000 803f 80c1 7f3f edbe 853f 7c1d 703f
00000010: cbcb 873f 6ed4 823f 715f 763f d9ae 833f
00000020: d70e 773f 976e 813f dea7 813f fe35 7a3f

rnn.0.0.bias f4 [12]
0.019912662 -0.010631045 0.014661034 0.024663094 0.019268032 -0.003648613 -0.038624845 -0.027962154
-0.018694045 -0.01881576 -0.021454485 -0.033880223
00000000: e11f a33c d62d 2ebc d534 703c 420a ca3c
00000010: fed7 9d3c 921d 6fbb 1635 1ebd e310 e5bc
00000020: 4124 99bc 8223 9abc 51c1 afbc fdc5 0abd

rnn.0.0.running_mean f4 [12]
0.0 0.28195235 -0.28631717 0.81196386 0.6978253 -0.55881125 0.16565214 0.24233143
-0.88545054 0.7538945 0.21510956 -1.4128267
00000000: 0000 0000 0f5c 903e 2a98 92be dddc 4f3f
00000010: aea4 323f 410e 0fbf b7a0 293e bb25 783e
00000020: e3ac 62bf 3bff 403f ae45 5c3e 81d7 b4bf

rnn.0.0.running_var f4 [12]
1.4220306e-23 0.4611069 0.09130558 0.61764175 0.5033451 0.10399035 2.5571973 0.4258448
0.7706003 0.3308156 1.8881807 0.4191867
00000000: c687 8919 3416 ec3e 6cfe ba3d c51d 1e3f
00000010: 39db 003f e5f8 d43d 1fa9 2340 5408 da3e
00000020: 1046 453f aa60 a93e e8af f13f a49f d63e

rnn.0.1.weight f4 [24, 12]
-0.09812613 -0.23109004 0.24161223 -0.32183373 0.3229886 -0.08048701 0.046179194 0.034582976
-0.09012567 -0.14135651 0.17212458 -0.03458039 0.2251535 -0.18589391 -0.20962353 -0.21337196
-0.05817676 0.011609135 0.2876441 0.1665979 -0.31618822 -0.12547217 0.28136474 0.22823471
-0.0622336 -0.11221986 -0.02445709 -0.16779229 0.05686648 0.2697051 -0.286037 -0.13705963
-0.21220586 -0.0884861 -0.0067212516 0.28547478 0.16135143 -0.10661827 -0.06365696 -0.20307678
-0.064095035 -0.25085354 0.3093878 -0.2773375 -0.30231515 -0.16006179 0.26432383 -0.20829952
-0.22645798 -0.16716735 -0.071371675 0.15596709 0.16337998 0.044075377 0.08940034 0.104812376
0.11491408 0.12125486 0.17444362 0.013534126 -0.10228154 -0.07001805 -0.28318864 0.11232734
0.034277886 -0.17639667 -0.12183125 -0.15779822 -0.18935952 -0.18584786 -0.256963 0.21345203
-0.04730623 -0.16085134 -0.15248375 -0.19288105 -0.08425248 0.22002679 -0.0062375665 -0.19569544
0.16147985 -0.19907345 0.2346579 0.12293712 -0.26256642 -0.18245356 0.13463674 -0.10321782
-0.15132031 -0.20791373 -0.1193654 -0.03977201 0.07074461 -0.2432596 -0.1840711 0.32496375
0.0883296 0.21251911 0.048462328 -0.2102692 -0.019727891 0.16280095 0.26626202 -0.09626682
-0.23670337 -0.19631335 -0.29374167 -0.06425176 -0.041876245 0.21609613 -0.23232932 0.006307058
0.061494853 -0.19269933 -0.09791583 0.2359852 -0.13708399 -0.20714013 0.26691255 -0.2623257
0.20390388 0.16784206 -0.16319928 0.06620932 0.12774523 0.13767311 -0.104708254 0.09455322
-0.15078416 0.25796157 0.23217592 -0.25670102 0.027027564 0.18195586 0.02116532 0.018623926
0.14710413 0.15955408 0.1184409 -0.2824248 0.1356745 0.2552649 -0.010438531 0.21963607
-0.0030564102 -0.112644695 0.0468132 0.17642967 -0.29553553 -0.05778083 -0.22320333 0.013579131
0.25469023 -0.08060099 -0.20138638 -0.1024541 -0.14787334 -0.079036266 0.17788522 -0.20519058
0.12586679 -0.1941528 0.12601306 0.17715864 0.052059717 0.038938686 0.23484479 -0.05128136
0.0907611 0.0027770202 0.14232485 -0.21827286 -0.19536495 -0.23083447 0.15683146 0.13221589
-0.1606914 0.028722119 -0.16297 -0.096037365 0.25921327 -0.08402763 -0.09653123 0.086992726
0.23284113 -0.22720201 -0.26110807 -0.17219901 0.2446022 -0.040162437 -0.22872004 0.3108633
-0.026694069 -0.122897886 0.14074309 0.07448614 -0.20370172 -0.21324678 -0.2764037 0.23571536
-0.053603183 -0.25240338 -0.15434772 -0.20468742 0.21147133 -0.14540388 -0.20639499 -0.01047029
0.20538004 -0.09606248 -0.010502186 0.17807092 -0.039117407 0.1664648 0.21690223 -0.07842971
-0.19223514 0.1337832 -0.2603348 0.20373271 0.22171527 -0.20491563 -0.0947163 -0.28902367
-0.16544373 0.059800435 -0.044397656 -0.21974157 -0.29347482 -0.21269825 0.1262725 -0.14300528
-0.09586888 0.058340922 0.053618573 0.034329083 0.067884676 -0.2449433 -0.09276164 0.14570224
-0.057831276 0.086185835 -0.009055905 0.25478268 -0.0796154 -0.25207788 0.049225003 0.218078
-0.19000356 -0.14837112 0.16486207 -0.092005335 -0.27689415 0.25167778 0.084091224 -0.16143978
00000000: 5af6 c8bd dea2 6cbe 3269 773e 64c7 a4be
00000010: c35e a53e 60d6 a4bd 6526 3d3d e1a6 0d3d
00000020: cf93 b8bd c3bf 10be 6d41 303e 2ba4 0dbd
00000030: a48e 663e f95a 3ebe 8da7 56be 2e7e 5abe
00000040: c14a 6ebd 3e34 3e3c 1646 933e a498 2a3e
00000050: 6ce3 a1be c77b 00be 0a0f 903e 5cb6 693e
00000060: a9e8 7ebd 87d3 e5bd 3c5a c8bc bed1 2bbe
00000070: d3ec 683d c916 8a3e 7173 92be 5c59 0cbe
00000080: 7e4c 59be 3338 b5bd f23d dcbb c029 923e
00000090: 4f39 253e ae5a dabd 955e 82bd 5cf3 4fbe
000000a0: 4244 83bd e06f 80be 1468 9e3e 2eff 8dbe
000000b0: 0dc9 9abe 3de7 23be 7455 873e 784c 55be
000000c0: 9ae4 67be eb2d 2bbe 502b 92bd d6b5 1f3e
000000d0: 154d 273e 6288 343d 8717 b73d dfa7 d63d
000000e0: 1358 eb3d 7854 f83d 59a1 323e 3dbe 5d3c
000000f0: fc78 d1bd a065 8fbd 1afe 90be e00b e63d
00000100: f866 0c3d 54a1 34be aa82 f9bd db95 21be
00000110: 76e7 41be e74e 3ebe a890 83be 2b93 5a3e
00000120: 2dc4 41bd 37b6 24be b324 1cbe 9c82 45be
00000130: 908c acbd b44e 613e 8064 ccbb 6364 48be
00000140: f95a 253e e9d9 4bbe 294a 703e 75c6 fb3d
00000150: 1b6f 86be 1bd5 3abe 37de 093e dd63 d3bd
00000160: b6f3 1abe 56e7 54be d975 f4bd fae7 22bd
00000170: 8de2 903d 0b19 79be 227d 3cbe a661 a63e
00000180: 26e6 b43d 9c9e 593e 6f80 463d cf50 57be
00000190: 639c a1bc 4bb5 263e 7f53 883e 8a27 c5bd
000001a0: 5e62 72be 5e06 49be 4f65 96be 6d96 83bd
000001b0: 6d86 2bbd 4e48 5d3e bde7 6dbe 70ab ce3b
000001c0: 07e2 7b3d f952 45be 1888 c8bd 1ba6 713e
000001d0: bf5f 0cbe 8b1c 54be c3a8 883e 8e4f 86be
000001e0: 2ecc 503e cade 2b3e b61d 27be c198 873d
000001f0: a5cf 023e 2efa 0c3e 4871 d6bd 1ea5 c13d
00000200: 2a67 1abe 8a13 843e 86bf 6d3e 516e 83be
00000210: e968 dd3c a352 3a3e e562 ad3c 3491 983c
00000220: 77a2 163e 2562 233e 2591 f23d fc99 90be
00000230: 42ee 0a3e 15b2 823e 5f06 2bbc 47e8 603e
00000240: 0e4e 48bb 43b2 e6bd 33bf 3f3d fba9 343e
00000250: 6f50 97be 97ab 6cbd 6a8f 64be 017b 5e3c
00000260: c266 823e 2212 a5bd 3b38 4ebe 75d3 d1bd
00000270: 1c6c 17be c4dd a1bd 8b27 363e 7b1d 52be
00000280: 39e3 003e fecf 46be 9109 013e 1369 353e
00000290: 923c 553d 2c7e 1f3d 277b 703e 670c 52bd
000002a0: f5e0 b93d abfe 353b 9bbd 113e ec82 5fbe
000002b0: c00d 48be df5f 6cbe 6d98 203e 9a63 073e
000002c0: 498c 24be a64a eb3c 9ce1 26be 3daf c4bd
000002d0: 9ab7 843e ae16 acbd 2ab2 c5bd 3e29 b23d
000002e0: e86d 6e3e a5a7 68be f5af 85be f054 30be
000002f0: 0079 7a3e 5e81 24bd 9635 6abe 7929 9f3e
00000300: 85ad dabc e3b1 fbbd f51e 103e 308c 983d
00000310: 2f97 50be 5d5d 5abe c984 8dbe 5e5f 713e
00000320: 038f 5bbd 043b 81be 540d 1ebe 9499 51be
00000330: f18b 583e c1e4 14be 3559 53be 948b 2bbc
00000340: 254f 523e 68bc c4bd 5c11 2cbc 3958 363e
00000350: 9339 20bd c075 2a3e 9e1b 5e3e c19f a0bd
00000360: 4ad9 44be 77fe 083e 9a4a 85be 4f9f 503e
00000370: 5409 633e 67d5 51be 9ffa c1bd e9fa 93be
00000380: 156a 29be 4df1 743d 51da 35bd ef03 61be
00000390: 5542 96be 92cd 59be 944d 013e fa6f 12be
000003a0: e756 c4bd e4f6 6e3d 269f 5b3d a79c 0c3d
000003b0: 1f07 8b3d 6bd2 7abe d1f9 bdbd f832 153e
000003c0: 7de0 6cbd 3382 b03d 385f 14bc e072 823e
000003d0: 660d a3bd 5a10 81be 28a0 493d d74f 5f3e
000003e0: 4b90 42be 99ee 17be 9ad1 283e 4b6d bcbd
000003f0: 12c5 8dbe e9db 803e 0538 ac3d 7850 25be

rnn.0.1.bias f4 [24]
0.11698271 0.247174 -0.29678732 0.22898184 -0.20556861 -0.19615796 0.26549557 -0.1375862
-0.17427398 0.025349649 0.13730304 0.18015695 -0.22513287 -0.16206156 -0.24309835 0.012842452
-0.20166096 0.15624186 0.10483569 -0.09620331 -0.2793844 0.20647351 -0.08516909 0.14819776
00000000: a294 ef3d 2e1b 7d3e 82f4 97be 377a 6a3e
00000010: 9480 52be a2dd 48be 09ef 873e 66e3 0cbe
00000020: e174 32be 11aa cf3c 2b99 0c3e 107b 383e
00000030: 3b89 66be 77f3 25be c6ee 78be 2669 523c
00000040: 3680 4ebe defd 1f3e 18b4 d63d 3e06 c5bd
00000050: 790b 8fbe cb6d 533e 226d aebd 27c1 173e

rnn.0.2.weight f4 [24]
0.97032773 1.0297846 1.046815 0.98230165 1.0435742 0.98466223 0.98847336 1.0192704
1.0170534 1.0022746 0.9830524 1.0074657 1.0203398 0.9956006 0.94164 1.058329
1.0042783 0.98830175 1.0137436 1.0027747 0.97231025 1.004034 1.0121305 0.9715934
00000000: 6667 783f fbcf 833f 09fe 853f 1f78 7b3f
00000010: d793 853f d312 7c3f 970c 7d3f 7477 823f
00000020: ce2e 823f 894a 803f 52a9 7b3f a3f4 803f
00000030: 7f9a 823f aedf 7e3f 520f 713f 5377 873f
00000040: 318c 803f 5801 7d3f 5ac2 813f ec5a 803f
00000050: 53e9 783f 3084 803f 7e8d 813f 58ba 783f

rnn.0.2.bias f4 [24]
-0.025265405 0.023109652 0.048524495 -0.015477584 0.039030544 -0.01897263 -0.02952249 0.019499104
0.017875263 -0.0035807244 0.017211247 0.007296791 0.023674687 0.0025338826 -0.043248314 0.058490485
0.013881631 -0.017759671 0.019262183 -0.009285989 -0.026974322 -0.01572931 -0.013393995 -0.022948422
00000000: 65f9 cebc 7450 bd3c 9fc1 463d b195 7dbc
00000010: 7ede 1f3d 7d6c 9bbc 26d9 f1bc 96bc 9f3c
00000020: 256f 923c 96aa 6abb 9afe 8c3c eb19 ef3b
00000030: 6bf1 c13c 7f0f 263b 2525 31bd b893 6f3d
00000040: c86f 633c bb7c 91bc bacb 9d3c 4324 18bc
00000050: 41f9 dcbc c1da 80bc 7d72 5bbc 54fe bbbc

rnn.0.2.running_mean f4 [24]
0.11818712 0.22305526 -0.29069945 0.23319137 -0.2175852 -0.18338136 0.25402802 -0.14195175
-0.17081913 0.02759864 0.14401229 0.1697534 -0.21174584 -0.1783796 -0.24788167 0.030291453
-0.1799737 0.15398069 0.12796518 -0.106022604 -0.27735022 0.17296828 -0.07112198 0.16069055
00000000: 170c f23d 9968 643e 8fd6 94be b8c9 6e3e
00000010: a8ce 5ebe 53c8 3bbe f60f 823e cd5b 11be
00000020: 36eb 2ebe 8b16 e23c f577 133e d6d3 2d3e
00000030: e7d3 58be 24a9 36be b1d4 7dbe c825 f83c
00000040: 074b 38be 1dad 1d3e 4e09 033e 6122 d9bd
00000050: d900 8ebe 991e 313e 67a8 91bd 108c 243e

rnn.0.2.running_var f4 [24]
0.7647417 1.1562985 0.19812308 0.881374 0.16868486 0.788416 0.2588881 0.7073372
0.32521796 0.2784723 0.6044099 0.15410691 1.1550303 0.91738784 0.19066258 0.55571854
0.46575466 0.69654894 0.17651859 0.21021616 0.15704776 0.11381347 0.1942512 0.91385704
00000000: 1dc6 433f 9701 943f c7e0 4a3e baa1 613f
00000010: b9bb 2c3e a2d5 493f fb8c 843e 0d14 353f
00000020: f882 a63e ec93 8e3e 9bba 1a3f 34ce 1d3e
00000030: 08d8 933f eed9 6a3f 0d3d 433e 9243 0e3f
00000040: 6577 ee3e 0851 323f 4ac1 343e e842 573e
00000050: 21d1 203e 0917 e93d c9e9 463e 89f2 693f

rnn.0.4.weight f4 [36, 24]
-0.1799387 -0.08875628 -0.12631612 0.08431801 -0.06762281 -0.2639112 -0.16792953 0.001033437
-0.070631444 -0.011755471 -0.033557616 -0.108258925 -0.057254553 0.0047914824 -0.10460549 -0.18218331
0.16721046 -0.22384514 -0.035357166 -0.27667975 -0.21497507 0.11377706 0.17186199 0.021147178
-0.028507473 -0.15578867 0.2446022 0.01001683 -0.1911259 0.16963585 0.18924189 0.17244838
0.0370381 0.02380792 -0.07913989 0.21612428 -0.038053975 -0.08474309 -0.16888615 -0.1402546
-0.01377609 0.09341967 -0.0953665 0.13696063 -0.05941355 -0.0121511305 -0.13964123 0.03259316
0.048770975 0.17196581 -0.19838281 0.21538039 0.065253995 -0.09013007 0.14672917 0.121539086
-0.10433692 0.20648728 -0.04259199 0.065984465 -0.102000535 -0.06236687 -0.17707165 -0.20654197
-0.22887164 0.12746 0.14501655 -0.020892799 -0.13557877 -0.099298686 0.14735374 0.018015098
-0.12716444 -0.037036784 -0.08518021 0.18343247 -0.141688 -0.24835107 -0.11590232 0.009177891
0.041759614 0.09640107 -0.004123023 -0.06662057 0.07975707 0.16863301 0.080282345 -0.24960902
-0.11657954 -0.064162485 -0.118543796 -0.18390228 0.0023572363 -0.038839433 -0.07181345 0.12954205
-0.22824207 -0.116650335 0.19230695 -0.14789581 -0.09313425 -0.07381633 0.1826311 0.016608965
-0.17471844 -0.03289224 -0.15479991 0.01287732 0.06071716 0.0010152285 0.13696665 -0.1314485
-0.1270021 0.061857414 -0.20541455 0.061974168 0.13336384 -0.027413674 -0.14434576 -0.12072103
0.04884032 0.050043445 0.10199939 0.009355001 -0.14476149 0.15578702 -0.057352204 0.075180836
0.08641436 -0.16530864 -0.038910992 0.1635914 0.11661737 -0.12679894 0.13025337 -0.12055965
0.04030592 0.09311807 0.07613492 -0.019229721 0.14859843 0.13662037 0.21672948 -0.07117828
0.03370691 0.16525505 0.054472752 0.05461564 0.20672612 -0.16503964 -0.15552454 0.077105604
0.15530835 0.12406057 -0.038718056 -0.22325628 0.1500017 -0.08379715 0.06570705 0.12573573
-0.10102236 0.10367341 0.06751888 -0.16170947 -0.023018653 -0.09730806 -0.10933556 0.020111727
-0.034766987 -0.2550137 -0.037833888 0.059673302 -0.20723616 -0.08270687 0.10029229 0.07832541
-0.102554485 -0.025315726 0.11317406 -0.056592967 -0.22211535 -0.09252191 0.019477671 0.088430345
0.19024275 -0.007944624 -0.033697054 -0.09926637 -0.09620504 0.0026452274 0.09059427 0.11439278
-0.005211422 0.17676893 0.032986477 -0.19966535 0.17936023 0.08648979 -0.20790222 -0.26731396
0.04694289 -0.07996901 0.084701836 0.08152678 -0.07905298 0.08905817 -0.057003353 -0.049744688
-0.09376605 -0.051956385 0.048501614 -0.15422717 0.020313887 -0.11729663 -0.13620849 -0.06822607
0.13941774 -0.17013904 -0.090135954 0.14585449 -0.1498265 0.1293676 -0.102438 0.02745189
-0.102006026 0.17228965 0.19808906 0.13185894 0.08790954 -0.1643178 -0.050465893 -0.14232364
0.1331645 -0.08477522 0.19547771 -0.1758814 0.12235653 0.097186364 0.13344961 0.02725206
-0.08141281 -0.08130021 0.22105871 -0.26714194 -0.12884821 -0.13677675 -0.099001974 0.15445799
-0.007921086 -0.023083674 0.06878908 -0.0626103 0.063894294 -0.087502524 -0.06695331 0.07156115
00000000: da41 38be dac5 b5bd 0359 01be ecae ac3d
00000010: d47d 8abd 5e1f 87be b8f5 2bbe 6474 873a
00000020: 38a7 90bd 059a 40bc b673 09bd dbb6 ddbd
00000030: c083 6abd de01 9d3b 673b d6bd 438e 3abe
00000040: 3839 2b3e a937 65be add2 10bd f8a8 8dbe
00000050: 6d22 5cbe f203 e93d 97fc 2f3e d93c ad3c
00000060: 8188 e9bc 1187 1fbe 0079 7a3e a11d 243c
00000070: 82b6 43be 05b5 2d3e a0c8 413e 4f96 303e
00000080: 43b5 173d d408 c33c 1814 a2bd af4f 5d3e
00000090: 7cde 1bbd c98d adbd 7ef0 2cbe e79e 0fbe
000000a0: 1cb5 61bc d052 bf3d 834f c3bd 683f 0c3e
000000b0: 9f5b 73bd 8915 47bc 1cfe 0ebe 6880 053d
000000c0: 13c4 473d ce17 303e dd24 4bbe ad8c 5c3e
000000d0: e3a3 853d 1d96 b8bd 2c40 163e 7ce9 f83d
000000e0: 98ae d5bd 6771 533e f074 2ebd dd22 873d
000000f0: a8e5 d0bd 6774 7fbd 4552 35be bd7f 53be
00000100: 545d 6abe e084 023e 387f 143e 6027 abbc
00000110: 29d5 0abe 1c5d cbbd e6e3 163e 6694 933c
00000120: 6537 02be e2b3 17bd f672 aebd b9d5 3b3e
00000130: a916 11be be4f 7ebe 325e edbd dd5e 163c
00000140: 210c 2b3d ed6d c53d 6c1a 87bb 5e70 88bd
00000150: ad57 a33d 22ae 2c3e 126b a43d 8299 7fbe
00000160: 41c1 eebd 9f67 83bd 17c7 f2bd e150 3cbe
00000170: dd7b 1a3b 1916 1fbd ee12 93bd aca6 043e
00000180: 4ab8 69be 5fe6 eebd 1dec 443e 0072 17be
00000190: 2bbd bebd 042d 97bd a603 3b3e 860f 883c
000001a0: 64e9 32be 03ba 06bd de83 1ebe 65fb 523c
000001b0: 8fb2 783d 6a11 853a fc40 0c3e 709a 06be
000001c0: d70c 02be 335e 7d3d 3158 52be a0d8 7d3d
000001d0: 8890 083e a492 e0bc 60cf 13be 963c f7bd
000001e0: ca0c 483d 5bfa 4c3d 0ee5 d03d b845 193c
000001f0: 5b3c 14be a286 1f3e 25ea 6abd 69f8 993d
00000200: 03fa b03d ab46 29be 2261 1fbd 8184 273e
00000210: 16d5 ee3d 95d7 01be 2461 053e fae7 f6bd
00000220: d217 253d b0b4 be3d a0ec 9b3d a687 9dbc
00000230: 302a 183e 36e6 0b3e 55ee 5d3e ebc5 91bd
00000240: 4210 0a3d 9f38 293e d21e 5f3d a6b4 5f3d
00000250: 03b0 533e 2700 29be d341 1fbe 8be9 9d3d
00000260: 2709 1f3e 7813 fe3d d396 1ebd 4b9d 64be
00000270: 0c9a 193e d79d abbd 6b91 863d dec0 003e
00000280: d0e4 cebd ba52 d43d 5747 8a3d 2b97 25be
00000290: 9d91 bcbc 7349 c7bd 52eb dfbd 59c1 a43c
000002a0: d467 0ebd 2891 82be b5f7 1abd fe6b 743d
000002b0: b735 54be 3862 a9bd 0b66 cd3d 1369 a03d
000002c0: 1608 d2bd ed62 cfbc cdc7 e73d 07ce 67bd
000002d0: 3572 63be 217c bdbd a38f 9f3c f81a b53d
000002e0: ffce 423e 2b2a 02bc ec05 0abd 2b4c cbbd
000002f0: 2607 c5bd 8d5b 2d3b 7d89 b93d c346 ea3d
00000300: 94c4 aabb ea02 353e d41c 073d 1375 4cbe
00000310: 35aa 373e 8f21 b13d 52e4 54be 60dd 88be
00000320: 3047 403d cbc6 a3bd 2878 ad3d 83f7 a63d
00000330: 87e6 a1bd 2164 b63d 597c 69bd 16c1 4bbd
00000340: 6a08 c0bd 38d0 54bd a1a9 463d baed 1dbe
00000350: 4f69 a63c 3739 f0bd 3d7a 0bbe 1cba 8bbd
00000360: 86c3 0e3e ee38 2ebe 3399 b8bd e15a 153e
00000370: 1e6c 19be f178 043e 04cb d1bd c9e2 e03c
00000380: 89e8 d0bd b36c 303e dcd7 4a3e 0806 073e
00000390: eb09 b43d ed42 28be 53b5 4ebd 4abd 11be
000003a0: 465c 083e a19e adbd 4f2b 483e 411a 34be
000003b0: 0f96 fa3d a509 c73d 04a7 083e b63f df3c
000003c0: c2bb a6bd b980 a6bd 375d 623e d4c6 88be
000003d0: c9f0 03be 340f 0cbe 8cc1 cabd 3c2a 1e3e
000003e0: 71c7 01bc f919 bdbc 4ae1 8c3d d439 80bd
000003f0: 03db 823d 8634 b3bd d11e 89bd a78e 923d

rnn.0.4.bias f4 [36]
-0.25546533 -0.048768617 0.23530331 -0.016018119 -0.13132572 0.011921025 0.14876387 -0.08134462
0.05277785 -0.118349135 -0.020217143 0.09906429 -0.16392274 -0.10229336 0.020353572 0.051503595
-0.03199539 0.19106165 -0.09294138 0.17600861 0.17558475 -0.20049119 0.016589278 -0.018390067
0.036750887 -0.03661953 -0.050811935 -0.10636386 -0.120802626 0.17113051 0.07604395 -0.12636977
0.07296163 -0.15036273 0.06863481 0.11067244
00000000: 5acc 82be 9ac1 47bd 5af3 703e 6e38 83bc
00000010: 407a 06be 6750 433c 8e55 183e 0298 a6bd
00000020: 962d 583d 0861 f2bd 6c9e a5bc 38e2 ca3d
00000030: 5ddb 27be 2e7f d1bd 89bc a63c 6ff5 523d
00000040: 990d 03bd aaa5 433e 0d58 bebd 9a3b 343e
00000050: 7dcc 333e 904d 4dbe 3de6 873c c4a6 96bc
00000060: 1988 163d 5cfe 15bd 2d20 50bd 4cd5 d9bd
00000070: 5e67 f7bd d63c 2f3e eebc 9b3d 1467 01be
00000080: e86c 953d b0f8 19be 6890 8c3d 3ba8 e23d

rnn.0.5.weight f4 [36]
1.0355093 1.0164287 0.97777224 0.99118036 0.9710911 0.9654737 1.0080879 0.83037305
0.9625918 0.9438182 0.9473759 0.88605154 0.9349302 1.0612968 1.0196126 0.9236019
0.908436 1.0364159 0.94828457 0.9714586 0.8926215 0.9750873 1.0063567 0.9021042
1.0287323 0.85222846 1.0078624 0.9672444 0.99952406 0.9465983 1.027397 0.8905496
0.9989862 0.97935045 1.0114226 0.99776024
00000000: 928b 843f 561a 823f 484f 7a3f ffbd 7d3f
00000010: 6d99 783f 4929 773f 0609 813f 5493 543f
00000020: 6b6c 763f 129e 713f 3a87 723f 46d4 623f
00000030: 9657 6f3f 93d8 873f aa82 823f 2d71 6c3f
00000040: 438f 683f 47a9 843f c7c2 723f 83b1 783f
00000050: d882 643f 529f 793f 4cd0 803f 4df0 663f
00000060: 80ad 833f a52b 5a3f a301 813f 549d 773f
00000070: cfe0 7f3f 4454 723f bf81 833f 0ffb 633f
00000080: 8fbd 7f3f b6b6 7a3f 4c76 813f 376d 7f3f

rnn.0.5.bias f4 [36]
0.07493882 0.029050007 -0.01466588 0.007320754 -0.030848237 -0.036227137 0.008268902 -0.096990645
-0.003079136 -0.00787466 -0.036162604 -0.03980521 -0.03831385 0.08326996 0.0425234 -0.077702515
-0.04446362 0.063789584 -0.039748084 -0.021712959 -0.11823502 -0.020321177 0.007075321 -0.043317575
0.07938123 -0.14480007 0.023760553 -0.010169037 0.0020987163 -0.03669275 0.023193482 -0.095184594
0.0003872203 -0.017189194 0.03285246 0.0022268281
00000000: 8679 993d 48fa ed3c 2949 70bc f0e2 ef3b
00000010: 71b5 fcbc e862 14bd 4a7a 073c 08a3 c6bd
00000020: 54cb 49bb b804 01bc 3d1f 14bd ca0a 23bd
00000030: fcee 1cbd 7189 aa3d 042d 2e3d 7f22 9fbd
00000040: 7c1f 36bd 1da4 823d e3ce 22bd 60df b1bc
00000050: 3425 f2bd 9978 a6bc 18d8 e73b c56d 31bd
00000060: a092 a23d 7846 14be 7ea5 c23c 089c 26bc
00000070: 9e8a 093b 234b 16bd 4200 be3c 24f0 c2bd
00000080: d403 cb39 5ad0 8cbc 4d90 063d faef 113b

rnn.0.5.running_mean f4 [36]
-0.92065686 -0.011016358 0.20471232 -0.3981864 -0.54325515 0.3936073 0.2800477 -0.2849644
-0.25083238 0.0853647 -0.03354184 0.018831091 0.0030351717 -0.6610563 -0.61028653 -0.4442066
0.09907743 -0.18159032 0.21824291 0.07421501 0.02984652 -0.112903155 0.39307418 -0.22644602
-0.49804798 -0.27741516 -0.37643114 0.32374138 -0.23483224 0.4379299 0.35630366 -0.5464046
0.02904993 0.07657573 -0.29657313 0.58052933
00000000: 2bb0 6bbf f47d 34bc 1ba0 513e 16df cbbe
00000010: c512 0bbf e586 c93e 6a62 8f3e dbe6 91be
00000020: 1a6d 80be b0d3 ae3d 2b63 09bd a943 9a3c
00000030: bbe9 463b fc3a 29bf bd3b 1cbf 0c6f e3be
00000040: 1ce9 ca3d d0f2 39be 127b 5f3e 0afe 973d
00000050: b080 f43c c539 e7bd 0541 c93e 77e1 67be
00000060: 2500 ffbe 5c09 8ebe 95bb c0be 6ec1 a53e
00000070: dd77 70be 5938 e03e 6f6d b63e 2ce1 0bbf
00000080: 1efa ed3c bdd3 9c3d 6fd8 97be 929d 143f

rnn.0.5.running_var f4 [36]
0.44469288 0.50666386 0.39289817 0.37626263 0.16076776 0.15503466 0.29604822 0.22121638
0.2866736 0.12792854 0.5017068 0.11698586 0.06947634 0.7407402 0.3604128 0.27466324
0.03441953 0.5462874 0.23889011 0.22685398 0.34886447 0.35458755 0.461074 0.10438676
0.35995084 0.17378557 0.6842701 0.10895857 0.18570593 0.21479571 0.29729044 0.88977176
0.13503648 0.23751369 0.5610684 0.24920344
00000000: c9ae e33e b9b4 013f f329 c93e 7fa5 c03e
00000010: 4ea0 243e 68c1 1e3e a293 973e 8c86 623e
00000020: e2c6 923e b3ff 023e db6f 003f 4896 ef3d
00000030: 9d49 8e3d 26a1 3d3f 0788 b83e a9a0 8c3e
00000040: 7efb 0c3d 7ed9 0b3f 9c9f 743e 694c 683e
00000050: 5d9e b23e 808c b53e e411 ec3e bac8 d53d
00000060: 7a4b b83e d8f4 313e 532c 2f3f ac25 df3d
00000070: b229 3e3e 68f3 5b3e 7436 983e 15c8 633f
00000080: 0147 0a3e ca36 733e 2ea2 0f3f 302f 7f3e

rnn.0.7.weight f4 [1, 36]
0.15017755 0.102253854 -0.09574914 0.1000005 0.008290946 -0.08998093 0.15971252 -0.0046925126
0.10673762 0.0053172354 -0.053535156 -0.05175794 -0.0007668548 0.20577204 0.13638665 -0.008548384
-0.008158728 0.07387973 -0.06417334 -0.024861053 -0.060087603 0.0045785406 0.11200746 0.0037448942
0.13493957 -0.0008452764 0.094968595 -0.014175946 0.04392628 -0.10949535 0.15422004 -0.03362644
0.04043738 -0.07298653 0.14172573 0.04072625
00000000: 25c8 193e 786a d13d 2018 c4bd 10cd cc3d
00000010: bfd6 073c ec47 b8bd ae8b 233e a6c3 99bb
00000020: 4199 da3d 343c ae3b ae47 5bbd 2200 54bd
00000030: c106 49ba e8b5 523e f1a8 0b3e 850e 0cbc
00000040: 2fac 05bc 424e 973d 506d 83bd 68a9 cbbc
00000050: 6b1e 76bd 9507 963b 2b64 e53d e66c 753b
00000060: 992d 0a3e 8a95 5dba e57e c23d 3a42 68bc
00000070: 0bec 333d 193f e0bd dceb 1d3e e1bb 09bd
00000080: aba1 253d f679 95bd 8d20 113e 91d0 263d

rnn.1.0.weight f4 [12]
0.99249315 1.0148559 0.98794633 0.97981244 1.042568 0.9703487 0.9785554 0.9750408
1.0118041 0.9396301 1.0584701 0.98405683
00000000: 0814 7e3f cce6 813f 0dea 7c3f fdd4 7a3f
00000010: de72 853f c668 783f 9b82 7a3f 469c 793f
00000020: cc82 813f 998b 703f f37b 873f 26eb 7b3f

rnn.1.0.bias f4 [12]
-0.0263322 -0.00047496965 -0.009586617 0.03084491 -0.038937684 -0.027016493 -0.02917221 -0.03457058
0.02669329 0.051298052 0.011232334 -0.016684782
00000000: a0b6 d7bc 5905 f9b9 3011 1dbc 77ae fc3c
00000010: 1f7d 1fbd b151 ddbc 8ffa eebc e199 0dbd
00000020: e3ab da3c e81d 523d d307 383c 86ae 88bc

rnn.1.0.running_mean f4 [12]
0.00015079862 0.28195235 -0.28631717 0.81196386 0.6978253 -0.55881125 0.16565214 0.24233143
-0.88545054 0.7538945 0.21510956 -1.4128267
00000000: b21f 1e39 0f5c 903e 2a98 92be dddc 4f3f
00000010: aea4 323f 410e 0fbf b7a0 293e bb25 783e
00000020: e3ac 62bf 3bff 403f ae45 5c3e 81d7 b4bf

rnn.1.0.running_var f4 [12]
0.00053798885 0.4611069 0.09130558 0.61764175 0.5033451 0.10399035 2.5571973 0.4258448
0.7706003 0.3308156 1.8881807 0.4191867
00000000: d207 0d3a 3416 ec3e 6cfe ba3d c51d 1e3f
00000010: 39db 003f e5f8 d43d 1fa9 2340 5408 da3e
00000020: 1046 453f aa60 a93e e8af f13f a49f d63e

rnn.1.1.weight f4 [24, 12]
-0.21015911 -0.023846945 0.059594106 -0.28744096 -0.030357225 -0.023739804 -0.15029825 -0.2236759
0.26587987 0.17994994 -0.1060938 -0.27096632 0.047931474 0.18964134 -0.12716368 0.2565019
0.14977735 0.27957034 0.17956342 -0.15950313 0.276397 0.19313945 -0.17575066 0.040935617
0.19234017 0.30411798 0.010603861 0.031460844 -0.083385885 0.010130314 -0.21937782 -0.17533803
0.014479928 -0.1670948 0.14326029 -0.23714757 -0.10940346 0.20214342 0.121513106 0.22389705
-0.06537965 0.049479283 -0.27517262 0.025799494 -0.19796483 0.1481415 0.01704466 -0.06334957
0.14756252 0.23650615 0.20773987 0.07341902 0.021242267 0.1594967 0.077493936 0.18487564
0.07205353 0.18895103 -0.16859744 -0.14416908 0.24721277 -0.11413944 -0.101629645 -0.03306926
-0.15659223 0.23451053 0.03558632 -0.3043934 0.09534912 -0.20735633 -0.1058847 -0.2627927
-0.060000964 0.19392581 -0.28647867 0.055325683 -0.24498351 0.17372766 -0.09540645 0.12250247
0.18217987 -0.22963807 0.046203464 0.2111442 0.060780503 0.13588135 -0.17602473 0.18019332
-0.11406519 -0.19645746 -0.018360136 0.089476645 -0.09507572 0.058391362 -0.31908277 -0.03629088
0.031456165 -0.20787354 -0.18655132 -0.099473804 0.28301364 -0.20306641 0.26838055 -0.1565679
-0.06267104 -0.09577533 0.1227594 0.27186286 0.2642474 -0.19341406 -0.18715438 0.21143252
0.13737068 0.060248688 -0.07895427 0.28683618 -0.30099288 -0.12039449 -0.19686005 -0.22058287
0.14795086 0.25658503 0.14176881 0.096646436 0.23879893 0.09017438 0.025357446 0.12662527
0.12636687 -0.00018745297 0.1639842 0.069348104 0.23843063 0.15557368 -0.071678184 -0.2321263
-0.13000827 0.09384282 0.22896585 0.110031985 0.03470392 -0.17682382 -0.29614434 -0.061868478
0.23167981 -0.07517356 0.2244735 0.05897932 0.024572095 -0.14230296 0.1771843 -0.29765218
0.27356607 0.24389657 0.1577903 0.0069467565 0.3013496 0.018969245 0.23525698 0.17931458
-0.10193599 -0.23988019 -0.025071116 0.10018123 -0.09356347 -0.14753677 0.02309647 -0.12787144
-0.09460315 -0.03723256 -0.11507384 0.08606905 0.05325046 -0.1906347 0.059197668 0.2667769
0.016339732 0.15254551 0.12830545 -0.2281148 -0.13139255 0.07392805 0.087303996 0.20342489
0.1430689 -0.07875139 0.22601828 -0.20324595 -0.2471828 -0.16840322 0.1628146 0.11350579
0.20162681 -0.1122153 0.25173587 -0.019796034 0.12861975 -0.107498705 -0.0664413 -0.2860999
0.30934426 0.18978372 -0.18337318 0.20390892 -0.14708146 -0.13249704 -0.04870478 -0.064081796
0.09912625 0.13930914 0.22295462 -0.04478572 -0.28440058 0.2299981 0.11888177 -0.1774397
0.15695034 -0.13666475 0.08871086 -0.077426694 -0.16392979 0.28912362 0.046645243 0.21846841
0.01505835 -0.14381258 -0.06949744 0.13239126 0.18174 0.1345736 0.10205149 0.1590785
-0.014084357 0.24211696 -0.09224957 0.1005046 -0.091668695 -0.24377133 0.20338726 -0.053261586
-0.0754292 0.02571783 -0.14752288 0.09956587 -0.14940307 -0.19085972 -0.19375396 -0.050316118
0.010837342 0.22351228 -0.21153477 0.07028159 -0.13417237 -0.15418385 0.267534 -0.16569585
00000000: f333 57be ab5a c3bc f318 743d 762b 93be
00000010: b7af f8bc fa79 c2bc c9e7 19be 4c0b 65be
00000020: 6821 883e cc44 383e b547 d9bd 19bc 8abe
00000030: cb53 443d 5731 423e 3237 02be 3854 833e
00000040: 3c5f 193e d823 8f3e 79df 373e ca54 23be
00000050: e883 8d3e 59c6 453e fbf7 33be 1bac 273d
00000060: d2f4 443e 5ab5 9b3e d1bb 2d3c 16dd 003d
00000070: 38c6 aabd 9ef9 253c 94a4 60be d08b 33be
00000080: 383d 6d3c e61a 2bbe d3b2 123e d0d6 72be
00000090: ec0e e0bd affe 4e3e dddb f83d 4545 653e
000000a0: c4e5 85bd caaa 4a3d 6de3 8cbe 7659 d33c
000000b0: 4bb7 4abe 68b2 173e 3ea1 8b3c 6bbd 81bd
000000c0: a11a 173e ab2e 723e c3b9 543e b65c 963d
000000d0: 4304 ae3c 1a53 233e 24b5 9e3d 0a50 3d3e
000000e0: cd90 933d 617c 413e cfa4 2cbe 0fa1 13be
000000f0: 5825 7d3e f0c1 e9bd 3423 d0bd a273 07bd
00000100: b759 20be 8723 703e f6c2 113d 74d9 9bbe
00000110: 6646 c33d 3855 54be 14da d8bd c48c 86be
00000120: 92c3 75bd 7d94 463e 55ad 92be 2f9d 623d
00000130: f5dc 7abe aae5 313e 7564 c3bd 93e2 fa3d
00000140: 5c8d 3a3e 3e26 6bbe d83f 3d3d 2f36 583e
00000150: faf4 783d 7b24 0b3e d43f 34be 9984 383e
00000160: 039b e9bd 252c 49be ff67 96bc 883f b73d
00000170: 0fb7 c2bd c82b 6f3d d15e a3be bfa5 14bd
00000180: 2ed8 003d cddc 54be 4f07 3fbe ecb8 cbbd
00000190: 2ae7 903e a4f0 4fbe 2d69 893e 5653 20be
000001a0: ad59 80bd db25 c4bd 4869 fb3d 9c31 8b3e
000001b0: 6f4b 873e 560e 46be 66a5 3fbe c481 583e
000001c0: e6aa 0c3e 54c7 763d c7b2 a1bd 31dc 923e
000001d0: bd1b 9abe 6391 f6bd ae95 49be 7ae0 61be
000001e0: 6e80 173e 1d5f 833e d82b 113e 91ee c53d
000001f0: b587 743e 58ad b83d 6bba cf3c 0eaa 013e
00000200: 5166 013e 068f 44b9 79eb 273e 6106 8e3d
00000210: 2927 743e b54e 1f3e 03cc 92bd 84b2 6dbe
00000220: e320 05be aa30 c03d 0676 6a3e 7358 e13d
00000230: b325 0e3d 4e11 35be 3ba0 97be cd69 7dbd
00000240: 793d 6d3e 98f4 99bd 62dc 653e 4d94 713d
00000250: 6b4b c93c deb7 11be cd6f 353e de65 98be
00000260: da10 8c3e 06c0 793e c893 213e 9ea1 e33b
00000270: 7f4a 9a3e 6465 9b3c 35e7 703e 3e9e 373e
00000280: d1c3 d0bd 27a3 75be f161 cdbc d12b cd3d
00000290: 349e bfbd e113 17be cf34 bd3c bbf0 02be
000002a0: 4cbf c1bd 2b81 18bd d5ab ebbd f844 b03d
000002b0: 281d 5a3d be35 43be 4179 723d fb96 883e
000002c0: e7da 853c e434 1c3e 8162 033e ed96 69be
000002d0: c58b 06be 9767 973d 70cc b23d 9d4e 503e
000002e0: a780 123e 6948 a1bd 5671 673e b51f 50be
000002f0: 7d1d 7dbe e571 2cbe dfb8 263e b975 e83d
00000300: 4277 4e3e 23d1 e5bd 86e3 803e 4b2b a2bc
00000310: e5b4 033e 4828 dcbd 6012 88bd b07b 92be
00000320: 5f62 9e3e aa56 423e 2ec6 3bbe 80cd 503e
00000330: 869c 16be 4ead 07be aa7e 47bd 513d 83bd
00000340: b402 cb3d 0ea7 0e3e 374e 643e 3b71 37bd
00000350: f49c 91be 9f84 6b3e 4978 f33d c1b2 35be
00000360: 97b7 203e d8f1 0bbe 0aae b53d e391 9ebd
00000370: 36dd 27be 0308 943e 150f 3f3d 2fb6 5f3e
00000380: 4cb7 763c 9b43 13be ac54 8ebd 9391 073e
00000390: 0d1a 3a3e a9cd 093e 5f00 d13d 79e5 223e
000003a0: 13c2 66bc 82ed 773e 58ed bcbd 5bd5 cd3d
000003b0: ccbc bbbd 319f 79be c044 503e d228 5abd
000003c0: a07a 9abd 33ae d23c 3d10 17be 31e9 cb3d
000003d0: 1efd 18be bb70 43be 7067 46be 4618 4ebd
000003e0: 1b8f 313c 67e0 643e 929c 58be cbef 8f3d
000003f0: 7b64 09be 5fe2 1dbe 37fa 883e 2cac 29be

rnn.1.1.bias f4 [24]
0.16287649 -0.20558022 0.11856913 0.0988437 0.14791924 -0.23276742 -0.21125218 -0.0813066
0.07132815 -0.06706922 -0.15238789 -0.0765884 -0.013710369 -0.30024004 0.1203605 -0.09622029
0.1444412 0.22268249 0.19803458 -0.2578808 -0.07807039 0.2030937 0.10494611 -0.28476405
00000000: 18c9 263e 9f83 52be 5fd4 f23d 916e ca3d
00000010: 2478 173e 955a 6ebe 7e52 58be 1384 a6bd
00000020: 7e14 923d 965b 89bd 920b 1cbe 61da 9cbd
00000030: 75a1 60bc 10b9 99be 917f f63d 250f c5bd
00000040: 65e8 133e e106 643e 94c9 4a3e f408 84be
00000050: 5ee3 9fbd cbf7 4f3e fced d63d 98cc 91be

rnn.1.2.weight f4 [24]
1.0239433 0.9785985 1.0014172 0.9735708 1.0139602 0.9727203 1.0189196 1.0201882
0.9780509 0.9548108 1.0092999 0.9768069 1.048323 1.0266981 0.98777103 0.9699928
0.9777884 1.0055596 0.9504766 0.9744957 1.066499 1.012545 1.0291907 1.0298729
00000000: 9310 833f 6e85 7a3f 702e 803f f03b 793f
00000010: 73c9 813f 3304 793f f56b 823f 8795 823f
00000020: 8b61 7a3f 7b6e 743f bd30 813f 0410 7a3f
00000030: 732f 863f d86a 833f 90de 7c3f 7351 783f
00000040: 5750 7a3f 2db6 803f 6f52 733f 8d78 793f
00000050: 0a83 883f 139b 813f 85bc 833f e0d2 833f

rnn.1.2.bias f4 [24]
0.02096762 -0.028613396 -0.02829778 -0.022114886 0.021871649 -0.019198706 0.019585246 0.00042824648
-0.022456883 0.00841882 0.002820194 -0.031632382 0.0053797485 0.017024154 -0.00915706 0.020748006
-0.017642787 0.010433343 -0.048205983 -0.0076637133 0.05146388 -0.0044151274 0.038235508 0.038022097
00000000: 49c4 ab3c a466 eabc bfd0 e7bc 472a b5bc
00000010: 2c2c b33c 9b46 9dbc 3d71 a03c 4586 e039
00000020: 7ff7 b7bc 17ef 093c 01d3 383b f590 01bd
00000030: 9a48 b03b 3d76 8b3c 7e07 16bc b9f7 a93c
00000040: 9b87 90bc 9df0 2a3c a373 45bd e31f fbbb
00000050: cacb 523d c6ac 90bb d69c 1c3d 0fbd 1b3d

rnn.1.2.running_mean f4 [24]
0.1923613 -0.19553052 0.13016845 0.11818553 0.14274855 -0.23453024 -0.21204603 -0.071126185
0.05150352 -0.09389973 -0.16718613 -0.107330896 0.010392063 -0.30498806 0.13209374 -0.10547744
0.15800814 0.22089481 0.16971588 -0.27716702 -0.044729013 0.19539866 0.09614435 -0.2812173
00000000: 5cfa 443e 2739 48be e14a 053e 410b f23d
00000010: ad2c 123e b228 70be 9822 59be 9baa 91bd
00000020: 5bf5 523d 804e c0bd d732 2bbe 4dd0 dbbd
00000030: 7943 2a3c 6527 9cbe 9543 073e 8e04 d8bd
00000040: e3cc 213e 4032 623e 00ca 2d3e d6e8 8dbe
00000050: c535 37bd 9616 483e 54e7 c43d b7fb 8fbe

rnn.1.2.running_var f4 [24]
0.3343576 0.36829183 0.37289846 0.23893076 0.51584333 0.6126238 0.73857415 0.12074532
1.0940185 0.10916495 0.19652289 0.13289784 0.09484211 0.18039371 0.4728343 0.26837146
0.1903636 0.88645095 0.1634878 0.1273086 0.18746607 0.17027208 0.31344151 0.20145835
00000000: eb30 ab3e bf90 bc3e 8cec be3e 44aa 743e
00000010: 4f0e 043f ead4 1c3f 3213 3d3f 5349 f73d
00000020: cc08 8c3f e091 df3d 4c3d 493e 5f16 083e
00000030: 953c c23d 21b9 383e 5617 f23e fc67 893e
00000040: adee 423e 73ee 623f 5969 273e 305d 023e
00000050: 1bf7 3f3e ce5b 2e3e 687b a03e 194b 4e3e

rnn.1.4.weight f4 [36, 24]
-0.07719894 -0.08983247 0.19128977 -0.16461165 -0.12608193 -0.077401735 0.06574048 -0.06316896
-0.17760254 0.19174223 -0.25401565 -0.049300116 -0.17357498 -0.19562587 -0.003794255 0.060403056
-0.02603795 0.13577592 0.09385814 -0.12129281 -0.100421846 0.087883264 0.19672152 0.19714242
-0.077120095 -0.20089062 -0.13805307 -0.05641475 -0.107201375 -0.106122844 -0.0058871256 -0.08466319
-0.044255916 0.036327124 -0.0779225 -0.17277898 0.042531334 -0.1794597 0.09969876 0.043344863
-0.07713963 0.122702025 0.019922296 0.0423399 -0.2351651 0.07057433 -0.058188956 0.10241033
-0.18397565 0.10425945 -0.030250534 -0.15729254 -0.16107567 -0.04768374 0.018203197 -0.054268967
0.013427957 -0.21784917 -0.123284854 0.14905676 -0.22608887 -0.026595142 0.07093815 -0.13507575
-0.11864311 -0.10975069 -0.20846863 -0.043083698 -0.059657283 0.22413921 -0.10073471 0.011145328
0.18861343 -0.13108972 -0.040643364 -0.08985953 0.02282671 -0.110337205 -0.09370932 0.09353346
0.010395048 0.07273942 -0.033621103 -0.0013984424 -0.0071134605 0.051981647 -0.07551534 -0.20690627
0.15333107 -0.14713149 -0.19807315 -0.13514689 0.20852806 -0.11658386 0.090491906 -0.11648489
0.14719304 -0.11636342 -0.13576251 -0.11829215 0.22043088 -0.09550534 0.14381061 0.011611243
0.06529704 -0.14737564 0.19439693 -0.17183158 -0.18529308 0.20224437 0.09719938 0.023375768
-0.030796021 -0.2233761 -0.06729563 0.05213862 0.21420445 0.170344 0.00796824 -0.105684355
0.0097646285 -0.15998039 -0.031951647 0.038263977 -0.1664097 -0.1338388 -0.03097553 0.17434788
-0.06032943 0.13249008 -0.073828645 -0.06596345 0.09859452 0.120140605 -0.12031535 -0.1342693
0.013582078 0.18343565 -0.13807759 -0.2932074 0.008019362 0.12665735 -0.18590918 -0.116408035
-0.20445015 0.09974546 0.12014237 -0.1935865 -0.14136618 -0.16154775 -0.09289959 -0.15111245
0.20788369 0.07603126 -0.020658897 0.016818563 0.053758938 0.088905446 0.055568993 0.19612402
-0.11709433 -0.06582461 0.16219155 -0.17541844 0.16022462 -0.015200993 -0.07422508 -0.098939404
-0.04791573 0.06925666 -0.10144569 -0.046073984 0.12832157 -0.060388695 0.11696257 0.11634247
-0.17048877 0.088048205 0.047854785 0.093508065 0.013662894 -0.15043323 -0.057490684 -0.011780702
0.10977531 -0.11311856 0.040274862 0.12860115 0.16745418 0.04216228 -0.11914228 -0.15357862
0.055109553 0.15604007 -0.048838012 0.09044283 -0.13042632 -0.08311675 0.12482364 0.030657457
0.09213065 0.11333704 -0.19715105 -0.04493823 0.06761849 0.11846594 -0.13473274 -0.0018382662
0.13847499 0.00822505 0.23697354 0.16751216 -0.030717356 0.0696924 0.007113765 -0.085576184
-0.14890051 0.0011026134 -0.17590892 0.039739642 0.013186195 -0.12724592 -0.12150292 -0.024029503
-0.055664968 -0.26948467 -0.00042927722 -0.16825397 -0.2513638 0.11096911 0.018842133 0.08453733
0.17229022 0.17117456 -0.04828013 -0.09858031 0.21437323 0.19916019 0.040377818 0.16280693
-0.08237764 -0.13203603 0.0479457 -0.10713652 -0.038304795 -0.12252306 -0.2137049 -0.021733146
0.082425535 -0.058742482 -0.09248015 0.14299937 -0.011861421 -0.0029580335 0.028387016 0.15154058
00000000: 7a1a 9ebd 16fa b7bd 77e1 433e f58f 28be
00000010: 9f1b 01be cd84 9ebd f2a2 863d ba5e 81bd
00000020: 71dd 35be 1358 443e 570e 82be ebee 49bd
00000030: a4bd 31be 2652 48be 09a9 78bb 3269 773d
00000040: 8a4d d5bc d808 0b3e b238 c03d 5d68 f8bd
00000050: f8a9 cdbd 24fc b33d 5e71 493e b4df 493e
00000060: 24f1 9dbd 45b6 4dbe c95d 0dbe 2713 67bd
00000070: 658c dbbd ef56 d9bd cae8 c0bb e563 adbd
00000080: b145 35bd c0cb 143d d595 9fbd f9ec 30be
00000090: 5635 2e3d 49c4 37be dd2e cc3d 628a 313d
000000a0: 62fb 9dbd 334b fb3d 1534 a33c 9a6c 2d3d
000000b0: 1fcf 70be 4689 903d 8b57 6ebd 82bc d13d
000000c0: 1d64 3cbe fb85 d53d f8cf f7bc 4c11 21be
000000d0: 05f1 24be 0650 43bd df1e 953c 2349 5ebd
000000e0: ef00 5c3c da13 5fbe c57c fcbd 56a2 183e
000000f0: d783 67be 0ede d9bc 0548 913d 4c51 0abe
00000100: 29fb f2bd f8c4 e0bd cd78 55be 8878 30bd
00000110: 325b 74bd c084 653e 004e cebd e59a 363c
00000120: e123 413e 623c 06be a879 26bd 4608 b8bd
00000130: 15ff ba3c 79f8 e1bd acea bfbd 788e bf3d
00000140: fe4f 2a3c 68f8 943d 48b6 09bd f14b b7ba
00000150: 0818 e9bb b5ea 543d c9a7 9abd 3ddf 53be
00000160: d202 1d3e a3a9 16be b0d3 4abe f263 0abe
00000170: 6188 553e 85c3 eebd d253 b93d a18f eebd
00000180: c6b9 163e f24f eebd 5405 0bbe 2843 f2bd
00000190: a2b8 613e 4e98 c3bd 1743 133e 153d 3e3c
000001a0: 74ba 853d a4e9 16be fd0f 473e 9ef4 2fbe
000001b0: 78bd 3dbe 2619 4f3e 7810 c73d 8a7e bf3c
000001c0: f047 fcbc b4bc 64be 4bd2 89bd 4e8f 553d
000001d0: 6958 5b3e a86e 2e3e 398d 023c 0a71 d8bd
000001e0: d2fb 1f3c e6d1 23be bbdf 02bd b0ba 1c3d
000001f0: 4e67 2abe 0a0d 09be 65c0 fdbc 4088 323e
00000200: fe1b 77bd 7bab 073e 7933 97bd d817 87bd
00000210: eceb c93d 470c f63d e567 f6bd e47d 09be
00000220: 5d87 5e3c 8ed6 3b3e 3664 0dbe 481f 96be
00000230: a463 033c 77b2 013e fa5e 3ebe 5667 eebd
00000240: 615b 51be 5947 cc3d 340d f63d 8a3b 46be
00000250: 4cc2 10be c66c 25be 2442 bebd 39bd 1abe
00000260: 76df 543e 47b6 9b3d d93c a9bc 15c7 893c
00000270: 5532 5c3d 0f14 b63d 509c 633d bcd4 483e
00000280: 27cf efbd 0ecf 86bd 8b15 263e e4a0 33be
00000290: ec11 243e 960d 79bc 5203 98bd bea0 cabd
000002a0: 4943 44bd 70d6 8d3d c2c2 cfbd 13b8 3cbd
000002b0: bb66 033e 235a 77bd 128a ef3d f644 ee3d
000002c0: 9c94 2ebe 9e52 b43d 6103 443d 2881 bf3d
000002d0: 55da 5f3c 2b0b 1abe 5a7b 6bbd d803 41bc
000002e0: e1d1 e03d b4aa e7bd 41f7 243d 05b0 033e
000002f0: 1c79 2b3e 5bb2 2c3d de00 f4bd b743 1dbe
00000300: 8eba 613d f8c8 1f3e 5e0a 48bd 173a b93d
00000310: 7a8e 05be 1d39 aabd 89a3 ff3d 5925 fb3c
00000320: ffae bc3d 401d e83d f7e1 49be 2611 38bd
00000330: 907b 8a3d 459e f23d 61f7 09be faf1 f0ba
00000340: 63cc 0d3e 5cc2 063c 31a9 723e 4f88 2b3e
00000350: f7a2 fbbc e4ba 8e3d 961a e93b 9142 afbd
00000360: 6079 18be 9185 903a 7821 34be 09c6 223d
00000370: e90a 583c c14c 02be 86d6 f8bd 85d9 c4bc
00000380: f300 64bd e5f9 89be 9d10 e1b9 c54a 2cbe
00000390: c2b2 80be c643 e33d d15a 9a3c e821 ad3d
000003a0: d96c 303e 6248 2f3e 63c1 45bd 79e4 c9bd
000003b0: a884 5b3e a6f0 4b3e 3663 253d dcb6 263e
000003c0: 9cb5 a8bd 7434 07be b662 443d 646a dbbd
000003d0: 7de5 1cbd 5fed fabd 75d5 5abe b609 b2bc
000003e0: b8ce a83d f59b 70bd 3c66 bdbd 6d6e 123e
000003f0: 6856 42bc 91db 41bb e38b e83c 742d 1b3e

rnn.1.4.bias f4 [36]
0.15612109 0.09011699 -0.016924305 0.19941863 -0.14592598 0.18875372 -0.063828535 0.16412269
-0.14998692 0.045455564 0.040741287 -0.14745748 0.15350331 0.034630403 -0.07757897 -0.13478011
-0.17493351 -0.079203606 -0.15566088 0.1223335 -0.12987599 -0.069746196 0.055815063 -0.2125677
-0.0789073 -0.006106698 -0.11984557 0.14860308 0.14954814 -0.021555206 -0.02329268 0.114434525
0.16104747 -0.1571467 -0.16791254 -0.12588663
00000000: 35de 1f3e 428f b83d d7a4 8abc 6634 4c3e
00000010: 9f6d 15be a848 413e 89b8 82bd c70f 283e
00000020: 2c96 19be 9d2f 3a3d 56e0 263d 18ff 16be
00000030: f92f 1d3e 9cd8 0d3d b9e1 9ebd cc03 0abe
00000040: c521 33be 8035 a2bd 9165 1fbe fc89 fa3d
00000050: 36fe 04be 18d7 8ebd 569e 643d 59ab 59be
00000060: 279a a1bd b21a c8bb 9871 f5bd 682b 183e
00000070: 2623 193e 8b94 b0bc 4ad0 bebc a65c ea3d
00000080: a1e9 243e 11eb 20be 44f1 2bbe 6de8 00be

rnn.1.5.weight f4 [36]
0.96592903 1.021678 0.98394626 0.9812009 0.95549476 0.99751365 0.99055743 0.9578709
0.9886324 1.0527011 1.0147238 1.0025144 0.95183533 1.0273896 1.0251017 1.044156
1.0775129 0.9587013 1.0046701 0.9616407 0.9750268 0.9993176 1.0191978 0.97595626
0.9715075 0.97160125 0.97617066 0.95559233 1.1034725 0.9803442 1.0146745 1.0121995
0.979511 1.04013 0.9928401 0.9576042
00000000: 2047 773f 58c6 823f e7e3 7b3f fb2f 7b3f
00000010: 4e9b 743f 0e5d 7f3f 2c95 7d3f 0737 753f
00000020: 0317 7d3f e9be 863f 78e2 813f 6452 803f
00000030: 7bab 733f 8181 833f 8836 833f e7a6 853f
00000040: f1eb 893f 736d 753f 0899 803f 162e 763f
00000050: 5b9b 793f 47d3 7f3f 1375 823f 45d8 793f
00000060: b7b4 783f dcba 783f 52e6 793f b3a1 743f
00000070: 963e 8d3f d6f7 7a3f dbe0 813f c18f 813f
00000080: 3cc1 7a3f fb22 853f c52a 7e3f 8d25 753f

rnn.1.5.bias f4 [36]
-0.0011760339 0.031647813 -0.0052967262 -0.013857879 -0.056544602 0.06925024 0.009560027 -0.03483171
-0.0054259175 -0.08506838 0.01429059 0.029607195 -0.037670366 0.06299302 -0.00076479366 -0.018930828
0.1580662 -0.02842027 0.024369944 -0.028611563 -0.057779886 0.0056078644 0.018277083 -0.02002318
-0.04534897 -0.04068821 -0.018951004 -0.041577857 0.05600342 0.011174537 0.024331901 0.003976165
-0.038682543 0.083522424 0.0030552382 -0.020278389
00000000: 2625 9aba 23a1 013d 2990 adbb 280c 63bc
00000010: 509b 67bd 12d3 8d3d a9a1 1c3c b2ab 0ebd
00000020: e5cb b1bb 5538 aebd 1423 6a3c ca8a f23c
00000030: 3e4c 1abd 7c02 813d 6f7c 48ba d314 9bbc
00000040: 1bdc 213e a0d1 e8bc 7aa3 c73c cc62 eabc
00000050: 9aaa 6cbd 2dc2 b73b d2b9 953c a707 a4bc
00000060: d7bf 39bd aea8 26bd 233f 9bbc 8b4d 2abd
00000070: d863 653d 6815 373c b253 c73c 7d4a 823b
00000080: 9671 1ebd ce0d ab3d 643a 483b dd1e a6bc

rnn.1.5.running_mean f4 [36]
-0.03865938 -0.34264085 -0.6261054 -0.04587202 -0.044164795 -0.15781832 -0.2191562 0.18919908
0.10387612 -0.013930126 -0.07659478 -0.5816225 -0.20589718 0.15886919 0.28593263 0.18491724
0.13368742 -0.39942434 -0.012062825 -0.14580727 -0.5593564 0.24357778 0.0669974 -0.19129042
-0.11479642 -0.3649601 -0.0044124206 0.17994893 0.046377353 -0.03344429 -0.4037167 -0.43251753
0.2757997 -0.76566756 -0.029711695 -0.21497604
00000000: 4c59 1ebd 9f6e afbe 7248 20bf 4de4 3bbd
00000010: 25e6 34bd 209b 21be 7c6a 60be 67bd 413e
00000020: 01bd d43d 2f3b 64bc b9dd 9cbd 36e5 14bf
00000030: b6d6 52be 9bae 223e c365 923e f25a 3d3e
00000040: 5be5 083e 5981 ccbe 28a3 45bc 804e 15be
00000050: fb31 0fbf 746c 793e ef35 893d a3e1 43be
00000060: 631a ebbd 0ddc babe 1196 90bb 8844 383e
00000070: 2ef6 3d3d e1fc 08bd f5b3 cebe f072 ddbe
00000080: 9e35 8d3e ca02 44bf f165 f3bc ae22 5cbe

rnn.1.5.running_var f4 [36]
0.21048027 0.27387172 0.1296782 0.10650636 0.20244512 0.100178815 0.19495712 0.25640374
0.10681914 0.12719682 0.3247232 0.12560262 0.14803429 0.38541916 0.16984001 0.19915134
0.7531634 0.3984445 0.22894731 0.09164679 0.18987854 0.1546049 0.17604248 0.2734301
0.11529283 0.21830538 0.19328707 0.11759411 0.10572477 0.18467374 0.26622072 0.09249509
0.16712347 0.4253715 0.21357855 0.15462182
00000000: 2488 573e ea38 8c3e 5dca 043e 0220 da3d
00000010: c64d 4f3e 8d2a cd3d d7a2 473e 5a47 833e
00000020: fec3 da3d e23f 023e 1f42 a63e f99d 003e
00000030: 4d96 173e a955 c53e 8aea 2d3e 54ee 4b3e
00000040: 51cf 403f eb00 cc3e 2a71 6a3e 50b1 bb3d
00000050: 856f 423e bf50 1e3e 7b44 343e 08ff 8b3e
00000060: a61e ec3d 728b 5f3e 0ced 453e 2ed5 f03d
00000070: 3a86 d83d 1d1b 3d3e 154e 883e 116e bd3d
00000080: 6a22 2b3e 4bca d93e 56b4 5a3e 2f55 1e3e

rnn.1.7.weight f4 [1, 36]
0.02349808 0.14585963 0.038963396 0.10174266 -0.063486755 0.037074067 0.043956067 -0.043272927
-0.06772512 -0.09355068 0.09588945 0.10209286 0.018651946 0.06783903 0.13661171 0.16621144
0.16948552 -0.057168216 0.04545607 0.019129155 0.031721752 0.051657945 0.16486295 0.14074978
-0.11560812 -0.1265925 0.0864717 -0.083782695 0.21026838 0.035986528 0.05958133 0.10806573
-0.10601976 -0.10079992 0.046176206 0.022704989
00000000: 0c7f c03c 3a5c 153e 1598 1f3d 755e d03d
00000010: 5805 82bd fada 173d 470b 343d f43e 31bd
00000020: 78b3 8abd 8097 bfbd b061 c43d 1016 d13d
00000030: f7cb 983c 30ef 8a3d f1e3 0b3e 5533 2a3e
00000040: 9d8d 2d3e 3829 6abd 2530 3a3d bfb4 9c3c
00000050: abee 013d 4897 533d d5d1 283e b620 103e
00000060: f3c3 ecbd 77a1 01be 1318 b13d 4396 abbd
00000070: 9850 573e 9c66 133d 8d0b 743d 9151 dd3d
00000080: e320 d9bd 3070 cebd 4323 3d3d d0ff b93c

rnn.2.0.weight f4 [12]
1.0095383 1.0189642 0.9835471 0.97415435 1.0236108 0.9918053 0.9850744 0.9979326
0.991042 0.94845724 1.0294182 0.9562428
00000000: 8d38 813f 6b6d 823f bec9 7b3f 2e62 793f
00000010: ae05 833f f4e6 7d3f d62d 7c3f 8378 7f3f
00000020: eeb4 7d3f 18ce 723f fac3 833f 54cc 743f

rnn.2.0.bias f4 [12]
0.0067853257 0.018223312 -0.017763201 -0.016877452 0.019275306 -0.014491687 -0.009961674 0.009570994
-0.004800771 0.0058829524 -0.016955849 -0.016128214
00000000: 7057 de3b 0e49 953c 2284 91bc 9542 8abc
00000010: 3fe7 9d3c 8a6e 6dbc 4a36 23bc a9cf 1c3c
00000020: c94f 9dbb c8c5 c03b fee6 8abc 511f 84bc

rnn.2.0.running_mean f4 [12]
-6.285749e-05 0.28195235 -0.28631717 0.81196386 0.6978253 -0.55881125 0.16565214 0.24233143
-0.88545054 0.7538945 0.21510956 -1.4128267
00000000: 5cd2 83b8 0f5c 903e 2a98 92be dddc 4f3f
00000010: aea4 323f 410e 0fbf b7a0 293e bb25 783e
00000020: e3ac 62bf 3bff 403f ae45 5c3e 81d7 b4bf

rnn.2.0.running_var f4 [12]
0.000523775 0.4611069 0.09130558 0.61764175 0.5033451 0.10399035 2.5571973 0.4258448
0.7706003 0.3308156 1.8881807 0.4191867
00000000: f24d 093a 3416 ec3e 6cfe ba3d c51d 1e3f
00000010: 39db 003f e5f8 d43d 1fa9 2340 5408 da3e
00000020: 1046 453f aa60 a93e e8af f13f a49f d63e
