DeepHedging_clean/BS/trained_models/RNN_BN_simple_AAPL_GOOGL_MSFT_AMZN_BRK-B.pt (torch, 588398 bytes, 541 tensors)

embedding.weight f4 [4, 2]
00000000: af11 423f e343 223f 71c9 94bf c90f 5b3f
00000010: eec5 edbf 7e8d 00bf eef5 0740 c9b9 42bf
0.75808233 0.63384837 -1.1623975 0.8557096 -1.8576028 -0.502159 2.1243854 -0.76064736

rnn.0.0.weight f4 [7]
00000000: 0000 803f 0000 803f 0000 803f 0000 803f
00000010: 0000 803f 76f6 7e3f 0e54 803f
1.0 1.0 1.0 1.0 1.0 0.9959482 1.0025651

rnn.0.0.bias f4 [7]
00000000: 4cac 73bb 71aa 453c 501e 6abc 2034 043c
00000010: 795a 083c 2648 c93b 0ebd b93c
-0.0037181554 0.012064562 -0.014289454 0.008069068 0.008322352 0.006142634 0.022673156

rnn.0.0.running_mean f4 [7]
00000000: 0000 0000 0000 0000 0000 0000 0000 0000
00000010: 0000 0000 b47f d1bc f0c7 2e3d
0.0 0.0 0.0 0.0 0.0 -0.025573589 0.042671144

rnn.0.0.running_var f4 [7]
00000000: 21c7 763e 21c7 763e 21c7 763e 21c7 763e
00000010: 21c7 763e d895 0740 757d 1c3f
0.24099399 0.24099399 0.24099399 0.24099399 0.24099399 2.1185207 0.6112893

rnn.0.1.weight f4 [34, 7]
00000000: 5164 d33c f042 02be c3ce 813e 42d6 b7be
00000010: d470 bb3e d54a 49bd 669d 3a3e 5e66 8dbe
00000020: 9a8d c8bd 8b48 833d 334a b7bb f28a 9fbb
00000030: 7dc6 afbe 40b6 b4bd e662 a0bd 12e7 f1bd
00000040: 7e57 943e b4b8 8ebe a882 023e adb7 cebd
00000050: bf6c 4dbe c9c5 c13d 21d8 413d e459 cc3c
00000060: 7fde 1abc 1a78 b4bd b451 a2bd ad6a 8abe
00000070: 70f0 413e 1022 9a3e ef84 af3e 9eb7 603e
00000080: e8e4 423e 4d52 513e 4490 d83d f36e 67be
00000090: 96a7 a9be a6b1 793d 998f 4cbe 7d9a 2bbe
000000a0: 9c64 863c 40b2 19bb 77c0 bc3e 2c91 903e
000000b0: 3740 ea3b bd03 a3be 3b6d 84be 80a3 4f3e
000000c0: 26d5 0cbe 152b 14be 0a7d 04bb 5b69 0d3e
000000d0: b100 b43c 6b02 9bbe 341e 89be c146 bbbd
000000e0: 7ab0 d1bd 9327 b1be d013 20be 00eb aabe
000000f0: 9ecb 55be 89b1 7abe 6ae8 39bd 7288 2f3e
00000100: 0628 513d 86b2 283e 0624 fe3d 9783 b5be
00000110: 881d 05be 8bff 79bd c67e 76be 4a25 943e
00000120: e68f 9fbe 3bd2 9c3e 615c 063e 40f4 823e
00000130: 780d 6b3e 948c a43e d5d2 90be e707 26be
00000140: 8951 453d 8ddc 60be 4329 003e fe7b 37be
00000150: 0dd6 88bc c16c a2bb f466 b3bd 5688 0d3e
00000160: ff38 2e3e 62c0 bb3e 198b c13e 9ba6 af3e
00000170: 1ed7 b73e 8fbc 88be 4f11 86bc 035a 33be
00000180: 1d51 a1be 44fa 98be cfec 61bd 0fd6 babd
00000190: cfb7 1a3e 1bfc 90be 3700 27be f2f3 d2bd
000001a0: f97d 273e b600 8fbd ecc1 b7bc a6a5 91be
000001b0: 958c 6fbd df66 3fbe f750 34be 0697 b33e
000001c0: 6f60 af3d 1c4d 0c3d 018e 9f3e 718a 2ebe
000001d0: 2da7 2b3d 25e9 2b3e 038c 3fbe af58 06be
000001e0: b869 95be ada8 a43e 19a0 a8bd b671 243e
000001f0: 8605 27be 26bd 81bd f987 b3be 11a4 6fbe
00000200: 3f96 a93e 3c92 56be dcb3 71be 5dde 9bbe
00000210: ab75 7a3e 1c4c 1cbc 2d41 bfbe 6236 983e
00000220: 73db bfbd 8074 583e 09d4 463e 8b1b 523c
00000230: bcde 90be e9a0 b13d 5765 923e 32ff a73e
00000240: 1084 703e c22b 11bc afa9 70be d70b 393e
00000250: aea8 043e b2c1 6a3d 24bd 3a3e a247 133c
00000260: ad4c 5cbd 8c7e 87be dd81 9b3e c560 a53e
00000270: cc4a abbe 490f 9cbd afcd babe 82d2 9d3e
00000280: b51e ec3d 6a32 853e bbbb 983e 5f97 16bc
00000290: a101 043d 3081 8fbe 8e7d 36be 5cad 123c
000002a0: 2899 923b 3339 c0be 3f90 bc3e b3fa 013e
000002b0: fc23 a6bd e103 b03e d8fb 0a3e 90ba 773d
000002c0: a0bf f2bd bfc9 e3bd 14bf 8abe 564f 8ebe
000002d0: a2ea a4be 5e9a e63c 7c54 b03e 2679 443e
000002e0: 3621 aa3e 1985 253d e624 2abc d75e bb3d
000002f0: 1304 953e 336f 1ebe d056 ab3e f0ea 633e
00000300: 87f0 a9bd 4415 81bd b0a1 b23e 18af 98be
00000310: 9987 953e 87b8 7fbd 9824 20be ec4c 2a3e
00000320: 6b4c 993e e430 c4be 9dba 05be e98a 183d
00000330: 4f40 98be 3ceb 8bbe db42 433e 7fdb 973c
00000340: 2a5a 81bc cd9c 063e e684 5cbc 2aa3 38be
00000350: 820a fe3d e2c6 023e 0c3d 90be 94fd 8ebd
00000360: 81a3 e13d 64b5 3b3e 507e 45be 6991 e9bd
00000370: 6114 4b3c eeed 5d3e 9639 d33d 2e2e e53d
00000380: fe20 8cbe cd79 6abe 54ab 26be 2868 413e
00000390: 2cb9 a83e 55c0 653e 8884 1ebd 1a19 cebd
000003a0: 1774 f33b 5c4e af3e 7240 1e3e 4e40 45be
000003b0: 000c 753d ff62 843d
0.02580467 -0.12720847 0.2535306 -0.35905653 0.3660952 -0.04914363 0.18224105 -0.27617162
-0.09792633 0.06410321 -0.005593562 -0.0048688585 -0.34331122 -0.08823824 -0.078313634 -0.11811651
0.28973 -0.27875292 0.12745154 -0.10093627 -0.20061015 0.09461553 0.047325257 0.024945207
-0.009452461 -0.0881197 -0.0792574 -0.27034512 0.18939376 0.30104113 0.34281108 0.21945044
0.19032633 0.20441552 0.105743915 -0.22600918 -0.3313567 0.060960434 -0.19976653 -0.16758151
0.016405396 -0.0023452193 0.3686559 0.28235757 0.0071487683 -0.3183879 -0.25864586 0.20277214
-0.13753185 -0.1446956 -0.002021613 0.13809721 0.021972986 -0.30275282 -0.26780856 -0.091443546
-0.10238738 -0.34600505 -0.15632558 -0.33382416 -0.20878455 -0.24481787 -0.045387663 0.17141894
0.05106356 0.16474351 0.12409215 -0.35451958 -0.12999547 -0.06103472 -0.24071798 0.289347
-0.31164473 0.30629143 0.13121177 0.25576973 0.22954357 0.32138503 -0.28285852 -0.16213952
0.04817346 -0.21959133 0.1251574 -0.17918393 -0.01670363 -0.004956812 -0.08759871 0.1382154
0.1701393 0.36670214 0.37801436 0.34306797 0.3590631 -0.2670636 -0.016365675 -0.17514805
-0.31507197 -0.29878438 -0.05515748 -0.0912286 0.1510918 -0.2831734 -0.16308676 -0.10300435
0.16356649 -0.069825575 -0.022431336 -0.28446692 -0.05848368 -0.18691586 -0.1760901 0.3507616
0.08563315 0.034253225 0.31163028 -0.17044999 0.041907478 0.16788156 -0.18705754 -0.13119768
-0.2918222 0.3215994 -0.08233661 0.16059002 -0.16310701 -0.06334905 -0.35064676 -0.2340243
0.3312244 -0.20954221 -0.23603767 -0.30443087 0.2445895 -0.00953963 -0.37354413 0.2972899
-0.093680285 0.21138191 0.19416822 0.01282395 -0.28294933 0.08673269 0.2859294 0.32811886
0.23487878 -0.00886053 -0.23502229 0.18070923 0.12954971 0.05731363 0.18236214 0.008989247
-0.05378406 -0.26463735 0.30372515 0.32300392 -0.33455503 -0.07620103 -0.3648505 0.30824667
0.115292944 0.26015025 0.29830727 -0.009191363 0.032228116 -0.2802825 -0.17821333 0.008952465
0.004473824 -0.3754364 0.368288 0.1269329 -0.08112332 0.3437796 0.13572633 0.060480654
-0.11852956 -0.111224644 -0.27098906 -0.27794904 -0.3221026 0.02814978 0.34439456 0.1918684
0.33228463 0.040410135 -0.010384774 0.09148949 0.2910467 -0.15472107 0.3346467 0.2225759
-0.0829783 -0.06302884 0.34888983 -0.29821086 0.29205015 -0.06243184 -0.1563896 0.16630906
0.29941115 -0.3831855 -0.13059469 0.03724185 -0.29736564 -0.27327907 0.19068472 0.018537281
-0.015790064 0.13145752 -0.01345942 -0.18030992 0.12404348 0.1277118 -0.28171575 -0.0698196
0.11017514 0.18330914 -0.19286466 -0.11404688 0.012394995 0.21672794 0.10313718 0.11190449
-0.2736892 -0.22898026 -0.16276294 0.18887389 0.32953775 0.2243665 -0.03870061 -0.100633815
0.0074296105 0.3423947 0.15454271 -0.19262812 0.059825897 0.064641945

rnn.0.1.bias f4 [34]
00000000: 8f8d a73e 7d0d 86be 377f 453e 5bfb adbe
00000010: 455c a8be edee 60be ea28 d6bd f257 85be
00000020: 2f88 ab3e 5755 92be f022 ab3e 0522 abbe
00000030: cdf4 123e 9f56 09bd a0fc 3b3d efa5 1ebe
00000040: 1576 b23e 6d2d 5dbd 276f 883e 3ce3 19be
00000050: 353d b73d 1272 39bb 452f f7bc eb5c abbe
00000060: fc55 bb3d 034c 37be 0217 9c3e dbb7 c4bd
00000070: 0308 933e 3169 a83e 6ed4 99be f6bd 3bbe
00000080: e06a 24be 82e5 19be
0.32725188 -0.26182166 0.1928681 -0.33980832 -0.32882896 -0.21966143 -0.104570225 -0.2604366
0.33502337 -0.28580734 0.33425093 -0.33424392 0.14351197 -0.033529874 0.04589522 -0.15492986
0.34855714 -0.0539984 0.26647303 -0.1502809 0.08947221 -0.002829675 -0.030173907 -0.33469328
0.091472596 -0.1790009 0.30486304 -0.0960538 0.2871705 0.32892755 -0.30044883 -0.18334183
-0.16056395 -0.15028957

rnn.0.2.weight f4 [34]
00000000: f267 7c3f 94e5 813f 1fb0 7d3f 4bb7 813f
00000010: 2ccb 783f e45a 7a3f 9cf1 7f3f 17e9 7a3f
00000020: 8ad1 803f 9ae1 803f 9ef7 7f3f 589e 813f
00000030: 3da5 803f c76c 813f a398 7f3f 7380 7f3f
00000040: 5226 7c3f a62b 803f 06b3 7f3f 8085 7e3f
00000050: e94e 803f ad79 7d3f 680d 7e3f 3cd2 803f
00000060: 0fa7 7f3f 5a2a 7f3f 290d 823f 389c 803f
00000070: 070b 813f 172d 7f3f 5073 7e3f 804f 7f3f
00000080: 2702 803f 3a6d 7c3f
0.9859611 1.0148187 0.99096864 1.0134062 0.97185016 0.9779494 0.9997804 0.98011917
1.0063946 1.0068848 0.9998721 1.0126448 1.0050427 1.0111321 0.9984228 0.9980537
0.9849597 1.001332 0.99882543 0.99422455 1.0024081 0.9901379 0.99239206 1.0064158
0.99864286 0.99674 1.0160266 1.0047674 1.008149 0.99678177 0.993947 0.9973068
1.0000657 0.98604167

rnn.0.2.bias f4 [34]
00000000: 8aec 0bbc 6da2 0a3c 63f6 a13a 9761 423c
00000010: 3245 f2bc 0451 bebc 6e03 6db9 cf77 c9bb
00000020: 6d45 f13b 37c4 ca3b dbed ba3b 93a2 45bb
00000030: 51c3 953b c7d1 363c ca27 a7bb 0f0b 5ebb
00000040: 5174 75bc 3ea9 afba 0079 bbbb fdc9 8bbb
00000050: 5f08 563b a4d3 15bc 1c86 f3bb ddc3 d73b
00000060: f7c9 9639 b3e6 54bb 7a71 8e3c a908 9c3b
00000070: 8366 323c 1581 1fbb f796 15bc 9ea2 4b3c
00000080: 5166 90bb 01f0 86bc
-0.008540282 0.008461577 0.0012356754 0.011864088 -0.02957401 -0.02323199 -0.00022603359 -0.0061483155
0.0073630125 0.0061879414 0.005704624 -0.0030156716 0.0045704027 0.011158413 -0.005101179 -0.0033881103
-0.014981345 -0.0013401879 -0.0057212114 -0.0042660222 0.0032658798 -0.009144697 -0.0074317586 0.006584628
0.00028760705 -0.003248614 0.017388094 0.0047617746 0.0108886985 -0.0024338413 -0.009130231 0.012428908
-0.0044067283 -0.016471865

rnn.0.2.running_mean f4 [34]
00000000: f8c2 7d3e 7965 4fbe 44a9 0d3e 327d 86be
00000010: c066 7dbe f4e6 2fbe e2e6 a7bd adfb 4fbe
00000020: 18ca 7c3e 396d 63be 1729 883e 8585 84be
00000030: 7a85 f23d 522b e1bc d26e 0a3d 5bfa e3bd
00000040: 8333 843e e5fd 44bd 4bc6 483e 6f1c f0bd
00000050: 29bb 843d 1462 9bbb 5c65 91bc 988b 82be
00000060: e052 883d cf98 0ebe 96fb 6e3e 751b 9dbd
00000070: 27ed 5e3e 00f4 813e 37fa 6abe f4df 09be
00000080: 3b3c f3bd 4009 edbd
0.24781406 -0.20253552 0.13834101 -0.2626739 -0.24746227 -0.17177945 -0.08198334 -0.2031085
0.24686468 -0.22209634 0.2659385 -0.25883117 0.11841865 -0.027486477 0.033797093 -0.11131736
0.2582055 -0.048093695 0.19606893 -0.11724173 0.064810105 -0.0047419164 -0.017748527 -0.25497127
0.06656432 -0.1392548 0.2333816 -0.07671253 0.21770154 0.2538147 -0.22947012 -0.13464338
-0.118767224 -0.1157403

rnn.0.2.running_var f4 [34]
00000000: 5923 8b3e 5b54 a53e 977e 8a3e 4063 953e
00000010: 455f 8b3e a1ff 763e df7e 983e c9e6 943e
00000020: 87e9 903e c688 813e 534a 9c3e e3a7 923e
00000030: 8a89 c83e 1cd9 af3e 433f 8d3e 5568 c33e
00000040: 4962 9a3e 07e5 843e eea5 c53e f387 893e
00000050: 081e 903e 88b6 943e b082 9d3e 53ba 873e
00000060: c223 a63e 137b a53e 7808 993e 1307 e23e
00000070: 79c0 af3e 7a99 823e 2b75 833e 6ed5 813e
00000080: c230 913e e524 7b3e
0.27175406 0.3229092 0.27049705 0.29177284 0.27221122 0.24120952 0.29784295 0.29082325
0.28303167 0.25299662 0.30525455 0.28643712 0.39167434 0.3434533 0.27587327 0.38165537
0.3015311 0.25955984 0.38603157 0.26861534 0.28147912 0.2904551 0.3076377 0.26509342
0.32449156 0.3232046 0.29889274 0.44146022 0.34326532 0.25507718 0.2567533 0.25358146
0.28357512 0.24525793

rnn.0.4.weight f4 [62, 34]
00000000: 4c57 bcbb 0add dc3d 697e c43d 0b8f 8d3d
00000010: 19a3 003d c674 08bd fc32 093e fae9 063e
00000020: f6da 26be 424f 19be 359f db3c 84a6 243e
00000030: bf42 2cbd 0617 abbc aba2 57bd f746 e93c
00000040: cbfd d53d c175 573d 2c8b d5bd 813c 53bd
00000050: a473 dfbd 4728 3e3d e95c 1dbe 3743 8c3c
00000060: 7cff 18be a329 56bd 22d5 0d3d 4561 08be
00000070: d0fd fe3d e651 11be 230e 14be 3e05 dcbd
00000080: 1351 b83d 2b9c df3d b211 193e de9c 9ebd
00000090: 5cdb c4bd 806c c33d 3ffb 04be b432 eebd
000000a0: fbc9 ad3d 67c4 0fbc 5067 03be bd43 333c
000000b0: 0f51 f63d 5ce9 923c 5bf4 243e e409 a83d
000000c0: 90d8 a23c 0ccf 92bc 99cb 5d3d a1a8 2cbe
000000d0: 6658 38bc e9d1 9f3d 90ca 103e 4651 babd
000000e0: 2d1f 02be 56cb fcbd 460b 9ebd eda9 55bd
000000f0: f71b 293c 03dc 213b 76b7 113e 9cbf ed3b
00000100: 3ca9 07be 19ca d1bc 0a45 7cbd 8dea 4b3d
00000110: fd74 5bbd 168d 913d 2eab 593d 75d9 033e
00000120: 21de 9dbd 6150 1b3e 0cf9 d93c c4af 23be
00000130: 5ab4 d8bd 3b57 443d 5045 a8bd d792 f7bd
00000140: 2fa6 eb3d 08d9 a9bd 2e3c 413d 35ac d63c
00000150: 4b81 15be 4b48 103e 3df6 fcbd 1c42 29bd
00000160: ad73 debd 5aae 253e 8094 8a3d c0e5 1cbe
00000170: 05b6 d6bd cf90 6c3d 3235 103d 2692 ae3c
00000180: 1613 04bd b2b3 f7bd 60d9 08be ba20 28be
00000190: 9954 21bd 183d fdbd 9c7c dabd cb7b 48bd
000001a0: f575 6c3d 9dc6 d5bd 4327 8f3d 6505 9ebd
000001b0: 08dd 96bc 1e5a 8e3d 04a6 93bd 7d90 623d
000001c0: b898 ef3c cc51 4abd 493f fe3d fe6b b53d
000001d0: 570c 7e3c ca10 0b3e 76ff 1dbe 364e ee3d
000001e0: 62e9 e9bd 4742 86bd 9cb6 4d3c 7deb 94bc
000001f0: b6cb 6abd 0ee6 7cbd 3ab4 2c3d 6cd6 a1bd
00000200: 84a9 3b3d b1b1 173e c12f 9a3d fd25 2fba
00000210: 0b2a fabd 682c 033e 072e 113e 40e2 1b3e
00000220: 936a 3bbe 13fd d93d 7820 3c3e 167b 8c3d
00000230: 0f49 b7bd 2367 6bbc 48d8 013e 1bff 3a3e
00000240: c769 2f3e 95c6 4ebd 9ec8 c0bd 4215 a53d
00000250: 8cf0 043d 020f 28bd 34fc 793d d792 2ebd
00000260: 81bb bebd 4c8f 06be eaeb 99bc 549b e2bd
00000270: 815e 703d 9271 fabd f8e5 743d be22 013e
00000280: 04c0 ddbd a348 f13d 582d 033e 1a3a ab3d
00000290: 4ed9 633d ed86 2cbe c41a 81bd 5854 373d
000002a0: 70bd 0bbe 9b93 abbc e0ce 733d cc5e a3bb
000002b0: 4638 6abc 6013 853c e652 c8bd 6f41 e0bd
000002c0: 8612 07be 60c4 193e 332e 1b3e cdf8 513d
000002d0: 7e08 9b3d e12d 19be 6d28 fe3c 5f5b c5bd
000002e0: 4e61 f3bc 511c ba3d a7b2 0f3e 854a c23c
000002f0: 88d0 e3bd c5fb 3d3c 6627 1ebe fd0e b63d
00000300: 4d1b 13bc 5e19 913d 370e 2d3e 3d11 a63d
00000310: 6636 b03d 3a96 023e 9eb9 193d 3426 b2bd
00000320: 53e1 b1bd ef8a 653d 01c5 063e d806 e1bd
00000330: ed26 22be 9c15 06be 722e 153e e5a8 a23d
00000340: ab9f 04bd 6d0a ebbd 9b67 043e 033a 123e
00000350: 3581 07be 73e8 88bd 204a 34be 64d0 e33d
00000360: e22a 903d 6fbe ef3d 8b3a e6bd 3128 123d
00000370: d591 1bbd e20b 713d aab0 ef3d d72c 2d3e
00000380: 7485 d3bd 4af8 e73d 369a fcbd 0a8c b03d
00000390: e945 3e3e 97b6 b3bd a907 993d 3a08 42bd
000003a0: d4c5 d83c b059 22be 65b5 c7bd 4f2e cc3d
000003b0: 0d1e e43d a078 923d 20a5 933d 7754 a0bd
000003c0: e35c f8bd 5547 aebd bbb1 3b3e 276f cb3d
000003d0: 67cb 363e 76de 92bd e1bc c93d 5581 853d
000003e0: 0da6 4e3e ef1a fabd d15c 81bd fd1d 303e
000003f0: 41cc 863d a2d6 e9bc 59fe 04be a8d3 24be
-0.0057477113 0.10784347 0.09594423 0.06912049 0.031405542 -0.03331449 0.13398355 0.13175192
-0.16294464 -0.1497164 0.026809314 0.16079146 -0.04205584 -0.020885002 -0.052645367 0.028476221
0.10448798 0.052602533 -0.104269356 -0.051571373 -0.109107286 0.04642513 -0.15367474 0.017121894
-0.1494121 -0.0522858 0.034627087 -0.13318355 0.12450755 -0.14191398 -0.14458518 -0.10743187
0.08999839 0.109184586 0.14948156 -0.07744764 -0.09612152 0.09542179 -0.12986468 -0.116307646
0.0848579 -0.008774853 -0.1283238 0.010941443 0.120271794 0.01793354 0.16108839 0.082050115
0.019878656 -0.017920993 0.054149244 -0.16861202 -0.011251545 0.07803709 0.14139771 -0.09097533
-0.12707205 -0.12343471 -0.07716994 -0.052164007 0.010321609 0.0024697788 0.14230141 0.0072555076
-0.13248152 -0.025609063 -0.06158928 0.049784232 -0.053578366 0.07106988 0.053141765 0.12875922
-0.07708383 0.15167381 0.026608013 -0.15985018 -0.10581274 0.047934752 -0.08216345 -0.12088554
0.115063064 -0.082933486 0.047176532 0.026205162 -0.14600103 0.14090078 -0.12351654 -0.041322812
-0.10861907 0.16179791 0.067666054 -0.15322018 -0.10483936 0.057755288 0.03520698 0.021309923
-0.032244764 -0.12094821 -0.13364172 -0.16418734 -0.03938732 -0.12365168 -0.106682986 -0.048946183
0.05772968 -0.10438273 0.069899105 -0.07715873 -0.018415943 0.06950782 -0.07209399 0.055313576
0.029247627 -0.049394414 0.124144144 0.088584885 0.015505872 0.13580623 -0.15429482 0.11636011
-0.11421467 -0.0655561 0.0125557445 -0.018178696 -0.05732318 -0.061742835 0.042164065 -0.07902226
0.04581596 0.14813878 0.075286396 -0.0006681381 -0.1221505 0.12809908 0.14177714 0.15223026
-0.18302374 0.10643973 0.18371761 0.06859414 -0.08949482 -0.014367851 0.12680161 0.18261378
0.17130195 -0.05048235 -0.09413265 0.08060695 0.032455966 -0.041029938 0.061031535 -0.042620506
-0.09313107 -0.13140601 -0.01878925 -0.11064783 0.058683876 -0.12228693 0.059789628 0.1261091
-0.1082764 0.117814325 0.12810266 0.08360691 0.05562716 -0.16848345 -0.06303933 0.04475817
-0.13646483 -0.020944407 0.059523463 -0.004985666 -0.014295643 0.01624459 -0.097814366 -0.109499805
-0.1319066 0.15016317 0.15154342 0.051262666 0.07569979 -0.14958908 0.031025136 -0.09636568
-0.029709484 0.09087432 0.14032994 0.023717174 -0.111237586 0.011595671 -0.15444717 0.088895775
-0.008978677 0.070849165 0.16899954 0.08108757 0.08604126 0.1275262 0.037530534 -0.08698693
-0.08685555 0.0560407 0.13161089 -0.109876335 -0.15835162 -0.13094181 0.14568499 0.0794237
-0.032378834 -0.11476598 0.12930147 0.14279942 -0.13232882 -0.06684961 -0.17606401 0.11123732
0.07039429 0.11706244 -0.11241635 0.03568286 -0.037980873 0.058849223 0.11703618 0.16911636
-0.103281885 0.11326654 -0.12334101 0.0862046 0.18581356 -0.087750606 0.07472164 -0.047371127
0.02646152 -0.15854526 -0.09751395 0.0996977 0.11138544 0.07151914 0.072092295 -0.078286104
-0.12127092 -0.08509699 0.18329518 0.0993331 0.1785103 -0.07171337 0.09850479 0.06518809
0.20180531 -0.122121684 -0.063165314 0.1719894 0.06581927 -0.028544728 -0.12987651 -0.16096365

rnn.0.4.bias f4 [62]
00000000: 2017 84bd 5f0b 8c3d 28d9 68bd 40f7 1abe
00000010: fbc1 ed3d 766d a63d a92e 48bd d064 1a3e
00000020: 0df5 26be 2dd8 5f3d fee3 593c 5dc2 d83d
00000030: 2211 cf3d cff3 d53c bfb7 233e 6873 0fbe
00000040: 3238 d3bd e92a 07be 1851 06bd 3352 20be
00000050: 53a8 263e 2fce 28be 0490 5b3d 3cad 0cbe
00000060: 35bf cabd e518 0d3e 08db 713d ff4e b33d
00000070: be2f fb3c e65b 4dbd e459 87bd 8e47 b03b
00000080: 4e88 0dbe 18be 2e3d 12bc 80bd 6009 41bc
00000090: 8fd3 44bd 4872 0cbc 7a12 113e 82e1 18be
000000a0: 7374 b83b e4dd 073c 103c 09be b88c 94bd
000000b0: c154 cd3d 3728 2a3e af81 c9bd b914 95bd
000000c0: 227f 263e e63e f8bc f38c 813d adef aabd
000000d0: 1081 1abd 96c3 8c3d b115 aebd 4fb5 cf3d
000000e0: 75e6 bbbc 5b68 1fbe 5e29 763d 514b 17be
000000f0: b1a4 8cbd 5dca a13d
-0.06449723 0.06838106 -0.05684772 -0.15133381 0.116092645 0.08126347 -0.048872624 0.1507752
-0.16304417 0.05464952 0.0132989865 0.10583947 0.1011069 0.026117234 0.15988062 -0.14008868
-0.10313453 -0.13199963 -0.03279218 -0.15656357 0.16275148 -0.16484903 0.05360414 -0.13737959
-0.09899751 0.13779028 0.059046775 0.08755302 0.030662414 -0.05013647 -0.06608942 0.0053796237
-0.13821527 0.042661756 -0.062858716 -0.01178202 -0.04805332 -0.008572169 0.14167204 -0.14929774
0.005629116 0.008292649 -0.13401818 -0.072534025 0.10025931 0.16616903 -0.09839188 -0.07279343
0.16259435 -0.03030343 0.06325712 -0.08346496 -0.03772074 0.068732426 -0.08500231 0.10142004
-0.022937039 -0.15567152 0.060098045 -0.14774825 -0.0686735 0.07899926

rnn.0.5.weight f4 [62]
00000000: 7598 7e3f 9718 7e3f a8b1 793f a2ff 7b3f
00000010: 901c 813f 4d2d 7b3f 8e03 823f 2a86 803f
00000020: 3cf9 7c3f c9b1 7e3f 8264 7e3f 6dae 773f
00000030: 58bc 7f3f a52d 813f 3f78 7e3f 6f11 7f3f
00000040: 9bae 7e3f fa45 813f 9b19 753f dcf1 813f
00000050: f56f 773f dc4e 7d3f 9f3b 7e3f a11b 7f3f
00000060: d94d 7c3f 2911 793f 0aa0 733f 08fc 843f
00000070: 103d 7c3f 7344 7b3f aaab 803f 1f32 813f
00000080: d81e 773f 41a1 803f 74a3 683f b892 793f
00000090: 7a35 803f 98dd 7a3f bf1d 7c3f 1bc3 7c3f
000000a0: 56bd 803f 9aaa 7f3f 7a12 7c3f ba27 803f
000000b0: 811a 803f e5f8 7e3f 850f 7e3f 4ac3 7f3f
000000c0: 5134 7f3f 3106 7d3f 1585 7c3f 7972 813f
000000d0: d250 7e3f 891b 7a3f 8fcd 7d3f 15f6 813f
000000e0: fc83 793f 5800 7b3f 489c 7b3f 9040 803f
000000f0: 610f 7f3f e1db 753f
0.9945138 0.9925627 0.97536707 0.9843694 1.0086842 0.98116 1.0157335 1.0040944
0.988178 0.9949003 0.9937211 0.9675053 0.99896765 1.0092055 0.9940223 0.99635977
0.99485177 1.009948 0.95742196 1.0151935 0.9665521 0.98948455 0.99309725 0.99651533
0.98556286 0.9729181 0.95166075 1.0389414 0.98530674 0.9815132 1.0052388 1.0093421
0.9653144 1.0049211 0.9087441 0.974895 1.001632 0.97994375 0.9848289 0.9873521
1.0057781 0.9986969 0.98465693 1.0012124 1.0008088 0.9959853 0.9924243 0.9990736
0.99689204 0.9883757 0.9864057 1.0113059 0.9934207 0.97698265 0.9914178 1.0153223
0.9746702 0.980474 0.9828534 1.0019703 0.9963284 0.96038634

rnn.0.5.bias f4 [62]
00000000: 39ef 92bb 6585 92ba be87 e9bc a82d 8abc
00000010: 2a0d 0ebc 95f0 b2bc 310b 823c 765d c63b
00000020: 5fc5 3abc 47bb 16bb d930 983b 58ef f8bc
00000030: 1e1f 6e3b 87c4 1e3c e712 213c 3107 53bc
00000040: 8111 0cbb 31cc a73c 6129 16bd 7e5b ab3c
00000050: bd48 d6bc ce1e 26bc 5b57 c6bb 46e1 613a
00000060: ae6f 06bc f608 d5bc d480 46bd 79f9 293d
00000070: a33a 0dbc 3601 95bc aaaa 0f3c e7f3 de3c
00000080: fdb0 1abd d6d3 ae3b 597f 9abd bc3d c7ba
00000090: 372d 8b3b 47bb 9cbc 5470 3dbc 0e7a 38bc
000000a0: 5fff c43b 9fe4 763a 2475 1cbc ba5d ed3b
000000b0: 1c9c 833a 0298 073b 4f8a 35bb 1865 783b
000000c0: c079 a23b 5abe 2cbc ab51 16bc 7030 2abc
000000d0: 8337 803c 5873 bcbc 207f f8bb 11a1 3b3d
000000e0: c0bb d4bc e8e1 56bc 3aa2 6abc 2236 72bc
000000f0: 4ef5 4dbc d48c b1bc
-0.004484084 -0.0011178671 -0.02850711 -0.016867474 -0.008670131 -0.021843234 0.015874477 0.006053622
-0.011399596 -0.002299981 0.004644495 -0.030387565 0.0036334465 0.00969041 0.009831167 -0.0128801325
-0.0021372738 0.020483108 -0.036660556 0.02091765 -0.026157731 -0.01013918 -0.006052894 0.0008616637
-0.008205337 -0.02600525 -0.048462704 0.04149768 -0.008619937 -0.018189054 0.008768717 0.027215911
-0.037766445 0.0053353114 -0.07543821 -0.0015200893 0.0042473334 -0.01913227 -0.011562426 -0.011259569
0.006011888 0.00094182225 -0.009549413 0.007243839 0.0010041031 0.002068997 -0.0027700847 0.0037902053
0.0049583614 -0.01054343 -0.009174745 -0.010387525 0.01565147 -0.023004219 -0.007583514 0.0458079
-0.025968432 -0.013115384 -0.014320904 -0.014783414 -0.012570692 -0.021673597

rnn.0.5.running_mean f4 [62]
00000000: 4f85 dabd f1d1 9b3c 4a9a 95be c196 7cbc
00000010: 02f7 2d3e 9758 873e 7a96 de3d 74c1 8f3e
00000020: cc42 9fbd 2514 99bd bde1 81bd a05c d73d
00000030: 1df5 df3c 918a aa3b 65d9 2abc 2ebc edbd
00000040: 473e 32be c10b ccbd 0885 f8bc 5aa0 f13d
00000050: 0165 75bd f234 65bd 2147 473d d950 02be
00000060: 7e28 b0be 1862 3b3e 9a29 083c 6ca3 cbbd
00000070: 16e1 513e e674 313e 50b4 ddbe 2865 3dbe
00000080: 6c20 e0bd 9315 003e 897f cdbd 5dd9 d5bc
00000090: a5a8 75be 01b4 57ba f8e4 22be c403 c4bd
000000a0: e840 babc d537 d23d a340 e0be d48c 23be
000000b0: 0fbf 66ba f323 0b3d 1ac6 06be 3082 48be
000000c0: ecf7 4a3e 796b 633e 9d7f aabd 23d4 34bc
000000d0: b391 b0be a495 c4bd 4e7c e6bd 279b 8abd
000000e0: 9c4b f2bd 51ce 2d3d 065a 4d3e 2495 debc
000000f0: 4be4 b5bd 6155 59be
-0.10669958 0.019021006 -0.29219276 -0.015416802 0.16988757 0.26434776 0.10868545 0.2807728
-0.07776412 -0.074745454 -0.06341884 0.10515714 0.027338559 0.0052045067 -0.010427807 -0.11608158
-0.1740657 -0.099631794 -0.030336872 0.11798163 -0.059910778 -0.055958696 0.04865182 -0.12726153
-0.34405893 0.18299139 0.0083107 -0.099432796 0.2049602 0.1732975 -0.4330163 -0.1849562
-0.10943684 0.1250823 -0.10034091 -0.026104623 -0.23990114 -0.0008228422 -0.15907657 -0.09571031
-0.022736028 0.10264555 -0.43799314 -0.1597169 -0.00088022737 0.03396983 -0.13161507 -0.19580913
0.19821137 0.22208966 -0.083251216 -0.011036905 -0.3448616 -0.09598854 -0.11254178 -0.06767874
-0.118308276 0.042433087 0.20053872 -0.027170725 -0.08881434 -0.21223976

rnn.0.5.running_var f4 [62]
00000000: 4ac9 9d3e 204a 863e ee92 843e 4f60 8b3e
00000010: 3d57 c03e 6d76 7f3e 4093 b43e e67f 8e3e
00000020: 32bc 913e e129 8a3e 8713 c03e 23e2 a83e
00000030: 21aa b73e d113 9f3e 3357 b73e 5ccc a43e
00000040: 9f0b 923e a18d cf3e e2a2 a13e e003 9f3e
00000050: b57c 963e 4d8d 873e 3624 8c3e f4a2 883e
00000060: 4efd 803e 5499 c83e 4ec2 d93e 83ef b63e
00000070: f23d a03e bb13 a53e 6556 9b3e 4c83 ac3e
00000080: 0c03 a73e 3b30 9d3e 0f3f b63e 8bf8 8a3e
00000090: 1b88 a53e e902 c73e 335c 9e3e a312 8c3e
000000a0: 7fa8 8b3e 5c67 c33e 9027 7a3e ed7e 8c3e
000000b0: 5f2a 993e da84 a03e 05ed a33e 5422 993e
000000c0: 5f49 8a3e e896 0f3f b6ca b13e c79e 8d3e
000000d0: 2979 a83e 3bea 823e ab2f be3e 38c6 f73e
000000e0: 5673 873e 998d 853e 78a6 823e 6a34 a03e
000000f0: ccc2 b73e 4606 7e3e
0.30817634 0.26228428 0.25893348 0.27221915 0.37566558 0.2494752 0.35268593 0.27831954
0.28463894 0.26985076 0.37514898 0.3298503 0.35871986 0.31069806 0.35808715 0.32187164
0.2852449 0.40537742 0.31569582 0.31057644 0.2939202 0.2647499 0.27371377 0.26686823
0.25193256 0.3917948 0.42531055 0.35729608 0.3129726 0.32241616 0.3033935 0.33693922
0.32619512 0.3070086 0.35594985 0.27142748 0.32330403 0.38869408 0.30929717 0.2735797
0.2727699 0.38164794 0.24429154 0.27440587 0.2991514 0.31351358 0.3201677 0.29909003
0.27009103 0.5608964 0.3472497 0.276602 0.32904938 0.2556933 0.37145743 0.48393416
0.26455182 0.26084593 0.2551763 0.3128999 0.35890806 0.2480708

rnn.0.7.weight f4 [5, 62]
00000000: baf3 92b8 86ed 693d d8ab b0bd 2c0e 4abc
00000010: 135a d53d 2d6d b0bd 2a75 f23d 192f 14bb
00000020: e567 8a3c d0d8 bb3d 2eee e93d 51a2 683d
00000030: 992b 7aba fc9e d23d 48ec 903d abad dd3c
00000040: dbff 803d 4513 113e a900 1ebd d890 adbc
00000050: 1e16 f5bc ee68 66bd 76b3 bcbd ec84 1cbd
00000060: 7d41 c7bd 18df aebd 2ab7 42bd 9085 b43d
00000070: 31bb 82bc 6d7a c03b 7d40 3a3d c6e5 863d
00000080: 3a96 a73d 31a7 033e 3377 8cbc 7752 d5bd
00000090: 0ce0 8f3d b86b a6bd a4c9 1fbb 571d 8ebd
000000a0: d05e ec3d 1fa9 843d f6b9 243d 19ea 24bc
000000b0: ddad 023e 3286 f33d ee89 a4bd 987f f33d
000000c0: d17e ed3d 6a9b 95bc 6aea e23d 28fc 38bd
000000d0: 213a abbc c1a5 e4bd 5c7a edbd 6610 063e
000000e0: 9b95 d33d 160f 55bd 2d3a 573c e5d4 9a3d
000000f0: eeb1 423d c2a4 6a3d 4e52 77bd 8acc 163d
00000100: 6162 a93d 9b08 d0bc c4b4 5b3d cfeb afbd
00000110: b17b 1e3d 7bb2 cf3d 582a 8a3c bc99 053e
00000120: 0e25 913d 9c92 3b3d 9bec d33d 130f 9f3d
00000130: b8c3 e93d b243 8c3d c6c1 4dbd de76 003e
00000140: 5c95 46bb 4ad5 583d 81eb eb3d 8c88 eebd
00000150: 1cab a6bd ab58 1e3c ee80 dd3c c1a8 cfbc
00000160: 9c8b 9a3d b304 9ebd 3912 ff3c 9395 adbd
00000170: 2e29 18bd 6440 4b3c c3d6 1b3d ab94 c5bc
00000180: 2ec4 8a3d 6d73 8d3d b982 1dbd f3f4 e23c
00000190: 126f 38bd ba34 043d c23b af3d 4c0b 56bd
000001a0: 2640 1a3d 5f81 7dbc 34db 3d3d 1002 e8bd
000001b0: a53e bdbd e03b 4cbd 8767 e73d 7fe2 6bbd
000001c0: ba8b 34bd 5871 063e 29fa f7bc b88b 4bbd
000001d0: 29eb e2bd 9e91 74bd 1c8f 75bc 052b 40bd
000001e0: f9d2 93bd 417d 1e3d 9b7a e5bc 509a 903c
000001f0: 8305 afbd 57b4 a2bd 6b5c ecbd 4847 873c
00000200: f7b8 08be afed e3bd 646b 13bd 5967 b43c
00000210: c447 be3d 3a11 983d 01cc de3d d803 7c3d
00000220: 97ed 123c 033b fc3c ea0b 883d fd3a f4bd
00000230: 49a8 523d 5268 4f3d 9440 07bd f841 25be
00000240: 5abc 183c c2ed 12bd ef41 4ebd 1165 923d
00000250: 4f60 debc ab68 acbd cc66 dbbc 026c d6bd
00000260: be72 2cbd 5c32 72bd c761 cdbd 879a 22be
00000270: 6a45 a23d 4591 28bd b267 0f3d 74c6 78bd
00000280: a3c7 d73d f18f 8a3c cad3 703d ef55 53b9
00000290: c28a 983d b3ae f63d 41e2 35bd 3488 43bd
000002a0: 5ba0 80bd 99b5 29bc 6569 c6bc 651c 02be
000002b0: 9a0d f1bb ae82 b83d 353c 943d a103 86bd
000002c0: 53a8 a9bd 1960 ce3d b5dd b43d 2d54 0dbe
000002d0: 1f53 273d 62ad 0e3d 3159 193c 9d7f dd3d
000002e0: 7551 8dbd 13d3 343d 4f36 24bd 2e9f 773d
000002f0: d624 7abd d2c9 abbb c74e 833d 2889 59bd
00000300: 122a 8abd 7609 25bd 9400 8f3d cb78 dabd
00000310: 657a 9abd ebe8 683c f88b 0abd a65e d13c
00000320: 797a c4bd 48a8 553d 4226 c53d f4d0 8ebd
00000330: a9c9 18bd d078 e0bd a3ab 6d3d a86d 9e3c
00000340: f4f1 5fbd a480 83bd f9a6 48bd 56d9 813d
00000350: 4d41 7c3d e9c0 223c 1b39 e93d fdb6 ce3d
00000360: acbe c4bd f275 b93d f455 913d a747 7d3b
00000370: 6df8 86bd 18c3 f5bc e5b9 4bbd 6a3e 4ebd
00000380: cfec 033d 73b3 a2bb 96c8 85bc 82c0 b23c
00000390: 353c 07bd d53b 663d a99d 6b3d e273 a63d
000003a0: f1fe e3bd b675 283d 784f f43d 9742 a1bc
000003b0: 03fa babd 6f3c 753d fbe5 ab3c 4079 a73d
000003c0: ee19 993c 0203 983d a5b5 b03d 5103 21bb
000003d0: c4b8 aa3d d8ff b1bd 7a22 d8bd efe5 ef3c
000003e0: ec1a 443d 130a e73d 85de b2bd d106 c13d
000003f0: d22d 4fbc 98f2 90bd e3eb 093b 8605 663d
-7.00722e-05 0.057111286 -0.086265266 -0.01233248 0.10417571 -0.08614574 0.118387535 -0.002261108
0.016895244 0.09172213 0.11422382 0.056795422 -0.000954324 0.1028423 0.07076317 0.02706035
0.062988006 0.14167507 -0.03857485 -0.021187231 -0.029917773 -0.056252412 -0.09213917 -0.0382127
-0.09729288 -0.085386455 -0.04753796 0.088145375 -0.0159584 0.0058739693 0.045471657 0.065867946
0.0818295 0.12856747 -0.017146682 -0.104161195 0.070251554 -0.081260145 -0.0024381662 -0.0693919
0.115415215 0.0647757 0.04021641 -0.010065579 0.12761636 0.1189083 -0.080341205 0.11889571
0.11596454 -0.018262584 0.11079867 -0.04516235 -0.020901741 -0.111644275 -0.11595604 0.13092193
0.10331269 -0.05201634 0.013136429 0.07560138 0.04753297 0.05728603 -0.060381226 0.036816157
0.082707174 -0.025394728 0.05363919 -0.08589899 0.03869218 0.10141464 0.016865894 0.13046926
0.07087146 0.045794114 0.10347863 0.07766547 0.114142835 0.06848849 -0.050233625 0.12545344
-0.0030301427 0.052937783 0.11519528 -0.11647138 -0.08138105 0.009664695 0.027039018 -0.025349023
0.075461596 -0.0771574 0.031136619 -0.08475795 -0.037148647 0.012405489 0.03804661 -0.024118742
0.067756996 0.06906781 -0.038454745 0.027704692 -0.0450278 0.032276846 0.0855632 -0.052256867
0.037658833 -0.015472739 0.046351627 -0.113285184 -0.09240464 -0.04986179 0.11299043 -0.05758905
-0.044078566 0.13129175 -0.030270653 -0.049693793 -0.110800095 -0.059709184 -0.014987733 -0.046916027
-0.07217974 0.03869367 -0.028012564 0.017651707 -0.08545973 -0.07944553 -0.11541065 0.016513482
-0.13351808 -0.11129319 -0.035991088 0.022021936 0.09291032 0.07425161 0.108787544 0.061527103
0.008967779 0.030789858 0.066428974 -0.119253136 0.05143002 0.050636597 -0.03302057 -0.16138446
0.00932225 -0.035871275 -0.050355848 0.07148183 -0.027145533 -0.08418401 -0.026782416 -0.104698196
-0.042101614 -0.059130058 -0.10028415 -0.1587926 0.07923396 -0.041154165 0.035011 -0.060736135
0.105361246 0.01691434 0.058795728 -0.00020154541 0.07448341 0.1204504 -0.044405226 -0.047737315
-0.062805854 -0.010358238 -0.024220178 -0.12706144 -0.0073563578 0.090093 0.07238046 -0.06543661
-0.082840584 0.10076923 0.0883135 -0.13801642 0.040850755 0.03483332 0.009359644 0.10815356
-0.06900302 0.04414661 -0.040090855 0.06045454 -0.061070286 -0.0052425647 0.0641151 -0.053109318
-0.067463055 -0.040292226 0.06982532 -0.10667571 -0.07542876 0.014215688 -0.03382489 0.025557827
-0.09593672 0.05216244 0.09626438 -0.069734484 -0.037301693 -0.10960543 0.058025014 0.019339398
-0.054674104 -0.064210206 -0.048987363 0.06340282 0.061585713 0.009933689 0.11387845 0.10093496
-0.0960668 0.090556994 0.070964724 0.0038647444 -0.06590352 -0.030000255 -0.04973783 -0.05035249
0.03220826 -0.0049652397 -0.016330998 0.02182031 -0.033016402 0.056209404 0.057523403 0.08127572
-0.111326106 0.041127883 0.1192922 -0.019685073 -0.09129717 0.059872087 0.020983687 0.081774235
0.018689122 0.07422449 0.08628396 -0.0024568627 0.083360225 -0.086913764 -0.10553451 0.029284446
0.047877237 0.112812184 -0.087338485 0.09425128 -0.012645202 -0.07077521 0.002104514 0.05615761

rnn.0.7.bias f4 [5]
00000000: 36a5 7fbd 1580 ecbd 43b1 d83d 23b4 d0bd
00000010: c79e eb3d
-0.062413417 -0.11547867 0.10580685 -0.10190608 0.11504894

rnn.1.0.weight f4 [7]
00000000: 8238 7f3f c473 7d3f b7cd 803f 79f8 803f
00000010: e153 813f 80d7 7e3f 85cf 7f3f
0.996956 0.9900477 1.0062779 1.0075828 1.0103723 0.99547577 0.99926025

rnn.1.0.bias f4 [7]
00000000: df16 fe3b 7222 9338 61d9 513c 8fb3 43bc
00000010: ed49 e039 cf22 103a 6296 f43a
0.0077541913 7.015922e-05 0.012808175 -0.011944666 0.00042779688 0.0005498351 0.001866054

rnn.1.0.running_mean f4 [7]
00000000: 0e45 8cb6 a958 6c38 3093 d5b7 62be 3aba
00000010: 915f 5cb9 b47f d1bc f0c7 2e3d
-4.180364e-06 5.6349356e-05 -2.5460118e-05 -0.0007123706 -0.00021016436 -0.025573589 0.042671144

rnn.1.0.running_var f4 [7]
00000000: cc2b 773e 7627 773e d31b 773e 4a7e 773e
00000010: d4fc 763e d895 0740 757d 1c3f
0.24137801 0.24136147 0.24131708 0.24169269 0.24119884 2.1185207 0.6112893

rnn.1.1.weight f4 [34, 7]
00000000: 9949 5c3e fde2 813e 3f9d 2d3e e0d1 463d
00000010: b71e 943e af64 b33e fc31 a3be 06e5 45be
00000020: f8fa 503e 00c2 90be 962c 8d3e 102b d83d
00000030: 00d7 fcbd 0316 303e 737d d0bd bb2b 073e
00000040: a4fc b63d 3f32 7fbe 8b5d 5e3e 192a 10be
00000050: 87c9 0cbe e967 b43e 2f84 e43d 7ec0 19be
00000060: 5321 a83c 9c03 b5be 967a 3ebe 461e 3e3c
00000070: 284c 9ebe a059 febd 2769 523e b09e 763e
00000080: 6354 5abd fd7e afbe a489 993e 56a8 63be
00000090: 542d 43be 6ff6 4d3e 0184 90be b595 cf3d
000000a0: ba7f 76be 88b4 9e3e 99bd 593e 34f6 be3e
000000b0: 06df cabb bf0e 61be f386 883e c79a b93d
000000c0: 86f3 b83e 955c f03d 3f9d 8b3e 8f7c 863d
000000d0: c359 9fbe a1f9 2dbe 80fd 43bd d9da 6cbd
000000e0: 60af 6a3e 9bde 763e 497a b33e 23ea a63e
000000f0: 7ac2 963e df00 42be 9e59 b4bc db9d 8b3e
00000100: dff0 673d d922 3a3e 2354 b23e 289b fdbd
00000110: 400b 99be b07f 2c3e 1578 6dbe 3b07 c3bc
00000120: b8a7 c3be 8594 883c 5ef1 183e ebb2 c73b
00000130: 5026 883d f9e7 f0bd deaa a23e f681 a63e
00000140: 3e6b 6d3e f8d4 0cbe 875f 5c3e 8cd1 21bd
00000150: 06aa c53e 6163 aa3e 6b76 55be 5803 8b3e
00000160: 4c7c 4f3e 14bf 1e3e 484c 1c3e 16f8 553e
00000170: 3ae5 acbe 91a5 b4bd 5377 cfbd 4a6a cebc
00000180: 2438 6d3d 07a6 823e ba7f 84be 3a97 08be
00000190: 2854 b93d 1bba 15be 39b0 50bd 9d4a ba3e
000001a0: a097 b5bd 96f9 babc c531 833e 24f5 793e
000001b0: 7d30 b9be 57aa 81be d685 52be 0f99 473e
000001c0: a245 793e 5513 b9be 76df 06be 8261 84be
000001d0: 4c8a 7ebe 2c1f 3ebd 9281 b7be 2097 0dbe
000001e0: 5d6f f03c 9a71 a6bc 15b7 08be 2d06 48be
000001f0: 00bd 9e3d 779e 603e 2f6b 943e 1068 b33e
00000200: f403 083e 6ac9 b7bc cda1 a73e 7565 91be
00000210: e36c 86be d6b8 2d3e 842f c5be 5590 6b3e
00000220: 0635 77bd 1847 8d3e 9859 9e3e a25b c7bd
00000230: e6f3 073e 8d14 f63a 1e4c 9d3e a0fb 5a3d
00000240: e2c1 9c3e a076 8abe 4413 923d e266 61be
00000250: f864 413e 61fc 153e f563 b1be b407 643e
00000260: bc7e 273e d389 873e 1f24 a23e 772d 33bc
00000270: f211 c0be ee24 a7be e131 863e e2fa f13d
00000280: dd54 2bbd 311b a83d fc3d 94be c5ea 6e3e
00000290: 9e13 673c 9ea4 0abd a09d 56be bf77 32bb
000002a0: 24fb 75bd b8be c2bd 17e8 943e c5f3 a2be
000002b0: e304 2fbe 1869 b6be f5fd af3e c082 683e
000002c0: 580e 523e b246 07be 421a 693e 6829 c13e
000002d0: 4e98 9abc 8226 203e 1961 ab3e bd0d 6dbe
000002e0: 8fd6 87be a95a 12be ce6f 53bd 060c b9be
000002f0: 72f0 35bb dfe5 75bd f299 53bb 5aec 01bd
00000300: cb63 c13e ac56 f83c 4828 ab3d 54be 403c
00000310: 6a36 a9be 1328 14bd 15ec 393e 53fb 5ebe
00000320: 3258 bb3d 99d4 1dbc 7ed7 45be 1da2 35be
00000330: 7a49 ba3e 9bc9 abbc 3aa1 bfbe a782 e4bd
00000340: 6fe3 603e eecd ee3c ef27 d2bd 2566 983e
00000350: 45c5 093e 4576 bb3e ba2b 603e 66c5 9c3c
00000360: 59b7 ae3e 4f03 06be 774e 63be 7c09 7e3e
00000370: f8b3 ac3e 306b 8dbe 88e4 123d 1673 a43e
00000380: ce3e 7f3e 0bab 663d d29b aa3e 7163 e23d
00000390: 76ef c03e d758 873e 9220 8f3e 5168 6a3e
000003a0: 1026 683e 5021 56be f10e 5c3e 9f89 093d
000003b0: 7148 96be a35c 973e
0.2151245 0.2536849 0.16954516 0.048539996 0.28929684 0.35037753 -0.31874073 -0.19325647
0.20408237 -0.2827301 0.2757308 0.105550885 -0.123456955 0.17195897 -0.101801775 0.13200276
0.08934906 -0.24921511 0.21715371 -0.14078559 -0.13748752 0.35235527 0.111580245 -0.15014836
0.020523703 -0.35354316 -0.1860145 0.011603897 -0.30917478 -0.12419438 0.20547925 0.24083972
-0.053303134 -0.34276572 0.29987824 -0.22232184 -0.1906026 0.20113538 -0.2822571 0.10135976
-0.24072161 0.3099711 0.21263732 0.37297213 -0.0061911372 -0.21978281 0.26665458 0.090627246
0.36123294 0.117364086 0.27268407 0.065667264 -0.3112317 -0.16989757 -0.04784918 -0.057825897
0.22918463 0.24108355 0.35054234 0.32600507 0.2944525 -0.18945645 -0.022015389 0.27268872
0.056626197 0.18177356 0.34829816 -0.12383109 -0.29891396 0.16845584 -0.23190339 -0.023807159
-0.38213897 0.016672382 0.14935824 0.0060943267 0.066479325 -0.11762995 0.31770986 0.32521027
0.23185441 -0.13753116 0.21520816 -0.03950648 0.3860628 0.33278945 -0.20845954 0.2715099
0.20262259 0.15502578 0.15263474 0.20895419 -0.33768636 -0.08820642 -0.10130181 -0.025197167
0.057914868 0.25517294 -0.25878698 -0.13338938 0.09049255 -0.14621775 -0.05094931 0.3638505
-0.08866811 -0.02282409 0.2562391 0.2440992 -0.36169806 -0.2532527 -0.20558867 0.19491981
0.24342969 -0.36147562 -0.13171181 -0.25855643 -0.24857444 -0.046416447 -0.35841042 -0.13827181
0.029349977 -0.020317841 -0.1335109 -0.19533606 0.07750893 0.2193545 0.28988025 0.3504033
0.13282758 -0.022434909 0.32740632 -0.28397718 -0.2625495 0.1696504 -0.38512814 0.23004277
-0.0603533 0.27593303 0.3092773 -0.097342744 0.13276634 0.0018774435 0.30722135 0.053462625
0.3061667 -0.2704363 0.07132581 -0.22011903 0.18886173 0.14647056 -0.34646574 0.22268564
0.16356939 0.2647234 0.31668183 -0.010936133 -0.3751369 -0.32645363 0.2620993 0.1181543
-0.04182898 0.08208311 -0.2895354 0.23331745 0.014103798 -0.033848397 -0.20958567 -0.0027232019
-0.06005396 -0.09509033 0.2908332 -0.31826606 -0.17091708 -0.35627055 0.3437344 0.22706127
0.20513284 -0.13210562 0.22763923 0.37726903 -0.018871453 0.1563969 0.33472517 -0.23149772
-0.26530883 -0.14292397 -0.051620297 -0.36141986 -0.0027761725 -0.060033675 -0.0032287803 -0.031719543
0.37771448 0.030314766 0.083572924 0.011764128 -0.33049327 -0.03617103 0.18156464 -0.2177556
0.09147681 -0.009633207 -0.19320485 -0.17737623 0.36384183 -0.020970156 -0.37427694 -0.111577325
0.21961759 0.02915093 -0.10261523 0.2976543 0.13454159 0.3661367 0.2189168 0.019137096
0.34124258 -0.130872 -0.221979 0.24808306 0.33731055 -0.2762084 0.035862476 0.32119054
0.24926302 0.056315463 0.33322006 0.11054123 0.37682694 0.26434967 0.27954537 0.22891356
0.2267077 -0.20911145 0.21490075 0.03357851 -0.29352143 0.29562864

rnn.1.1.bias f4 [34]
00000000: 7cce 813e a60f ecbc 5679 bc3b efbe 68bd
00000010: 30a2 733e 3690 483e 1c29 31bd 95e8 703d
00000020: 1a85 80be cda2 b6be 64da 1b3e a114 3dbe
00000030: 6c3a bebe f0ea 86be ffef 823e 7e55 233e
00000040: a997 4b3e aeda 063e 767f 803e 41a5 ae3e
00000050: fc46 9c3e 6889 1fbd 055d ce3d 4bf8 183d
00000060: 8ebd ffbd 0840 98bd 74eb 823c e12f 023d
00000070: 4bbe 49be 3675 6cbd c970 753e 2a23 b3be
00000080: 84e4 1d3e 529c 2a3e
0.25352848 -0.028816056 0.005751769 -0.056822713 0.23792338 0.19586262 -0.043252096 0.058815558
-0.25101548 -0.35671082 0.15220028 -0.184649 -0.37153947 -0.26351118 0.25573727 0.15950581
0.19882073 0.13169357 0.25097245 0.34110454 0.30522907 -0.0389494 0.10076336 0.037346166
-0.124873266 -0.07434088 0.015981413 0.031783942 -0.19701497 -0.05772897 0.23968805 -0.34987766
0.15419203 0.16661194

rnn.1.2.weight f4 [34]
00000000: ae18 803f 387c 7c3f 615e 7f3f 962e 813f
00000010: faaa 803f ecbc 7e3f 9248 803f 917f 7e3f
00000020: e376 7f3f c835 813f 812e 7f3f 8e62 7e3f
00000030: 8dad 803f 3815 7e3f 4c9d 7f3f 04b0 803f
00000040: 23f6 7d3f 2be9 7c3f 5152 803f 3804 813f
00000050: 8660 7d3f cfc7 7d3f 9595 833f bdb4 7d3f
00000060: 311a 803f d12b 823f 3bfc 813f 6109 7c3f
00000070: 274a 7d3f e3b9 813f 2e52 803f e103 813f
00000080: 9855 803f 7fae 813f
1.0007532 0.9862704 0.99753386 1.0092342 1.0052178 0.9950702 1.0022147 0.994134
0.9979078 1.0094538 0.99680334 0.9936913 1.0052963 0.9925113 0.9984939 1.0053716
0.992037 0.98793286 1.0025121 1.0079412 0.9897541 0.9913301 1.0280024 0.9910391
1.0007993 1.0169622 1.01551 0.9845181 0.9894127 1.0134853 1.0025079 1.0079309
1.0026121 1.0131377

rnn.1.2.bias f4 [34]
00000000: 4ce6 963b a1bb 56bc a9c5 26bc 33dc 173c
00000010: c7a3 443a eb14 10bc bd67 a03b 852f 4cbc
00000020: 3b28 44bc 3873 313c 616a 863c 3852 cbbb
00000030: 2fd5 58bc 1aa7 04bc 6004 14b8 caf3 0d3c
00000040: 0f3b 2d3c e44f 85bc 4afc 4a3b a089 ba3b
00000050: d8ce 28bc e398 5fbc 40e2 a53c dfee 07bc
00000060: 431c 83bb ff66 843c 9efc f63b 9e31 9ebc
00000070: 1e3b 433a 72fb aa3b 80f6 c73a b309 763b
00000080: 9640 1a3c 06aa 193c
0.0046050902 -0.013106258 -0.010178962 0.009268808 0.00075012114 -0.00879405 0.004895179 -0.012462501
-0.011972482 0.010830693 0.016408147 -0.0062048696 -0.013234421 -0.008096481 -3.5290024e-05 0.008664081
0.010573163 -0.016273446 0.003097313 0.0056926757 -0.010303222 -0.013647291 0.020249486 -0.008296697
-0.004001172 0.016162394 0.0075374385 -0.019310769 0.0007447469 0.005217963 0.0015255958 0.0037542402
0.009414813 0.009378916

rnn.1.2.running_mean f4 [34]
00000000: 1c2e 463e 42a8 d8bc 76a4 8f3b fb59 39bd
00000010: e5a3 383e e4fc 1b3e e693 fbbc a1e6 3f3d
00000020: 256c 3fbe 7e3c 8abe d451 e43d 7346 0fbe
00000030: fc3f 91be 3e4b 4bbe 6a5b 473e c5aa 033e
00000040: 4a48 1c3e ad8d cf3d 8897 453e c131 863e
00000050: e3cb 6f3e 29ed c9bc a0ce 9b3d ebd3 053d
00000060: 2e32 b6bd 6713 6dbd 5e12 6c3c 0529 a93c
00000070: c186 18be e886 2cbd b237 3a3e 860e 88be
00000080: 497c f53d b940 fd3d
0.19353527 -0.02644742 0.004383619 -0.045251828 0.18031271 0.15233189 -0.030710172 0.046850804
-0.18693598 -0.26999277 0.1114842 -0.13991718 -0.2836913 -0.19852921 0.19468465 0.12858112
0.15261951 0.101344444 0.19296086 0.26209834 0.2341762 -0.02464922 0.0760777 0.032672804
-0.0889629 -0.05787983 0.014408676 0.020649442 -0.14895155 -0.042120844 0.18185309 -0.2657358
0.11986596 0.123658605

rnn.1.2.running_var f4 [34]
00000000: 7872 f13e 1524 953e 84e9 873e b3e1 8b3e
00000010: 3636 e53e fd3f ca3e fb02 af3e 012f 803e
00000020: a036 9e3e e00f bd3e 6feb 803e dc12 973e
00000030: ba0d 953e 4bf2 943e 16c1 bb3e 210c a63e
00000040: 7d30 b33e a942 8e3e ad49 af3e 9675 ad3e
00000050: 90a9 a33e c71a 9b3e e903 8a3e d87a 8d3e
00000060: 2e68 f63e 4c52 8e3e 2d3f b23e 0a4c 823e
00000070: 67c3 8c3e 7a0e 933e 0245 b33e 1202 a73e
00000080: 9da7 af3e 3597 d43e
0.47157645 0.2912909 0.26545346 0.27320632 0.44767922 0.39501944 0.3418196 0.2503586
0.3090105 0.36926174 0.25179622 0.29506576 0.29112035 0.29091105 0.3667075 0.3243113
0.3499793 0.27785233 0.34235898 0.33878773 0.31965303 0.30293867 0.26956108 0.27632785
0.48126358 0.27797163 0.34813824 0.25448638 0.2749283 0.28721982 0.35013586 0.32618767
0.34307566 0.41521612

rnn.1.4.weight f4 [62, 34]
00000000: df09 efbd 25bf e5bd e917 22be e635 df3d
00000010: eca1 f8bd 1b06 ef3c c809 19be 303c bc3c
00000020: f54b 94bd 891d 173e 28b3 e6bd 530e 77bd
00000030: 2470 f6bd b8c3 2e3e 083b 1bbe 1bc0 113e
00000040: 1c16 d0bd 0046 163e 95fa 38bd ca0d f93d
00000050: 9944 ab3c ac5a 63bd 8eb0 943b 314b aabd
00000060: fcdf afbc 833f abbd 7da1 9e3d 1f70 afbc
00000070: 94e3 8ebd 591a 103e ede8 8c3d 6eac a4bd
00000080: f54b bb3b 8867 163e 7539 e1bd 1c87 8d3d
00000090: 5c73 fb3c 9397 19bd 95d1 2abe 76a1 b1bd
000000a0: 37da 49bd 2090 bd3d 5ebd 1dbe a852 33be
000000b0: 4eb8 9e3d fe28 003e 3361 bebd 32ce 833d
000000c0: 2198 b93d 3662 1d3e 12dc 963c 47a2 cb3d
000000d0: ff2b fcbd bf62 0f3c 1747 debd 0ca4 7d3d
000000e0: e7b0 1dbd d54d 933d c3b6 0b3d 4d03 133e
000000f0: 0374 41be 648e 03be ac58 80bd 45eb e63d
00000100: a4a4 8ebd 259e 6abb 4dd6 28bd 014b 1dbe
00000110: b552 993d 6b8d 1c3e 40a0 46bd b008 b03d
00000120: b22e a03c dbff 07be f6ad eabc 4057 163d
00000130: 6644 243e fa6d 24bd 5135 3f3d 3942 cebd
00000140: 68ad 0b3e 9309 78bd f838 823d 0320 2dbe
00000150: 5e3e 493d 1896 a93d 7d69 c93d b456 c73d
00000160: 6ba2 9f3d 25b4 f7bd 5908 763d 6d03 093d
00000170: 65c7 b2bd 8b1d b93d 20e9 2a3e 417a f13c
00000180: 1887 893d dfe2 10bd 431c 1f3e d2d1 d0bd
00000190: 0377 24be ca1b 61bd 4dc5 1abe 7d6b 183e
000001a0: 1697 81bd f6af 36bd 69dc 61bd 3f95 093e
000001b0: d1db 8cbd 43fa 073e 936a 30bd 3370 c43c
000001c0: d259 5d3d 936a 203e 7ca3 66bd 0f6f 4e3d
000001d0: 84c0 b53d d073 a43d d543 873b 54f7 c4bd
000001e0: 2b5d c93d aa47 81bc c9e9 a5bc f28a 403e
000001f0: 6dbe fc3c adac 0cbe 13c4 5abd 1e51 1cba
00000200: 8162 0f3e b8d7 36be 3659 6abc 8707 92bc
00000210: bb73 0c3e d660 0d3e b391 2bbe 829c acbd
00000220: c941 42bd 35d0 4bbd 57be abbd 20dc 2f3e
00000230: e80f 463e 9b9d 233d d9fe b5bd a7e5 43bd
00000240: 55eb 183e 2940 3b3d 3814 443d d68c 2dbd
00000250: 7d2d e93d ddc5 4c3d 5eb3 c33d 8c51 473e
00000260: 35bf b3bd 5a48 e6bd c6dd 6f3d 11b1 b83d
00000270: cd3f 13be b1d5 b8bd a61a 01be e43d 7dbd
00000280: 8508 9a3b a182 eb3d 624a 3c3e ab23 7cbc
00000290: ca41 f83d 44a0 2dbc 0952 453e 8b85 6fbc
000002a0: 555a b0bd 8a62 b33d c914 ffbc 38d0 c43c
000002b0: b634 aabd 79f0 16bd 5a65 19be 3d64 e23d
000002c0: 15e9 103e 6c88 f23b a16d d1bd b7ea 9cbb
000002d0: be65 053e 4b5f c23c d618 7ebc c633 733b
000002e0: 5134 b1bd a709 db3d d234 bf3c b7eb 7bbd
000002f0: 54fe d23d f73b d5bd f383 5bbd fdc4 02be
00000300: 1a77 28bd 1969 303e 8801 e73c f4f8 9b3d
00000310: 5c20 18bd f5ff bdbd fd80 d03d 488c 113e
00000320: 46b2 c9bb d6fc f5bc eea9 cd3d 5858 eabc
00000330: 7ded fc3b ca80 133e f477 953d a956 9abd
00000340: 4714 e1bc 174f a43d cb04 2f3e 6429 cdbb
00000350: 425d fa3c 5fda c93d fad4 703d b695 fc3d
00000360: e2a4 ed3d 5d7a ed3d bceb 91bc 21bb 893d
00000370: b9a8 83bd 7e87 e33d d435 d5bb 9be3 083e
00000380: 594b 7dbd 0b46 90bd 9900 04be e3ba b5bd
00000390: a6b1 233e f4ba 853d 7715 913d d6f9 aa3d
000003a0: c476 1d3e 9821 0bbd 50a0 8ebc 1680 2c3c
000003b0: c53d 0b3e 4da9 a73d 1e3e d7bd 1b38 cfbd
000003c0: f65b 7a3d d0a2 bcbc c2f8 24be 9d7b f6bd
000003d0: 272c c23d 3c48 1ebd 6ed7 0bbd f08b cc3d
000003e0: 7f59 b93d d0b2 2dbd 76a7 31be c047 a53d
000003f0: bd08 06be c313 ca3d 0411 31be 2940 5b3e
-0.11671805 -0.112180986 -0.15829434 0.10898952 -0.12140259 0.029177716 -0.14945138 0.022977918
-0.0724105 0.1475736 -0.1126464 -0.060316395 -0.12033108 0.17066848 -0.15159237 0.14233439
-0.10160467 0.1467514 -0.04516085 0.12160833 0.020906733 -0.055506393 0.0045376485 -0.08315123
-0.021469109 -0.08361723 0.07745645 -0.021415768 -0.06977001 0.14072551 0.068803646 -0.08040701
0.005715842 0.14687932 -0.10997287 0.06910536 0.030694656 -0.037498068 -0.16681512 -0.08673374
-0.04928037 0.09256005 -0.15404269 -0.17512 0.07749997 0.12515637 -0.09295883 0.06435813
0.090622194 0.15369496 0.018415485 0.09943061 -0.12313079 0.00875157 -0.10853403 0.061924025
-0.038498785 0.0719258 0.034109842 0.14356728 -0.18891911 -0.12847286 -0.06266913 0.11275343
-0.069649965 -0.0035799828 -0.04122 -0.15360643 0.07486478 0.15288322 -0.04849267 0.08595407
0.019553516 -0.13281195 -0.028647404 0.0367043 0.16041717 -0.040143944 0.046681706 -0.10071225
0.13640368 -0.060556006 0.06358522 -0.16906743 0.049131744 0.08280581 0.098345734 0.09733334
0.07794651 -0.12094907 0.060066555 0.033450533 -0.08729438 0.09038838 0.16690493 0.02947724
0.0671522 -0.03537261 0.15538125 -0.1019627 -0.16061024 -0.054958142 -0.15114327 0.14884754
-0.063276455 -0.044601403 -0.05514184 0.13435839 -0.06877864 0.13279061 -0.043070387 0.023979282
0.054040737 0.15665655 -0.056308255 0.050398882 0.0887461 0.08029902 0.0041279593 -0.096174866
0.098322235 -0.015781242 -0.020253079 0.18803003 0.03085252 -0.13737746 -0.053409647 -0.0005963015
0.1400242 -0.17855728 -0.014303496 -0.017825855 0.13716023 0.13806471 -0.16754799 -0.08428289
-0.04742602 -0.04975911 -0.08385914 0.17173815 0.19342005 0.039945226 -0.08886499 -0.047826435
0.14933522 0.045715485 0.047870845 -0.04237064 0.11385629 0.049993385 0.09555696 0.19464701
-0.08776704 -0.11244269 0.05856111 0.09018148 -0.14379807 -0.090251334 -0.12607822 -0.0618266
0.0047007226 0.11499525 0.1838775 -0.015389363 0.12121923 -0.010597292 0.19269575 -0.0146192415
-0.086109795 0.08759029 -0.03113784 0.024025068 -0.08310835 -0.036850426 -0.14980069 0.11054275
0.14151414 0.0074015167 -0.10225988 -0.0047887224 0.13027093 0.02372708 -0.015508851 0.0037109717
-0.08652557 0.106952004 0.023340616 -0.061504092 0.103024155 -0.10411828 -0.053592633 -0.12770458
-0.04112921 0.17227592 0.028198972 0.076158434 -0.037140235 -0.092773356 0.101808526 0.1421367
-0.006155285 -0.030027788 0.10042177 -0.028606579 0.0077187405 0.14404598 0.0729827 -0.0753606
-0.02747549 0.08022898 0.17091672 -0.0062610377 0.030562047 0.09856104 0.05879686 0.123332426
0.116037145 0.115956046 -0.017812602 0.06725145 -0.06428666 0.111098275 -0.006506661 0.13368075
-0.061839435 -0.0704461 -0.12890853 -0.088735364 0.15985736 0.06529799 0.07084172 0.08348434
0.15377337 -0.033967584 -0.017410427 0.010528585 0.13597782 0.081865884 -0.10509895 -0.10118123
0.061122857 -0.023026854 -0.16110519 -0.12035296 0.09481078 -0.038643107 -0.034140997 0.099876285
0.09050273 -0.042406857 -0.17349038 0.08070326 -0.13089271 0.098670505 -0.17291647 0.21411194

rnn.1.4.bias f4 [62]
00000000: f5d3 38be d19d 0e3d 6d2e eebd a077 abbc
00000010: f358 0ebe 8710 cd3d 25de 633b 9343 26be
00000020: 0b03 a9bd c957 163e 86b5 1dbe 813a 9c3d
00000030: 131a fbbd e3b1 3ebd d6f2 96bd f5dd ec3d
00000040: 5997 e4bb 35d2 ec3d 6407 803c 76b6 8ebd
00000050: d797 2f3e 16f7 b73d 87f6 f33d b8a4 a3bc
00000060: e370 c6bd 29e0 ddbd bc0c 44bd 94f8 a1bd
00000070: a18f 10be dc85 2ebe 1fb3 18be 5dd7 ffbb
00000080: c314 033e 0926 2bbd ac6c 00be bd27 e73c
00000090: da89 25bd 716e 03bd 3ca5 813d 2ca1 0a3e
000000a0: cca7 743d 5b45 1d3e 05bf 3f3d 9067 bf3c
000000b0: a871 163e bb37 e03d 8960 853c 578e 94bd
000000c0: 4cf5 543d 2955 90bd 4013 8bbd cb06 2b3e
000000d0: a983 bd3d 5e09 7c3d 2acb fdbb 3e73 223e
000000e0: 0436 b63d fcdf 15be dbc6 093e 95a7 813d
000000f0: c7d1 aebc 53b3 003d
-0.18049605 0.034818474 -0.11629949 -0.020931065 -0.13901119 0.10012918 0.003476986 -0.16236715
-0.082525335 0.14681925 -0.15401277 0.07628346 -0.12260833 -0.046556365 -0.07370536 0.115657724
-0.00697605 0.11563531 0.015628524 -0.069683954 0.17147766 0.08982675 0.11912256 -0.019976005
-0.096895 -0.10833771 -0.047863707 -0.07908741 -0.1411729 -0.17043251 -0.1491208 -0.0078076557
0.12800889 -0.04178432 -0.12541455 0.02821719 -0.04041467 -0.032087747 0.06330344 0.13538045
0.059730336 0.15358488 0.04681303 0.023364812 0.14691794 0.1094813 0.016281383 -0.07253712
0.051991746 -0.07047493 -0.06790781 0.1670181 0.09253628 0.06153237 -0.0077451663 0.15864274
0.088970214 -0.14636225 0.13454764 0.06330792 -0.021340264 0.031421017
