DeepHedging_clean/BS/trained_models/RNN_BN_simple_AAPL_MSFT.pt (torch, 665953 bytes, 541 tensors)

embedding.weight f4 [4, 12]
1.1455227 -1.0322697 -0.32319123 1.124098 1.344838 -0.5967704 1.0641888 0.31075603
1.6570567 -0.20635226 1.0483721 -0.103803895 0.46787277 0.6701065 0.91222787 -1.8708054
-0.78566206 0.003984646 0.41702768 0.04643232 0.48817053 -1.7715962 0.60486466 -0.9895474
-0.5715753 0.5654772 0.27872264 1.1807176 1.0679953 1.8261142 1.1005548 -0.19298856
1.6098973 0.8934624 -0.7990347 1.0298711 0.628982 -1.1889988 1.6427684 -0.71766484
1.3674232 0.7172252 1.6952773 1.4669827 1.541984 1.0672673 -0.7707947 -0.5829449
00000000: 7da0 923f 6a21 84bf 5279 a5be 71e2 8f3f
00000010: a723 ac3f f2c5 18bf 5737 883f 6a1b 9f3e
00000020: 6f1a d43f 024e 53be 0f31 863f 2397 d4bd
00000030: 058d ef3e 198c 2b3f c487 693f 8d76 efbf
00000040: 2621 49bf a291 823b a784 d53e d12f 3e3d
00000050: 7df1 f93e aac3 e2bf 69d8 1a3f fa52 7dbf
00000060: c252 12bf 1dc3 103f bcb4 8e3e c121 973f
00000070: 12b4 883f 1cbe e93f fbde 8c3f cb9e 45be
00000080: 1d11 ce3f f4b9 643f 8a8d 4cbf d1d2 833f
00000090: f704 213f 1d31 98bf 3c46 d23f e2b8 37bf
000000a0: b907 af3f 129c 373f d9fe d83f 17c6 bb3f
000000b0: bb5f c53f 379c 883f cd52 45bf e13b 15bf

rnn.0.0.weight f4 [14]
1.0 1.0 0.879761 1.0996739 1.0906848 0.8860029 1.1666154 0.9352263
1.1005707 0.9369883 1.0448364 1.0810184 0.9027151 0.9289034
00000000: 0000 803f 0000 803f 0438 613f 1dc2 8c3f
00000010: 8f9b 8b3f 16d1 623f a753 953f fe6a 6f3f
00000020: 80df 8c3f 77de 6f3f 33bd 853f d05e 8a3f
00000030: 5618 673f 9dcc 6d3f

rnn.0.0.bias f4 [14]
-0.07684119 0.056616575 -0.056844655 -0.082414865 0.04862928 -0.021400798 -0.0370187 0.03952317
-0.053450376 0.033868924 0.027771957 -0.064012356 0.08381669 0.03968154
00000000: ea5e 9dbd c8e6 673d f1d5 68bd 20c9 a8bd
00000010: 7f2f 473d ba50 afbc eca0 17bd 0ce3 213d
00000020: c8ee 5abd 24ba 0a3d 0482 e33c e918 83bd
00000030: 16a8 ab3d 1c89 223d

rnn.0.0.running_mean f4 [14]
0.0 0.0 0.41794866 -0.2472994 0.62937033 -0.07275159 0.74882925 0.4879059
1.0699668 0.40911248 1.3241953 -0.003475688 0.019800905 -0.16259478
00000000: 0000 0000 0000 0000 5efd d53e 0e3c 7dbe
00000010: 6a1e 213f c9fe 94bd 46b3 3f3f cdce f93e
00000020: acf4 883f 3177 d13e 3b7f a93f 5ec8 63bb
00000030: 8235 a23c 3f7f 26be

rnn.0.0.running_var f4 [14]
3.2488965e-22 3.2488965e-22 0.38834202 0.75167996 0.53480184 1.6623267 0.7989281 0.8124558
0.2050759 0.40657595 0.23470952 1.2808125 0.67387944 0.5711804
00000000: 3d62 c41b 3d62 c41b c4d4 c63e 196e 403f
00000010: c6e8 083f 1fc7 d43f 8d86 4c3f 1afd 4f3f
00000020: 6bff 513e b92a d03e b157 703e aaf1 a33f
00000030: 5d83 2c3f e138 123f

rnn.0.1.weight f4 [54, 14]
0.16114475 0.21598974 0.11365448 0.25847745 -0.27327022 0.18241467 -0.35718396 0.2895708
0.10107057 0.02530516 -0.14853567 0.17161211 -0.12092312 -0.22047438 -0.055651896 -0.22281165
-0.022606226 -0.121255815 -0.12514538 -0.18148896 -0.2881089 0.124327995 -0.18529364 0.015593947
-0.14122301 -0.28027585 -0.26121554 -0.26902443 0.009024098 0.21249864 0.22078301 -0.34262297
0.19040945 0.17199852 0.20497015 -0.08095 0.15259266 0.08213993 0.19688031 0.19051553
0.12816705 -0.17702001 0.21667014 0.15019666 0.07020049 -0.0951106 -0.11162756 0.10862096
0.18952343 0.25461462 -0.15492809 -0.19848126 -0.1792937 0.16999175 0.06595289 0.15628827
0.14315352 -0.06472602 0.1354342 -0.15130536 -0.13546707 0.27667996 0.35229495 0.24248604
-0.16313212 -0.25171235 0.113219395 -0.059168138 0.12903255 -0.09419212 0.16000995 -0.012180725
-0.065283895 0.041266635 0.21070355 0.13386016 -0.2970599 -0.2586057 0.014959008 -0.2962441
-0.11232437 0.11095516 0.12146704 -0.10920892 -0.10130538 -0.26055467 -0.064752236 -0.13041599
0.31567082 -0.09351877 -0.027830016 0.15234354 0.15424877 -0.053332757 0.23597923 0.054437567
0.16570254 -0.33537695 0.046947 -0.058087245 -0.0022755328 0.1883608 -0.12866847 0.26840895
0.046987187 0.053871125 -0.19978122 -0.053031556 0.0070631374 0.0980587 -0.21397777 -0.11431968
0.2128007 -0.20624682 -0.11591216 0.027662273 0.17136623 -0.1018522 -0.004795574 -0.10887012
-0.2616913 -0.03617467 -0.2647011 0.049797166 0.1306102 0.00654055 0.12775375 -0.18278071
0.053124458 0.039579358 0.15951017 -0.1463988 -0.22729844 -0.009666255 -0.22720996 -0.03922669
0.052974988 -0.12930743 0.010919514 -0.010473448 -0.22301394 -0.15953766 -0.19954255 0.10736388
-0.22094122 0.00079063786 -0.10684962 0.29181692 0.01672973 -0.25139576 0.13267788 0.121502675
-0.0062393327 -0.00843369 0.16693467 0.19604756 0.018316273 0.36729872 0.18206671 0.16008158
-0.0021527743 -0.080754824 0.14447786 0.0637596 -0.3673237 -0.3195196 0.14287174 -0.0806282
0.23409751 -0.24832615 0.042011246 -0.24562079 0.06996456 0.16239272 -0.19692124 -0.16713104
0.36953256 0.093915924 -0.041529033 0.137668 -0.21178597 0.08672363 0.030935686 -0.011967443
0.32985148 -0.3346291 0.33868077 0.17635615 -0.1198257 -0.19509703 0.34826925 -0.0579751
-0.12873693 0.071653135 0.13959202 0.07110799 0.086974844 0.23717435 -0.2071815 0.0036519156
0.0798461 0.17516516 0.03127058 0.26633406 0.056786776 0.06166374 -0.0652478 -0.096257515
0.16626367 0.33252424 0.02152956 -0.23318489 -0.019681102 -0.039761823 0.3892167 -0.28715596
0.29808965 0.08418051 0.2582567 0.057287134 0.23261295 -0.04710943 -0.03952645 0.10565061
0.12879932 0.037483215 0.004540288 -0.063138135 0.08055731 -0.1895703 0.15468563 0.009217295
0.09256556 -0.09581532 0.022043934 0.10964024 -0.23127742 0.16061515 -0.28814754 -0.30757916
0.19749965 0.037434068 -0.1179932 0.13711959 0.21871535 0.07566868 -0.07625245 0.15225005
0.25468647 0.11785479 0.08131429 0.009612609 0.01887454 -0.10930077 -0.1165561 0.29711154
00000000: 2103 253e 6a2c 5d3e aec3 e83d 2857 843e
00000010: 13ea 8bbe e9ca 3a3e d1e0 b6be a042 943e
00000020: 16fe ce3d c44c cf3c bc19 18be 16bb 2f3e
00000030: 8aa6 f7bd 09c4 61be 3ef3 63bd bd28 64be
00000040: b130 b9bc f854 f8bd 1c26 00be 3ed8 39be
00000050: 0283 93be ad9f fe3d 9ebd 3dbe c17d 7f3c
00000060: c49c 10be 5180 8fbe 0bbe 85be 92bd 89be
00000070: cfd9 133c 3e99 593e f114 623e 476c afbe
00000080: b2fa 423e 6120 303e b2e3 513e 1dc9 a5bd
00000090: 4041 1c3e fb38 a83d fe9a 493e 8116 433e
000000a0: 393e 033e bc44 35be c7de 5d3e 27cd 193e
000000b0: 46c5 8f3d 59c9 c2bd fd9c e4bd aa74 de3d
000000c0: 6e12 423e d95c 823e 78a5 1ebe ac3e 4bbe
000000d0: c598 37be 5112 2e3e 4f12 873d 080a 203e
000000e0: d696 123e 138f 84bd 43af 0a3e cbef 1abe
000000f0: e1b7 0abe ffa8 8d3e 0160 b43e 434e 783e
00000100: 1b0c 27be 71e0 80be 92df e73d 4a5a 72bd
00000110: 1c21 043e cce7 c0bd a6d9 233e aa91 47bc
00000120: 90b3 85bd 3407 293d acc2 573e a312 093e
00000130: 3c18 98be f767 84be a116 753c 4fad 97be
00000140: 520a e6bd 753c e33d b6c3 f83d eda8 dfbd
00000150: 3279 cfbd 6c67 85be d29c 84bd c58b 05be
00000160: 9b9f a13e c586 bfbd c6fb e3bc f2ff 1b3e
00000170: 64f3 1d3e 7373 5abd 8aa4 713e edf9 5e3d
00000180: edad 293e 87b6 abbe 7f4b 403d e4ec 6dbd
00000190: 1b21 15bb a7e1 403e abc1 03be e66c 893e
000001a0: a375 403d f8a7 5c3d 7393 4cbe 9e37 59bd
000001b0: e471 e73b 00d3 c83d fd1c 5bbe 7020 eabd
000001c0: 6de8 593e 5e32 53be 5b63 edbd fe9b e23c
000001d0: a17a 2f3e e397 d0bd 3124 9dbb 4cf7 debd
000001e0: 67fc 85be e42b 14bd e786 87be 1df8 4b3d
000001f0: aebe 053e 1c52 d63b e1d1 023e de2a 3bbe
00000200: 0899 593d f71d 223d a256 233e 91e9 15be
00000210: ecc0 68be 365f 1ebc baa9 68be 2aac 20bd
00000220: 4dfc 583d 2b69 04be c3e7 323c d398 2bbc
00000230: c45d 64be d75d 23be e254 4cbe 98e1 db3d
00000240: 6a3e 62be cf42 4f3a f9d3 dabd 0769 953e
00000250: c90c 893c f2b6 80be b6dc 073e 65d6 f83d
00000260: 5173 ccbb 762d 0abc ecf0 2a3e b1c0 483e
00000270: 020c 963c 940e bc3e b26f 3a3e 6dec 233e
00000280: 8f15 0dbb c962 a5bd 01f2 133e 6594 823d
00000290: da11 bcbe 1398 a3be f84c 123e 6620 a5bd
000002a0: 42b7 6f3e 3649 7ebe fc13 2c3d 0484 7bbe
000002b0: 9449 8f3d 474a 263e b9a5 49be 6624 2bbe
000002c0: 5f33 bd3e fe56 c03d 591a 2abd d7f8 0c3e
000002d0: 6cde 58be 299c b13d d66c fd3c 1813 44bc
000002e0: 4be2 a83e 8154 abbe 9167 ad3e b596 343e
000002f0: 2d67 f5bd 84c7 47be 5950 b23e 4c77 6dbd
00000300: 9dd3 03be e1be 923d 36f1 0e3e 11a1 913d
00000310: de1f b23d d5dd 723e 6327 54be fa54 6f3b
00000320: 5a86 a33d 7f5e 333e 9415 003d f05c 883e
00000330: 4099 683d 1e93 7c3d a3a0 85bd a922 c5bd
00000340: 0641 2a3e 9e40 aa3e c35e b03c 05c8 6ebe
00000350: 433a a1bc 4bdd 22bd 6947 c73e 1b06 93be
00000360: 359f 983e d566 ac3d 393a 843e eaa5 6a3d
00000370: 1732 6e3e d1f5 40bd 7de6 21bd 595f d83d
00000380: f8e3 033e 0088 193d b2c6 943b 914e 81bd
00000390: 3bfb a43d b71e 42be e965 1e3e 2304 173c
000003a0: 0393 bd3d d33a c4bd 7b95 b43c 108b e03d
000003b0: fdd3 6cbe 4c78 243e 1388 93be 047b 9dbe
000003c0: 593d 4a3e 7754 193d 6ba6 f1bd 1469 0c3e
000003d0: ebf6 5f3e 2ef8 9a3d 3f2a 9cbd 70e7 1b3e
000003e0: 4466 823e da5d f13d 1b88 a63d 347e 1d3c
000003f0: c89e 9a3c 15d9 dfbd f7b4 eebd 011f 983e

rnn.0.1.bias f4 [54]
-0.1698857 -0.23218483 0.030048901 -0.1571323 0.0796462 0.1613217 -0.1549497 -0.26975787
-0.3004851 0.13597083 0.1330954 0.21408892 -0.22904363 -0.106203765 -0.20775302 -0.23254052
-0.21727005 0.20042825 0.09466779 -0.15169767 -0.109336846 0.065998234 -0.09068113 0.20836502
0.05418353 0.2790875 -0.122132406 -0.33370638 -0.14428532 0.12483694 -0.18818846 0.17873013
0.29902083 0.09317912 0.07652309 -0.10429069 0.028488541 -0.13280687 -0.1045379 -0.039907902
-0.07859292 0.0048513087 -0.03960091 -0.25083935 0.07864927 0.11862099 -0.24099518 0.23884667
-0.04788245 0.089107126 0.099093 -0.23425378 0.022631625 -0.05998797
00000000: 84f6 2dbe dcc1 6dbe 1d29 f63c 4ae7 20be
00000010: 8c1d a33d 8431 253e 22ab 1ebe b41d 8abe
00000020: 2fd9 99be f03b 0b3e 294a 083e 203a 5b3e
00000030: 6a8a 6abe 5c81 d9bd 35bd 54be 1a1f 6ebe
00000040: 0a7c 5ebe 103d 4d3e 30e1 c13d a256 1bbe
00000050: ffeb dfbd 152a 873d 07b7 b9bd a45d 553e
00000060: 8def 5d3d 8fe4 8e3e 8e20 fabd 90db aabe
00000070: 88bf 13be 82aa ff3d 7ab4 40be 0805 373e
00000080: 4219 993e b2d4 be3d 23b8 9c3d 5b96 d5bd
00000090: cd60 e93c 86fe 07be f717 d6bd 7876 23bd
000000a0: 53f5 a0bd baf7 9e3b 9034 22bd 046e 80be
000000b0: de12 a13d 90ef f23d 71c7 76be 3994 743e
000000c0: 6320 44bd cc7d b63d 45f1 ca3d 39e0 6fbe
000000d0: f565 b93c f2b5 75bd

rnn.0.2.weight f4 [54]
0.9704244 1.1167128 0.9193592 1.0469838 0.90526414 0.9127599 1.0983971 0.998089
1.1049224 1.055082 0.9067996 1.1294414 0.99384534 0.9806148 1.0118805 0.9707918
0.9645234 0.90735644 0.941273 0.9059466 1.1639493 1.0897609 0.9131578 0.8660742
0.90209734 1.1430856 0.99051726 1.0183164 0.9364921 0.99141055 1.0852672 1.0854607
0.91874385 0.9666494 0.95467955 1.1637404 1.0555943 0.92275834 1.0324748 1.032556
1.0211663 1.0043892 0.9981916 1.14214 1.1651826 0.8471351 0.96217877 1.0113415
1.0246701 1.0566741 1.0555309 0.91908425 1.0679368 1.0193621
00000000: bc6d 783f 72f0 8e3f 205b 6b3f 9103 863f
00000010: 64bf 673f a2aa 693f 4798 8c3f c382 7f3f
00000020: 196e 8d3f ed0c 873f 0524 683f 8991 903f
00000030: a66c 7e3f 9209 7b3f 4d85 813f d085 783f
00000040: 01eb 763f 8348 683f 44f7 703f 1eec 673f
00000050: 4afc 943f 497d 8b3f b6c4 693f 0ab7 5d3f
00000060: daef 663f a150 923f 8a92 7d3f 3158 823f
00000070: f2bd 6f3f 15cd 7d3f 09ea 8a3f 60f0 8a3f
00000080: cc32 6b3f 5676 773f e165 743f 72f5 943f
00000090: b71d 873f e439 6c3f 2228 843f cc2a 843f
000000a0: 94b5 823f d38f 803f 7c89 7f3f a531 923f
000000b0: b424 953f d9dd 583f 5951 763f a373 813f
000000c0: 6428 833f 1941 873f a31b 873f 1b49 6b3f
000000d0: 27b2 883f 757a 823f

rnn.0.2.bias f4 [54]
-0.02701628 0.0034083459 -0.06320922 0.047398757 -0.10010671 -0.05996634 0.04162833 -0.08530709
0.050715227 0.054725617 -0.09932141 0.09028921 0.011127209 0.02753604 0.0027988448 0.0062894374
0.04753796 -0.036370125 -0.041542213 -0.058920488 0.16265853 -0.04005807 -0.09831457 -0.017203052
-0.04265421 0.11852501 0.043802224 0.01751 -0.053945277 0.005068695 0.110490516 0.019033384
-0.032213166 -0.016795516 -0.025139032 0.0006144028 0.05561775 -0.05955536 0.04796519 0.032528017
0.013082393 0.010318456 0.028512472 0.124075145 0.088803366 -0.015719848 -0.048292387 0.01578461
0.051788166 0.07016609 0.06764213 -0.086722165 -0.02138738 0.01928528
00000000: 3f51 ddbc 8e5e 5f3b d673 81bd 3325 423d
00000010: bf04 cdbd 449f 75bd 7882 2a3d 7cb5 aebd
00000020: c5ba 4f3d f827 603d 0669 cbbd 8de9 b83d
00000030: e64e 363c 4393 e13c d36c 373b a017 ce3b
00000040: 2ab7 423d d7f8 14bd 2b28 2abd 9c56 71bd
00000050: f58f 263e ee13 24bd 2659 c9bd 6aed 8cbc
00000060: 2eb6 2ebd 3ebd f23d f669 333d 2271 8f3c
00000070: b9f5 5cbd 4c17 a63b da48 e23d e6eb 9b3c
00000080: f4f1 03bd c096 89bc 5ff0 cdbc e00f 213a
00000090: 70cf 633d 52f0 73bd 2677 443d 193c 053d
000000a0: 8957 563c be0e 293c fd92 e93c 1c1b fe3d
000000b0: 8ade b53d e9c6 80bc 3dce 45bd ba4e 813c
000000c0: d41f 543d 3db3 8f3d f587 8a3d 649b b1bd
000000d0: 9634 afbc 2afc 9d3c

rnn.0.2.running_mean f4 [54]
-0.22908697 -0.22411704 0.04366731 -0.1687756 0.068384774 0.14154711 -0.12960686 -0.32337108
-0.30407068 0.14970514 0.13368192 0.19676787 -0.28339434 -0.10500848 -0.14955188 -0.22706051
-0.2450914 0.19289832 0.06111087 -0.1991842 -0.08828265 0.10137889 -0.0807442 0.21943645
0.049012717 0.31012312 -0.13457441 -0.39821234 -0.1480827 0.10904262 -0.17069642 0.23418556
0.3318978 0.051030073 0.11076561 -0.094604515 0.050325282 -0.12080562 -0.09703247 -0.06226397
-0.073476374 0.06699013 -0.07544465 -0.19725768 0.10566261 0.14701079 -0.22992378 0.23516238
-0.06291313 0.08724024 0.122235 -0.18809669 0.048387896 -0.02600254
00000000: c695 6abe f07e 65be 7edc 323d 83d3 2cbe
00000010: 510d 8c3d baf1 103e a9b7 04be e590 a5be
00000020: 27af 9bbe 4e4c 193e eae3 083e 847d 493e
00000030: 1019 91be b00e d7bd 2124 19be 8d82 68be
00000040: 3df9 7abe 2387 453e 644f 7a3d f1f6 4bbe
00000050: 89cd b4bd bc9f cf3d 375d a5bd f3b3 603e
00000060: 8fc1 483d 75c8 9e3e e0cd 09be 7de2 cbbe
00000070: fea2 17be bd51 df3d 0bcb 2ebe 57ce 6f3e
00000080: 82ee a93e e904 513d 15d9 e23d 03c0 c1bd
00000090: e221 4e3d f068 f7bd f6b8 c6bd 8108 7fbd
000000a0: c87a 96bd 1f32 893d ba82 9abd ebfd 49be
000000b0: a365 d83d ff89 163e 2471 6bbe 68ce 703e
000000c0: 99d8 80bd 03ab b23d 5856 fa3d 6b9c 40be
000000d0: 6332 463d 4703 d5bc

rnn.0.2.running_var f4 [54]
0.23698132 0.92214 1.5162439 0.27738914 0.5530141 0.3682157 0.35213444 0.20959115
0.4679982 0.54277027 0.5634452 0.7118557 0.55755764 0.7277952 0.30755144 0.9419799
0.3199736 0.53546506 1.2152637 0.7185505 1.1561339 1.5124264 0.27905604 0.34918016
1.5387756 0.35737228 0.36550283 0.35491407 1.1941565 0.32634822 0.83617693 1.6040578
0.41589338 0.4595438 0.36825266 0.9227868 1.214524 0.43196085 0.8766256 0.75072134
0.9513692 0.27366215 0.6605177 0.41541222 0.6378555 0.80897325 1.1010118 0.2843422
0.6852031 0.35708585 0.21771972 1.1098108 0.52480626 0.270939
00000000: 3bab 723e 5e11 6c3f 4814 c23f f305 8e3e
00000010: 5592 0d3f c586 bc3e f74a b43e 109f 563e
00000020: 769d ef3e fef2 0a3f f23d 103f 2d3c 363f
00000030: 19bc 0e3f c950 3a3f 6277 9d3e 9825 713f
00000040: 94d3 a33e 3d14 093f c38d 9b3f edf2 373f
00000050: 32fc 933f 3097 c13f 6fe0 8e3e bec7 b23e
00000060: 99f6 c43f 80f9 b63e 3023 bb3e 4cb7 b53e
00000070: 1fda 983f 1d17 a73e b10f 563f c451 cd3f
00000080: faef d43e 5349 eb3e 9d8b bc3e c13b 6c3f
00000090: 8675 9b3f f929 dd3e 896a 603f 462f 403f
000000a0: ef8c 733f 721d 8c3e b017 293f e9b0 d43e
000000b0: 804a 233f df18 4f3f f4ed 8c3f 4d95 913e
000000c0: 7869 2f3f f5d3 b63e ebf1 5e3e 480e 8e3f
000000d0: b459 063f 84b8 8a3e

rnn.0.4.weight f4 [46, 54]
0.033179488 -0.19689831 -0.06985523 -0.0703581 -0.11273705 -0.1046079 0.050071467 0.036273066
-0.047900498 -0.20771357 -0.095247604 -0.22769734 0.2837331 0.054307986 0.076629855 0.2257481
0.21461327 0.06410581 -0.12383834 0.05953492 -0.19462577 -0.24812365 -0.11209165 -0.03893211
-0.012665808 0.049137264 0.1423517 0.17012413 0.010462346 -0.12671034 -0.26574925 -0.17863092
0.09290817 0.13646631 -0.038582936 -0.11390839 -0.1607118 -0.120473996 -0.112659745 -0.061405927
-0.17522354 0.056026038 -0.025916807 -0.16439858 -0.1602179 0.0705055 -0.05366484 0.041646358
0.0012603068 0.09539453 -0.05339915 -0.120425925 -0.008032692 0.009838966 -0.1797343 0.20732795
-0.035842903 0.0017422414 0.06982809 -0.12831861 -0.1232902 -0.17939276 0.06411447 -0.05979228
-0.048475303 0.033004947 -0.14700183 0.1169142 0.011605277 -0.18275957 -0.15362893 -0.04349476
-0.04376209 -0.023667226 -0.03301251 -0.044280034 -0.23080686 0.017102716 -0.131578 0.014873223
-0.20629404 -0.06561309 0.025181225 -0.052219767 -0.03871443 0.16092542 -0.024427457 -0.11174344
-0.06142233 0.063871354 0.109618 -0.06540727 0.14177595 0.07064937 -0.033300772 -0.02739568
0.005313884 0.18216872 0.1390407 -0.15115857 -0.030118754 -0.17259516 -0.13571264 -0.12664135
0.021811934 -0.008097142 0.12120315 -0.02392319 -0.049501743 -0.24079385 0.15556644 0.1087825
-0.11008451 -0.10098849 0.111175306 0.15560703 -0.10952694 -0.017450253 0.07710539 -0.027836394
0.012836455 -0.0642431 -0.017315654 -0.06816088 -0.06278426 -0.07254682 0.07831155 0.046398655
-0.18826808 -0.04400507 -0.04437311 0.008155738 0.0768874 -0.09604786 0.046562843 -0.08594277
-0.0337922 -0.085431114 0.048455656 -0.047722884 0.076465145 0.01403104 0.0787973 -0.22949027
-0.2315013 -0.15546048 0.01102736 -0.03005452 -0.19126588 0.08166388 -0.0523375 -0.16281638
-0.22822857 -0.05866036 0.08478166 0.074568965 0.14615117 -0.035656475 -0.17794152 -0.15933311
-0.087577194 0.11105927 0.13161173 -0.12805726 -0.022489939 0.1357194 0.20861074 0.09903693
-0.038969032 0.03607736 -0.01732229 -0.06690721 -0.09108509 -0.06239297 0.11721262 0.10099149
0.02191452 -0.07745592 -0.068848565 0.014533703 -0.08298887 -0.09445769 0.094247684 0.103651546
0.001086417 -0.103242435 -0.030558234 0.068120524 0.074939065 -0.037929587 0.14235069 0.13299944
0.18563391 -0.012656156 -0.22260724 -0.1577137 0.009761121 -0.14821191 0.08378983 0.1465331
-0.23364227 -0.10090961 -0.026037332 -0.09912569 0.06045218 -0.14565392 -0.046113346 -0.0044867843
-0.16697334 0.03774251 0.114241816 0.1536264 -0.10981718 -0.017068962 0.045764294 -0.1701047
-0.012997516 0.00026790545 -0.22552058 0.09321114 -0.033045396 -0.01852673 0.035714295 0.21765864
0.07564797 0.21464399 0.090407215 0.046357125 0.1026905 -0.19907016 0.16701874 0.09622029
-0.05720788 -0.113977745 0.16214201 0.12567715 -0.01940917 0.096590355 -0.013696297 0.02948168
0.006954586 0.11476876 -0.11786388 0.0016324914 0.2149873 0.10345292 -0.04224652 0.14647788
-0.08223695 0.016038015 -0.1432662 0.036786623 0.116004266 0.04410626 -0.11246415 0.22452246
00000000: 37e7 073d b69f 49be 4210 8fbd e817 90bd
00000010: afe2 e6bd ab3c d6bd bd17 4d3d 1193 143d
00000020: 5033 44bd deb2 54be 2d11 c3bd 7e29 69be
00000030: 7745 913e 0d72 5e3d 1df0 9c3d 832a 673e
00000040: 95c3 5b3e e849 833d f59e fdbd e3da 733d
00000050: fa4b 47be 2014 7ebe 4f90 e5bd 4777 1fbd
00000060: 4084 4fbc 2844 493d a5c4 113e 0535 2e3e
00000070: 426a 2b3c 5bc0 01be 4910 88be 06eb 36be
00000080: a346 be3d d3bd 0b3e 2409 1ebd cd48 e9bd
00000090: a291 24be 12bb f6bd 27ba e6bd c884 7bbd
000000a0: cd6d 33be 8f7b 653d 7c4f d4bc 1a58 28be
000000b0: 2910 24be 3065 903d aacf 5bbd 5f95 2a3d
000000c0: e130 a53a 355e c33d 11b9 5abd dea1 f6bd
000000d0: 8d9b 03bc 9d33 213c 450c 38be c74d 543e
000000e0: 02d0 12bd ec5b e43a 0802 8f3d f465 03be
000000f0: 937f fcbd bcb2 37be 724e 833d c0e8 74bd
00000100: 0a8e 46bd 3230 073d a687 16be b670 ef3d
00000110: 0f24 3e3c 5325 3bbe e750 1dbe 9027 32bd
00000120: e13f 33bd c5e1 c1bc 2038 07bd fb5e 35bd
00000130: a258 6cbe ff1a 8c3c 62bc 06be d2ae 733c
00000140: bf3e 53be 2860 86bd db48 ce3c 65e4 55bd
00000150: 0693 1ebd a2c9 243e 171c c8bc bfd9 e4bd
00000160: fb95 7bbd fcce 823d 677f e03d 3ff4 85bd
00000170: b72d 113e 9eb0 903d 6466 08bd e86c e0bc
00000180: 1720 ae3b 708a 3a3e af60 0e3e 50c9 1abe
00000190: 9bbb f6bc c9bc 30be 41f8 0abe 45ae 01be
000001a0: f1ae b23c e0a9 04bc 5b39 f83d 91fa c3bc
000001b0: 57c2 4abd aa92 76be cf4c 1f3e 5cc9 de3d
000001c0: fd73 e1bd 0ed3 cebd e1af e33d 7357 1f3e
000001d0: a94f e0bd d5f3 8ebc 6ee9 9d3d 2609 e4bc
000001e0: ff4f 523c e391 83bd 8fd9 8dbc ee97 8bbd
000001f0: 0995 80bd 6d93 94bd ce61 a03d 840c 3e3d
00000200: 59c9 40be a93e 34bd 94c0 35bd a59f 053c
00000210: 2477 9d3d beb4 c4bd aeb8 3e3d c302 b0bd
00000220: b169 0abd 82f6 aebd 7079 463d 1279 43bd
00000230: c299 9c3d 72e2 653c 7b60 a13d 7fff 6abe
00000240: ad0e 6dbe 0831 1fbe 1aac 343c e634 f6bc
00000250: 34db 43be 643f a73d d95f 56bd 56b9 26be
00000260: c0b4 69be d845 70bd 02a2 ad3d 9db7 983d
00000270: a7a8 153e 860c 12bd 4d36 36be 3828 23be
00000280: ac5b b3bd 0b73 e33d 3ac5 063e 7121 03be
00000290: d23c b8bc 07fa 0a3e 0e9e 553e e0d3 ca3d
000002a0: fe9d 1fbd dbc5 133d 7ae7 8dbc a606 89bd
000002b0: d28a babd c58f 7fbd 2c0d f03d a0d4 ce3d
000002c0: 1486 b33c 36a1 9ebd 7a00 8dbd c51e 6e3c
000002d0: 12f6 a9bd 0973 c1bd ee04 c13d 4347 d43d
000002e0: 1b66 8e3a c570 d3bd 4355 fabc c682 8b3d
000002f0: a779 993d 0e5c 1bbd 61c4 113e 0131 083e
00000300: d116 3e3e c45b 4fbc 27f3 63be b37f 21be
00000310: 1ced 1f3c ddc4 17be 019a ab3d c60c 163e
00000320: eb3f 6fbe b3a9 cebd 3e4c d5bc 6902 cbbd
00000330: b59c 773d 4d26 15be 59e1 3cbd e005 93bb
00000340: 0ffb 2abe e497 1a3d 9df7 e93d 3d50 1d3e
00000350: d4e7 e0bd 35d4 8bbc 5773 3b3d ed2f 2ebe
00000360: 89f3 54bc a975 8c39 deee 66be 7be5 be3d
00000370: 9c5a 07bd 5ec5 97bc 2749 123d e8e1 5e3e
00000380: 53ed 9a3d a2cb 5b3e 6b27 b93d f8e0 3d3d
00000390: 664f d23d 0cd9 4bbe f606 2b3e 250f c53d
000003a0: cf52 6abd 2a6d e9bd 8e08 263e 83b1 003e
000003b0: fbff 9ebc 2ad1 c53d 6f66 60bc 9083 f13c
000003c0: 4ce3 e33b e20b eb3d 9e62 f1bd 52f9 d53a
000003d0: a125 5c3e 20df d33d b00a 2dbd 4cfe 153e
000003e0: d96b a8bd 2862 833c 60b4 12be 92ad 163d
000003f0: a593 ed3d c4a8 343d 9b53 e6bd 37e9 653e

rnn.0.4.bias f4 [46]
0.07313926 -0.06798073 -0.14288925 0.0031161213 0.1524101 0.19846386 0.06375672 -0.030332165
0.11112264 -0.07240306 -0.037024345 -0.065759026 -0.039784674 0.061039735 0.010605556 0.012836913
-0.17224835 -0.005130999 -0.008876201 0.007649937 0.04667786 0.14520243 0.06584983 -0.031438958
0.0050006094 -0.13087903 0.1246232 0.09855528 -0.0036268698 0.122808434 -0.20044234 -0.003977999
-0.055254992 -0.057284337 0.039855424 0.10713048 0.007546027 0.01213973 -0.07787144 0.047112018
0.084185 -0.095969826 -0.09202743 0.11653525 -0.12733082 0.1444456
00000000: 09ca 953d 7b39 8bbd 8f51 12be d737 4c3b
00000010: 6511 1c3e 1c3a 4b3e e292 823d 297b f8bc
00000020: 4494 e33d 0e48 94bd d7a6 17bd abac 86bd
00000030: 41f5 22bd cd04 7a3d edc2 2d3c ea51 523c
00000040: df61 30be f021 a8bb 7c6d 11bc 53ac fa3b
00000050: 4931 3f3d f2af 143e 47dc 863d 23c6 00bd
00000060: 27dc a33b 2705 06be 733a ff3d 5ad7 c93d
00000070: c7b0 6dbb fd82 fb3d c240 4dbe e059 82bb
00000080: 0f53 62bd fba2 6abd 713f 233d 3a67 db3d
00000090: aa44 f73b b8e5 463c 107b 9fbd 88f8 403d
000000a0: 2f69 ac3d d48b c4bd e178 bcbd 08aa ee3d
000000b0: 0363 02be 8ce9 133e

rnn.0.5.weight f4 [46]
0.8543285 0.92142653 0.9381596 0.96662444 0.8488686 0.9716133 1.0044026 0.9691527
0.9275574 0.9060167 0.91049236 0.9331046 0.9761104 0.8754674 0.94681793 0.9865315
0.96185064 0.9282597 0.93478906 0.96813345 0.938741 0.9278826 0.9134957 0.9178638
1.0011268 0.9005715 0.9314493 0.9192404 0.9218263 0.8144095 0.916282 0.97996646
0.94165015 0.9401688 0.92239213 0.9553398 0.95113033 0.9861886 0.9292088 0.91981006
0.9991985 1.0019119 0.9127152 0.9255413 0.9338577 0.90914005
00000000: 46b5 5a3f 9ce2 6b3f 3a2b 703f b374 773f
00000010: 744f 593f a6bb 783f 4490 803f 641a 783f
00000020: 6774 6d3f b6f0 673f 0716 693f f1df 6e3f
00000030: 5fe2 793f a21e 603f a962 723f 548d 7c3f
00000040: d83b 763f 6da2 6d3f 564e 6f3f 98d7 773f
00000050: 5551 703f b789 6d3f dbda 693f 1ff9 6a3f
00000060: ec24 803f db8b 663f 7673 6e3f 5753 6b3f
00000070: cffc 6b3f 247d 503f 7591 6a3f 15df 7a3f
00000080: fc0f 713f e7ae 703f e421 6c3f 2691 743f
00000090: 477d 733f db76 7c3f a1e0 6d3f ac78 6b3f
000000a0: 79cb 7f3f a63e 803f b4a7 693f 46f0 6c3f
000000b0: 4c11 6f3f 67bd 683f

rnn.0.5.bias f4 [46]
-0.1056088 -0.07243839 -0.024239255 -0.018112367 -0.12929305 -0.011445443 0.06493752 -0.0060914475
-0.03763402 -0.06567482 -0.10996651 -0.05643145 -0.013482136 -0.069490686 -0.0043792473 0.0054660076
-0.0071276305 -0.057186376 -0.041400567 -0.030078074 -0.045143757 -0.081460066 -0.06981194 -0.031577185
0.02244538 -0.07265425 -0.02990341 -0.06107596 -0.051354967 -0.12953657 -0.018937266 0.06963126
-0.03571384 0.014942174 -0.08152322 -0.013638956 -0.025855413 -0.0013325437 -0.032855526 -0.061764974
0.08317207 0.016570317 -0.089178704 -0.049528513 -0.04772552 -0.08370011
00000000: 6d49 d8bd 945a 94bd 6791 c6bc 6360 94bc
00000010: 6665 04be ab85 3bbc f6fd 843d c49a c7bb
00000020: 2126 1abd 8580 86bd 1f36 e1bd aa24 67bd
00000030: 2de4 5cbc 2251 8ebd ca7f 8fbb 321c b33b
00000040: e68e e9bb 433c 6abd a493 29bd 4b66 f6bc
00000050: a9e8 38bd 89d4 a6bd 90f9 8ebd 1457 01bd
00000060: 60df b73c c0cb 94bd fff7 f4bc c92a 7abd
00000070: 9659 52bd 3ca5 04be 5322 9bbc d69a 8e3d
00000080: ad48 12bd 05d0 743c a5f5 a6bd ed75 5fbc
00000090: bbce d3bc bfa8 aeba 8493 06bd 45fd 7cbd
000000a0: 1e56 aa3d 79be 873c 53a3 b6bd 69de 4abd
000000b0: d67b 43bd f76a abbd

rnn.0.5.running_mean f4 [46]
-0.86171484 -0.63088757 -0.99673045 -0.062495776 0.5291316 -0.2662244 -0.4190753 -1.6533108
0.25219792 0.6555218 0.7412338 -0.95334035 -0.28969705 -0.6015944 -0.23748396 -0.22623636
-0.66850746 -0.15615356 -0.9476392 -0.9640523 -0.8214263 0.7183983 0.32268542 0.46498665
-1.017713 0.2310417 -1.0186223 -0.56222105 0.16303231 0.023029177 -1.7320048 -0.94745463
-0.8474685 -0.8725646 -0.5958095 0.37989137 -0.4494999 0.32410684 0.24970111 -1.0784622
-0.34635612 -0.17416503 0.8663095 0.20032318 -0.9436586 -0.3888805
00000000: 5899 5cbf d981 21bf ba29 7fbf 92fb 7fbd
00000010: 2b75 073f 914e 88be 0a91 d6be b09f d3bf
00000020: 1620 813e 47d0 273f 80c1 3d3f 1d0e 74bf
00000030: 2c53 94be 1702 1abf ff2e 73be 81aa 67be
00000040: 4e23 2bbf b8e6 1fbe 7c98 72bf 22cc 76bf
00000050: fe48 52bf f3e8 373f 0637 a53e bb12 ee3e
00000060: 6b44 82bf 3296 6c3e 3762 82bf b8ed 0fbf
00000070: f1f1 263e afa7 bc3c 55b2 ddbf 638c 72bf
00000080: b2f3 58bf 6560 5fbf f986 18bf 1f81 c23e
00000090: da24 e6be 55f1 a53e a6b1 7f3e 0d0b 8abf
000000a0: 9755 b1be 5158 32be 76c6 5d3f 8521 4d3e
000000b0: 9c93 71bf 581b c7be

rnn.0.5.running_var f4 [46]
7.013022 1.5919491 4.534535 0.5390794 2.3408978 2.2360916 5.530193 3.7925422
2.376254 1.8741747 2.448246 3.3244362 1.5731351 7.5771 2.6416495 4.338018
2.8148751 1.3745666 5.2631774 1.2109643 3.2226222 2.4050133 0.7000753 2.5775323
1.3468912 1.5394051 5.9795923 1.6688644 2.4293344 5.5637846 9.131383 6.52886
5.1590114 2.1881614 1.3854415 0.49562594 5.375768 1.0014831 1.6922313 2.3818045
6.0215116 1.9163818 2.0257492 3.6760817 4.108817 1.2445427
00000000: ad6a e040 fdc4 cb3f e91a 9140 1c01 0a3f
00000010: 45d1 1540 201c 0f40 57f7 b040 03b9 7240
00000020: 8c14 1840 f5e4 ef3f 10b0 1c40 90c3 5440
00000030: 7e5c c93f 9a77 f240 c910 2940 0bd1 8a40
00000040: ea26 3440 ccf1 af3f f36b a840 e100 9b3f
00000050: 713f 4e40 bdeb 1940 2338 333f 4af6 2440
00000060: ee66 ac3f 3a0b c53f d258 bf40 599d d53f
00000070: 377a 1b40 860a b240 251a 1241 6cec d040
00000080: 9f16 a540 d60a 0c40 2656 b13f afc2 fd3e
00000090: 4b06 ac40 9930 803f 099b d83f 7c6f 1840
000000a0: 39b0 c040 004c f53f e0a5 0140 ec44 6b40
000000b0: 6e7b 8340 2d4d 9f3f

rnn.0.7.weight f4 [2, 46]
-0.15846576 0.011033873 0.040591847 0.1479496 0.057387885 0.05839661 0.17021783 0.0571354
0.0630932 0.1399477 -0.053946216 -0.0659723 -0.06420242 0.06293459 0.09639256 0.13399503
0.120973155 -0.04248865 -0.06867118 0.057601996 -0.04897003 0.02305881 0.03718162 0.05554386
0.09778728 0.012418354 -0.055808507 0.005545417 0.039744355 0.0977235 -0.0005817735 0.19158
-0.044438478 0.10220495 -0.052893527 0.026213314 -0.1048955 -0.06375553 -0.05866361 -0.05906094
0.09033825 0.16005272 -0.15760383 -0.014554804 -0.04278654 0.032915924 0.008123765 0.008206667
0.044031642 0.08597737 -0.008426286 -0.08600257 -0.009463066 -0.07062425 -0.072075844 0.03699437
0.0012410587 0.02526323 -0.03509114 0.089780815 -0.0057544676 0.06953319 -0.057066016 0.10190715
0.0385098 -0.051709574 0.020632477 0.06915397 0.026621014 -0.0934942 -0.027939057 0.054118957
-0.018412594 0.02969324 -0.020907825 -0.056258347 -0.06933721 -0.017063363 -0.03368931 -0.06975108
-0.074952155 -0.06824343 -0.056909133 -0.07301089 -0.025234547 0.07458422 0.12514414 -0.007486132
0.094394535 -0.11009659 0.029571494 0.02161568
00000000: d944 22be 6bc7 343c a343 263d 1a80 173e
00000010: 8f0f 6b3d 4931 6f3d 954d 2e3e cf06 6a3d
00000020: 0237 813d 734e 0f3e b5f6 5cbd 7c1c 87bd
00000030: 8f7c 83bd dae3 803d 7669 c53d fe35 093e
00000040: c6c0 f73d 9408 2ebd 7aa3 8cbd 12f0 6b3d
00000050: cc94 48bd d4e5 bc3c c14b 183d f581 633d
00000060: b344 c83d 5a76 4b3c 7697 64bd 54b6 b53b
00000070: faca 223d 4223 c83d 2982 18ba 8c2d 443e
00000080: 1f05 36bd d450 d13d e2a6 58bd 4ebd d63c
00000090: 74d3 d6bd 4292 82bd 4149 70bd e2e9 71bd
000000a0: 4303 b93d dce4 233e e662 21be 4677 6ebc
000000b0: f040 2fbd d9d2 063d 8a19 053c 4275 063c
000000c0: 865a 343d e714 b03d 680e 0abc 1e22 b0bd
000000d0: fa0a 1bbc 72a3 90bd 809c 93bd 6987 173d
000000e0: 05ab a23a d5f4 ce3c babb 0fbd 01df b73d
000000f0: f98f bcbb 6b67 8e3d 0ebe 69bd b2b4 d03d
00000100: 74bc 1d3d 6bcd 53bd 7105 a93c 99a0 8d3d
00000110: 5014 da3c e379 bfbd 73e0 e4bc d7ab 5d3d
00000120: 02d6 96bc 3d3f f33c e346 abbc 276f 66bd
00000130: ab00 8ebd 77c8 8bbc cdfd 09bd a7d9 8ebd
00000140: 8480 99bd 36c3 8bbd 8d19 69bd bc86 95bd
00000150: aeb8 cebc 9dbf 983d c925 003e 3a4e f5bb
00000160: ec51 c13d 527a e1bd eb3f f23c 5e13 b13c

rnn.0.7.bias f4 [2]
-0.04574399 0.09442897
00000000: 0d5e 3bbd fa63 c13d

rnn.1.0.weight f4 [14]
1.0565902 1.0561806 0.91048086 0.9965351 1.0228747 0.90271807 1.0854119 0.995833
0.9324143 1.0838717 1.0564877 0.9163868 0.93824756 1.0078561
00000000: 593e 873f ed30 873f 4615 693f ed1c 7f3f
00000010: 8fed 823f 8818 673f c7ee 8a3f e9ee 7e3f
00000020: b4b2 6e3f 4fbc 8a3f fd3a 873f 5398 6a3f
00000030: fe30 703f 6e01 813f

rnn.1.0.bias f4 [14]
-0.052577637 -0.013504613 -0.024834665 -0.008772272 -0.05674869 -0.02135042 -0.06753106 0.06285074
-0.0064499807 -0.0217824 0.020835778 -0.076042525 0.022859681 -0.012500089
00000000: a65b 57bd 7442 5dbc 1172 cbbc 93b9 0fbc
00000010: 5071 68bd 13e7 aebc b94d 8abd e4b7 803d
00000020: 5c5a d3bb 0171 b2bc cbaf aa3c 2fbc 9bbd
00000030: 3a44 bb3c 2ccd 4cbc

rnn.1.0.running_mean f4 [14]
0.0001622791 8.796522e-05 0.41794866 -0.2472994 0.62937033 -0.07275159 0.74882925 0.4879059
1.0699668 0.40911248 1.3241953 -0.003475688 0.019800905 -0.16259478
00000000: 7729 2a39 f879 b838 5efd d53e 0e3c 7dbe
00000010: 6a1e 213f c9fe 94bd 46b3 3f3f cdce f93e
00000020: acf4 883f 3177 d13e 3b7f a93f 5ec8 63bb
00000030: 8235 a23c 3f7f 26be

rnn.1.0.running_var f4 [14]
0.00051841384 0.00044889137 0.38834202 0.75167996 0.53480184 1.6623267 0.7989281 0.8124558
0.2050759 0.40657595 0.23470952 1.2808125 0.67387944 0.5711804
00000000: 2ae6 073a 2e59 eb39 c4d4 c63e 196e 403f
00000010: c6e8 083f 1fc7 d43f 8d86 4c3f 1afd 4f3f
00000020: 6bff 513e b92a d03e b157 703e aaf1 a33f
00000030: 5d83 2c3f e138 123f

rnn.1.1.weight f4 [54, 14]
-0.15332527 -0.1705676 -0.0979254 -0.21623585 0.27671742 -0.14382383 0.3462255 -0.23246032
0.019499496 0.24349566 0.058715463 -0.082542256 0.13167939 0.16729684 -0.13652414 0.082133986
0.14305544 0.13605677 -0.15369083 -0.014684367 0.16903043 -0.11822618 -0.16730456 0.23707572
-0.106438324 -0.28750464 0.2366409 -0.03614733 0.2385497 -0.058866207 -0.10497359 -0.21889952
0.116552845 -0.0063289613 0.041951906 -0.065374546 0.36150202 0.19942299 0.02183201 0.13195673
0.1373831 0.06786336 0.082097605 0.28713596 0.07542749 -0.10917678 0.05317106 -0.13078903
0.34037763 -0.1592208 0.012101252 0.17922951 0.06803554 0.028293304 -0.09960695 -0.20785312
0.019033043 0.1568974 0.08941613 0.23038058 0.20289037 -0.31753466 -0.044387326 0.012992868
-0.16387628 -0.270903 -0.1050458 0.07696232 0.084670916 -0.1957086 0.003768417 -0.22336325
0.113520004 0.012863586 0.21417518 0.12366322 0.12859863 0.110387184 0.26933643 0.21289785
0.18541314 0.023886671 0.15047225 -0.19231547 0.073110975 -0.13771614 0.047653753 0.22977912
0.07298371 -0.2794545 0.083994575 -0.14892259 -0.2223282 -0.12788683 -0.35547134 -0.07805403
-0.20618752 -0.101096585 0.065899424 0.11362231 -0.13795811 -0.13279149 0.2605322 0.12251011
-0.02868644 -0.1811221 0.18335699 0.27141234 -0.23330234 0.21174791 0.0050567174 0.13857526
0.14161399 -0.07807641 -0.06657702 -0.2618396 0.15723887 -0.2947031 -0.08996391 0.07018523
0.1601175 0.2696134 -0.024839384 0.15289442 0.093393765 0.075365596 -0.054989938 0.3028764
0.28672406 -0.10398105 0.016658774 0.0212554 0.1159338 -0.14462164 0.19204101 0.120085366
0.13414581 -0.2494205 -0.23086111 0.09863948 0.0931373 -0.13631071 -0.22441478 0.110591345
-0.14739287 -0.1463731 -0.108786814 -0.011967734 0.2531429 -0.07513397 0.27712083 -0.10533657
-0.013782319 0.2566534 0.26234138 -0.28913325 -0.053940102 -0.18897168 -0.2233357 0.1685261
0.10138015 -0.0005277552 -0.06585669 -0.14352307 -0.18500975 0.02408594 -0.10048619 -0.110999756
0.23631579 -0.1759421 0.13134359 -0.14718652 0.15210424 0.077796 0.23673761 0.26689488
-0.27660888 -0.081879936 -0.031019099 0.27937207 -0.09787422 -0.046091393 0.09442861 0.1490925
-0.03972904 -0.07003887 0.016461745 -0.006165564 0.13700439 0.05056855 0.2919841 0.2122374
-0.08398801 -0.12916203 -0.2926259 0.31259376 0.124849156 0.11435166 0.12462253 0.2556147
-0.0726854 0.11937411 -0.27812758 -0.13947299 -0.24189818 -0.19605567 -0.115181565 -0.15725583
-0.10005271 -0.12614839 -0.3530725 -0.084515005 -0.18672322 -0.03440335 0.1520365 0.066260055
0.1623753 -0.30330494 -0.2612594 -0.0752569 0.063138165 0.06837061 0.22285177 0.18735656
-0.08485302 0.06613882 -0.29732803 -0.2235582 -0.30317417 -0.10038571 0.29668665 0.2690671
-0.032949504 -0.21720138 -0.14051597 -0.16489376 -0.14147429 -0.03772501 -0.024585908 0.09500696
0.19383769 0.13891234 -0.069145225 -0.2700984 -0.2762654 0.07974323 -0.13888103 0.059961926
-0.2501341 -0.12814902 -0.10860967 -0.01987119 -0.07089624 0.113146305 0.030845907 -0.3285939
00000000: 4d01 1dbe 46a9 2ebe 1d8d c8bd ee6c 5dbe
00000010: e8ad 8d3e 8e46 13be 7844 b13e 140a 6ebe
00000020: 68bd 9f3c ed56 793e a07f 703d ea0b a9bd
00000030: f6d6 063e dd4f 2b3e fccc 0bbe dd35 a83d
00000040: 207d 123e 7752 0b3e 2161 1dbe b396 70bc
00000050: 5016 2d3e 9120 f2bd e351 2bbe fac3 723e
00000060: 56fc d9bd cf33 93be fe51 723e 390f 14bd
00000070: 5f46 743e b11d 71bd 65fc d6bd 3227 60be
00000080: 42b3 ee3d 2d63 cfbb c3d5 2b3d 17e3 85bd
00000090: cb16 b93e 8a35 4c3e 0bd9 b23c aa1f 073e
000000a0: 28ae 0c3e f2fb 8a3d ca22 a83d 7c03 933e
000000b0: ba79 9a3d 1398 dfbd e6c9 593d 8fed 05be
000000c0: fa45 ae3e c70a 23be 5444 463c f187 373e
000000d0: 3856 8b3d 5cc7 e73c bbfe cbbd 73d7 54be
000000e0: 2feb 9b3c b6a9 203e ce1f b73d e3e8 6b3e
000000f0: 7ec2 4f3e e793 a2be 7ccf 35bd 0ae0 543c
00000100: 2fcf 27be ccb3 8abe 4122 d7bd 6c9e 9d3d
00000110: f267 ad3d d667 48be 8cf7 763b 56b9 64be
00000120: 2d7d e83d cac1 523c bd50 5b3e 2443 fd3d
00000130: 5caf 033e ad12 e23d 77e6 893e e501 5a3e
00000140: f1dc 3d3e fbad c33c 6615 1a3e 59ee 44be
00000150: 35bb 953d 7605 0dbe 9530 433d 384b 6b3e
00000160: 7c78 953d a914 8fbe 5905 ac3d 2a7f 18be
00000170: 01aa 63be c4f4 02be 5700 b6be cbda 9fbd
00000180: d222 53be ba0b cfbd 47f6 863d d0b2 e83d
00000190: e444 0dbe 7efa 07be 7a64 853e 95e6 fa3d
000001a0: d3ff eabc 1278 39be efc1 3b3e 8ff6 8a3e
000001b0: cfe6 6ebe 72d4 583e d2b2 a53b ace6 0d3e
000001c0: 4203 113e 86e6 9fbd 8859 88bd d70f 86be
000001d0: 3a03 213e 53e3 96be 003f b8bd 46bd 8f3d
000001e0: d8f5 233e c40a 8a3e f77b cbbc 5b90 1c3e
000001f0: 3b45 bf3d 4759 9a3d 213d 61bd 9e12 9b3e
00000200: 7fcd 923e 04f4 d4bd fb77 883c ce1f ae3c
00000210: b36e ed3d b217 14be 66a6 443e 51ef f53d
00000220: 855d 093e 1668 7fbe db66 6cbe 7f03 ca3d
00000230: c5be be3d 0995 0bbe fdcc 65be b77d e23d
00000240: 28ee 16be d4e2 15be 9fcb debd 5114 44bc
00000250: f29b 813e d7df 99bd c8e2 8d3e b3ba d7bd
00000260: 3ccf 61bc 1368 833e 9c51 863e 4609 94be
00000270: 4cf0 5cbd cb81 41be 1db2 64be 1b92 2c3e
00000280: 65a0 cf3d 0d59 0aba dfdf 86bd b6f7 12be
00000290: 3273 3dbe e14f c53c b4cb cdbd d753 e3bd
000002a0: c4fc 713e 2a2a 34be ef7e 063e 10b8 16be
000002b0: 37c1 1b3e 8253 9f3d 586b 723e 72a6 883e
000002c0: ae9f 8dbe abb0 a7bd c41b febc db09 8f3e
000002d0: 4772 c8bd 54ca 3cbd c963 c13d b4ab 183e
000002e0: ebba 22bd 8a70 8fbd c8da 863c 8008 cabb
000002f0: e14a 0c3e f820 4f3d f17e 953e c354 593e
00000300: e801 acbd 0d43 04be 10d3 95be 4a0c a03e
00000310: eab0 ff3d 3431 ea3d 193a ff3d eedf 823e
00000320: 15dc 94bd 6a7a f43d bd66 8ebe 02d2 0ebe
00000330: 28b4 77be d1c2 48be 50e4 ebbd ac07 21be
00000340: 6fe8 ccbd 0b2d 01be ebc5 b4be 3416 adbd
00000350: 5f34 3fbe 87ea 0cbd 75af 1b3e 5ab3 873d
00000360: b645 263e c94a 9bbe cbc3 85be 4a20 9abd
00000370: 954e 813d e405 8c3d 4133 643e 66da 3f3e
00000380: 6cc7 adbd ca73 873d 613b 98be 71ec 64be
00000390: a539 9bbe 0697 cdbd 50e7 973e 2ac3 893e
000003a0: 0ff6 06bd 0a6a 5ebe 6be3 0fbe e9d9 28be
000003b0: a3de 10be 8a85 1abd 6368 c9bc 0293 c23d
000003c0: 637d 463e 093f 0e3e 039c 8dbd 564a 8abe
000003d0: a972 8dbe 6b50 a33d d436 0ebe a39a 753d
000003e0: 9411 80be 7f39 03be bf6e debd e8c8 a2bc
000003f0: 0c32 91bd 40b9 e73d 8eb0 fc3c 763d a8be

rnn.1.1.bias f4 [54]
-0.12485631 0.3129576 -0.22553849 -0.03714189 -0.23818599 0.2683761 -0.0923557 -0.26686683
0.11105417 0.04145232 0.014593773 0.07450972 -0.3366698 -0.31440705 -0.2214824 0.10458479
-0.21680623 -0.043273333 0.1463821 -0.22725897 0.08983583 0.25794497 0.18396322 -0.28468928
0.02374689 0.18348576 -0.06887251 -0.119215086 0.044080615 0.008363495 0.0817003 0.0035307636
-0.26355067 0.071957834 0.16648275 -0.05070556 0.21759237 0.28308475 -0.013326909 0.1957526
-0.1255543 -0.07040361 0.10269985 -0.07082478 0.07991202 0.0843256 -0.17552325 0.20135264
0.28656876 -0.0986078 -0.008851607 0.3289148 0.0433305 -0.027141409
00000000: aab4 ffbd fb3b a03e 90f3 66be 1822 18bd
00000010: 07e7 73be 9868 893e fc24 bdbd c5a2 88be
00000020: 5e70 e33d e8c9 293d b81a 6f3c 8d98 983d
00000030: fc5f acbe f6f9 a0be 48cc 62be 8d30 d63d
00000040: 7402 5ebe 613f 31bd 30e5 153e 93b6 68be
00000050: d9fb b73d 5d11 843e db60 3c3e cbc2 91be
00000060: d688 c23c b1e3 3b3e 080d 8dbd 0a27 f4bd
00000070: e08d 343d 0a07 093c 7d52 a73d 6264 673b
00000080: 1df0 86be a15e 933d 747a 2a3e a2b0 4fbd
00000090: 89d0 5e3e 7cf0 903e 1c59 5abc 5f73 483e
000000a0: 4e91 00be c52f 90bd 4d54 d23d 950c 91bd
000000b0: eaa8 a33d e6b2 ac3d 5ebc 33be 632f 4e3e
000000c0: 24b9 923e e3f2 c9bd 5506 11bc 8567 a83e
000000d0: 537b 313d a957 debc

rnn.1.2.weight f4 [54]
0.9131674 1.0715894 1.0350085 1.0402727 1.1316403 1.0730532 1.0363562 1.0930008
1.0822092 1.0264817 1.0121579 0.96730006 0.92801136 0.95633864 0.9521103 0.94455355
1.0043732 1.1212953 0.93642384 0.9457301 1.06997 0.95696557 0.9231558 0.9276412
1.0445635 0.9031568 0.98746383 0.8691852 1.0042946 1.1049544 0.9399258 0.965407
0.9395008 1.0048999 1.0656611 1.0268536 0.98875725 1.1137309 1.0115844 0.94709665
1.0001154 1.0942776 0.9824155 0.9953369 0.9952662 0.96633446 0.85059303 0.97775805
0.9249937 0.9227627 1.0112085 1.0739106 0.8981156 0.92218035
00000000: 57c5 693f d729 893f 297b 843f a827 853f
00000010: 97d9 903f cf59 893f 52a7 843f 73e7 8b3f
00000020: d585 8a3f c163 833f 648e 813f faa0 773f
00000030: 2792 6d3f 9cd2 743f 80bd 733f 43ce 713f
00000040: 4d8f 803f 9b86 8f3f 79b9 6f3f 5e1b 723f
00000050: c7f4 883f b2fb 743f f053 6c3f e579 6d3f
00000060: 42b4 853f 4935 673f 6eca 7c3f ec82 5e3f
00000070: ba8c 803f 256f 8d3f fa9e 703f ea24 773f
00000080: 2083 703f 8fa0 803f 9567 883f f06f 833f
00000090: 321f 7d3f bc8e 8e3f 997b 813f ed74 723f
000000a0: c803 803f 4a11 8c3f 957f 7b3f 66ce 7e3f
000000b0: c4c9 7e3f b261 773f 77c0 593f 5a4e 7a3f
000000c0: 63cc 6c3f 2d3a 6c3f 486f 813f e775 893f
000000d0: e7ea 653f 0314 6c3f

rnn.1.2.bias f4 [54]
0.05933966 0.08942366 0.013259401 0.10300271 0.12568393 0.062037427 0.009444592 0.09385622
0.078754894 0.04912955 -0.054742027 -0.06833584 -0.07545876 -0.0604173 -0.06837805 -0.03742259
-0.056169845 0.11540515 0.06976589 -0.029069507 0.095273525 -0.04654659 -0.1052706 0.012960566
-0.030911596 -0.11453479 -0.0021656551 0.04941552 -0.016421031 0.10412417 -0.05906761 -0.008227506
0.008826314 0.012748748 0.036185425 -0.014847129 0.009551774 0.013634361 -0.011300766 -0.06523204
-0.012509861 0.11323057 -0.040328838 -0.015247861 0.0044591925 -0.0030019456 0.011729553 -0.02668659
-0.06755835 -0.056195505 0.00031520563 0.004362021 -0.102617055 -0.050163437
00000000: 250e 733d c023 b73d f53d 593c 16f3 d23d
00000010: 4ab3 003e f51a 7e3d 7dbd 1a3c b137 c03d
00000020: 3f4a a13d 113c 493d 2d39 60bd a9f3 8bbd
00000030: 1f8a 9abd 2178 77bd cb09 8cbd 6e48 19bd
00000040: 5a12 66bd 8959 ec3d 6be1 8e3d 2d23 eebc
00000050: c41e c33d a3a7 3ebd 1d98 d7bd 8e58 543c
00000060: 513a fdbc 3791 eabd aaed 0dbb ee67 4a3d
00000070: 6685 86bc 0e3f d53d e1f0 71bd a9cc 06bc
00000080: 3e9c 103c 20e0 503c 2b37 143d 5f41 73bc
00000090: 0b7f 1c3c a862 5f3c d926 39bc 6098 85bd
000000a0: 29f6 4cbc 6ee5 e73d da2f 25bd 2ad2 79bc
000000b0: 6b1e 923b 4abc 44bb 502d 403c d69d dabc
000000c0: 085c 8abd 422d 66bd 2f42 a539 49ef 8e3b
000000d0: e428 d2bd 2d78 4dbd

rnn.1.2.running_mean f4 [54]
-0.15808065 0.32600662 -0.2600042 -0.08379728 -0.24305746 0.25316247 -0.11173421 -0.32389033
0.09856257 0.027244639 0.044938777 0.06757812 -0.37820205 -0.33546054 -0.20824572 0.090714775
-0.1762042 -0.013746514 0.10254976 -0.25601035 0.022761974 0.2990299 0.17853537 -0.34100336
0.02245014 0.17480485 -0.039021373 -0.1449802 0.046926316 -0.0015240742 0.0828561 -0.0060862633
-0.2450496 0.09000207 0.17138745 -0.043149028 0.17533968 0.28641716 -0.0026785391 0.17145859
-0.13056256 -0.091382384 0.14171982 -0.051778387 0.095433354 0.07412027 -0.17062478 0.21378404
0.32220188 -0.14092503 0.028188678 0.34289384 0.074596204 -0.039386164
00000000: e5df 21be 57ea a63e 451f 85be e99d abbd
00000010: 0ee4 78be 839e 813e e8d4 e4bd f4d4 a5be
00000020: 2cdb c93d 2630 df3c b911 383d 6666 8a3d
00000030: b3a3 c1be 7cc1 abbe 5e3e 55be abc8 b93d
00000040: e06e 34be 0f39 61bc 9c05 d23d ca13 83be
00000050: 5277 ba3c 721a 993e fad1 363e fe97 aebe
00000060: 5be9 b73c 0b00 333e e0d4 1fbd b175 14be
00000070: cf35 403d 72c3 c7ba 75b0 a93d 476f c7bb
00000080: 48ee 7abe 0153 b83d 3180 2f3e 09bd 30bd
00000090: 3f8c 333e 45a5 923e 6e8a 2fbb d792 2f3e
000000a0: 31b2 05be b026 bbbd 001f 113e 9315 54bd
000000b0: 9072 c33d 5ecc 973d 43b8 2ebe 34ea 5a3e
000000c0: a5f7 a43e a74e 10be f1eb e63c c88f af3e
000000d0: e5c5 983d 6353 21bd

rnn.1.2.running_var f4 [54]
0.5577863 0.5376824 0.6503376 0.5906527 0.8021846 0.6222565 0.92294484 0.38456312
0.536153 0.4007009 0.30264902 0.098319955 0.24173759 0.59275913 1.1337672 0.14092599
0.27042276 0.94526076 0.7653148 0.67354804 0.41943985 0.37110028 0.42881346 0.4107818
0.43350518 0.23226419 1.0495207 0.44322067 0.17642495 0.6855216 0.33751783 0.30088142
0.10436124 0.4761148 0.27061298 0.87014526 0.6291906 0.35174417 0.54130006 0.13384816
0.18879089 1.0644015 0.1311075 0.32001296 1.2365311 0.3718933 0.47130042 0.92581177
0.5085523 0.15930685 0.34077173 0.14208825 0.6389823 0.3133264
00000000: 15cb 0e3f 8ea5 093f 867c 263f 0435 173f
00000010: f85b 4d3f 344c 1f3f 1d46 6c3f 75e5 c43e
00000020: 5341 093f ab28 cd3e d0f4 9a3e f95b c93d
00000030: 0f8a 773e 10bf 173f 491f 913f e74e 103e
00000040: da74 8a3e 9cfc 713f aceb 433f a56d 2c3f
00000050: d2c0 d63e db00 be3e 708d db3e fe51 d23e
00000060: 64f4 dd3e aad6 6d3e b256 863f d2ed e23e
00000070: bea8 343e 587e 2f3f 23cf ac3e 210d 9a3e
00000080: 59bb d53d 52c5 f33e c98d 8a3e d7c1 5e3f
00000090: a312 213f d017 b43e a492 0a3f 7e0f 093e
000000a0: 6652 413e 4f3e 883f 0b41 063e bdd8 a33e
000000b0: a746 9e3f cc68 be3e 4a4e f13e 0002 6d3f
000000c0: 7c30 023f 5621 233e a279 ae3e 957f 113e
000000d0: 5894 233f 516c a03e

rnn.1.4.weight f4 [46, 54]
0.003356693 -0.058105446 0.010743077 -0.090815775 -0.04149046 -0.06348393 0.1539235 -0.102044255
-0.1314447 0.035457533 0.09115563 -0.13907807 0.07595394 -0.024474194 -0.06944038 -0.17963843
0.17691347 0.0560343 -0.015794538 -0.11020321 -0.066040985 0.09402972 -0.02340572 0.042541463
-0.027819373 0.046571717 0.16337216 -0.026280569 -0.0220107 -0.047152735 -0.19449812 0.09208111
0.15595315 -0.20221196 0.05485124 -0.025644744 0.022837609 -0.03238813 -0.061296582 -0.055551626
-0.09673783 0.017828181 -0.04001789 -0.11937293 -0.0033724285 -0.0076165944 -0.08013499 0.08586631
-0.13871177 0.05019638 0.12562877 0.20984216 0.029365694 -0.045284625 0.13023685 0.17870843
0.032787923 -0.07793441 0.0691916 -0.17212465 0.09030947 -0.13081686 -0.09968092 -0.03597996
-0.102750845 -0.1283368 0.037030566 -0.05381713 0.11124618 0.14141464 -0.075002626 0.09402805
-0.071024306 -0.06402845 -0.10803121 -0.049740043 0.08693045 -0.007535167 -0.026871078 0.092718095
0.14468227 -0.043976564 0.09446228 -0.08962474 0.12161897 0.10291842 0.07675245 -0.08053307
-0.106465496 -0.0097417785 0.027969418 0.112336576 -0.037921216 -0.12540755 -0.0023976427 -0.17006339
0.19482747 0.09329833 0.18048464 -0.17474313 -0.033279497 0.19467406 0.083669685 0.10388794
0.08250786 -0.018496148 -0.10335028 0.0108453985 0.08826701 0.011852243 0.101116575 -0.09565468
-0.006387117 0.0017404786 -0.09558416 0.05064532 -0.14313017 0.053093858 -0.0933156 0.050506078
0.12884593 -0.14964625 -0.09022757 0.090951785 0.12534529 0.097014815 -0.14667614 0.034854956
-0.088085964 0.03515718 -0.051654283 -0.06344489 0.040451948 0.022553468 -0.108281225 0.015576033
0.058392506 0.005133549 -0.0760412 0.13969149 -0.0942838 0.060854394 -0.087685965 0.027649758
0.1603291 -0.173781 0.119758025 -0.05945844 0.04551226 0.03408735 -0.011828197 -0.09870889
0.12339525 -0.0506695 -0.028881995 -0.020487448 0.090474956 0.003063003 0.08056103 -0.19978374
0.05326253 -0.10912529 0.020598853 -0.025200183 -0.0904989 -0.11643056 -0.18060519 -0.017868878
-0.21799584 -0.099788964 -0.12346239 0.11291046 0.034842547 0.033474237 -0.010661636 0.11609304
0.009024109 -0.05776577 0.040530797 -0.17675033 -0.15199138 0.06705769 0.032015245 0.022514712
-0.0055964543 0.11896248 -0.14549528 0.060655706 0.029639443 -0.080680385 -0.062454622 -0.10232904
-0.027913883 -0.09416984 0.10052551 0.033884604 -0.02695011 -0.20695327 0.16460553 0.051411904
0.017308181 0.07772786 -0.048373625 0.17511117 0.12826306 -0.10878332 0.10671126 -0.13647616
-0.12369309 -0.06284621 -0.02957329 0.04778263 0.14637655 -0.02952146 -0.060380775 -0.10437548
-0.1951455 0.06746831 -0.10531408 -0.20102142 -0.030555792 -0.19006172 0.10162733 -0.3323652
-0.31035233 -0.12620448 0.24349268 -0.014259751 -0.12912813 -0.028183933 -0.13317074 -0.00010222866
0.24775356 -0.11930755 -0.31735772 -0.15000173 0.11236256 -0.016496249 -0.123726726 0.057899114
0.039758053 -0.01487431 -0.19841161 -0.12670709 0.01665804 -0.15010485 0.09704964 -0.063151486
-0.009817635 0.02890263 0.12170981 -0.15444158 0.110140234 0.0946689 0.08543095 0.11978968
00000000: f7fb 5b3b faff 6dbd bb03 303c 9ffd b9bd
00000010: e7f1 29bd dd03 82bd 1f9e 1d3e 94fc d0bd
00000020: 7099 06be eb3b 113d ceaf ba3d 7b6a 0ebe
00000030: bd8d 9b3d 1b7e c8bc c236 8ebd 23f3 37be
00000040: ce28 353e 3984 653d 8c63 81bc 38b2 e1bd
00000050: 7f40 87bd a792 c03d 5abd bfbc f53f 2e3d
00000060: 74e5 e3bc fcc1 3e3d 084b 273e 594a d7bc
00000070: c94f b4bc 3a23 41bd 842a 47be 0595 bc3d
00000080: 2fb2 1f3e a710 4fbe b2ab 603d ed14 d2bc
00000090: f015 bb3c 6aa9 04bd 2012 7bbd 1a8a 63bd
000000a0: 7c1e c6bd 680c 923c cde9 23bd cb79 f4bd
000000b0: f603 5dbb a094 f9bb d01d a4bd adda af3d
000000c0: 750a 0ebe b89a 4d3d d4a4 003e dde0 563e
000000d0: 5390 f03c 5f7c 39bd cf5c 053e 58ff 363e
000000e0: a14c 063d 139c 9fbd 53b4 8d3d 7241 30be
000000f0: 2cf4 b83d dbf4 05be 8325 ccbd b95f 13bd
00000100: 096f d2bd b96a 03be 5dad 173d 5a6f 5cbd
00000110: 0ad5 e33d 00cf 103e fa9a 99bd c791 c03d
00000120: 3175 91bd 5921 83bd 783f ddbd 37bc 4bbd
00000130: 9708 b23d 90e9 f6bb bc20 dcbc fce2 bd3d
00000140: 9727 143e c520 34bd 7175 c13d 2d8d b7bd
00000150: 5e13 f93d e5c6 d23d 6330 9d3d 86ee a4bd
00000160: 950a dabd fb9b 1fbc 1f20 e53c b810 e63d
00000170: 4753 1bbd d66a 00be c521 1dbb 1925 2ebe
00000180: da80 473e 3213 bf3d f7d0 383e ddef 32be
00000190: 1550 08bd a358 473e 035b ab3d 33c3 d43d
000001a0: e2f9 a83d 3c85 97bc 50a9 d3bd e6b0 313c
000001b0: 56c5 b43d e92f 423c 3516 cf3d 9ae6 c3bd
000001c0: 054b d1bb c520 e43a a1c1 c3bd 7871 4f3d
000001d0: b790 12be f278 593d 401c bfbd 76df 4e3d
000001e0: 30f0 033e de3c 19be 3bc9 b8bd ee44 ba3d
000001f0: 845a 003e b4af c63d 4532 16be 12c4 0e3d
00000200: 6a66 b4bd fa00 103d 7193 53bd 65ef 81bd
00000210: f1b0 253d 0dc2 b83c 8cc2 ddbd 9e32 7f3c
00000220: fb2c 6f3d 5537 a83b 7dbb 9bbd 490b 0f3e
00000230: dd17 c1bd 7542 793d b394 b3bd bf81 e23c
00000240: 502d 243e a5f3 31be b243 f53d b18a 73bd
00000250: 106b 3a3d 2d9f 0b3d 0ecb 41bc e327 cabd
00000260: a6b6 fc3d d28a 4fbd ef99 ecbc 4bd5 a7bc
00000270: ef4a b93d aabc 483b 2efd a43d 1c94 4cbe
00000280: d029 5a3d 147d dfbd edbe a83c 9d70 cebc
00000290: 7d57 b9bd 2573 eebd 91f0 38be c161 92bc
000002a0: 4d3a 5fbe 285e ccbd d9d9 fcbd 993d e73d
000002b0: 0fb7 0e3d 481c 093d 24ae 2ebc 30c2 ed3d
000002c0: dbd9 133c cd9b 6cbd 9f03 263d 0afe 34be
000002d0: a1a3 1bbe 8b55 893d 6b22 033d c670 b83c
000002e0: 7662 b7bb 9aa2 f33d b7fc 14be 1e72 783d
000002f0: 6bce f23c c23b a5bd 6bd0 7fbd e391 d1bd
00000300: a8ab e4bc 1edc c0bd 52e0 cd3d 95ca 0a3d
00000310: 7ac6 dcbc 8feb 53be 5a8e 283e 4a95 523d
00000320: e3c9 8d3c c92f 9f3d 6c23 46bd 5850 333e
00000330: 6457 033e cac9 debd 6f8b da3d 68c0 0bbe
00000340: ce52 fdbd 84b5 80bd af43 f2bc b8b7 433d
00000350: bce3 153e fdd6 f1bc d551 77bd d0c2 d5bd
00000360: 39d4 47be d32c 8a3d e9ae d7bd 8fd8 4dbe
00000370: 2450 fabc 8a9f 42be fd21 d03d c62b aabe
00000380: 80e6 9ebe bf3b 01be 2556 793e bba1 69bc
00000390: 2a3a 04be fee1 e6bc e95d 08be 9863 d6b8
000003a0: 1cb3 7d3e 8457 f4bd b67c a2be 0e9a 19be
000003b0: 581e e63d 2423 87bc 7064 fdbd 9f27 6d3d
000003c0: 57d9 223d 61b3 73bc 6a2c 4bbe 81bf 01be
000003d0: 7176 883c 16b5 19be f6c1 c63d 9155 81bd
000003e0: 25da 20bc 35c5 ec3c fe42 f93d ef25 1ebe
000003f0: 3491 e13d c5e1 c13d 6cf6 ae3d 4b54 f53d
