DeepHedging_clean/BS/trained_models/RNN_BN_simple_AAPL_GOOGL_MSFT_AMZN.pt (torch, 711360 bytes, 541 tensors)

embedding.weight f4 [4, 10]
0	0xc025069d	-2.5785286
1	0x3f5a85ed	0.85360605
2	0xbf119451	-0.5686694
3	0x3e67541e	0.22590682
4	0x3f8c9591	1.0983144
5	0xbe310a5c	-0.17289108
6	0x3e7076eb	0.23482864
7	0xc0036944	-2.0533
8	0x3fd88f9f	1.691883
9	0x3fb49923	1.4109234
10	0x40052e97	2.0809686
11	0xbf121438	-0.570621
12	0xbe8b5a35	-0.2721726
13	0x3f0ead10	0.5573282
14	0x4012b3ee	2.292232
15	0x3f756b98	0.958673
16	0xbecbaeb7	-0.39781734
17	0xbf2c9144	-0.6740916
18	0xbf2d7301	-0.6775361
19	0xbf15d6c3	-0.58530825
20	0xbf178fac	-0.592036
21	0x3ecfa6bd	0.405569
22	0x3ed41b2e	0.41426986
23	0xbe127e2c	-0.14305943
24	0xbf94c65d	-1.1623036
25	0x3fa095d0	1.2545719
26	0xbf47806a	-0.7793032
27	0xbe0dd359	-0.13850154
28	0xbf5c4040	-0.8603554
29	0x3f2f43a5	0.6846259
30	0xbf916a38	-1.136054
31	0x3f51aaf1	0.8190146
32	0x3f7d07c5	0.9883998
33	0xbee59fb4	-0.44848406
34	0xbe351a95	-0.17685921
35	0xc01343ce	-2.3010135
36	0xc027e50e	-2.6233554
37	0xbefa394e	-0.48871845
38	0x3ec89bd2	0.3918138
39	0xbfac52bf	-1.3462752

rnn.0.0.weight f4 [14]
0	0x3f800000	1.0
1	0x3f800000	1.0
2	0x3f800000	1.0
3	0x3f800000	1.0
4	0x3f81468a	1.0099652
5	0x3f7ca754	0.9869282
6	0x3f811632	1.0084898
7	0x3f815358	1.010356
8	0x3f818845	1.0119711
9	0x3f7e825c	0.9941766
10	0x3f7b2ae0	0.981123
11	0x3f7f4e97	0.99729294
12	0x3f80777e	1.0036466
13	0x3f7ee06f	0.9956121

rnn.0.0.bias f4 [14]
0	0xb99fe802	-0.00030499703
1	0xbb68403b	-0.0035438675
2	0x3c4673f5	0.012112607
3	0x3b5afed2	0.0033416045
4	0xbb8a4c3e	-0.0042205146
5	0x39431f81	0.00018608385
6	0xbc309518	-0.010777734
7	0x3b0a25e1	0.0021079706
8	0x3b1e3350	0.0024139471
9	0x3a9d5726	0.0012004122
10	0x3ba7a2ac	0.0051158275
11	0x3b834088	0.0040054955
12	0x3b48374a	0.0030550533
13	0x3b425961	0.0029655325

rnn.0.0.running_mean f4 [14]
0	0x00000000	0.0
1	0x00000000	0.0
2	0x00000000	0.0
3	0x00000000	0.0
4	0xbf0f3207	-0.5593571
5	0x3ec16f10	0.37780046
6	0x3e0f5e96	0.14000925
7	0x3d443d61	0.047910098
8	0x3f039fb6	0.51415575
9	0xbd8ad3b1	-0.06778658
10	0xbf642e3c	-0.8913305
11	0xbf572332	-0.8403808
12	0x3e0e96c5	0.13924702
13	0x3d292560	0.04129541

rnn.0.0.running_var f4 [14]
0	0x00000001	1e-45
1	0x00000001	1e-45
2	0x00000001	1e-45
3	0x00000001	1e-45
4	0x40363bc6	2.8473983
5	0x3ea928ae	0.3303885
6	0x3ebc2a2b	0.36750922
7	0x3e13087e	0.14358708
8	0x3fd8f809	1.6950694
9	0x3ff9b472	1.9508193
10	0x3f912059	1.1337997
11	0x3f0794a0	0.5296116
12	0x3f849cc6	1.0360343
13	0x3f93bf11	1.1542684

rnn.0.1.weight f4 [44, 14]
0	0xbd281a0e	-0.041040473
1	0xbdd1e5fe	-0.10248946
2	0xbe462d10	-0.19353127
3	0xbc027430	-0.007962272
4	0xbb8c9614	-0.0042903516
5	0xbd8851c9	-0.06656224
6	0xbdda6cf0	-0.106653094
7	0xbe7d17da	-0.2471613
8	0xbdec23f2	-0.115302935
9	0x3e7d2d94	0.24724418
10	0xbbb7884a	-0.0056009637
11	0xbe25cb8b	-0.16190927
12	0x3e531858	0.20614755
13	0xbc89243a	-0.016740907
14	0x3df74b38	0.12074894
15	0x3e1eb559	0.15498866
16	0xbd0592da	-0.03261075
17	0x3e52a6c0	0.20571423
18	0xbe768eb1	-0.2407787
19	0x3e142d32	0.14470366
20	0xbd733585	-0.059377212
21	0x3d7425aa	0.05960623
22	0xbae47419	-0.0017429619
23	0x3d5cc3c3	0.05389763
24	0xbcff9a4a	-0.0312015
25	0xbe70bc73	-0.23509388
26	0xbd229515	-0.039692957
27	0x3e7f1188	0.24909031
28	0xbbb8520d	-0.0056250156
29	0xbe787cf4	-0.24266416
30	0x3e20c9a1	0.15701915
31	0x3d0ceecf	0.034407433
32	0xbe7809ea	-0.24222532
33	0xbd68efb6	-0.05686923
34	0xbd8c25f1	-0.06843174
35	0x3d671678	0.056417912
36	0x3e7a7599	0.24458922
37	0x3cf9d110	0.030495197
38	0x3e592b7d	0.21207996
39	0x3ca9fd31	0.020750614
40	0x3e8ba476	0.2727391
41	0x3e647e4f	0.22313808
42	0x3e6edef6	0.2332724
43	0x3e506703	0.20351796
44	0xbbda6529	-0.0066648913
45	0xbd5c0612	-0.053716727
46	0xbe6edc4d	-0.23326226
47	0xbcb9d29a	-0.02268343
48	0x3e2acf46	0.16680631
49	0xbd516dd8	-0.051130146
50	0x3e6e93b4	0.23298532
51	0xbe8609ec	-0.26179445
52	0x3e8318ec	0.2560495
53	0x3e18fab6	0.14939389
54	0xbdeac5a3	-0.114634775
55	0x3d5efd00	0.0544405
56	0x3df14716	0.11781137
57	0xbe46e30e	-0.19422552
58	0x3e6d4db8	0.23174179
59	0xbe65d3dc	-0.22444099
60	0x3e5afc5e	0.21385333
61	0xbe8bf96f	-0.2733874
62	0x3e597535	0.21236117
63	0xbce329af	-0.027729837
64	0x3e6c73b1	0.23091008
65	0x3d4224f6	0.04739853
66	0xbe7ec9a5	-0.24881609
67	0x3e46ed7c	0.1942653
68	0xbdbcfbc3	-0.09227707
69	0xbe542f5d	-0.20721193
70	0xbdaafb0b	-0.08348664
71	0x3e6d30b4	0.2316311
72	0x3e522102	0.20520404
73	0x3e6aaf6f	0.22918485
74	0x3e89b138	0.2689302
75	0xbd6c1e78	-0.057646245
76	0xbd1a2416	-0.03763207
77	0xbd1ca31a	-0.038241483
78	0x3d281c77	0.04104277
79	0xbe871c05	-0.26388565
80	0x3d2bedbb	0.041974764
81	0xbd8c9c9d	-0.06865809
82	0x3d0b2f7b	0.033980828
83	0x3cf9c7ef	0.030490844
84	0xbe77fd93	-0.24217825
85	0x3e6ef9fb	0.23337547
86	0xbe6b3c93	-0.22972326
87	0x3dc07e7a	0.093991235
88	0x3da06ce5	0.0783327
89	0x3e6a43f3	0.22877483
90	0x3d69ade5	0.057050604
91	0xbdd03fdf	-0.101684324
92	0xbe425a6c	-0.18979806
93	0x3d21f55e	0.03954064
94	0xbc96fcaa	-0.018431026
95	0xbdde3f0d	-0.1085187
96	0x3e8b07ff	0.27154538
97	0xbda0f1d6	-0.078586265
98	0x3e65e22c	0.22449559
99	0x3e03032a	0.12794176
100	0x3de2c577	0.1107282
101	0xbcac8082	-0.021057371
102	0x3a4953a0	0.00076800026
103	0xbd460c98	-0.048351854
104	0x3d5b9784	0.053611293
105	0xbe2123f3	-0.1573637
106	0x3d7165ed	0.058935095
107	0x3ce4fe63	0.027953332
108	0xbdd84d6c	-0.10561642
109	0x3e664396	0.2248672
110	0x3dbc6c0d	0.092002966
111	0x3d7f5a98	0.062342256
112	0x3e3b0465	0.18263395
113	0xbda1d115	-0.07901207
114	0xbcae7bab	-0.021299204
115	0xbe61a85b	-0.22036879
116	0xbe57c828	-0.21072447
117	0x3da86f65	0.08224372
118	0x3db13ccd	0.08654175
119	0xbe64cf21	-0.22344638
120	0x3e3a2405	0.18177803
121	0x3e68f050	0.22747922
122	0x3d9a65e9	0.07538969
123	0xbdaee992	-0.08540644
124	0xbe6bba58	-0.23020303
125	0x3de7fbcb	0.113273226
126	0x3e4d2b3e	0.20036027
127	0xbe808482	-0.25101095
128	0x3d9690ab	0.07351812
129	0xbe65310c	-0.22381991
130	0xbdbd7f92	-0.09252848
131	0xbd651e53	-0.055937123
132	0x3e84f674	0.2596928
133	0x3e25b77d	0.16183276
134	0xbe7e3809	-0.24826063
135	0x3e342846	0.17593488
136	0xbc6c95f3	-0.014440048
137	0xbe7606c6	-0.24026021
138	0xbe0df97c	-0.13864702
139	0x3e7fbffe	0.24975583
140	0x3e7018ed	0.23447008
141	0xbcba86ff	-0.02276945
142	0xbe16ac70	-0.14714217
143	0xbba3d758	-0.005000036
144	0x3dc0f6cf	0.09422075
145	0xbe1e1373	-0.15437107
146	0xbe54b422	-0.2077184
147	0x3e488a89	0.19584097
148	0xbdb940a7	-0.090455346
149	0x3e1dc36f	0.15406583
150	0x3d7e9cfc	0.06216143
151	0xbe16dff1	-0.14733864
152	0xbe4d663f	-0.20058535
153	0xbe20ec82	-0.1571522
154	0x3dcd0060	0.10009837
155	0x3e3e8adf	0.18607663
156	0xbe3576a2	-0.17721036
157	0xbe34052f	-0.17580102
158	0x3d3b4e5a	0.04572902
159	0xbabf07bc	-0.0014574449
160	0x3e1827b4	0.14858896
161	0xbcfea01b	-0.031082204
162	0xbd653b74	-0.055964902
163	0x3dc0532f	0.09390866
164	0xbe0624a9	-0.13099922
165	0xbdc31d02	-0.09527017
166	0xbd98ea48	-0.074665606
167	0x3e1583f8	0.14601123
168	0xbcb2dee2	-0.021834794
169	0xbe1cd285	-0.15314682
170	0x3e41f365	0.18940504
171	0x3cdc433a	0.026887525
172	0x3e897b4a	0.26851875
173	0x3e5179b6	0.20456585
174	0x3c3005fc	0.010743614
175	0xbe80f80e	-0.2518925
176	0xbe86ec70	-0.26352262
177	0x3d6d765f	0.057974216
178	0xbcb27350	-0.0217835
179	0x3e6db51f	0.23213623
180	0xbde580b3	-0.11206188
181	0x3e1b49f9	0.15164937
182	0xbd6a33ef	-0.057178434
183	0xbe82a939	-0.25519732
184	0x3e71c74f	0.23611186
185	0xbdeac889	-0.1146403
186	0xbe7ee676	-0.24892601
187	0x3deff16e	0.11715971
188	0x3e35023e	0.17676637
189	0x3dd89d5a	0.105768874
190	0x3e83bb88	0.25729012
191	0x3dce0f22	0.1006148
192	0x3db4ed74	0.08834353
193	0xbe633318	-0.2218746
194	0x3dc2a155	0.09503428
195	0xbd873df9	-0.06603617
196	0xbb36499a	-0.0027814866
197	0xbe86e59e	-0.2634706
198	0xbcf9769f	-0.03045207
199	0xbd637fa3	-0.055541646
200	0x3e8305ff	0.25590512
201	0xbe05734e	-0.13032266
202	0xbd35124d	-0.044206906
203	0x3d949fe1	0.07257057
204	0x3e861f22	0.26195627
205	0x3e3c0e31	0.18364789
206	0xbe573c96	-0.21019205
207	0xbe1060ea	-0.1409947
208	0x3e7f1c62	0.24913171
209	0xbd85297d	-0.06502054
210	0x3bb57118	0.0055371635
211	0xbdc63278	-0.09677595
212	0xbd53d1d1	-0.05171377
213	0xbdbf51c7	-0.0934177
214	0x3dc3152f	0.09525525
215	0x3c44ddc4	0.012015764
216	0xbdc07a7f	-0.09398364
217	0xbd7bbe82	-0.06146098
218	0x3ba68e6d	0.0050828964
219	0x3dc0ad9c	0.09408113
220	0xbcb8d3ee	-0.022561993
221	0xbd5e5a59	-0.05428538
222	0x3df53c60	0.11974406
223	0xbe8032a6	-0.25038642
224	0xbe03898e	-0.12845442
225	0xbe3bd397	-0.18342434
226	0xbda175cb	-0.07883795
227	0xbe6125ee	-0.21987125
228	0xbd712f64	-0.058883086
229	0xbe302431	-0.17201306
230	0xbce16777	-0.027515156
231	0xbce4dfbf	-0.027938722
232	0xbd395c29	-0.045253906
233	0x3dbbb9d5	0.09166304
234	0x3e0eef68	0.13958514
235	0xbdb50660	-0.088391066
236	0xbe3664a3	-0.17811827
237	0xbe3a5b98	-0.18199003
238	0xbe587177	-0.21137033
239	0x3e6d50fb	0.23175423
240	0x3e594eb3	0.21221428
241	0xbcf7e4f7	-0.030260546
242	0xbe4f821a	-0.20264474
243	0x3c5cbead	0.013473195
244	0xbd670da1	-0.056409482
245	0xbe4e4617	-0.20143925
246	0x3df0c761	0.117567785
247	0x3cf4b8e2	0.029873315
248	0x3e31a881	0.17349435
249	0xbe471d8d	-0.19444866
250	0xbe22187f	-0.15829657
251	0x3d91d07d	0.07119844
252	0xbe4d5699	-0.20052566
253	0x3e67a1a5	0.22620256
254	0x3e5b8689	0.2143804
255	0xbe25cd9a	-0.16191712

rnn.0.1.bias f4 [44]
0	0xbe0121a0	-0.12610483
1	0x3d0f355f	0.034963008
2	0x3e738332	0.23780516
3	0xbe130967	-0.14359055
4	0xbde5dabc	-0.11223361
5	0x3cb791f5	0.022408465
6	0x3e5af56b	0.21382682
7	0x3e48122c	0.19538182
8	0x3dedba15	0.11607758
9	0x3e313c74	0.17308217
10	0x3e346744	0.17617518
11	0x3e059a21	0.13047077
12	0xbe1e799b	-0.15476076
13	0xbe3b74c8	-0.18306267
14	0xbe19eed5	-0.15032513
15	0xbc9bd0ee	-0.019020524
16	0x3daeff15	0.08544747
17	0x3e7edc59	0.24888743
18	0xbd77da8d	-0.06051116
19	0xbe47e14f	-0.19519542
20	0x3b6eddba	0.0036448077
21	0x3bd315e3	0.006441818
22	0xbe7dd57e	-0.24788472
23	0x3dff3059	0.124603935
24	0xbdf76597	-0.120799236
25	0x3dc2fdaf	0.095210426
26	0x3e338c89	0.17534079
27	0xbe15e54e	-0.14638254
28	0xbe7a41f3	-0.2443922
29	0xbdb6bd9b	-0.08922883
30	0xbe48008b	-0.19531457
31	0xbd1ff96a	-0.03905622
32	0xbda6e56d	-0.08149228
33	0x3e118f24	0.1421476
34	0xbcbadcd9	-0.022810386
35	0xbdf1110d	-0.1177083
36	0xbe808675	-0.25102583
37	0xbe1c6c38	-0.15275657
38	0xbe5caf22	-0.21551183
39	0xbe811b6c	-0.25216234
40	0xbd738429	-0.05945221
41	0x3d0695a6	0.03285756
42	0xbd61579a	-0.055015184
43	0xbe3226d8	-0.1739763

rnn.0.2.weight f4 [44]
0	0x3f7e9903	0.9945223
1	0x3f7e5a17	0.99356216
2	0x3f8050c9	1.0024654
3	0x3f7ef689	0.9959493
4	0x3f7d2e76	0.9889902
5	0x3f7ecb76	0.99529207
6	0x3f80245e	1.0011098
7	0x3f803a18	1.0017729
8	0x3f7fb499	0.99884945
9	0x3f80c01f	1.0058631
10	0x3f80bab5	1.0056978
11	0x3f80f7b4	1.0075593
12	0x3f803ef5	1.0019213
13	0x3f80be36	1.0058048
14	0x3f805965	1.0027281
15	0x3f7e891c	0.9942796
16	0x3f80c57b	1.0060266
17	0x3f7e3883	0.9930498
18	0x3f7df16e	0.9919652
19	0x3f7f6fa8	0.9977975
20	0x3f802cbd	1.0013653
21	0x3f7fd108	0.9992833
22	0x3f80985c	1.0046496
23	0x3f80ab04	1.005219
24	0x3f7fa98a	0.9986807
25	0x3f7f00ee	0.99610794
26	0x3f80dc77	1.006728
27	0x3f8096d2	1.0046027
28	0x3f80fa55	1.0076395
29	0x3f8025fa	1.001159
30	0x3f7eb84b	0.9949996
31	0x3f81006e	1.0078256
32	0x3f80ce47	1.0062951
33	0x3f7fd578	0.999351
34	0x3f8085f3	1.0040878
35	0x3f804c8a	1.0023358
36	0x3f80465b	1.0021471
37	0x3f7dd970	0.9915991
38	0x3f8038df	1.0017356
39	0x3f7fb3fe	0.9988402
40	0x3f7d4806	0.98938024
41	0x3f7e62ca	0.9936949
42	0x3f7f35a5	0.9969123
43	0x3f7c5b04	0.9857638

rnn.0.2.bias f4 [44]
0	0xbbf3a402	-0.0074353227
1	0xbbcf9f71	-0.0063361456
2	0xba39f24e	-0.0007093296
3	0xbb4f352e	-0.003161739
4	0xbc3e00c5	-0.011596863
5	0xbb17a581	-0.002313942
6	0x3b11805a	0.0022201748
7	0x3b6dee92	0.003630553
8	0xbaa177d1	-0.0012319033
9	0x3ba9ab55	0.005177895
10	0x3b9b07ce	0.004731155
11	0xba8d3744	-0.0010773917
12	0xbbaa7650	-0.005202092
13	0x3bc2929b	0.005937887
14	0x3bb4f3e5	0.0055222386
15	0xbbb3d127	-0.0054875794
16	0x3bae20f0	0.005313985
17	0xbbfcae56	-0.007711212
18	0xbc348e94	-0.011020321
19	0xba7b2cdb	-0.0009581574
20	0xbc12e482	-0.008965613
21	0xbb6c3488	-0.0036042053
22	0xbb70fb8e	-0.0036771032
23	0x3bf624df	0.0075117196
24	0xba34472f	-0.0006877062
25	0xbb44701e	-0.0029974054
26	0x3aa9cc0f	0.0012954491
27	0x3b9b17a7	0.004733044
28	0x3bfc0d03	0.007691981
29	0xbabbfafd	-0.0014341768
30	0xbb9def36	-0.004819776
31	0x3c0d970d	0.00864197
32	0x3bda1b26	0.0066560684
33	0xb9fcbd4a	-0.00048206217
34	0xbae78c04	-0.0017665629
35	0x3b188050	0.002326984
36	0x3b1a2b61	0.002352439
37	0xbbe49bdf	-0.006976589
38	0x3ae9b275	0.0017829674
39	0xba98ca45	-0.0011656961
40	0xbc4623ef	-0.012093528
41	0xbbc2036b	-0.0059208176
42	0xbba2ec16	-0.0049719913
43	0xbc73ab4f	-0.014872386

rnn.0.2.running_mean f4 [44]
0	0xbe02a1fb	-0.12757103
1	0x3d13a163	0.036042582
2	0x3e7bbfc2	0.24584869
3	0xbe130ad1	-0.14359595
4	0xbde8b1aa	-0.11362012
5	0x3cc46528	0.023974016
6	0x3e562ac1	0.20914747
7	0x3e48e9ff	0.19620512
8	0x3debe166	0.11517601
9	0x3e2ee55e	0.17079684
10	0x3e336a6f	0.1752107
11	0x3dfe88cc	0.12428436
12	0xbe1ce319	-0.15321006
13	0xbe38345f	-0.17988728
14	0xbe1a5733	-0.15072326
15	0xbca17278	-0.019707903
16	0x3dac4ce9	0.08413107
17	0x3e80e9dc	0.2517842
18	0xbd7aedac	-0.061261818
19	0xbe4b3754	-0.19845325
20	0xb8c94bf5	-9.598575e-05
21	0x3c05536a	0.008137563
22	0xbe7bfac7	-0.24607383
23	0x3e0191b2	0.12653235
24	0xbdf3fab1	-0.1191305
25	0x3dc31aac	0.09526572
26	0x3e3752cd	0.1790268
27	0xbe12db2b	-0.14341418
28	0xbe784992	-0.24246815
29	0xbdadc48d	-0.08484755
30	0xbe4d5243	-0.20050912
31	0xbd253cc5	-0.040341157
32	0xbd9e92b0	-0.07742822
33	0x3e107db1	0.14110447
34	0xbcabe2a1	-0.020982089
35	0xbdf1d13c	-0.118074864
36	0xbe824e4d	-0.25450364
37	0xbe18f7d0	-0.14938283
38	0xbe57a751	-0.2105992
39	0xbe7cb97a	-0.24680129
40	0xbd7069ac	-0.058694527
41	0x3d19c0b5	0.037537295
42	0xbd588c55	-0.052868206
43	0xbe3694b3	-0.17830162

rnn.0.2.running_var f4 [44]
0	0x3db60495	0.08887593
1	0x3eeb1e40	0.45921516
2	0x3f2f0028	0.68359613
3	0x3ccf380c	0.02529528
4	0x3f83f3fa	1.0308831
5	0x3d88019b	0.06640931
6	0x3e93becc	0.28856504
7	0x3dc50cb5	0.09621564
8	0x3d9fd8d3	0.07805028
9	0x3e2e29bb	0.17008106
10	0x3ef3565a	0.4752682
11	0x3d23b964	0.039971724
12	0x3ef8b2cd	0.48573914
13	0x3e8c1d7b	0.27366242
14	0x3ebdc0c6	0.37061137
15	0x3d0c0c43	0.03419138
16	0x3dd11eb5	0.10210935
17	0x3e169c88	0.1470815
18	0x3dda5c55	0.10662142
19	0x3edf3f7c	0.43603122
20	0x3e55b266	0.20868835
21	0x3d617d39	0.055051062
22	0x3e051b32	0.12998655
23	0x3eeaf216	0.45887822
24	0x3d22f20d	0.03978162
25	0x3ef2512c	0.47327554
26	0x3f10a651	0.5650378
27	0x3e82983d	0.25506774
28	0x3e24f324	0.16108376
29	0x3dfd98d0	0.12382662
30	0x3eb3a9e9	0.3509057
31	0x3edc5125	0.43030658
32	0x3d61f2d2	0.055163212
33	0x3db7ebcb	0.08980521
34	0x3e0f1263	0.13971858
35	0x3e425d19	0.18980826
36	0x3dc3777b	0.095442735
37	0x3d6f6bc6	0.05845239
38	0x3edfd576	0.43717545
39	0x3ef49d0c	0.47776067
40	0x3e8f56d3	0.2799593
41	0x3f48aefa	0.78391993
42	0x3e352411	0.1768954
43	0x3d1649ef	0.036691602

rnn.0.4.weight f4 [62, 44]
0	0xbde8e079	-0.1137094
1	0xbe01aae9	-0.12662853
2	0xbd1f413e	-0.03888058
3	0x3da19abc	0.07890841
4	0x3dd27c9d	0.10277674
5	0xbde68032	-0.1125492
6	0xbd9022ea	-0.07037909
7	0xbe111aaf	-0.14170335
8	0x3e10d87e	0.14145085
9	0x3e1bbe51	0.15209319
10	0x3d077053	0.033066105
11	0x3e1b21ab	0.15149562
12	0xbd31fc88	-0.043453723
13	0x3dbb9921	0.091600664
14	0x3df3cc1f	0.119041674
15	0x3db91181	0.09036542
16	0x3df60165	0.12011985
17	0x3d08aeee	0.03336995
18	0xbe104f72	-0.14092806
19	0x3ca66712	0.02031282
20	0x3cb9fe96	0.022704404
21	0x3cc495dc	0.02399724
22	0xbc1eb167	-0.009685851
23	0xbd5e73ea	-0.054309763
24	0x3d38ad7b	0.04508732
25	0x3d0cb6e8	0.03435412
26	0x3d191327	0.03737178
27	0x3c15c226	0.009140527
28	0x3d8d618c	0.06903371
29	0x3e0d3569	0.13789906
30	0x3df3e684	0.11909202
31	0xbdf1bbf9	-0.11803431
32	0x3db24644	0.08704808
33	0x3dbb4299	0.09143562
34	0x3cb60f7f	0.022224186
35	0x3d4a1e9b	0.049345594
36	0x3d94bd47	0.07262664
37	0x3df0cba5	0.11757592
38	0x3e0870bb	0.13324253
39	0xbd6b6f78	-0.05747935
40	0x3d869128	0.06570655
41	0xbda5bfcc	-0.08093223
42	0xbdad81bd	-0.08472011
43	0x3d31a4b3	0.04336996
44	0xbdc8058d	-0.09766684
45	0xbd91712d	-0.07101665
46	0x3dd74ea7	0.105130486
47	0x3df137d4	0.117782265
48	0x3d1aea99	0.037821386
49	0x3e1e5313	0.15461378
50	0xbdd966e7	-0.1061533
51	0x3def44e3	0.11683061
52	0x3db7e4b3	0.08979168
53	0xbd05dba2	-0.03268016
54	0x3d8ffcab	0.070306145
55	0xbe01cb3a	-0.12675181
56	0xbd185e46	-0.03719928
57	0xbda8ef24	-0.082487375
58	0xbd90cb34	-0.07070008
59	0xbe05eee9	-0.13079418
60	0x3da37eec	0.07983193
61	0xbe0c2b45	-0.13688381
62	0xbe0277a1	-0.12740947
63	0xbdd7d629	-0.10538895
64	0x3db73a4b	0.089466654
65	0xbd8e881c	-0.069595546
66	0x3daeb9f5	0.08531562
67	0xbd3fa9ca	-0.046792783
68	0xbddccb65	-0.10780982
69	0x3d2262f6	0.039645158
70	0x3d82bb14	0.063833386
71	0xbdf0bc8a	-0.11754711
72	0x3d43ac33	0.047771644
73	0x3b6cf4e7	0.0036156715
74	0xbc4eb541	-0.0126164565
75	0x3e1b0633	0.15139084
76	0x3ddbd756	0.107344314
77	0xbd8be2de	-0.06830381
78	0x3e0d11c8	0.13776314
79	0x3cc7a6d1	0.024371536
80	0xbe0ecabe	-0.13944528
81	0x3ad4b25e	0.0016227474
82	0xbdba208c	-0.09088239
83	0xbd0ea942	-0.034829386
84	0x3de3aba8	0.11116725
85	0xbdcf2964	-0.101153165
86	0x3d1a2f2b	0.03764264
87	0x3e03e677	0.12880884
88	0x3ca2d7da	0.019878317
89	0xbde96816	-0.11396806
90	0xbe00bc99	-0.12571944
91	0xbae236de	-0.0017258783
92	0xbdf69cd1	-0.12041629
93	0x3d9512ce	0.07278977
94	0xbdc7da1b	-0.09758397
95	0xbe1af02f	-0.15130685
96	0x3d86161c	0.06547186
97	0xbe0185f2	-0.12648752
98	0x3db8b7d8	0.090194404
99	0x3e227c0f	0.15867637
100	0x3e2661f6	0.16248307
101	0xbd859416	-0.06522386
102	0xbbfec9a6	-0.007775503
103	0xbe134658	-0.14382303
104	0x3dbf3457	0.09336155
105	0xbe0081a0	-0.12549448
106	0xbd9873eb	-0.074439846
107	0x3d4568ef	0.048195776
108	0xbc133cd3	-0.00898667
109	0x3de36d46	0.11104827
110	0xbe0965e8	-0.1341778
111	0xbc96f5be	-0.018427726
112	0x3d76cca4	0.060253754
113	0xbdad6b76	-0.08467762
114	0x3d98b9cb	0.07457312
115	0x3de89c23	0.11357906
116	0x3d399d96	0.0453163
117	0x3d77ef43	0.060530912
118	0xbe3f0347	-0.18653594
119	0x3da56b03	0.080770515
120	0x3cc96a30	0.024586767
121	0x3e1100cb	0.14160459
122	0x3d93a7c9	0.07209737
123	0xb9c7ac92	-0.00038084813
124	0x3d5fe11d	0.054658044
125	0xbd6e2e69	-0.05814973
126	0xbcae096b	-0.021244725
127	0xbdf5ed12	-0.12008108
128	0xbd1dfa92	-0.03856904
129	0x3dd7ec62	0.10543133
130	0xbd83d008	-0.06436163
131	0x3ddfd534	0.10929337
132	0x3d9f925c	0.07791588
133	0x3d882224	0.06647137
134	0xbe18824c	-0.14893454
135	0x3d8d0450	0.06885588
136	0x3d7ac115	0.061219294
137	0xbddaf692	-0.10691561
138	0x3e15c30f	0.1462519
139	0x3d319335	0.04335328
140	0xbc8e150e	-0.017344024
141	0x3de2eaf0	0.11079967
142	0x3debd5a9	0.11515362
143	0xbca6cd02	-0.020361427
144	0x3d28eb47	0.041240003
145	0xbdb8aa96	-0.09016912
146	0xbd9190e5	-0.071077146
147	0xbde24984	-0.11049178
148	0xbd9f054c	-0.07764682
149	0xbdd66379	-0.10468192
150	0xbddc653c	-0.107614964
151	0xbdf4521e	-0.11929725
152	0xbe156ee8	-0.14593089
153	0xbd7bc5ef	-0.06146806
154	0x3ba13cf3	0.004920596
155	0x3d2c1a81	0.042017464
156	0x3e129437	0.14314352
157	0x3d8a982e	0.06767307
158	0xbda5f421	-0.081032045
159	0xbdff4cfb	-0.12465855
160	0x3de94c23	0.11391475
161	0xbdc7f27c	-0.09763047
162	0x3d3c8e69	0.04603425
163	0x3c9875a7	0.018610789
164	0x3dc7637f	0.09735774
165	0x3c9ed70f	0.019389657
166	0xbd82fba4	-0.06395653
167	0xbc7b8976	-0.015352597
168	0xbdb8bb2d	-0.09020076
169	0xbcc833e1	-0.0244388
170	0x3d07ac4a	0.033123292
171	0xbd1852d6	-0.037188374
172	0xbd3e5d4f	-0.046475705
173	0xbe08d573	-0.13362674
174	0x3ddeb8cc	0.10875091
175	0xbc97feda	-0.01855414
176	0x3e06aac2	0.13151076
177	0xbd890c70	-0.066918254
178	0xbdfb57e6	-0.12272625
179	0x3ca907eb	0.020633658
180	0xbd9b1633	-0.075725935
181	0x3c86ce27	0.016455723
182	0xbdea6639	-0.11445279
183	0x3db963ee	0.09052263
184	0xbdc31a00	-0.095264435
185	0xbd44f2a7	-0.048082974
186	0xbd891dea	-0.06695159
187	0x3dfc5da5	0.12322549
188	0xbd1d58eb	-0.038414877
189	0x3bfdc210	0.0077440813
190	0x3d911cb2	0.07085551
191	0x3d64e816	0.055885397
192	0x3d76a298	0.060213655
193	0xbd3c14f5	-0.045918424
194	0x3dc1075f	0.09425234
195	0xbd623b1a	-0.055232145
196	0xbdc9b9cb	-0.0984989
197	0x3e080e8a	0.13286796
198	0xbc8b9791	-0.017040046
199	0x3da07422	0.078346506
200	0x3e04581a	0.12924233
201	0x3d93ac23	0.07210567
202	0xbe152bee	-0.14567539
203	0xbe1cadd7	-0.1530069
204	0xbd3785e8	-0.044805437
205	0xbd667f49	-0.056273732
206	0x3d499d9f	0.049222585
207	0xbdb912bd	-0.09036777
208	0xbddb6829	-0.10713226
209	0xbcfcaeb1	-0.030845018
210	0xbe163c05	-0.14671333
211	0xbdfa4b50	-0.12221396
212	0xbdddb09c	-0.10824701
213	0x3c8a4817	0.016880078
214	0x3d47ddd6	0.048795544
215	0xbdb18fe7	-0.08670025
216	0xbd4eaac1	-0.050455812
217	0xbe0c8a42	-0.13724616
218	0xbce524b3	-0.027971601
219	0x3c94c167	0.018158628
220	0x3dbb3a0a	0.091419294
221	0x3df8b0e0	0.12143111
222	0x3e142a4c	0.1446926
223	0x3d66a5a4	0.05631031
224	0x3e11d788	0.14242375
225	0x3a7aa2b8	0.000956099
226	0xbce588aa	-0.028019268
227	0x3e07950f	0.13240455
228	0x3e03bbe4	0.12864643
229	0x3e1926cd	0.14956208
230	0xbe1b9515	-0.15193589
231	0x3d90e5b9	0.07075066
232	0xbdf44f12	-0.11929144
233	0x3d980877	0.074234895
234	0xbdc63e83	-0.09679892
235	0x3cb38442	0.021913651
236	0xbd93008e	-0.0717784
237	0x3d1a075b	0.03760467
238	0xbda19aa3	-0.07890823
239	0x3de85afb	0.11345478
240	0x3dda5816	0.10661332
241	0x3d8088db	0.06276103
242	0x3cdab970	0.026699752
243	0x3d29be74	0.041441396
244	0x3e0c8c1a	0.1372532
245	0x3cb4c5bd	0.022066945
246	0x3cb89d06	0.022535812
247	0xbe06304e	-0.13104364
248	0xbe0b66a1	-0.13613369
249	0x3caa4c49	0.020788329
250	0x3d12e4ea	0.03586284
251	0x3db8ab9c	0.09017107
252	0x3c8af760	0.01696366
253	0x3d018626	0.031622075
254	0xbdeeb625	-0.11655835
255	0x3b90f7ee	0.004424087

rnn.0.4.bias f4 [62]
0	0xbc427541	-0.011868776
1	0xbb174a6b	-0.0023085128
2	0xbdf26ccd	-0.11837158
3	0x3bce8d6b	0.0063034794
4	0x3a2b0490	0.0006523812
5	0xbdb78067	-0.08960038
6	0x3d8ac490	0.067757726
7	0xbcd4cb0c	-0.025975727
8	0xbde19e87	-0.11016565
9	0x3d6aabea	0.057292856
10	0xbdb1058d	-0.08643637
11	0x3dc9b5c8	0.09849125
12	0xbdb6de8f	-0.089291684
13	0xbd8d1a53	-0.068897866
14	0x3cea26ac	0.028582893
15	0xbd241373	-0.04005761
16	0xbdc33830	-0.09532201
17	0x3cbdc541	0.023165347
18	0xbdac9e00	-0.084285736
19	0xbe14662b	-0.14492099
20	0x3ac25d2b	0.0014828792
21	0xbdce3988	-0.10069567
22	0xbe0a8207	-0.13526164
23	0x3dcd6aa9	0.100301094
24	0x3de8c796	0.11366193
25	0xbcc3ec34	-0.023916341
26	0xbda6187a	-0.08110137
27	0x3dd9b44a	0.106300905
28	0xbb839307	-0.0040153298
29	0x3c0f0e7a	0.008731479
30	0x3e0d3ec5	0.13793476
31	0xbd73ccd8	-0.059521526
32	0x3dfc0a6f	0.123066776
33	0xbdeb735e	-0.11496614
34	0xbe0e200d	-0.13879414
35	0x3daee419	0.085396
36	0x3da3fab3	0.080068015
37	0x3c369c94	0.01114573
38	0xbe13b3bd	-0.14424033
39	0x3c8cd6bc	0.017192237
40	0x3d569340	0.052386522
41	0x3dc6f268	0.09714204
42	0x3da0f9ce	0.078601465
43	0x3dcd00af	0.10009896
44	0xbda628e1	-0.08113266
45	0x3dff8c5c	0.12477943
46	0xbd880a48	-0.06642586
47	0x3e13cab8	0.144328
48	0xbda090a3	-0.07840087
49	0xbbb69b3b	-0.005572704
50	0xbdf0ed7c	-0.117640465
51	0x3e15af64	0.14617687
52	0x3d752c5c	0.059856758
53	0xbdd46028	-0.10369903
54	0x3b5d47b8	0.0033764672
55	0x3df997fd	0.121871926
56	0xbdfb2515	-0.12262932
57	0xbd237e91	-0.039915625
58	0xbe04d8c8	-0.1297332
59	0x3cb39cc3	0.021925336
60	0xbd567270	-0.05235523
61	0xbc6a87fb	-0.014314647

rnn.0.5.weight f4 [62]
0	0x3f7c2d50	0.9850664
1	0x3f800714	1.000216
2	0x3f86f50f	1.0543536
3	0x3f7f5bad	0.9974926
4	0x3f8148e0	1.0100365
5	0x3f7ef0ca	0.99586165
6	0x3f7dd8f5	0.99159175
7	0x3f7ef959	0.99599224
8	0x3f809541	1.0045549
9	0x3f7d27e5	0.98889
10	0x3f7e95dc	0.9944742
11	0x3f7c5a60	0.985754
12	0x3f7e2859	0.99280316
13	0x3f7fe07f	0.9995193
14	0x3f7fd42c	0.99933124
15	0x3f7cb0ff	0.98707575
16	0x3f7ee476	0.99567354
17	0x3f7dc918	0.9913497
18	0x3f8019d1	1.0007879
19	0x3f800a42	1.000313
20	0x3f7ceeed	0.9880207
21	0x3f7f9a43	0.9984476
22	0x3f7f8600	0.9981384
23	0x3f802c4a	1.0013516
24	0x3f7f05ae	0.9961804
25	0x3f793f0e	0.9736184
26	0x3f8091c9	1.004449
27	0x3f7faeef	0.998763
28	0x3f7d0e38	0.9884982
29	0x3f80adb0	1.0053005
30	0x3f7d8208	0.99026537
31	0x3f7a5fee	0.9780263
32	0x3f802fa7	1.0014542
33	0x3f8112dd	1.0083882
34	0x3f81cc73	1.0140518
35	0x3f7c519b	0.9856202
36	0x3f7e0833	0.9923126
37	0x3f8080f2	1.0039351
38	0x3f828f3f	1.0199965
39	0x3f7db3b2	0.9910232
40	0x3f7eb4bf	0.99494547
41	0x3f79dc17	0.97601455
42	0x3f7e0a6c	0.9923465
43	0x3f80d585	1.0065161
44	0x3f8350bc	1.0259013
45	0x3f80653f	1.0030898
46	0x3f7dff0f	0.99217314
47	0x3f823e9e	1.0175359
48	0x3f7c5a72	0.9857551
49	0x3f7eafe6	0.9948715
50	0x3f809312	1.0044882
51	0x3f86925f	1.0513419
52	0x3f82b77a	1.0212243
53	0x3f7ee210	0.99563694
54	0x3f7ff473	0.99982375
55	0x3f7ce323	0.98784083
56	0x3f7ea31d	0.9946764
57	0x3f7e083f	0.9923133
58	0x3f7d6706	0.98985326
59	0x3f7ca292	0.9868556
60	0x3f7e83c8	0.9941983
61	0x3f7d5456	0.9895681

rnn.0.5.bias f4 [62]
0	0xbc354721	-0.011064322
1	0x3ad80e27	0.001648371
2	0x3d5e7cc1	0.054318193
3	0xba9c69d2	-0.0011933392
4	0x3c3e12a7	0.011601127
5	0xbb5ab62a	-0.0033372738
6	0xbbf0a0d7	-0.0073433924
7	0xbaff173f	-0.0019461884
8	0x3c2eae71	0.010661707
9	0xbc4114ed	-0.011784774
10	0xbaa58e38	-0.0012630885
11	0xbc2cc3b6	-0.010544708
12	0xbbb5f78d	-0.005553192
13	0x3b232d83	0.0024898953
14	0x3b10ccca	0.002209472
15	0xbc5fb466	-0.01365385
16	0xbc0c1cc4	-0.00855178
17	0xbc12936a	-0.008946279
18	0x3b1fb45d	0.002436898
19	0x3a20e66f	0.0006137853
20	0xbc305a2a	-0.010763684
21	0x3a826da5	0.000995089
22	0xbbbf21a6	-0.0058328686
23	0x3b18cd14	0.0023315595
24	0xbb176919	-0.0023103415
25	0xbc99aeb2	-0.018760059
26	0x3b920541	0.0044561927
27	0x3ade242e	0.0016948038
28	0xbc3e2684	-0.0116058625
29	0x3c3bf075	0.011470904
30	0xbbbcebb9	-0.005765405
31	0xbc276ab9	-0.010218316
32	0x3b02b5af	0.0019944718
33	0x3ba5ec7a	0.0050635906
34	0xb9b03afc	-0.00033613283
35	0xbbc37076	-0.005964334
36	0xbbfd3280	-0.0077269673
37	0x3b93a61f	0.004505887
38	0x3c9ee010	0.01939395
39	0xbb19a0c2	-0.0023441766
40	0xbb59c187	-0.0033226924
41	0xbc0455bf	-0.008077084
42	0xbbcec1cf	-0.006309725
43	0x3bf2ca0c	0.00740934
44	0x3ce57b3a	0.02801286
45	0x3b0e175f	0.002168141
46	0xbc0fed3c	-0.008784588
47	0x3c3aa3d4	0.011391599
48	0xba972262	-0.0011530633
49	0xbbbe33b1	-0.005804502
50	0x3bcba010	0.0062141493
51	0x3d68ba45	0.056818265
52	0x3d06d5f5	0.03291889
53	0xbb91be68	-0.004447747
54	0x3aee0766	0.0018160164
55	0xbb4a6d1e	-0.0030887793
56	0xbb92d73c	-0.0044812243
57	0xbbf42d91	-0.007451721
58	0xbc1cce10	-0.0095706135
59	0xbc0ce515	-0.008599539
60	0xbbc294ae	-0.005938134
61	0xbb2be731	-0.002623033

rnn.0.5.running_mean f4 [62]
0	0x3eefb61f	0.46818635
1	0xbd5166fa	-0.051123597
2	0xbe32aaab	-0.17447917
3	0xbe4046f3	-0.18777065
4	0xbed10ffd	-0.4083251
5	0x3eb31ffa	0.34985334
6	0xbe996e3f	-0.29966924
7	0x3e6cb258	0.23114908
8	0xbedec5fa	-0.4351042
9	0xbe17225e	-0.14759204
10	0xbe9c4382	-0.30520254
11	0x3d069bf3	0.03286357
12	0xbec2d22d	-0.38050976
13	0x3e5e7287	0.21723376
14	0x3deb0362	0.114752546
15	0xbe655af2	-0.22397974
16	0xbe95a7b3	-0.29229507
17	0x3d9d24df	0.07673048
18	0x3e8f061d	0.27934352
19	0xbe8234dd	-0.25430956
20	0xbdccddcc	-0.10003242
21	0x3e88ec05	0.2674257
22	0xbd48e7d8	-0.04904923
23	0x3d0c5651	0.034262005
24	0x3ed2398e	0.41059536
25	0x3ecbb5c5	0.39787117
26	0x3e875e1d	0.2643899
27	0x3e0ab8a5	0.13546999
28	0x3e2bc66c	0.1677491
29	0x3d08ee30	0.03343028
30	0xbc1a7326	-0.009426868
31	0x3df7a3ae	0.12091766
32	0x3dc8337b	0.09775444
33	0xbe9245e2	-0.2856894
34	0xbed2521e	-0.41078275
35	0x3eedd73f	0.46453282
36	0xbe0ac556	-0.1355184
37	0x3d3fb234	0.046800807
38	0xbe728f81	-0.23687555
39	0x3e386384	0.18006712
40	0xbe2ba668	-0.16762698
41	0x3d1360b5	0.0359809
42	0x3e5792fb	0.21052162
43	0xbe3b4db3	-0.18291359
44	0xbd809178	-0.06277746
45	0xbddb5c79	-0.10710997
46	0xbc71d0d0	-0.014759257
47	0xbe801819	-0.25018385
48	0x3e83c38a	0.25735122
49	0x3de09b4d	0.10967121
50	0xbe6f4a51	-0.23368193
51	0xbd4a54db	-0.04939733
52	0x3d3a3824	0.045463696
53	0x3cb04ef7	0.021522028
54	0xbf02e3d8	-0.5112891
55	0x3d9d3898	0.0767681
56	0xbf63a447	-0.8892254
57	0x3d5fd256	0.05464395
58	0x3e3d34c4	0.1847716
59	0x3e22351a	0.15840569
60	0xbed065cc	-0.40702665
61	0xbeaa89ae	-0.33308166

rnn.0.5.running_var f4 [62]
0	0x3d1149a9	0.03547064
1	0x3e34b272	0.17646196
2	0x3e91e526	0.2849514
3	0x3ec1f12f	0.3787932
4	0x3d6b02a7	0.057375576
5	0x3edd7c3f	0.43258855
6	0x3d9bfb6c	0.07616314
7	0x3e168b90	0.14701676
8	0x3e2b75ed	0.16744204
9	0x3cc97025	0.024589607
10	0x3d2f46e2	0.04279221
11	0x3db76d0f	0.08956348
12	0x3e0198cb	0.12655942
13	0x3e57296d	0.21011896
14	0x3da5cc58	0.08095616
15	0x3ebd9dc9	0.37034443
16	0x3f0e751f	0.5564746
17	0x3d745929	0.059655342
18	0x3e8eef2e	0.27916855
19	0x3d3aad06	0.045575164
20	0x3cb590e1	0.02216381
21	0x3e0bcb32	0.13651732
22	0x3df503c5	0.119636096
23	0x3dd54c06	0.10414891
24	0x3df868b1	0.12129343
25	0x3db48155	0.088137306
26	0x3e0dd68d	0.13851376
27	0x3d930215	0.071781315
28	0x3d346754	0.044043854
29	0x3e8e218d	0.27759972
30	0x3dd5de84	0.10442832
31	0x3d4de2b1	0.050265018
32	0x3e23fc5a	0.16014233
33	0x3dc7cb26	0.09755544
34	0x3d4ac8e7	0.049508
35	0x3cfa3bbb	0.03054606
36	0x3d87da31	0.066334136
37	0x3e7083b7	0.23487745
38	0x3eaa4004	0.33251965
39	0x3dc47060	0.09591746
40	0x3daa895a	0.08326979
41	0x3e336504	0.17519003
42	0x3da191b7	0.07889121
43	0x3e6c6481	0.23085214
44	0x3dea3a0b	0.11436852
45	0x3e18eb04	0.14933401
46	0x3d946211	0.07245267
47	0x3db3b27a	0.08774276
48	0x3e3d783a	0.18502894
49	0x3caaaf1d	0.020835454
50	0x3cd6d3a7	0.02622397
51	0x3e51abca	0.20475689
52	0x3e15e39b	0.14637606
53	0x3de7f931	0.11326826
54	0x3d8a4e7e	0.067532524
55	0x3d162d00	0.03666401
56	0x3e4ba12c	0.19885701
57	0x3c5b9ef0	0.013404593
58	0x3d3a8200	0.045534134
59	0x3e336bd6	0.17521605
60	0x3d812705	0.063062705
61	0x3d92339a	0.071387485

rnn.0.7.weight f4 [4, 62]
0	0xbbfe3826	-0.0077581583
1	0x3d21b62d	0.039480377
2	0x3db3b4d5	0.08774725
3	0x3d50231e	0.05081474
4	0x3dcdcc27	0.100487046
5	0xbd3cceb1	-0.046095554
6	0xbdea8844	-0.11451772
7	0x3da8c10a	0.08239944
8	0xbc2c483e	-0.010515271
9	0xbdc7b7b0	-0.097518325
10	0xbd1c8ecf	-0.03822213
11	0xbd4e1a65	-0.05031814
12	0x3cada115	0.021194974
13	0xbcfbbd96	-0.03073005
14	0x3dc4eee1	0.09615875
15	0x3ba8a634	0.005146766
16	0x3d49b875	0.049248178
17	0xbbc697ef	-0.0060605924
18	0x3d9cd0b7	0.07656997
19	0x3e018838	0.1264962
20	0x3ccc5bdc	0.024946146
21	0x3db0e292	0.08636965
22	0x3cf81f8a	0.030288476
23	0x3d84b0ea	0.06479056
24	0x3d1114bc	0.035420164
25	0xbd960c90	-0.07326615
26	0x3c563e0f	0.013076319
27	0x3d88dd71	0.066828616
28	0x3d486659	0.04892573
29	0x3cab5db3	0.020918703
30	0x3c3096fd	0.010778186
31	0x3c01b7cd	0.007917357
32	0x3d85964f	0.0652281
33	0x3dbed46a	0.093178585
34	0x3c78c930	0.015184686
35	0x3dfb3e0f	0.12267696
36	0xbdd358a7	-0.103196435
37	0x3d6970f8	0.0569925
38	0x3daf38f4	0.08555785
39	0x3cdf52e3	0.027261203
40	0xbdca07e8	-0.09864789
41	0x3cc44450	0.023958355
42	0xbcb38cc5	-0.02191771
43	0x3e02984e	0.12753412
44	0x3e018f10	0.1265223
45	0x3d582f78	0.052779645
46	0xbd36f439	-0.044666503
47	0x3dfe320d	0.1241189
48	0x3d5c67d5	0.05380996
49	0xbc9ef643	-0.019404536
50	0x3c8ef332	0.017449949
51	0x3cd02525	0.025408337
52	0xbd809e20	-0.0628016
53	0xbd9fda55	-0.078053154
54	0xbd73e39a	-0.05954323
55	0x3d300652	0.042974778
56	0x3d44581e	0.047935598
57	0xbd55ef80	-0.052230358
58	0xbd51a838	-0.051185817
59	0xbdeedadc	-0.11662838
60	0x3d88e1ff	0.0668373
61	0xbcb2c968	-0.021824554
62	0x3d9da96a	0.07698329
63	0xbc30e115	-0.010795851
64	0xbde3ed55	-0.11129252
65	0xbdcaa2a4	-0.098943025
66	0xbde147a2	-0.10999991
67	0xbe0255d2	-0.1272805
68	0x3ba00564	0.004883455
69	0xbe006c70	-0.12541366
70	0xbc8e0c4f	-0.017339854
71	0x3d8e1186	0.06936936
72	0xbddd123e	-0.10794495
73	0x3db77265	0.08957366
74	0xbc1999ce	-0.009375049
75	0x3ba379ac	0.0049888697
76	0xbd8114c0	-0.06302786
77	0xbbf4dd88	-0.0074726976
78	0xbd63a195	-0.05557402
79	0x3d5a5993	0.05330808
80	0x3db9859c	0.09058687
81	0x3d45256b	0.048131388
82	0x3d213fdc	0.03936754
83	0x3ce1e3f5	0.027574519
84	0x3d5a95ba	0.053365447
85	0xbdb31a29	-0.08745224
86	0xbd9d3d10	-0.076776624
87	0x3db3f8a9	0.087876625
88	0xbd9aa73b	-0.07551428
89	0x3dacd468	0.08438951
90	0x3d9d0cc7	0.07668453
91	0xbbf85958	-0.00757901
92	0x3c5d4db2	0.013507294
93	0x3db10d70	0.08645141
94	0x3dbf783a	0.09349103
95	0xbdd0945b	-0.101845466
96	0xbe1b798f	-0.1518309
97	0xbd306ddc	-0.04307352
98	0x3c6f2e36	0.01459842
99	0x3d69ed4f	0.05711108
100	0x3d9d2f29	0.07675011
101	0x3dd1565e	0.10221551
102	0xbda31841	-0.079636104
103	0xbd920b83	-0.07131102
104	0xbb9dd4b6	-0.004816617
105	0xbd783008	-0.06059268
106	0xbdc51921	-0.096239336
107	0x3aeb9e31	0.0017976222
108	0x3d6f6cff	0.058453556
109	0xbd812ea4	-0.06307724
110	0xbe104da2	-0.14092115
111	0xbd9ab71b	-0.07554456
112	0xbd79f6a0	-0.061026216
113	0xbdfc8d5b	-0.12331649
114	0x3cd4c644	0.025973447
115	0xbdad477a	-0.08460899
116	0x3cced850	0.02524963
117	0x3db3fcdb	0.08788463
118	0x3c86ac79	0.016439663
119	0x3d6daeab	0.058027904
120	0x3dd4a4e6	0.103830144
121	0x3d898886	0.06715493
122	0x3cccf6ab	0.025019964
123	0x3de0dbc9	0.10979421
124	0xbd1ff88b	-0.03905539
125	0x3d3793f4	0.044818833
126	0x3d91c46c	0.071175426
127	0xbd0f9823	-0.0350572
128	0x3ccb7c8f	0.024839668
129	0xbdb78322	-0.089605585
130	0xbd8e0195	-0.069338955
131	0xbdd90666	-0.105969235
132	0x3d3cd7f6	0.046104394
133	0xbdc1d71a	-0.094648555
134	0x3c0bc489	0.008530744
135	0x3de12f60	0.10995364
136	0x3d66ce1c	0.056348905
137	0x3de4e5e2	0.11176659
138	0xbda98b5e	-0.08278535
139	0xbda098b3	-0.07841625
140	0xbb5b5027	-0.0033464523
141	0xbdedb538	-0.1160683
142	0x3db1d768	0.086836636
143	0xbd4ec8c2	-0.050484426
144	0xbd008f53	-0.031386685
145	0xbdc020d6	-0.09381263
146	0x3d9170e7	0.071016125
147	0x3d872693	0.06599154
148	0xbd20a0af	-0.03921574
149	0x3c049010	0.008090988
150	0xbc1caa7f	-0.009562134
151	0xbd34a622	-0.04410375
152	0x3d06c382	0.032901295
153	0x3d8f4f20	0.06997514
154	0xbccfef20	-0.025382578
155	0xbd6e8735	-0.058234412
156	0x3c2f4a53	0.010698873
157	0xbd4f0729	-0.050543938
158	0x3d9df879	0.07713408
159	0xbd519e20	-0.05117619
160	0x3d402a8d	0.04691558
161	0x3dc8b76d	0.09800611
162	0x3df3e538	0.119089544
163	0x3de222a2	0.11041762
164	0x3be1fb60	0.0068964213
165	0xbd66c1aa	-0.056337036
166	0xbdb20626	-0.08692579
167	0xbc6a4efb	-0.014301057
168	0x3e0ed292	0.13947514
169	0x3deab790	0.11460793
170	0x3da297a3	0.07939079
171	0xbdd852a3	-0.10562637
172	0xbd83f5a7	-0.06443339
173	0xbdc1056f	-0.094248645
174	0xbd15e277	-0.036592927
175	0x3d97e516	0.074167415
176	0x3dcfd878	0.1014871
177	0xbde7f9f7	-0.11326974
178	0x3db436f0	0.08799541
179	0xbdedd1b1	-0.11612261
180	0xbce3a03c	-0.027786367
181	0x3d8fe21c	0.07025549
182	0xbdce783a	-0.10081525
183	0xbd2d2cd1	-0.04227907
184	0xbd580f3c	-0.052748904
185	0xbc935300	-0.017983913
186	0xbdc8c6af	-0.09803521
187	0xbccb6af0	-0.024831265
188	0x3d925d20	0.071466684
189	0xbd8e5d18	-0.0695135
190	0x3d713d8b	0.058896583
191	0xbcf7584a	-0.030193467
192	0xbdd5e780	-0.10444546
193	0xbdd5e0f3	-0.10443296
194	0x3d9179e5	0.07103328
195	0xbd93fa09	-0.07225425
196	0xbd9d03c4	-0.07666734
197	0xbda5944d	-0.08084927
198	0xbdb97ec5	-0.090573825
199	0xbb09bd96	-0.0021017543
200	0xbba0268d	-0.004887408
201	0xbd8a2635	-0.06745569
202	0xbda53c98	-0.08068198
203	0x3d132bfc	0.03593062
204	0x3c40a79c	0.011758711
205	0x3c72ed5b	0.014827098
206	0xbd6be98f	-0.057595786
207	0x3d876932	0.06611861
208	0x3db3c412	0.08777632
209	0xbd9204d3	-0.071298264
210	0xbdb1afd1	-0.086761124
211	0xbdd8040b	-0.10547646
212	0x3dfb7b61	0.12279392
213	0x3dfd61bc	0.12372157
214	0xbc47487b	-0.012163277
215	0xbd5559d7	-0.05208763
216	0xbd4da498	-0.050205797
217	0x3cac23e0	0.0210132
218	0x3d9de7d7	0.077102356
219	0xbdfb9183	-0.122836135
220	0x3da62878	0.081131876
221	0xbd0cfa33	-0.034418296
222	0xbd849f9b	-0.06475755
223	0x3d3149f1	0.043283407
224	0xbcd711c8	-0.026253596
225	0x3b0fce44	0.0021943012
226	0xbd46fa11	-0.048578326
227	0x3db00da2	0.0859635
228	0xbddd95df	-0.10819601
229	0x3cb03369	0.02150889
230	0x3d030960	0.031991363
231	0x3d82e70e	0.063917264
232	0xbd7d567d	-0.06185006
233	0x3df61278	0.120152414
234	0x3dc41e28	0.09576064
235	0x3c24bf9b	0.010055448
236	0x3de9ac5c	0.11409828
237	0x3ccf4c98	0.025305077
238	0x3de1140a	0.1099015
239	0x3d33c256	0.043886505
240	0x3d48ce0a	0.04902462
241	0x3d9f5420	0.077797174
242	0xbc07d614	-0.008290786
243	0x3d2fe570	0.042943418
244	0x3b23d61a	0.002499944
245	0xbd9ae75c	-0.075636595
246	0x3d66079c	0.0561596
247	0xbdccb28d	-0.09994993

rnn.0.7.bias f4 [4]
0	0xbd53acab	-0.05167834
1	0x3dc35df4	0.095394045
2	0x3d8a38cb	0.06749114
3	0xbd26f199	-0.04075775

rnn.1.0.weight f4 [14]
0	0x3f80cadf	1.0061911
1	0x3f8046ab	1.0021566
2	0x3f7d548e	0.98957145
3	0x3f7fdce9	0.9994646
4	0x3f81916b	1.0122503
5	0x3f819750	1.0124302
6	0x3f7d196a	0.98866904
7	0x3f80aaf3	1.005217
8	0x3f7f4314	0.9971173
9	0x3f7f3bd8	0.9970069
10	0x3f7f4d5c	0.99727416
11	0x3f7ef812	0.99597275
12	0x3f7fe4b2	0.99958336
13	0x3f809b38	1.0047369

rnn.1.0.bias f4 [14]
0	0xbc722314	-0.014778871
1	0x3b7beff9	0.0038442595
2	0xbaf508a7	-0.0018694595
3	0xbbbff67b	-0.00585824
4	0x3a86d23c	0.0010286043
5	0xbc37157b	-0.011174555
6	0xbc19778d	-0.009366882
7	0x3b19432a	0.002338598
8	0xbbb40cae	-0.0054946756
9	0xbc143231	-0.00904517
10	0xbbf4ed41	-0.007474572
11	0xbaa1e271	-0.001235081
12	0xbb9f0292	-0.0048526013
13	0x3a4b6e80	0.0007760301

rnn.1.0.running_mean f4 [14]
0	0x3a2d0771	0.0006600535
1	0x3a1cdd6f	0.0005983924
2	0x392f383c	0.0001671025
3	0x397d6503	0.0002416559
4	0xbf0f3207	-0.5593571
5	0x3ec16f10	0.37780046
6	0x3e0f5e96	0.14000925
7	0x3d443d61	0.047910098
8	0x3f039fb6	0.51415575
9	0xbd8ad3b1	-0.06778658
10	0xbf642e3c	-0.8913305
11	0xbf572332	-0.8403808
12	0x3e0e96c5	0.13924702
13	0x3d292560	0.04129541

rnn.1.0.running_var f4 [14]
0	0x3a0859f8	0.00052013947
1	0x39f9733f	0.00047578846
2	0x39e14767	0.00042968543
3	0x3a781f6a	0.000946513
4	0x40363bc6	2.8473983
5	0x3ea928ae	0.3303885
6	0x3ebc2a2b	0.36750922
7	0x3e13087e	0.14358708
8	0x3fd8f809	1.6950694
9	0x3ff9b472	1.9508193
10	0x3f912059	1.1337997
11	0x3f0794a0	0.5296116
12	0x3f849cc6	1.0360343
13	0x3f93bf11	1.1542684

rnn.1.1.weight f4 [44, 14]
0	0x3e2035ec	0.1564557
1	0xbe110c3c	-0.14164823
2	0xbde86970	-0.113482356
3	0x3b380380	0.0028078258
4	0x3e2e71f0	0.17035651
5	0xbe72acb4	-0.23698694
6	0x3da78181	0.08178998
7	0x3c41109d	0.011783746
8	0x3d8ab63a	0.06773038
9	0xbdb82f5f	-0.0899341
10	0x3d1ea025	0.038726944
11	0xbe3862b6	-0.18006405
12	0xbe74f066	-0.2391983
13	0x3d07a41c	0.03311549
14	0x3d25df20	0.04049599
15	0x3dc7da56	0.09758441
16	0xbe85654f	-0.26053855
17	0x3de636b1	0.112409
18	0xbad2c115	-0.0016079271
19	0xbd00e814	-0.031471327
20	0xbdedb1c4	-0.11606172
21	0x3e0ba65e	0.13637683
22	0x3df23c31	0.11827887
23	0xbd059b88	-0.03261903
24	0x3e822161	0.2541609
25	0xbd4daff5	-0.050216634
26	0x3c307ef4	0.0107724555
27	0xbd5f5bf2	-0.054531045
28	0x3e33d808	0.17562878
29	0x3e88bdad	0.2670721
30	0x3d9d9dc2	0.076961055
31	0xbbeaf148	-0.0071698762
32	0x3e3f1c44	0.18663126
33	0xbde405d9	-0.11133928
34	0x3daa1d88	0.08306414
35	0x3e26a128	0.16272414
36	0xbddb8cdf	-0.107202284
37	0x3da35b46	0.079763934
38	0x3e2bf850	0.16793942
39	0x3cd6eff6	0.02623747
40	0xbe0af423	-0.13569693
41	0xbd3fe950	-0.046853364
42	0xbe35feaf	-0.17772935
43	0x3dc58856	0.09645145
44	0xbe0f5137	-0.13995825
45	0x3dd706b9	0.10499329
46	0x3e411b19	0.18857993
47	0x3d120039	0.035644744
48	0x3dc29e94	0.095029026
49	0x3d9628a1	0.07331968
50	0xbe2e07ff	-0.16995238
51	0xbe495278	-0.19660366
52	0x3e2cc30c	0.1687128
53	0x3e3cc119	0.18433036
54	0xbe841ac2	-0.25801665
55	0xbd6abb5b	-0.057307582
56	0xbcb36334	-0.02189789
57	0xbe4790b7	-0.19488798
58	0x3d212690	0.039343417
59	0x3cc0e6c1	0.023547532
60	0xbdaccf5e	-0.0843799
61	0xbe63afa3	-0.22234969
62	0xbccee9e1	-0.025258007
63	0x3e5cb4e6	0.21553382
64	0x3da92129	0.08258278
65	0x3e7747d2	0.24148491
66	0x3e26dc59	0.16294993
67	0x3e232c01	0.15934755
68	0x3cedf8ca	0.029049296
69	0xbe8976aa	-0.26848346
70	0xbe298d03	-0.16557698
71	0xbcdd4607	-0.02701093
72	0x3e0e9a7f	0.13926123
73	0x3e83f1a6	0.257703
74	0xbdf82646	-0.12116675
75	0xbe853d6e	-0.2602343
76	0xbe851827	-0.2599499
77	0xbd856f13	-0.06515326
78	0x3e22f360	0.15913153
79	0xbd954f39	-0.07290501
80	0xbc7e8675	-0.015534987
81	0xbe4342ac	-0.19068402
82	0xbe4c7645	-0.19966991
83	0xbe409a86	-0.18808946
84	0xbe17094b	-0.14749639
85	0xbdc73f8c	-0.097289175
86	0xbe5ac2f0	-0.21363425
87	0xbe574161	-0.21021034
88	0xbe62a493	-0.22133093
89	0xbd607d3e	-0.05480694
90	0x3e75dce6	0.24010047
91	0xbd7af142	-0.061265238
92	0xbe29d468	-0.16584933
93	0x3d32201d	0.043487657
94	0xbe7223c2	-0.23646453
95	0xbe139e66	-0.14415893
96	0x3e4f4a11	0.20243098
97	0x3e7e76c1	0.24849989
98	0x3e808ba8	0.2510655
99	0x3d11e477	0.03561827
100	0x3e906d21	0.2820826
101	0x3e08ac28	0.13346922
102	0xbe7b581e	-0.24545333
103	0xbdc43662	-0.09580685
104	0xbdd53fbd	-0.10412548
105	0x3e859271	0.26088288
106	0x3e2b8886	0.16751298
107	0x3e57b02c	0.21063298
108	0xbe2034e1	-0.15645172
109	0x3da6205f	0.08111643
110	0xbe5849a8	-0.21121848
111	0xbe67aae2	-0.2262378
112	0xbdf1d34b	-0.11807879
113	0x3d1a266d	0.037634302
114	0x3e41466b	0.18874519
115	0xbe6b6f89	-0.22991766
116	0xbe81def4	-0.25365412
117	0x3e5f9848	0.21835434
118	0xbe4bb4f5	-0.19893248
119	0x3df7ae55	0.12093798
120	0xbe0ba624	-0.13637596
121	0x3e68658d	0.22694989
122	0xbe1db15b	-0.15399687
123	0x3db72901	0.08943368
124	0xbe880750	-0.2656808
125	0xbd30dfa5	-0.043182034
126	0x3e5beb3b	0.21476452
127	0xbe0d6aab	-0.13810222
128	0x3da59d45	0.080866374
129	0x3e393161	0.18085243
130	0x3e425910	0.18979287
131	0x3e83a275	0.25709882
132	0xbcf83be1	-0.03030199
133	0x3ba9c3a8	0.0051807947
134	0xbd8e87b5	-0.06959478
135	0xbc30f3d0	-0.010800317
136	0x3d8ab4d5	0.06772772
137	0x3e8996c9	0.26872852
138	0x3e3eb7a9	0.18624748
139	0x3ccc5742	0.024943952
140	0x3e2f398d	0.17111798
141	0xbe3a6fe8	-0.18206751
142	0xbdc32acf	-0.095296495
143	0x3df0ff15	0.11767403
144	0x3e40eedc	0.18841118
145	0xbdddaebd	-0.10824344
146	0x3a85aac9	0.0010197993
147	0xbc5b9e7f	-0.013404488
148	0xbd5deb97	-0.054179754
149	0xbdfe0c6f	-0.12404715
150	0x3e78d97c	0.24301714
151	0xbda180de	-0.078859076
152	0xbdd17792	-0.10227884
153	0xbe5ba028	-0.21447814
154	0x3db613de	0.08890508
155	0xbe75a4aa	-0.23988596
156	0x3e845417	0.25845405
157	0xbe3267ac	-0.1742236
158	0x3c9fe17b	0.019516697
159	0xbdd1be8b	-0.10241421
160	0x3d690a11	0.056894366
161	0xbd65b898	-0.056084245
162	0xbd2d62fe	-0.042330734
163	0x3dee9d8d	0.11651144
164	0xbe6a248e	-0.22865507
165	0xbde10cb9	-0.10988755
166	0x3d22650e	0.039647155
167	0xbe607175	-0.2191828
168	0xbc99b652	-0.018763695
169	0xbe0f1c1d	-0.13975568
170	0xbdd3ae31	-0.10335959
171	0xbe6d583c	-0.2317819
172	0x3d8baf0a	0.068204954
173	0x3d47fea8	0.048826844
174	0xbe61bae1	-0.22043945
175	0xbe012326	-0.12611064
176	0xbe4755e9	-0.19466366
177	0xbe01be3a	-0.12670222
178	0xbe525e87	-0.20543872
179	0x3df99b0e	0.121877775
180	0x3dd8cb70	0.105856776
181	0xbde26fc1	-0.110564716
182	0xbcca5981	-0.024700882
183	0x3ae4f2fc	0.0017467435
184	0x3e1298ea	0.14316145
185	0xbd98453a	-0.07435079
186	0x3e1de577	0.15419565
187	0xbc72f967	-0.01482997
188	0xbe52fc4e	-0.20604059
189	0x3e586a3a	0.21134272
190	0xbe5c689f	-0.21524285
191	0xbde3cb53	-0.111227654
192	0xbbd23bea	-0.0064158337
193	0x3dab8919	0.08375759
194	0x3e3204a9	0.1738459
195	0xbe05e08b	-0.13073938
196	0xbcdaf3ea	-0.026727635
197	0xbe529020	-0.20562792
198	0xbd8c8246	-0.06860785
199	0x3e57e31a	0.21082726
200	0xba654a6d	-0.0008746747
201	0xbe52466b	-0.20534675
202	0xbdaba991	-0.083819516
203	0x3d963fcd	0.07336388
204	0xbcffe44b	-0.031236788
205	0xbe85cfd3	-0.2613512
206	0xbe6c03ff	-0.230484
207	0xbce21a85	-0.027600536
208	0xbd8fb6c5	-0.070172824
209	0x3daf8483	0.085701965
210	0xbc94fb9e	-0.018186387
211	0x3e49c169	0.19702686
212	0xbe684202	-0.2268143
213	0xbe28390a	-0.16428009
214	0x3daa6ea5	0.08321885
215	0x3daa30d6	0.08310096
216	0xbe809ae1	-0.25118163
217	0x3e3b4fb4	0.18292123
218	0xbc85d782	-0.016338114
219	0x3e6247b4	0.22097665
220	0x3e23f7d5	0.16012509
221	0x3e4be559	0.19911708
222	0xbc1c45d9	-0.009538137
223	0x3c34b114	0.011028547
224	0xbded4a9c	-0.11586496
225	0x3dbe3133	0.09286728
226	0x3e809c9f	0.25119492
227	0xbbee041a	-0.0072636725
228	0xbdbfcfa2	-0.09365775
229	0xbe237378	-0.15962017
230	0x3e865dc6	0.26243418
231	0x3d4e210e	0.050324492
232	0x3e73ecde	0.23820826
233	0x3e634f44	0.22198206
234	0x3e22f1be	0.1591253
235	0xbe3f48dd	-0.18680139
236	0xbe7c3fa0	-0.24633646
237	0x3d54790e	0.05187326
238	0xbe57751a	-0.21040764
239	0xbe6ae2b9	-0.2293805
240	0x3e162322	0.1466184
241	0xbe0a6e8e	-0.13518736
242	0x3d948b5b	0.072531424
243	0xbdee7425	-0.116432466
244	0xbde232f1	-0.110448726
245	0xbe2cb3e3	-0.16865496
246	0x3e66f9f1	0.22556283
247	0x3dddb570	0.10825622
248	0xbe67816f	-0.22607969
249	0x3e490460	0.19630575
250	0xbe0ba292	-0.13636234
251	0xbdf805bc	-0.12110469
252	0xbded4e13	-0.11587157
253	0x3d704309	0.05865768
254	0xbe3fcc60	-0.18730307
255	0x3d862389	0.065497465

rnn.1.1.bias f4 [44]
0	0xbceeabe2	-0.029134694
1	0x3e7481ed	0.23877688
2	0xbe471eba	-0.19445315
3	0xbcce79df	-0.025204597
4	0xbe4843e1	-0.19557144
5	0xbe0e4a6d	-0.13895579
6	0x3bfd2da2	0.007726387
7	0xbe5381c9	-0.20654978
8	0xbd6cfbd5	-0.057857353
9	0xbe32cd93	-0.17461233
10	0xbe8e4fcb	-0.27795252
11	0x3e08aa1b	0.1334614
12	0xbd8744d5	-0.066049255
13	0xbe2f01ce	-0.17090532
14	0xbe2c292d	-0.16812582
15	0xbe322902	-0.17398456
16	0xbe86dcb5	-0.2634026
17	0x3e87081a	0.26373369
18	0xbe0b393c	-0.13596052
19	0x3e125f5d	0.1429419
20	0x3d65063d	0.055914152
21	0x3e42cf47	0.19024383
22	0x3d8ca530	0.068674445
23	0x3dc883ca	0.09790762
24	0x3c42fd89	0.011901268
25	0xbe84e035	-0.25952306
26	0xbd4a2ad3	-0.049357247
27	0x3e2b4fed	0.16729708
28	0xbe3b51f2	-0.18292978
29	0xbe1142db	-0.1418566
30	0xbd0ed5d7	-0.034871902
31	0x3e632306	0.22181329
32	0x3e6aa7e4	0.22915608
33	0x3e45dd54	0.19322711
34	0xbd9a0498	-0.075204074
35	0x3d21fd3a	0.039548136
36	0xbda1a2b2	-0.0789236
37	0x3e49bcfd	0.19701
38	0xbe0cb33f	-0.13740252
39	0xbd1516c5	-0.036398668
40	0xbd64064b	-0.055670064
41	0x3e578249	0.21045794
42	0xbe850476	-0.25979966
43	0x3e182891	0.14859225

rnn.1.2.weight f4 [44]
0	0x3f813286	1.0093544
1	0x3f804e57	1.0023907
2	0x3f815fb9	1.0107337
3	0x3f8115b1	1.0084745
4	0x3f7ebad3	0.9950382
5	0x3f813b74	1.0096269
6	0x3f7ce352	0.98784363
7	0x3f8085aa	1.0040791
8	0x3f80c33f	1.0059584
9	0x3f7bebe3	0.9840681
10	0x3f7fa5cd	0.99862367
11	0x3f7e2c5b	0.9928643
12	0x3f7eb614	0.9949658
13	0x3f808131	1.0039426
14	0x3f7e60c8	0.99366426
15	0x3f7f7608	0.99789476
16	0x3f7f3443	0.9968912
17	0x3f7c6407	0.9859013
18	0x3f7df802	0.99206555
19	0x3f807da8	1.0038347
20	0x3f807473	1.0035537
21	0x3f807ea2	1.0038645
22	0x3f7fdd29	0.9994684
23	0x3f7eba11	0.99502665
24	0x3f80d874	1.0066056
25	0x3f80a280	1.0049591
26	0x3f7f21ef	0.99661154
27	0x3f7dcb84	0.99138665
28	0x3f7f0b3f	0.99626535
29	0x3f813350	1.0093784
30	0x3f7f9349	0.99834114
31	0x3f80a560	1.0050468
32	0x3f7f1725	0.9964469
33	0x3f805743	1.002663
34	0x3f7d7e86	0.99021184
35	0x3f7f4848	0.9971967
36	0x3f811e61	1.0087396
37	0x3f808dc7	1.0043267
38	0x3f805de4	1.0028653
39	0x3f814345	1.0098654
40	0x3f7cfa83	0.9881975
41	0x3f8208be	1.0158918
42	0x3f807153	1.0034584
43	0x3f81b48d	1.0133225

rnn.1.2.bias f4 [44]
0	0x3c24c5d9	0.010056936
1	0x3b084a8d	0.002079639
2	0x3c2dc444	0.010605875
3	0x3c224857	0.0099049425
4	0xbbc67aba	-0.0060571106
5	0x3c5d4d7c	0.013507243
6	0xbc6fcf20	-0.014636785
7	0x392e03ba	0.00016595321
8	0x3bdac9b1	0.0066768755
9	0xbc26b231	-0.01017432
10	0xbbfee45b	-0.007778687
11	0xbbd1cbbd	-0.0064024613
12	0x3b28db4f	0.0025765484
13	0xbbcdcd33	-0.006280565
14	0xbb208f6f	-0.0024499556
15	0xbb768622	-0.003761657
16	0xbb55cdc8	-0.0032623876
17	0xbacc4a48	-0.0015586102
18	0xbc1003ae	-0.00878994
19	0x3bef2295	0.0072978237
20	0x3b135af1	0.0022484625
21	0x3b9d8220	0.004806772
22	0x3b01d58c	0.0019811122
23	0x3b15e040	0.002286926
24	0x3b083ca7	0.0020788105
25	0xbad69042	-0.0016369896
26	0xbbe55f88	-0.0069999136
27	0xbc0b7c61	-0.008513541
28	0x3b30748d	0.0026924938
29	0x3b6aa855	0.00358059
30	0x3c0f6786	0.008752709
31	0xbb23159f	-0.0024884713
32	0xbcab1043	-0.020881778
33	0xb846b8ef	-4.737911e-05
34	0xbc0c46bc	-0.008561786
35	0xbb30e262	-0.0026990403
36	0x3c683ce5	0.014174675
37	0xbc680cbb	-0.014163191
38	0x3b3c2746	0.0028709932
39	0x3c231454	0.009953577
40	0xbc3e2edf	-0.011607855
41	0x3c939b2a	0.018018324
42	0xbb00b781	-0.0019640627
43	0x3bd21e41	0.006412298

rnn.1.2.running_mean f4 [44]
0	0xbce7c2ef	-0.028291194
1	0x3e73a8d5	0.23794873
2	0xbe488ae8	-0.19584239
3	0xbcabf1cd	-0.020989323
4	0xbe4a3185	-0.19745453
5	0xbe077eb7	-0.13231932
6	0x3c31fdf6	0.010863772
7	0xbe56fbc2	-0.20994475
8	0xbd5f9434	-0.054584697
9	0xbe3b814c	-0.18311042
10	0xbe8f85ab	-0.28031668
11	0x3e082c18	0.1329807
12	0xbd778c00	-0.06043625
13	0xbe2a6b24	-0.16642433
14	0xbe259258	-0.16169107
15	0xbe31324f	-0.17304347
16	0xbe87eb2d	-0.26546612
17	0x3e89612b	0.26831946
18	0xbe0926cd	-0.13393708
19	0x3e135c77	0.14390741
20	0x3d65854c	0.056035325
21	0x3e415e1a	0.18883553
22	0x3d861ba1	0.065482385
23	0x3dd2a494	0.10285297
24	0x3c8332c3	0.016015416
25	0xbe838a9c	-0.25691688
26	0xbd4ea6f1	-0.050452176
27	0x3e3088aa	0.17239633
28	0xbe3629d6	-0.17789397
29	0xbe193713	-0.14962415
30	0xbd01f4b0	-0.031727493
31	0x3e648e62	0.2231994
32	0x3e6f741a	0.23384133
33	0x3e4b565d	0.19857164
34	0xbda0fca2	-0.07860686
35	0x3d211002	0.039321907
36	0xbdabb0a3	-0.083833
37	0x3e48e241	0.19617559
38	0xbe0a8489	-0.1352712
39	0xbd1452c2	-0.036211737
40	0xbd6c5254	-0.0576957
41	0x3e53eae9	0.2069508
42	0xbe848845	-0.25885215
43	0x3e1d6149	0.15369143

rnn.1.2.running_var f4 [44]
0	0x3e6b4856	0.22976813
1	0x3ea416e5	0.32048717
2	0x3ea5e6a3	0.32402524
3	0x3e97b319	0.29628828
4	0x3ee09f19	0.43871382
5	0x3e5283ea	0.20558134
6	0x3eee5670	0.46550322
7	0x3e81237c	0.25222385
8	0x3dec15cf	0.11527597
9	0x3d24a2f1	0.040194456
10	0x3e08eeaa	0.13372293
11	0x3e0f973d	0.14022537
12	0x3e6540cb	0.22387998
13	0x3ce8f0ee	0.028435197
14	0x3d65cc1e	0.056102864
15	0x3ed5d89d	0.41766825
16	0x3e884739	0.2661684
17	0x3ebdf63c	0.37101924
18	0x3e4a56c2	0.19759658
19	0x3e26c3d3	0.16285639
20	0x3e16ae72	0.14714983
21	0x3e091009	0.13385023
22	0x3f1487d6	0.5801977
23	0x3c860fa9	0.01636489
24	0x3f4b8b7a	0.795097
25	0x3e512f75	0.2042826
26	0x3d9fd22f	0.07803761
27	0x3f0981ab	0.5371348
28	0x3e7c3638	0.24630058
29	0x3ef314e2	0.4747687
30	0x3d3963d4	0.04526122
31	0x3e58b9db	0.21164648
32	0x3e360497	0.17775188
33	0x3cd5ae00	0.026083946
34	0x3e57dee6	0.21081123
35	0x3e163e54	0.14672214
36	0x3e96776d	0.2938799
37	0x3e2b3865	0.16720732
38	0x3e39419a	0.18091431
39	0x3e971c13	0.29513606
40	0x3ee29b11	0.4425893
41	0x3f1d19f5	0.6136773
42	0x3ebc61db	0.36793408
43	0x3e91e063	0.28491506
