DeepHedging_clean/BS/trained_models/RNN_BN_simple_AAPL_GOOGL_MSFT.pt (torch, 520015 bytes, 541 tensors)

embedding.weight f4 [4, 14]
00000000: 4099 7dbe c3ef bebf aa98 90bf 29bf b0be
00000010: 29fe 0fbf c1d6 663d 55b8 9d3e a41c 9c3d
00000020: 65f7 c93e 9379 16bf f8d6 6cbf 9d98 c83e
00000030: 8ca8 09bf 7333 963f 769c a73f e346 00bf
00000040: 1696 48be b3da 6a3f f00d eabe e641 b13f
00000050: 859f 893f 7cd1 c03e 97c1 a6bf e01f 8ebe
00000060: 4067 073f 9610 24bf 3b78 793f a4fd c93e
00000070: 8d70 74be 002c 003f 1433 3cbf f104 293f
00000080: 72ae 1abe b4df 3fbe 8a05 303e f11e d1bf
00000090: 7ba7 5abf 96f2 ec3d cb89 85bf beb3 ac3e
000000a0: d06e ccbe 6125 42bf 1991 01bf aa60 1d3f
000000b0: 6ab2 0a3f 3fca f63d 80ba a9bf 4bc6 ee3d
000000c0: 2a36 463d dfef 83bf dbe8 dcbf 90c5 76bf
000000d0: 7198 edbe b2ba 5b3f 6f7e 213f df9f 673f
-0.24765491 -1.491692 -1.1296589 -0.34520844 -0.5624719 0.05635715 0.30804697 0.0762265
0.3944656 -0.5877926 -0.92515516 0.39178935 -0.5377281 1.1734451 1.3094623 -0.50108165
-0.19588503 0.9173996 -0.45713758 1.3848236 1.0751806 0.37659824 -1.3027829 -0.27758694
0.5289192 -0.6408781 0.9744908 0.39451325 -0.2387106 0.5006714 -0.7351544 0.66023165
-0.15105608 -0.1873768 0.17189613 -1.6337568 -0.85411805 0.11569707 -1.0432676 0.33730882
-0.39928293 -0.75838286 -0.50612026 0.6147562 0.5417849 0.12050294 -1.326004 0.11658915
0.0483915 -1.0307578 -1.7258562 -0.96395206 -0.46405366 0.8583175 0.6308355 0.9047832

rnn.0.0.weight f4 [17]
00000000: 0000 803f 0000 803f 0000 803f 7377 803f
00000010: 8e01 7f3f 262a 7e3f ce95 7c3f 83b0 813f
00000020: c829 813f 7bfd 7f3f 6b91 813f 782e 7f3f
00000030: fe2a 7e3f c2fe 803f 9a2b 803f f140 7c3f
00000040: b4bc 803f
1.0 1.0 1.0 1.0036453 0.9961175 0.99283063 0.98666084 1.0131992
1.0090876 0.99996156 1.0122503 0.9968028 0.9928435 1.0077746 1.0013306 0.9853659
1.0057588

rnn.0.0.bias f4 [17]
00000000: 6ab4 813c ad9a 433b aeda b6bc 465d 803c
00000010: 5c3a e0bc 595c 383c d634 df3b 9086 52bc
00000020: b1c1 b8ba 1060 843c 2cb2 c2bc d9ed 683b
00000030: a0e6 48bc b4e4 85bc 5fd8 80bc 09e2 823c
00000040: 74da c6bc
0.015833098 0.0029846833 -0.022321071 0.015669476 -0.027371578 0.011252486 0.0068117185 -0.012849465
-0.001409581 0.016159087 -0.0237666 0.003554216 -0.012262017 -0.016344406 -0.015728174 0.015976923
-0.024274088

rnn.0.0.running_mean f4 [17]
00000000: 0000 0000 0000 0000 0000 0000 be9d a03d
00000010: 7497 60be 2ab0 c2be dcff ac3e b2be 1fbf
00000020: 57fd ae3e 7e05 cd3e ecb8 0dbf 2b15 5fbf
00000030: e347 dbbe a41b f4be 1ad4 723e 7f31 2a3e
00000040: 084e db3e
0.0 0.0 0.0 0.07842587 -0.21932775 -0.38025028 0.33788955 -0.6240035
0.34177658 0.40043253 -0.55360293 -0.87141675 -0.42828283 -0.47677338 0.23713723 0.16620444
0.4283297

rnn.0.0.running_var f4 [17]
00000000: 639e bf0b 639e bf0b 639e bf0b 65f3 033f
00000010: b28f 3a3f 6741 c93e 1a36 743e f59b 3f3e
00000020: d1d5 bf3e 97a5 233e 0415 2a3f af4b 213f
00000030: 5db0 213e 0927 c43e 123e 983e d197 d73e
00000040: 7f7e 0c3f
7.380884e-32 7.380884e-32 7.380884e-32 0.51543266 0.7287551 0.3930771 0.23848763 0.18711837
0.37467816 0.15981136 0.6643832 0.6300611 0.15789934 0.3831103 0.29734856 0.42108014
0.5488052

rnn.0.1.weight f4 [30, 17]
00000000: 8372 0abe 1d2a c03d 990a 9ebd 3ded 133e
00000010: f914 d83d 27d2 473e 819d 22be d18e 60bc
00000020: fa46 123e a520 073e a84b 633d 0a45 2e3e
00000030: 477d f6bd 3939 d83d a3d1 293e 64ce 873c
00000040: b87a 1dbe 1f2f 37be c352 babd a2be 60be
00000050: 0689 3a3c 51ca 52be ddf1 f23d b37b 0a3e
00000060: 073e 3bbd a3c1 06be ace2 25bb 4f95 66bd
00000070: 71d2 5abd 3998 60be 8f5b 98ba 6e1b 32be
00000080: 602e 3dbe 89b3 74be bf65 04be 8905 8c3c
00000090: 75ab dc3c e7a8 363e 0bf0 43bd deb9 243e
000000a0: fdb1 7e3e aacb 7f3d 048e 1abd 77b3 0fbd
000000b0: 8d51 6b3e 4eba 70b9 f3ed 54be 4e08 a83c
000000c0: 0e02 2bbe 824a 483e 4273 bcbd 50e1 81bd
000000d0: 687d 363e 5b22 1fbe 73ac abbc aa7c 57be
000000e0: b6f6 d93d 34a1 063c 8817 183d 8125 383e
000000f0: 5606 e53d 6cb5 4b3c 8f14 2bbe 985d 243e
00000100: 3d1f d7bd 1f92 34be 5dfd 313e a2be 6abe
00000110: 5d1e a0bd 04b8 36bd 27a5 a1bd 82a1 4d3e
00000120: a050 3b3e c911 603e 94b1 ca3d cf65 69be
00000130: 74fc c7bd 66d4 49be 1f49 2d3d 6db8 fcbc
00000140: f338 dabd f578 72be 4b94 52be aec6 f0bd
00000150: c11f a53d 0d03 533d b680 45bc 4c24 61be
00000160: ce1d 1bbe 3823 0e3e 0f2d 6fbe 82e1 58be
00000170: 717f 873d 9c22 21be 74b4 31bd 4edc 6abd
00000180: ffc7 6d3e 63c4 aebd 83b5 613e 00e1 d73d
00000190: 8878 ea3d b1ed 613e 3778 2c3d 062d 1e3e
000001a0: 9ecd 313e 5c55 6abe 42b2 873d cf6a 4f3e
000001b0: 785b 30be d439 1d3e b543 f2bd be0c 563e
000001c0: 4d83 7b3d 8a69 41be 90a8 2f3e b75a 6ebe
000001d0: 7d38 6e3c e9f5 613e 100f 01be 9ae8 75bc
000001e0: aadd f83d 4d0c 813d 17c8 a83d 7155 40bc
000001f0: 8d11 473e 5e09 c13d be7a 1d3d 1231 43be
00000200: 6dfd b9bc 0e3e 30be cd0f 4c3e 85f1 40be
00000210: 27da 20be 0b15 4abe 1a4e b03d da16 333d
00000220: 0371 19be 9d1d 1ebe d169 5ebd 00ff 50bd
00000230: bf9d 7bbd 057c 5f3d ca29 0a3e b08c b63d
00000240: 65cb 04be 7a0c e83c a965 43be 8560 69be
00000250: 754d dcbd f54d 5cbd cce6 5d3e c022 613e
00000260: 308c 0f3d bd78 6e3e a2d2 e93d 87d6 bebd
00000270: 4cd6 2bbd 08f7 783e c65d b0bd 68fc 33be
00000280: 3292 463e 1b6d 5d3e a6f5 e9bd abb5 3a3d
00000290: 334e 173b 1f28 7cbd 9e10 3e3e e2de 52be
000002a0: 1c86 25bb d5d2 c43d 1215 ab3d 6474 6cbe
000002b0: de6d 30be 1c77 42bd ccb4 d3bd cc41 363e
000002c0: 402a 4cbd c445 2d3e 6418 18bb 4aa8 00bd
000002d0: 892e fbbd f718 1e3e 9cfa df3d 7cd4 34be
000002e0: 62e4 b63d 31a0 1ebc 1b3f 823d 0cbe 5bbe
000002f0: 9b45 f33d 1b9b 5a3e 832a ad3c dc8b 3e3d
00000300: acdf cfbd 4281 ecbc d532 7dbd a263 c13d
00000310: 124c c13b 8c9b d43d b0b3 ed3d 4585 a63c
00000320: 5f7f 613e dd59 093e 7aa1 33be f01a 143e
00000330: 64b6 2cbe fcf2 2ebe 72cb ce3d 9c33 00be
00000340: b9cf dd3d 3767 96bc 9e10 ebbd cbfe e53d
00000350: 2b0b ebbd c25b 3ebe b158 4d3e d77f 713e
00000360: 3669 133e d4e2 0d3d 3639 7d3e e41b 733c
00000370: fcd0 18be 6bb7 333d 6b4c b7bd 28f1 763e
00000380: 4fbb 28be be60 23bc f35d 08bd 10df 47be
00000390: 3e85 0a3d 7eed a63c 65c3 a4bc ae7e efbd
000003a0: 18e5 be3d e8a2 5dbd b6d6 71be 0b3c 76be
000003b0: 0f0d 1c3e ee77 1e3e 589f 03be 8e25 033e
000003c0: c365 3cbd e1d3 56be bf8a 15be 4678 0cbe
000003d0: b5a8 c3bd d1f2 bd3d 8cd0 b73d 806e 6f3e
000003e0: 3188 e43d 8ff5 d03d 100d 1d3d ed36 bbbd
000003f0: 4075 163e 2d8e f43d 295b 25be a306 21be
-0.13520245 0.093830325 -0.07716865 0.14445968 0.10550875 0.1951376 -0.15880395 -0.013705925
0.14284888 0.13196047 0.055492073 0.17018524 -0.120356135 0.10557789 0.16583876 0.016577907
-0.15378845 -0.17889069 -0.09097817 -0.2194772 0.011385208 -0.2058499 0.11862538 0.1352375
-0.04571345 -0.13159804 -0.002531211 -0.056294736 -0.05342335 -0.21933068 -0.0011623966 -0.17393276
-0.18474722 -0.23896612 -0.12929438 0.017092483 0.026937226 0.17837869 -0.047836345 0.16086528
0.24872585 0.06245009 -0.037733093 -0.03508326 0.22980328 -0.00022957587 -0.20793895 0.020511772
-0.16700003 0.19559672 -0.09201671 -0.06341803 0.17821276 -0.1554045 -0.020956254 -0.2104365
0.106427595 0.008217145 0.037131816 0.17983057 0.11182849 0.012433391 -0.16707061 0.16051328
-0.10504005 -0.17633866 0.17381807 -0.22924283 -0.07818291 -0.044609085 -0.078928284 0.20081142
0.18292475 0.21881784 0.098971516 -0.22792743 -0.097649485 -0.1970993 0.04230606 -0.03084966
-0.106553935 -0.23678954 -0.20564382 -0.11756645 0.08062697 0.05151658 -0.012054613 -0.21986502
-0.15148088 0.13880622 -0.23357032 -0.21179774 0.066161044 -0.15735859 -0.043384984 -0.057339005
0.23220824 -0.085335515 0.22041897 0.10540962 0.11448771 0.22063328 0.042106833 0.15446863
0.17363593 -0.22884125 0.06625797 0.20255588 -0.17222393 0.15354091 -0.1182932 0.20903298
0.061404515 -0.18887916 0.17154145 -0.23276792 0.014539835 0.22066464 -0.12603402 -0.01500907
0.12151654 0.06301174 0.08241289 -0.011739121 0.19440289 0.09425615 0.038447134 -0.19061688
-0.02270385 -0.17211172 0.19927903 -0.18842132 -0.15708219 -0.1973459 0.08608647 0.043722965
-0.14984517 -0.15440984 -0.054300133 -0.051024437 -0.061429735 0.054561634 0.13492504 0.08913553
-0.12968214 0.028326262 -0.19081749 -0.22790726 -0.10756961 -0.053785283 0.21670073 0.21985912
0.035045803 0.23288245 0.11417128 -0.093182616 -0.041952416 0.24312985 -0.08611636 -0.17576754
0.19391707 0.21623652 -0.11423807 0.04558341 0.0023087382 -0.0615617 0.18561026 -0.20592836
-0.0025256937 0.096105255 0.08353628 -0.23091274 -0.17229411 -0.047476873 -0.10337219 0.17798537
-0.04984498 0.16921145 -0.0023207897 -0.031410493 -0.12264735 0.15439211 0.10936472 -0.17659181
0.08930279 -0.009681747 0.06359693 -0.21459216 0.118785106 0.2134823 0.021138435 0.0465201
-0.10150084 -0.028870229 -0.061816055 0.094428316 0.005898961 0.10381231 0.11606538 0.02032722
0.22021244 0.13413186 -0.17542067 0.14463401 -0.16866452 -0.17084879 0.10097398 -0.12519687
0.108306356 -0.018359764 -0.11477779 0.112302385 -0.114767395 -0.1858969 0.20053364 0.23583923
0.14395604 0.03464015 0.24728855 0.014838193 -0.14923471 0.043876093 -0.089501224 0.24115431
-0.16477703 -0.009971796 -0.033292722 -0.19518685 0.033818476 0.020376917 -0.020112703 -0.11694084
0.0932104 -0.054110438 -0.23617062 -0.24046342 0.15239356 0.15475437 -0.12853754 0.12807295
-0.045995485 -0.20979263 -0.14603709 -0.13717756 -0.09553663 0.09274829 0.08975324 0.23381996
0.11158789 0.102030866 0.038342535 -0.09141336 0.14693165 0.119411804 -0.16148056 -0.15725188

rnn.0.1.bias f4 [30]
00000000: b420 f6bc b8f2 043e dc33 b0bd 3a72 c33d
00000010: 6066 063e f9d0 343a 82bd 4f3d 3feb 03be
00000020: 382e 02be a029 4abd ac7f 8abd 35c1 493e
00000030: 2186 09be c98e 56be 37ee 8bbd 4c31 0a3e
00000040: dc20 1cbe 4ca5 083c efd9 fabd 59d3 303e
00000050: 6776 19bd 24ca e73d cc72 c5bd ffa3 3fbe
00000060: 7925 393d 4967 31bc 6ea3 95bd 43fd 66be
00000070: c208 383e ba4d cdbc
-0.030044891 0.12983215 -0.086036414 0.09543271 0.1312499 0.00068975944 0.050717838 -0.12882708
-0.12712944 -0.049356103 -0.06762633 0.19702609 -0.13430072 -0.20952906 -0.06832545 0.13495368
-0.1524691 0.008340191 -0.12248599 0.17268123 -0.037466433 0.11317852 -0.096410364 -0.18714903
0.045201752 -0.010827848 -0.07306562 -0.22557549 0.17972091 -0.025061477

rnn.0.2.weight f4 [30]
00000000: 014e 7e3f ed53 813f 947b 7e3f 4311 813f
00000010: e4bd 803f c5fa 813f e69b 7b3f ebac 803f
00000020: e4d8 7d3f 153e 7f3f af16 813f 70c1 7f3f
00000030: 4568 7d3f 00c1 7f3f 626a 7e3f 6410 7d3f
00000040: 09d2 7f3f 469b 7f3f ec19 803f e6e7 7f3f
00000050: 10a8 803f ebba 7c3f 8172 7e3f 7342 823f
00000060: f2cb 7e3f e8c1 803f 3bf1 803f e0f0 813f
00000070: 9547 813f c6c9 7e3f
0.99337775 1.0103737 0.99407315 1.0083393 1.005795 1.0154654 0.9828476 1.005277
0.99159074 0.99704105 1.0085047 0.9990454 0.9898723 0.9990387 0.9938108 0.98853135
0.99929863 0.99846303 1.0007911 0.99963224 1.0051289 0.98722714 0.9939347 1.0176529
0.99529946 1.0059175 1.0073618 1.0151634 1.009997 0.9952663

rnn.0.2.bias f4 [30]
00000000: abff 7abb 4246 2e3c 2144 aabc e60f b03b
00000010: c8a6 bd3b 67a2 2c3b 8103 80bc a0ab 593c
00000020: b266 65bb 5e57 3abc 3a9d b2bb 4198 66bc
00000030: 28de 1cbc 4830 d8bb 1e76 86bb 8e74 2abc
00000040: 7757 03bc f704 70ba dbbc 04bb b8d0 48bb
00000050: 506c a33b 7faf 08bc ec5c 06bb fed4 cf3c
00000060: 3312 78bb 2bc7 6abb ee78 023c e860 05bc
00000070: 5352 153c b8c5 93bb
-0.0038299363 0.010636868 -0.02078444 0.005372989 0.005787704 0.0026341917 -0.01562667 0.0132855475
-0.0035003838 -0.011373369 -0.005450872 -0.014074386 -0.009574451 -0.0065975524 -0.004103436 -0.010403765
-0.008016459 -0.0009156013 -0.0020254168 -0.0030641984 0.004987277 -0.008342623 -0.0020502163 0.025370117
-0.0037852644 -0.003582428 0.007963402 -0.00814078 0.009113866 -0.004509654

rnn.0.2.running_mean f4 [30]
00000000: 0e7a debc 35ee 183e 372b 9fbd f8ef ed3d
00000010: ec89 0b3e 5415 2fbc 9670 513d 9bf2 e7bd
00000020: 2a44 f9bd a65e 74bd d3e9 75bd dc93 313e
00000030: 81be 1fbe b91c 56be d249 86bd 592e ec3d
00000040: b528 0ebe ddcb 1c3c a0c9 f8bd 2862 3e3e
00000050: 97bf 22bd 3327 ee3d 7fb4 c4bd 1115 38be
00000060: d7ab 1b3d 340b 00bd 4838 c0bd 412d 6ebe
00000070: 9732 323e 65e8 93bc
-0.02715781 0.14934619 -0.077719145 0.11618036 0.13626832 -0.010686237 0.05113276 -0.1132557
-0.121712044 -0.059660576 -0.060037445 0.1734156 -0.15600015 -0.20909394 -0.06557049 0.115322776
-0.13882716 0.009570089 -0.12147832 0.18592131 -0.039733496 0.116285704 -0.096047394 -0.17976786
0.038005676 -0.031260684 -0.09385735 -0.2325945 0.17402111 -0.01805515

rnn.0.2.running_var f4 [30]
00000000: 9615 f43d 4bfd 643c e5a4 193f 183b ef3e
00000010: 5b2f 4b3e 477d c83e bb32 103e 4906 d73c
00000020: c243 993e 0bca c63d 4ffa 4d3e 55d9 f53d
00000030: c606 d73e b090 223e f95b 323e c4ac 1c3e
00000040: 4895 0d3f 23e6 413d b3f5 313e 615a d93d
00000050: 2391 a53e 8a5b a73e 3590 013f 6987 743f
00000060: 2ee9 783e a0b1 e03e eef3 aa3d a564 153e
00000070: a08d 643e 6056 713e
0.1191818 0.013976405 0.60017234 0.46724772 0.19842283 0.3915808 0.14081852 0.026248114
0.29934508 0.097065054 0.20115016 0.120043434 0.41997355 0.15875506 0.17417897 0.1530028
0.5530591 0.047338616 0.17378883 0.106129415 0.32337293 0.32687026 0.5061067 0.9551912
0.24307701 0.43885517 0.08347307 0.14589174 0.2231965 0.23568106

rnn.0.4.weight f4 [50, 30]
00000000: 79e0 04be 232d 03bd ef92 e8bc 29cd 3dbe
00000010: fa2a f43d 68f4 d0bc bcd3 973d 5c4d febd
00000020: 64c9 243e fbbb 42bd cb1c 95bd c7b7 e43d
00000030: 88b4 163e ecfd 23be bb80 c03c 60bd 143d
00000040: 151f bbbd dbbe bfbd d10b 083e e18e 0b3e
00000050: 1fcb f6bc a82c 95bd 23f3 76bd d10c 833d
00000060: 9f77 303e f520 87bc 5d3b 0abd 2143 403c
00000070: c371 c4bc c6c1 153e 79f7 42be 1a6e 0fbe
00000080: 0f10 183e 863c a13d 70cf a53d 4143 353c
00000090: 046b 833d 03c4 e9bd 8def 0e3e 5a0e 78bd
000000a0: 1098 013e b205 f0bd bdb9 6abd 2472 c83d
000000b0: 8da9 cebd f13d 5d3d aae1 d73c 4d4d 0ebc
000000c0: 2570 cd3c 5b99 b4bd f300 d53d 46e0 6dbd
000000d0: 8eaf db3d 7231 443e 6b9d 1d3d 7f69 25be
000000e0: 73b1 ed3d fd41 a9bd ac34 153e 6e5a 103e
000000f0: 1bc2 26be a027 b1bd a184 bd3d 25c8 10bd
00000100: f4c1 1fbe beb1 08bc 39d0 ca3d 2411 dbbd
00000110: 96d6 a7bd 523e 2fbe 58c1 16ba 5d64 303d
00000120: 42b6 4fbd 0abb fcbd ff96 d43d c332 193d
00000130: c05b 27be 4f07 e7bd 89cf f3bd 4eb7 8b3d
00000140: 1819 243e c341 093e b34c 09be a26a ad3d
00000150: c7b5 cbbd d577 d53d c3a9 fb3b 9a30 8c3d
00000160: d137 a63d b71c 07bc f8a4 b6bd e61d 873c
00000170: 4e05 14bc 3def f13c 17ca e03c 2ac4 c4bd
00000180: afb3 353b dbaa e9bd a5f6 3a3e f66f 063d
00000190: dfe1 1b3e 9358 b6bd 45a2 6fbc 3ab0 8ebc
000001a0: 06c1 793d f4ea b7bd 049b 2a3e 40ce 543e
000001b0: 4285 bc3c 0d97 0f3e f8a6 f03d 4d9d 8c3d
000001c0: 9b6e 453e 8903 f3bb 86f3 af3d 3732 e3bd
000001d0: 7cea 973d 5258 e8bd 244c 06be 10c4 36be
000001e0: 9bb9 4c3b 2d24 a93d 6251 e1bd 1691 99bd
000001f0: e504 42bd 7532 263d bc9f bd3d b7da a0bd
00000200: fa0c dd3d 42ce 37be cd98 eabd dbad 383e
00000210: 2226 97bd 3365 0b3e b7bb ab3d cd82 01bc
00000220: 015b a53d ddcc 09be 1fa5 123e d225 78bd
00000230: adff 28be d4cf d8bd d99e c63d d5c5 90bc
00000240: 55a3 4abd 63da 0ebd e479 533d 04c1 bcbd
00000250: 15ef 11be 4947 803c 6218 983d 2235 393e
00000260: 2624 2e3e e059 093e 1c0f cbbd 5275 3c3d
00000270: 82dd aa3d 2609 8f3d bbfd 9d3d 56c5 2b3e
00000280: 5cca 51ba 1508 a4bd e2e9 c6bd bff4 dbbc
00000290: 6d2e 10bd 33ee 2b3d c221 c63d 346c 8a3d
000002a0: 7a0a e13d 65c9 843d c1ce 5dbc e178 193d
000002b0: 8b2a f5bc c9bc bcbd 839e 26be 05b4 593d
000002c0: 6665 eebd aac9 47bd 32e4 023d 93e4 dfbc
000002d0: 2ff4 29be 4404 a6bd 3fb6 933d 7c0a 47be
000002e0: 1a54 483d 07ea 2c3c de5a 0d3c dd92 333e
000002f0: c1be b83d 3195 e63c 677c cabd 260c 233e
00000300: 4ab4 2cbe adb7 eabd 4e2a 74bd 2b8c fabd
00000310: b8ac 72bd 1502 673d 9d80 e73d 0b9f 943d
00000320: af9b 683d e34e 143e 83f4 1cbe 9708 2abe
00000330: e24e e03d 0113 71bd d3ef df3c 3f50 25bd
00000340: 0936 2dbe 3237 a63d 08cd 873d de33 d93c
00000350: 1ea8 cd3d 2c0b 22be c3fd febd 4ea1 e23d
00000360: 5cf9 d03d 0a1e 333e 4d97 903d 2937 b8bb
00000370: c70b 013d 1f84 d5bc 917f f7bd 602a 353c
00000380: fbda 0b3e e2c4 203e d616 243e eecb 19be
00000390: df5e 2ebe a7f0 87bd 955e 2c3e 68a3 b63d
000003a0: 846e 423e 90c9 823d f6fe 1ebe 0fe3 f4bd
000003b0: 964b 70bd ee27 103e 1878 2c3e b98b 0abe
000003c0: e3e8 1e3e fda7 e63d c0c3 a53d 6180 21bc
000003d0: 4015 90bd a104 1b3e e692 8bbc b639 123e
000003e0: f586 673c aa2f 043e f95f 083d 5276 8a3d
000003f0: 7504 bbbd 8e5d 3c3c b17b 223e 80b9 e9bd
-0.12976255 -0.032025468 -0.028390376 -0.18535294 0.1192226 -0.025507167 0.07413432 -0.12417099
0.1609245 -0.047542553 -0.072808824 0.11167865 0.14717305 -0.16014832 0.023498883 0.036313415
-0.09136788 -0.09362575 0.13285758 0.13628723 -0.030126153 -0.07283908 -0.060290467 0.06398929
0.17233132 -0.016495207 -0.03374802 0.011734755 -0.023980027 0.146247 -0.19039716 -0.14006844
0.14849876 0.07872872 0.08096206 0.011063398 0.06416896 -0.114143394 0.13958569 -0.06056056
0.12655663 -0.11719836 -0.05730604 0.097873956 -0.10090933 0.05401415 0.026352722 -0.008685422
0.025077889 -0.08818313 0.10400572 -0.058075212 0.10726844 0.19159487 0.038480204 -0.16153525
0.116061114 -0.082645394 0.14570874 0.14096996 -0.16284983 -0.08650136 0.092538126 -0.035347123
-0.15601331 -0.008343158 0.099029966 -0.10696629 -0.08195226 -0.17113617 -0.00057508564 0.043064464
-0.050710924 -0.12340362 0.10380363 0.037401926 -0.16343594 -0.11280691 -0.119048186 0.06822072
0.16025198 0.13403992 -0.13408165 0.08467604 -0.09946781 0.10423247 0.0076801493 0.068452075
0.08116115 -0.008246592 -0.08918184 0.016493749 -0.009034468 0.029533023 0.027440114 -0.09607728
0.0027725508 -0.11409541 0.1825815 0.032821618 0.15222882 -0.08903613 -0.01462609 -0.017418016
0.060975097 -0.089803606 0.16660696 0.20781803 0.023012761 0.14022465 0.11750597 0.0686594
0.19280474 -0.007416193 0.0859137 -0.11093562 0.07417771 -0.11344971 -0.13114983 -0.1784823
0.003123856 0.08258853 -0.11001851 -0.07498376 -0.04736795 0.040575463 0.092589825 -0.078542165
0.10793491 -0.17949775 -0.11454926 0.1803507 -0.0738032 0.13612823 0.08385413 -0.0079047205
0.08073998 -0.13457055 0.14320801 -0.060582943 -0.16503783 -0.10586515 0.096982665 -0.017672459
-0.04947217 -0.03487624 0.051629916 -0.09216502 -0.14251359 0.015658991 0.07426526 0.18086675
0.17005977 0.13413191 -0.09914991 0.046010323 0.083430305 0.06984167 0.07714411 0.16774496
-0.0008002871 -0.08009354 -0.09712578 -0.026850102 -0.035200525 0.04197521 0.096744075 0.06758919
0.10988326 0.064837255 -0.0135380635 0.037468795 -0.029927513 -0.092156954 -0.16271405 0.053150196
-0.11640434 -0.048776306 0.031955905 -0.027330672 -0.16597055 -0.08106282 0.07212495 -0.19437593
0.04890833 0.010553843 0.008627621 0.17536493 0.090207584 0.028147312 -0.09887009 0.15922603
-0.1686565 -0.114608146 -0.059610657 -0.12233766 -0.05924675 0.05639847 0.11303828 0.072568975
0.056789096 0.14483218 -0.15327649 -0.1660484 0.10952546 -0.058856014 0.027336037 -0.04035973
-0.16915144 0.081159964 0.066309035 0.02651399 0.100418314 -0.15824574 -0.12450745 0.11065923
0.102038115 0.17491928 0.07060108 -0.00562181 0.031505372 -0.026063977 -0.12084878 0.011057466
0.13657753 0.15700105 0.16024336 -0.15019199 -0.17028378 -0.06637698 0.16832955 0.08917886
0.18987471 0.06386101 -0.15526947 -0.119573705 -0.058665834 0.14077732 0.16842687 -0.13529862
0.15518527 0.1126251 0.08093977 -0.009857268 -0.07035303 0.15138485 -0.01703782 0.14279827
0.014131297 0.12908807 0.03329465 0.06760849 -0.091317095 0.011496915 0.15867497 -0.114123344

rnn.0.4.bias f4 [50]
00000000: 3c3d d8b6 d4ea 23be 22f6 d9bc 0556 34be
00000010: 8fc3 7c3d 9cbf ac3d 8e56 ae3d 5537 4cbc
00000020: 5a39 0fbe 4655 1cbc 854c 023c 6dfa 0fbe
00000030: af52 253e 0ca4 07be 9df7 ef3d 5850 3cbe
00000040: 4478 56bd 04de db3d 7334 7fbd 0e81 e03d
00000050: aed7 50bd 5da9 a33d 5384 90bd 4eed 553e
00000060: d030 0cbe 68fc 103e d8b3 653d 7659 543d
00000070: 9fd7 903d 2011 18be efda 093e 08a9 8fbd
00000080: 4dad 1d3d dd28 50be 066f 21be 6338 0abd
00000090: 660f b53d b05f 86bd 4bba 343e dbc1 1cbd
000000a0: 5dd7 813d 50ea 0bbe 7925 12be a53a 89bd
000000b0: 6aed 513c e0f1 0abe 6546 c1bd 1c19 3c3e
000000c0: e44c 213d 0c66 113d
-6.4444303e-06 -0.16007549 -0.026606623 -0.17610939 0.061709937 0.08434984 0.08512603 -0.012464364
-0.13986722 -0.009541815 0.007952814 -0.14060374 0.16144823 -0.13246173 0.1171715 -0.18390024
-0.052360788 0.107357055 -0.06230588 0.10962115 -0.05098694 0.07991288 -0.07056489 0.20891306
-0.13690495 0.14158785 0.056079715 0.05184313 0.070723765 -0.14850283 0.13462423 -0.07014662
0.03849535 -0.20328088 -0.15765008 -0.03374518 0.08840828 -0.0656122 0.1764919 -0.038270812
0.063399054 -0.13663602 -0.14272107 -0.06700639 0.012812952 -0.1356883 -0.09437255 0.18368953
0.03937997 0.03549771

rnn.0.5.weight f4 [50]
00000000: 3962 7f3f 08b1 743f 71aa 803f b5da 843f
00000010: bac0 7c3f 28b9 7c3f c248 823f 3679 7d3f
00000020: 8a10 823f 9cb4 6f3f 7621 7e3f 91b9 803f
00000030: 13fb 863f bbd4 803f 1d52 7a3f cea3 7f3f
00000040: 540d 7f3f 0c33 7a3f 6d25 7c3f e9b2 6c3f
00000050: a7c6 7d3f 81c4 7d3f 56c5 743f 1d51 7e3f
00000060: 84d0 7d3f c321 803f f3a0 793f 46fc 7f3f
00000070: 3a75 7f3f fbde 7b3f 33de 7b3f 94cf 833f
00000080: daa2 7d3f d993 7c3f 2384 733f 0d45 7b3f
00000090: 0697 803f 5195 813f 3dc3 7a3f 0c17 7f3f
000000a0: ec00 7d3f 6ed9 7c3f ff75 793f aef7 803f
000000b0: 2ab8 763f 6af4 703f 0b26 813f a9d1 803f
000000c0: ba67 713f de37 7e3f
0.9975925 0.9558263 1.0052015 1.0379244 0.9873158 0.98720026 1.0178454 0.9901308
1.0161297 0.93634963 0.9926981 1.005663 1.0545372 1.006492 0.97781545 0.9985932
0.9962971 0.9773414 0.9849461 0.92460495 0.99131244 0.99127966 0.9561361 0.9934252
0.99146295 1.0010303 0.97511214 0.99994314 0.9978825 0.98387116 0.98385924 1.0297723
0.99076617 0.986631 0.951235 0.9815224 1.0046089 1.0123693 0.9795416 0.9964454
0.9882953 0.9876927 0.9744567 1.0075586 0.9637476 0.94122946 1.0089735 1.0063983
0.942989 0.99303997

rnn.0.5.bias f4 [50]
00000000: ab6b 2a3b a741 59bc eea2 033c 20d1 f33c
00000010: b92c 48bc a090 4ebc cb4f 903c 2012 98bb
00000020: 8255 863c bfcc 3bbd 016f c7bb 98fb 263c
00000030: b8c2 443d 60f0 673c 9214 c3bb 0b4c 6e3b
00000040: 528b 4f3b fda8 7fbc 06ef 47bc 0bc5 20bd
00000050: dd8b fdbb d696 3cbc e8df fabc 5524 b0bb
00000060: 7dea 003c 7d9e 0e3c 84f6 a8bc a338 173c
00000070: 5c90 6c3a a56f 7abc 6fb1 3dbc 00c8 313d
00000080: 275d 0bbc ba8b 41bc a1bb 13bd aad2 6ebc
00000090: 5b1b c33b dbdd 5d3c d29b 1cbc cce7 19bb
000000a0: a31f 9bbc a61b 45bc 4dd5 91bc 8d49 2a3c
000000b0: f43b 93bc 8288 53bd d906 1e3c d9e1 403c
000000c0: 3ad7 32bd 2a4c f93b
0.0026004117 -0.013260282 0.008034451 0.029762805 -0.012217694 -0.0126077235 0.017616173 -0.0046408325
0.016398195 -0.045849558 -0.0060862307 0.010191821 0.04803726 0.014156431 -0.00595338 0.0036361243
0.0031668735 -0.015604255 -0.012202984 -0.039250415 -0.0077376203 -0.011510571 -0.030624345 -0.005375425
0.007868406 0.008704779 -0.02062536 0.009229812 0.0009024197 -0.015285407 -0.011577948 0.043403625
-0.008506096 -0.011813099 -0.03606761 -0.014576593 0.0059541888 0.013541664 -0.009558635 -0.002348411
-0.018935984 -0.012030518 -0.017801905 0.010393512 -0.017972924 -0.051643856 0.009645187 0.011772596
-0.043662287 0.0076079564

rnn.0.5.running_mean f4 [50]
00000000: 5531 2c3d 0529 bb3d 8a11 83be 7767 853d
00000010: 619a d8bd fc6f b53e c040 b8bd bee7 8e3e
00000020: a757 f1be 29a5 efbd 19f2 ce3d f1ef cdbd
00000030: c919 dd3d 01a8 bebe 6e39 dc3d eb28 5ebe
00000040: 2ca1 ddbd a986 a73c 9733 48be e788 f6bd
00000050: f92a b13e 9625 333f 32b3 40be ed8c 443e
00000060: cd4c 1dbe e4b0 033f ff2f a9bd a8d2 883e
00000070: 946d 003f bfd3 a3be 5ce9 5a3e 1994 97be
00000080: 4464 843e 742c d13d c700 4ebe 6610 f43d
00000090: 5fa3 5abc 40a6 25be e4bd 483e 7095 8c3e
000000a0: 5cc3 81be 2cf5 05bf e55b 02be 7f1d 09bf
000000b0: 7d9c 153e a667 94bb 1cf4 5b3e 46f7 1dbe
000000c0: de38 533e c409 d63d
0.042039234 0.09138683 -0.2559932 0.06513875 -0.105763204 0.35437 -0.08996725 0.2791118
-0.47137186 -0.11701424 0.1010477 -0.10055531 0.10795934 -0.37237552 0.10753141 -0.21695296
-0.10821757 0.020449953 -0.1955093 -0.12037831 0.34603098 0.69979227 -0.18818358 0.19194384
-0.15361328 0.5144179 -0.08261108 0.26723218 0.501672 -0.31997487 0.21378082 -0.29605177
0.25857747 0.10213557 -0.20117484 0.1191719 -0.013344615 -0.161767 0.19603688 0.27457762
-0.2534436 -0.5232723 -0.12730367 -0.5356063 0.14610477 -0.0045289574 0.21479839 -0.15426359
0.20627162 0.104510814

rnn.0.5.running_var f4 [50]
00000000: d526 a83d c861 d93d 1dac 043e 492b 8a3e
00000010: 1395 aa3e 9c57 133e 8918 923d 1657 bf3d
00000020: a0e3 363d 1250 113e 1b4c 9a3e 80b1 7f3e
00000030: 8e1c 833e f587 453f 316a c83d 6e20 833d
00000040: 9cb9 303e b8b9 cf3e cdc2 bf3e b2bd f13c
00000050: dfd7 3f3e 858d d93d 81cd 223e 63b4 b63e
00000060: 6eeb 363e 4f11 1e3e 2073 473d aa24 9c3e
00000070: ba3d 423e 9046 d33e 78f6 3f3d 2753 7c3d
00000080: 9c1d 523e b594 823e a0b5 f03d dd4f 233d
00000090: be70 c73e 3650 b33e d718 8f3d 0fee aa3e
000000a0: 6374 ba3d d419 4a3e bd25 b23d 839e 613e
000000b0: 00b0 a73d 0b98 fc3d 14c1 0f3e 7e13 e83d
000000c0: a100 723e a289 7f3e
0.082105316 0.106143534 0.12956281 0.2698615 0.3331686 0.14388889 0.07133586 0.09342782
0.044650674 0.141907 0.3013619 0.24970055 0.25607723 0.7716058 0.097858794 0.0640267
0.17258304 0.4057138 0.3745331 0.0295094 0.18734692 0.10622696 0.15898706 0.356845
0.17863247 0.1543629 0.048693776 0.30496722 0.1896886 0.41264772 0.04686591 0.061602738
0.20519108 0.2550408 0.11753392 0.039871085 0.38953203 0.35022134 0.0698716 0.3338475
0.0910423 0.19736415 0.08698604 0.22033124 0.08187866 0.123336874 0.14038497 0.11331843
0.23633052 0.24954847

rnn.0.7.weight f4 [3, 50]
00000000: ed47 873c 8263 90bc da1d 193e 5f5d 003e
00000010: f2b2 a8bb 08cf ecbd 7296 fd3d 70f5 ad3d
00000020: 75c6 2d3d 8f0b 073d 6dee 38bd 62c6 923c
00000030: f6e5 e33c a7da 253d 3264 02be 501b 4fbd
00000040: 8ad5 9b3d 08d8 abbd f89d 7d3d af34 82bd
00000050: 6160 d6bc 27b6 46bb c8fa c3ba d0d9 fabd
00000060: f385 2f3e 2ee7 693c 435d 37bd fc03 2f3c
00000070: 3c5d 113e 4aec 9dbd 1a66 feb9 34f1 e73d
00000080: 7059 5cbd 4cdc a73b 125f 8b3d 483b 68bd
00000090: 873a 113e fc63 283c b461 a0b9 585a 0cbd
000000a0: e9eb e4bd 689e 81bb c6e4 42bd bcea a33c
000000b0: 300b a4bd 7a20 2a3d 180c c33d 2974 ac3d
000000c0: d4d5 e6bc 23bb 213e 3127 2bbd 0284 97bc
000000d0: 4fe8 f7bd b4e3 193e e18d f43d 9552 c5bc
000000e0: 5f7e 6cbd 85dd b73d af0b 5bbd aa38 f1bc
000000f0: 6eb2 e4bc 56e1 04be abdd a13c a16c c6bd
00000100: 72d3 983d ef61 eb3d d450 c53d 216f 1bbd
00000110: bed4 77bd 016b 203d dad7 edbd db1a a3bc
00000120: 155a ea3d c810 18be 8935 e4bd 1203 a4bd
00000130: 9d38 57bd 0d16 cdbd 6b92 2a3d 782e 8f3a
00000140: 1a24 523d 67bb a9bd b1b6 e6bc c326 ea3d
00000150: 2737 6d3c 0c14 37bd 3a0e d13d 9d3a cfbb
00000160: f0fc 893d 0572 9fbd fd61 c63d 0e0f b23d
00000170: fab8 9a3b 9e0f 933b efb0 2bbd d794 bd3c
00000180: 7468 f43d e58f 8ebc 4bc3 993d e6c5 a7bd
00000190: a3b5 b5bd ee0b 143c 85ea 8abd 19c3 80bd
000001a0: a826 fa38 5e51 093d cf70 283c b69b aebc
000001b0: 0b3f 743c 76a0 923c 75d1 ef3d c1dc 3fbc
000001c0: df3c 373e 8e55 023e 1122 d9bd 0ca8 143e
000001d0: 8b2a 76bd fdf4 503d 3021 8ebd 34ee 81bc
000001e0: 743d 143d 7619 603d 7dca 05bd b62a 93bd
000001f0: f915 95bd aac5 323d 2949 50bd 31ed 963d
00000200: bbbc 81bd 0fe3 7b3c 8ac9 91bd 1480 ed3d
00000210: 1e04 563d 0e8b 86bc f59b 77bd ae5e 5c3d
00000220: bbaa 2c3d be2b 263e 7b10 0bbe 00f1 453c
00000230: 0d6c e3bb 3146 1a3d dfed a3bd 8db5 103d
00000240: 26a4 cabc bb9a a7bc 22c9 153e 6fdc dcbc
00000250: da06 cebb 37fd 093d
0.01651379 -0.017625574 0.14952794 0.12535618 -0.005148285 -0.115629256 0.12382211 0.08494079
0.04242559 0.032970008 -0.045149256 0.017916862 0.027819615 0.040491726 -0.12733534 -0.050563157
0.07609089 -0.08390814 0.06191823 -0.06357705 -0.026169004 -0.0030320974 -0.0014952058 -0.12248576
0.17140941 0.014276309 -0.044766676 0.010682102 0.14195722 -0.07711084 -0.00048522727 0.11325303
-0.05379623 0.005122697 0.068052426 -0.05669716 0.14182483 0.010277744 -0.00030590373 -0.034265846
-0.11177809 -0.003955651 -0.047581457 0.020009391 -0.08009946 0.04153488 0.09523791 0.08420593
-0.028178133 0.15794043 -0.041785423 -0.018495563 -0.12104856 0.15028268 0.11941124 -0.02408723
-0.057737704 0.08977798 -0.05347794 -0.029445965 -0.027917113 -0.12976584 0.01975902 -0.09688688
0.07462205 0.11493289 0.09634557 -0.037947778 -0.06050562 0.039164547 -0.11613436 -0.019910267
0.11442963 -0.14850152 -0.111430235 -0.08008398 -0.052544225 -0.100139715 0.04164354 0.0010923883
0.05130396 -0.08287697 -0.028163286 0.114331745 0.014478481 -0.044696853 0.102077916 -0.006324126
0.06737697 -0.077854194 0.096866585 0.08694278 0.004721758 0.0044879457 -0.041916784 0.023142261
0.11933985 -0.017402599 0.07507952 -0.08192043 -0.08872535 0.009036047 -0.06783012 -0.06287212
0.00011928129 0.033524863 0.010280802 -0.021314483 0.014907609 0.01789878 0.11709873 -0.011710347
0.17894314 0.12727949 -0.10602201 0.1451723 -0.060099166 0.05101489 -0.06939924 -0.015860654
0.03619142 0.05471178 -0.03266381 -0.07185881 -0.072795816 0.04364554 -0.05085102 0.073694594
-0.063348256 0.015373959 -0.07118519 0.115966946 0.05225002 -0.016423728 -0.060451467 0.05380123
0.04215501 0.16227624 -0.13580506 0.012081385 -0.006940371 0.037664596 -0.08004355 0.03532939
-0.024736475 -0.020459523 0.14627507 -0.02696058 -0.006287438 0.03368875

rnn.0.7.bias f4 [3]
00000000: 5206 8fbc 7237 7f3d c3e3 0fbe
-0.017459068 0.062308736 -0.14051728

rnn.1.0.weight f4 [17]
00000000: 6ad3 7c3f a4de 803f acf2 813f 5cda 7c3f
00000010: c10f 7e3f 1e18 803f c029 7e3f 89ba 7f3f
00000020: 7409 803f 2a42 833f b816 7c3f 2767 7e3f
00000030: bd1b 823f cec1 7e3f ac5b 823f ea62 813f
00000040: 5a88 7b3f
0.9876009 1.0067945 1.0152183 0.9877069 0.9924279 1.000736 0.99282455 0.99894005
1.0002885 1.0254567 0.98472166 0.9937615 1.0164715 0.9951447 1.0184226 1.0108311
0.9825493

rnn.1.0.bias f4 [17]
00000000: 8d84 8dbb d975 9ebc 818c ae3c 6f0f 32bc
00000010: fc4c 68bc 91a9 193c 3eaf 843c 864f 803c
00000020: 4b24 c9bc 0868 33bc 5ea6 fc3b 4c33 b03c
00000030: 2d7b f9bb 48e7 a7bc f0d8 68bb 4734 12b9
00000040: 2a1a b1bc
-0.00431878 -0.019343304 0.021307232 -0.0108679375 -0.014178511 0.009378807 0.016196843 0.01566292
-0.024553439 -0.010950096 0.007710262 0.021508835 -0.0076135607 -0.020496026 -0.0035529695 -0.0001394312
-0.021618921

rnn.1.0.running_mean f4 [17]
00000000: 474d 1439 b7fc db39 3f88 ad38 be9d a03d
00000010: 7497 60be 2ab0 c2be dcff ac3e b2be 1fbf
00000020: 57fd ae3e 7e05 cd3e ecb8 0dbf 2b15 5fbf
00000030: e347 dbbe a41b f4be 1ad4 723e 7f31 2a3e
00000040: 084e db3e
0.00014143168 0.00041959222 8.274661e-05 0.07842587 -0.21932775 -0.38025028 0.33788955 -0.6240035
0.34177658 0.40043253 -0.55360293 -0.87141675 -0.42828283 -0.47677338 0.23713723 0.16620444
0.4283297

rnn.1.0.running_var f4 [17]
00000000: 20ef 013a 8b90 f039 70cf eb39 65f3 033f
00000010: b28f 3a3f 6741 c93e 1a36 743e f59b 3f3e
00000020: d1d5 bf3e 97a5 233e 0415 2a3f af4b 213f
00000030: 5db0 213e 0927 c43e 123e 983e d197 d73e
00000040: 7f7e 0c3f
0.0004956592 0.0004588406 0.00044977246 0.51543266 0.7287551 0.3930771 0.23848763 0.18711837
0.37467816 0.15981136 0.6643832 0.6300611 0.15789934 0.3831103 0.29734856 0.42108014
0.5488052

rnn.1.1.weight f4 [30, 17]
00000000: 9946 483e 3f50 283e 9be4 8dbd 47bf cc3d
00000010: 2f2c 173e 884a ac3d 0f39 083e f2b7 eb3d
00000020: 11a7 95bd 9ea7 79be 36bf eb3d b7aa 01be
00000030: 8dca aabd bff5 60bd b2f5 97bd c852 ea3d
00000040: c350 4cbe dc7d 73be 0f03 61be 98bf ae3c
00000050: 7c7a 803d 6852 82bd 92ac 06be 9e00 31be
00000060: 39a1 f2bd 0929 10be d703 57be 49ae f7bd
00000070: 68d0 b53d d121 833d af9c e2bc 7a5e 2ebe
00000080: b87d cdbc 5fd2 5bbe 75ec cb3d 9dd6 783e
00000090: d511 ca3d 00b1 cb3d 39be 3c3e 4230 473e
000000a0: 1fcf b4bd e72e 55be 6750 993d cb2f 393e
000000b0: ca21 663e 5bf5 1ebe 45ff 31bc 5b05 483e
000000c0: 4c0d eabd cfa8 163d 2e23 b43d 79a1 f2bb
000000d0: 7187 73be 5265 acbd 920a 233e f213 423e
000000e0: 438e 563d 4b5e 5ebd 0cd3 78bd d408 b03d
000000f0: 1593 38be a884 5dbe ab6a c8bd 63c3 4bbe
00000100: 3bd2 48be a87d a23c 5394 4c3e 60c1 4b3c
00000110: a651 a03d 076e 523d 5062 d63d 9447 72be
00000120: d55c c93d 291a dabd c9b2 943d b719 423e
00000130: e206 67be 2478 373e 4836 173e ba5b ab3b
00000140: 2d07 42be 2a7e 0d3e 007e 16be 89c5 15be
00000150: 27d2 12be d225 73bc 862b 61be 9e21 df3c
00000160: ddbb 533e 4b3b 443e e95c 04be 840d d8bb
00000170: 3ccd c43d ca03 033d 7c5f b5bd aa1a 063e
00000180: 26da 6f3e 16a5 78bd 605c fe3c e897 61be
00000190: c595 633e 5465 253e 1c1e f53d 4c51 733e
000001a0: 6bc5 823e 4a6f 263e dafc 003e 5922 08be
000001b0: 848a eebd 019a ba3d b159 a23c 0d32 22be
000001c0: 8575 5fbe c74c 12be ba8f 4d3e ff0c ccbd
000001d0: 4785 1c3a 9b35 ec3c 8f33 0ebd 9838 5abe
000001e0: 8c06 833d 4a1d ff3d 43c5 623e 888d 3bbe
000001f0: f776 3dbe 0d86 b7bd ca4e 32be 5ce4 cfbd
00000200: d836 893b 955d f7bd 690d 2bbe da0f acbc
00000210: 557b 3b3b 5492 43bd 49d7 6bbd 118b f8bd
00000220: 1c74 35bd 6b64 433e 8cd5 e5bd d127 aa3d
00000230: d3ee 40be 8059 b9bc 3231 a2bd bb11 61bd
00000240: 8246 28be 1087 ffbd 00e9 e2bd 9a6d 603e
00000250: 03b5 2abd 7ad0 f23d bf3d 4cbd 9fcd 0cbe
00000260: 4f12 793e d4ee 463d 6ea3 76be 8fbb aabd
00000270: 02e2 14be 9dd5 4fbe e563 08be c6b3 883d
00000280: ecab 88be c76f 87bd c2f4 3abe 3094 6d3e
00000290: edb7 cabd 973f d53c eae8 cd3d b4c8 19bd
000002a0: c42f c5bd 21a7 21be 6b07 163e d2e5 403e
000002b0: 50ff 6dbe 9f6a a73b 593f d73c d4dc 3ebe
000002c0: 103e 1cbe c08b 193d bb61 5e3d b555 473d
000002d0: 15ea b9bd 0d6d 54be c96f 053d 79ef f33c
000002e0: 4c9d 41be ed00 fb3a 694f 243e 426f 843e
000002f0: 9a1b fdbd 45a6 2abe 2106 2ebd 8ae9 5bbd
00000300: f57a 963d 363c fa3b 9348 37be d141 1a3e
00000310: 5877 473e 4701 803b 1c03 d2bd 61bb 5b3e
00000320: b572 f5bd ab5b ed3d e119 1fbd 599e 1bbe
00000330: 31ce 81bd 7ba8 a03d 176d 7ebb 28e3 4f3c
00000340: edf9 44be 1768 763e 96dd 5e3d 7d11 6f3e
00000350: 6188 163d 9099 94bd 4e54 1f3e cdb2 143e
00000360: 415f 19be 6ded 683d 3b80 1d3e 9220 54be
00000370: dce1 0b3e 57ce ccbd b2c1 023e d6c2 61be
00000380: 0508 273e 6fb6 1c3e 7b4d 20bd a35f fe3d
00000390: 72ee 0fbe 9ba4 2f3e e84a 03be 4b3d 75bd
000003a0: 6e06 a2bd 3266 be3c 1b33 263e e57d a4b9
000003b0: bd86 08be e13b d83d e8b5 bb3d 99e5 463d
000003c0: 0538 02be a56f 64be d51b 323e 8818 673e
000003d0: 2fbd 113e ec98 51be 53a6 c63c 6945 373e
000003e0: 84a9 96bc b514 1cbe fc9d b5bd 6f49 e73d
000003f0: 45e5 66bd 4edc ae3d 5dbe 193e cc9f 55be
0.19558181 0.16436861 -0.06928369 0.09997421 0.14762948 0.08412653 0.13303016 0.11509694
-0.07307256 -0.24380347 0.1151108 -0.12662779 -0.08339415 -0.05492186 -0.074199095 0.114415705
-0.19952683 -0.2377848 -0.21973823 0.021331593 0.06273362 -0.06363374 -0.13151768 -0.17285392
-0.11847157 -0.14078154 -0.20997559 -0.12093789 0.08877641 0.06402934 -0.027662603 -0.17028227
-0.025084361 -0.21466969 0.0995721 0.24300618 0.098666824 0.099458694 0.18431939 0.19452003
-0.08828568 -0.20818673 0.07486039 0.18084638 0.22473827 -0.15523283 -0.010864084 0.19533293
-0.114283174 0.036782082 0.087957725 -0.007404503 -0.23782136 -0.08417763 0.15922001 0.18952921
0.052381765 -0.054289144 -0.060748145 0.08595434 -0.18024857 -0.21632636 -0.0978597 -0.19898753
-0.19611447 0.019835308 0.19978456 0.012436241 0.07828073 0.05137446 0.1046797 -0.23660117
0.098321594 -0.10649521 0.07260663 0.18955122 -0.2256122 0.17916924 0.147668 0.0052294405
-0.1894805 0.13817659 -0.14696503 -0.14626135 -0.1433798 -0.01484056 -0.21989259 0.02723771
0.20677133 0.19163243 -0.12926067 -0.006593408 0.09609458 0.031986035 -0.08856103 0.13096109
0.23423061 -0.060704313 0.031049907 -0.22030604 0.22225101 0.16151935 0.119686335 0.23761481
0.25541243 0.16253391 0.12596455 -0.13294353 -0.116475135 0.09111405 0.019818159 -0.15839405
-0.21822174 -0.142871 0.20074359 -0.09963416 0.00059707876 0.028834155 -0.03471714 -0.21310651
0.06397733 0.12456758 0.22145562 -0.18315709 -0.18502413 -0.08961115 -0.17412868 -0.10150978
0.004187446 -0.12078396 -0.16704334 -0.021003652 0.0028607447 -0.04774697 -0.05757836 -0.121359
-0.044300184 0.19081275 -0.112223715 0.083083756 -0.18841104 -0.022625685 -0.079195395 -0.05494855
-0.16433147 -0.12476933 -0.110795975 0.2191681 -0.041676532 0.1185617 -0.049863573 -0.13750313
0.2432339 0.048567608 -0.24085781 -0.08336555 -0.1453934 -0.20296331 -0.13319357 0.06674914
-0.26693666 -0.06613117 -0.1825743 0.2320106 -0.09898362 0.026031299 0.100541905 -0.03754492
-0.09628251 -0.15786411 0.14651267 0.1883767 -0.23241925 0.005109146 0.026275324 -0.18638927
-0.1525805 0.03748679 0.05429242 0.04866572 -0.09077851 -0.20744725 0.03257731 0.029777275
-0.1890766 0.0019150056 0.16045918 0.25866133 -0.1235878 -0.1666499 -0.042486314 -0.053689517
0.07347671 0.0076365722 -0.17898779 0.1506417 0.1947912 0.0039064023 -0.10254499 0.21458198
-0.11984769 0.1158975 -0.03884304 -0.15197124 -0.06338156 0.07844635 -0.0038822347 0.012688436
-0.19235964 0.24063145 0.05441054 0.23346515 0.036751155 -0.07255852 0.15559503 0.14521332
-0.14977743 0.056867052 0.15380947 -0.2071555 0.13660377 -0.10000294 0.12769201 -0.2204698
0.16311653 0.15303968 -0.03913639 0.12420585 -0.14055803 0.17152636 -0.12821543 -0.059872907
-0.079113826 0.02324209 0.16230433 -0.00031374316 -0.13332649 0.10558296 0.09165555 0.048558805
-0.12716682 -0.22308214 0.1739343 0.22567952 0.14232324 -0.20468491 0.024249231 0.17897572
-0.018391378 -0.15242274 -0.08868024 0.11293303 -0.056370992 0.085381135 0.15014024 -0.20861739

rnn.1.1.bias f4 [30]
00000000: c423 d1bd 72bd a6bd 40d6 bdbd 77d7 4a3d
00000010: cf4d 2d3e 84e0 a03d f382 083e 4e19 8ebc
00000020: 2bcc 6d3e 1afa 59be 9925 44be 2bc2 683e
00000030: a19a 62be 5caf c73d efe1 913d 40d0 8a3d
00000040: 3c0c 2a3d be30 543e d685 18be 734f 3cbc
00000050: 9d15 e23c cfac 02bd 7cf6 043d 4918 663e
00000060: 0097 3c3e a1dd 863d 78e3 c23d 9bb9 b0bd
00000070: bd0e 64be e905 0ebe
-0.102119 -0.081416026 -0.092693806 0.04952189 0.16924213 0.07855323 0.13331203 -0.01734605
0.23222415 -0.21286812 -0.19154967 0.22730319 -0.22129299 0.09750244 0.071231715 0.06778002
0.041515574 0.20721719 -0.14894804 -0.011493552 0.027598197 -0.031903084 0.03246163 0.22470202
0.18416977 0.06585241 0.095160425 -0.086291514 -0.22271247 -0.13869442

rnn.1.2.weight f4 [30]
00000000: 0977 823f 1f8d 823f ab7d 813f ea0f 813f
00000010: 4929 7f3f 7e5f 7e3f 3f1c 7b3f e8ab 7a3f
00000020: 3c21 7f3f da84 803f 469a 7b3f 0e57 7f3f
00000030: 3b07 803f dbea 7e3f 24ca 803f cc4f 813f
00000040: 448e 7f3f 89df 843f 46a4 803f 6e9a 813f
00000050: 95f9 823f 8b99 833f 916a 803f 9db2 793f
00000060: a5b4 7f3f 7802 823f eca4 803f 88cb 813f
00000070: 779c 803f 81d3 7f3f
1.0192577 1.0199317 1.0116476 1.0082982 0.9967237 0.9936446 0.98089975 0.9791856
0.99660087 1.0040543 0.9828228 0.9974221 1.0002207 0.9957711 1.0061688 1.0102477
0.99826455 1.0380718 1.0050132 1.0125253 1.0232416 1.0281233 1.0032521 0.9753817
0.99885017 1.0157003 1.005033 1.0140238 1.0047749 0.99932104

rnn.1.2.bias f4 [30]
00000000: 386d b43c 7a19 b33c bc29 5fbb 7a47 1e3c
00000010: d706 00bb d62a cfbb a967 b0bc 98a5 7bbc
00000020: f4b8 1c3c 33db 183c 8242 05bd bf1b b8bc
00000030: b2ad 6639 5fb1 0bbc 5eb7 113b dbef 87bc
00000040: b879 95bc 32e6 da3c 5217 823b afaa 683c
00000050: 7abe e03c 76c5 c03c 158a c23b c90f aebc
00000060: 494e 76bc 2a74 a73c 06d1 9cba 06d2 853b
00000070: 001b f93b 6f03 7eba
0.022024736 0.021862734 -0.0034051975 0.009660596 -0.0019535327 -0.006322245 -0.021533804 -0.015359305
0.009565581 0.009329605 -0.03253413 -0.022474168 0.00021999216 -0.008526175 0.002223454 -0.016593864
-0.018246517 0.026721094 0.003970065 0.01420085 0.027434576 0.023531657 0.005936871 -0.021247761
-0.015033313 0.020441134 -0.0011964149 0.0040838746 0.0076020956 -0.00096898427

rnn.1.2.running_mean f4 [30]
00000000: d470 c5bd 8595 8ebd ab5e e7bd 0e58 443d
00000010: aa1a 3a3e 8118 a83d c52b 013e c272 adbc
00000020: e347 693e 8184 52be e487 5cbe f359 613e
00000030: be8e 59be 8bd9 9a3d c2be 6c3d 0401 7b3d
00000040: 7f75 4e3d 3c98 5c3e 662b 1abe f052 01bc
00000050: 52ad b63c 9dc6 fcbc 270d 203d c3ea 6d3e
00000060: 0e6c 433e 0e1a 993d 5c5c ad3d d624 b0bd
00000070: 60f4 65be f9ba 13be
-0.09640661 -0.06962112 -0.11297353 0.047935538 0.18174234 0.08207799 0.12614353 -0.021172885
0.22781329 -0.20558359 -0.21536213 0.22006969 -0.21245858 0.07561024 0.05779911 0.061280265
0.05040502 0.21542448 -0.15055618 -0.007893309 0.022299442 -0.030856425 0.039075043 0.23234086
0.19084188 0.07475673 0.08464882 -0.08600776 -0.22456503 -0.14426793

rnn.1.2.running_var f4 [30]
00000000: 5f2b 8a3e 8209 a93e dcf2 823f 1ab4 e83e
00000010: 4453 d83d 23b4 aa3e 56e3 ba3e b3a2 e83c
00000020: 7d95 d13e 592d a23d 9346 983d 89a8 b33d
00000030: d8dc 493e 8941 2a3e 8e9a 3f3f 8f7d 0c3e
00000040: e387 183f c2c6 ce3e bedc ff3e a948 8d3e
00000050: 1faf 913e f385 4f3e 3c7e 403e 9f5e cc3e
00000060: 3830 223e 1ef0 783e 49e5 833e d516 013f
00000070: c132 2a3e 5988 8e3e
0.26986215 0.33015066 1.0230365 0.45449907 0.10562757 0.33340558 0.3650157 0.028397894
0.40934363 0.07918806 0.07435336 0.0877238 0.19713151 0.16626562 0.74845207 0.13719772
0.59582347 0.40386015 0.499731 0.27594498 0.2845392 0.20265941 0.18798155 0.3991594
0.15838706 0.24310347 0.25760868 0.50425464 0.16620924 0.278384

rnn.1.4.weight f4 [50, 30]
00000000: 07ba a03d 8087 153e 6c94 003e aaed 2a3e
00000010: 20d6 483e 9fcf 083e 80ac 043e ce10 cb3d
00000020: e1b6 ef3c 3072 483c 2c86 da3d 2e63 fdbd
00000030: 030e d3bd 0580 b1bd fc66 15be cb18 e8bd
00000040: 522a 8a3d 51ed 1bbe 4dd3 913d e919 b03c
00000050: 6bf5 f8bd fcab e43d 4b9f 1ebd aba6 683d
00000060: 2242 c83d c49c 023e 0d7b 113e 0d77 80bd
00000070: 51af f53d 8407 23be 757b 493d e194 093e
00000080: ac0e 32be ca2f 353e 9e26 1ebe 5ac0 4cbd
00000090: 35b3 0fbe 365a 10be d3ea b9bd 9159 e23d
000000a0: 8d0e 15be 6429 6f3e 50d3 433d 4952 203e
000000b0: 662c 10be 4421 fc3d 50c4 11be f1a7 78bb
000000c0: 0b07 aabd 6d5b d13d a64e 97bd 13f9 0c3e
000000d0: 35fd f73d 8531 c13b f1b0 ab3c 11c0 2f3e
000000e0: ce12 00be 8391 e2bd cc25 a73b be56 f2bd
000000f0: 0bbb 5cbd fdaa 0cbe 3c08 85bc fff4 78bb
00000100: 9f25 bd3c e77e ce3d 83ed 15bd 1d19 ae3d
00000110: faba ac3d bdae b2bd 6809 97bd b638 d73d
00000120: 2079 aa3d a380 88bd 53cc d83c bac7 ad3d
00000130: c8c0 13be a6a5 183e 4eca 2d3c 295c 913d
00000140: 1a59 993b 71c0 933d db5e 243e 6b62 b93d
00000150: 96bb 02bc 1631 443e d6c0 88bd bcde 07be
00000160: 01aa ac3d 019c 54be b472 f93d 5085 523c
00000170: fb36 8dbd 12f3 03bb 087a 1bbd 09f2 533d
00000180: 30cc c73d a800 d63c 7a99 923d bda3 ccbc
00000190: 84b7 45bd ad9c 1ebe b153 3f3e b9a0 d93d
000001a0: 67fd 00be fd4e 35bd e965 e53c a634 cfbc
000001b0: 1e7d f23d 8feb 14be 40d1 e8bc eb60 82bd
000001c0: 4e54 f63d 28e9 853c c4e7 343e 56b5 2f3e
000001d0: 3a57 0abe 5cb4 ff3b d13c 033d a45f 583d
000001e0: 7899 293e 3a1b 44bd bd1e ecbd d990 313e
000001f0: 9d54 163e dc21 0e3e 6d14 23be 625d c9bd
00000200: 6615 d1bc 3355 323e 5294 04be e84b a83c
00000210: 082d 203e 8bc7 763c 8650 abbd 327c 1b3d
00000220: 794d 683d 4a52 d8bd bf46 c8bd bbd0 b8bd
00000230: 7fe8 2fbe 65f1 e7bd a7b5 57bd a778 7ebd
00000240: bf11 29be bb3b 7abb 86c7 3e3c 6d36 92bd
00000250: d18d 823d dacc b9bd e10c 27be ecb3 203e
00000260: e61a 203d 4e72 4dbd fb3e ff3d 9629 8dbd
00000270: a1ad 18bd b561 bcbd d1c0 37bd 19a7 92bd
00000280: 5fdb 43be b9b2 99bc 107b e7bd 2a17 7fbd
00000290: 82a1 243d ce15 6b3d cd57 d4bd fdfd ac3d
000002a0: 6ce9 c93d 1d10 d4bd b1a7 bf3c 342c 32be
000002b0: 8189 c8bc 5a14 e73d 2ac3 f5bd 7581 0d3e
000002c0: b09f 32be cc7c ffbd 3f68 c3bd d360 04be
000002d0: 0177 98bd e0eb 0e3e 9b5c e93d 4adc a33d
000002e0: 53d1 7fbd ab17 553e ce20 ac3d b5b1 cb3d
000002f0: 0920 88bc 9a4f 0e3c 9a61 2a3e 0dfc 133e
00000300: 80cb ee3d 113e b53b d132 8d3c b6b5 453e
00000310: 80dc f2bc 7240 9b3d f42e 303e e99d 103d
00000320: a128 f23d 74cd 3dbe cdb0 20be 0d08 f8bd
00000330: 4044 edbc f737 e4bd 22cf 19be da15 cc3c
00000340: 2768 023c d173 37be 2474 38bd 6a17 05bd
00000350: ae1a 0bbd ce52 83bb 92ad 0ebe 07ef 413b
00000360: 0981 12be 3910 913c f319 9e3d 3567 133e
00000370: a34c 493d 028e 043e f397 43bc 6927 083e
00000380: cb72 fd3d d712 a73d 2c8a 24be d00b c43d
00000390: 891e 153e 9a11 fbbd 0a28 083e 353f 85bd
000003a0: d664 5d3d ece9 2cbe f710 adbc 6fcc 233e
000003b0: 89c8 61bd 7aaf ce3c 61ab ee3d 7020 89bb
000003c0: d667 3f3e 712c fdbc 603e 8dbd f757 f23d
000003d0: e7e1 143b 8f74 213c 0e8d 443e 012a fd3b
000003e0: 9d87 f83d 4363 06be f914 15be c828 9d3c
000003f0: c04b 93bd 66a8 803d 4d03 9ebd cfe4 abbd
0.07847982 0.1460247 0.12556618 0.16692224 0.19612932 0.13360451 0.12956429 0.099153146
0.029262008 0.012234256 0.106701225 -0.12372433 -0.10305407 -0.08666996 -0.14590067 -0.11332854
0.06746353 -0.15227248 0.071203806 0.02149673 -0.12156185 0.11165616 -0.038726132 0.056799572
0.09778239 0.12755114 0.14207096 -0.06272707 0.119963296 -0.15920836 0.049190003 0.13435699
-0.1738841 0.17694011 -0.15444419 -0.04998813 -0.14033206 -0.14096913 -0.09077992 0.1105224
-0.14556332 0.23355633 0.047808945 0.1565639 -0.14079437 0.123110324 -0.14235044 -0.0037941898
-0.083021246 0.10222516 -0.07388048 0.1376689 0.12108842 0.0058957958 0.020958396 0.17163111
-0.12507173 -0.110629104 0.0051009413 -0.11832951 -0.053889316 -0.13737102 -0.016239278 -0.0037987826
0.023089228 0.100827985 -0.036603462 0.08500884 0.084341004 -0.08724735 -0.07374841 0.10508864
0.08323884 -0.066651605 0.026464617 0.084853604 -0.14429009 0.1490694 0.010607315 0.07097656
0.004679811 0.0721444 0.1605181 0.09051975 -0.007979294 0.1915935 -0.066774055 -0.1326856
0.08430863 -0.20762636 0.12180081 0.012849167 -0.06895252 -0.0020133895 -0.037958175 0.051744495
0.097557425 0.02612336 0.071581796 -0.02498042 -0.048270717 -0.15489455 0.1868427 0.106263585
-0.12596665 -0.044264782 0.028002696 -0.02529366 0.118402705 -0.14542983 -0.02842009 -0.06366142
0.120277986 0.01634653 0.17666537 0.17159018 -0.13509837 0.007803483 0.03204042 0.052825585
0.1656245 -0.047877528 -0.115293 0.17340411 0.14680715 0.13880104 -0.1592576 -0.098322645
-0.025522899 0.17415313 -0.12947205 0.020544007 0.15642178 0.015062223 -0.08364968 0.03796024
0.05671451 -0.105625704 -0.09779119 -0.09024187 -0.17178534 -0.11325339 -0.05266347 -0.06212678
-0.16510676 -0.0038182575 0.01164425 -0.07139287 0.063747056 -0.090722755 -0.16313507 0.15693635
0.039088152 -0.050157838 0.124631844 -0.068926975 -0.03727496 -0.09198324 -0.04486162 -0.071607776
-0.19126652 -0.01876198 -0.11302769 -0.06227795 0.04019309 0.05739384 -0.10368309 0.08446882
0.09858975 -0.10354636 0.023395391 -0.17399675 -0.02447963 0.11283179 -0.12000115 0.13818915
-0.17443728 -0.12474975 -0.09541368 -0.1292756 -0.07444573 0.13957167 0.11394616 0.08001001
-0.062455487 0.2080981 0.084046945 0.09946004 -0.016616838 0.008685971 0.16638795 0.14451618
0.11659908 0.0055310805 0.017236145 0.19307598 -0.029646158 0.07580651 0.17205411 0.035306845
0.118241556 -0.18535405 -0.15692444 -0.121109106 -0.028963208 -0.11143487 -0.15020421 0.024912763
0.007959402 -0.17915274 -0.045032635 -0.032493033 -0.03396099 -0.004007674 -0.139334 0.0029591934
-0.14307036 0.01770793 0.07719793 0.14394839 0.049145352 0.12944797 -0.011938083 0.13296284
0.12375411 0.0815789 -0.16068333 0.095725656 0.1456243 -0.122592166 0.13296524 -0.065061964
0.054051243 -0.16886109 -0.021126254 0.15995954 -0.055122886 0.025230158 0.11653782 -0.004184775
0.18691954 -0.03090498 -0.06896663 0.11833184 0.0022717656 0.00985445 0.19194433 0.0077259545
0.12135241 -0.13123803 -0.14558782 0.019184485 -0.071921825 0.062821195 -0.07715473 -0.08393251

rnn.1.4.bias f4 [50]
00000000: 1e92 5c3d 408a 14be 3bde dcbc 6c15 06be
00000010: ccf3 c8bd 4c41 ea3b c89a ebbb 3cf8 4dbc
00000020: 33b1 bbbc 4eee 1c3e 8a83 9fbd e2c5 bdbd
00000030: b64d c83c 6a87 f1ba a56a a6bd 7e7a 8dbd
00000040: 7f83 f7bd de90 a63d 1d41 9a3c e24a 3e3e
00000050: 5838 313e 24af 1d3d 997c f13d f671 c3bd
00000060: 3ab1 05be c01a f13d c822 46be 3dcb e23c
00000070: 0a6f 2d3d f580 06be 5c71 2ebd 5fb4 6c3d
00000080: 6928 38bd 1740 923d f035 a23d d005 d93d
00000090: d778 3cbe ef7c 873c e9c9 f3bd 5095 aebd
000000a0: 75a9 413e cd8c bebd e92a 3cbe 2537 0cbe
000000b0: e100 873c 9e03 85bd 7de5 d1bd 735d 273d
000000c0: fe0a 19bd 5726 2cbe
0.053850286 -0.14505863 -0.026961436 -0.1309411 -0.098121256 0.0071488973 -0.007190082 -0.012571391
-0.022911644 0.15325281 -0.07788761 -0.09266259 0.024451118 -0.0018427197 -0.081258096 -0.06908129
-0.12085628 0.081331 0.018829877 0.18583253 0.1730665 0.038497105 0.11791343 -0.09543221
-0.13055888 0.1177268 -0.19349205 0.027684802 0.042342223 -0.1313513 -0.042588577 0.057789203
-0.044960413 0.071411304 0.07920444 0.10596812 -0.18405472 0.016539065 -0.11903746 -0.08524573
0.18912299 -0.09304199 -0.18375744 -0.13692911 0.016479911 -0.064948305 -0.102488495 0.040860604
-0.037364 -0.168115

rnn.1.5.weight f4 [50]
00000000: 5fba 743f f1c8 863f 985c 813f 5211 853f
00000010: 3ab0 803f cecd 7c3f 35fa 803f 6a3f 803f
00000020: 302c 7d3f 00d3 6a3f 39d8 793f ee40 803f
00000030: d983 6c3f 33c2 773f 7bbc 7d3f 1fae 713f
00000040: f2b2 803f 3e13 753f a40c 7b3f d0c5 753f
00000050: a3d2 7c3f 3d41 7d3f 5518 7e3f 4819 803f
00000060: af7d 7d3f 5b96 773f efc1 7d3f facf 7f3f
00000070: 4f45 6f3f e06c 813f ad86 803f 9ae3 7c3f
00000080: 4caa 783f 33fc 7a3f d707 7b3f 0b86 863f
00000090: e506 7f3f 29b3 833f e35c 803f c1c1 803f
000000a0: f2b4 793f 5a44 7e3f a2f1 843f f7d1 7d3f
000000b0: 8506 803f d308 743f 401e 8c3f 9b23 803f
000000c0: a034 7f3f 9f8f 843f
0.9559688 1.0530072 1.0106382 1.0395911 1.005378 0.98751533 1.0076357 1.0019352
0.9889555 0.9172821 0.97595555 1.0019815 0.92388684 0.967807 0.99115723 0.9440631
1.005461 0.95732486 0.98066163 0.9600496 0.98758906 0.9892767 0.9925588 1.0007715
0.990199 0.967138 0.99124044 0.9992672 0.9346513 1.0111351 1.00411 0.9878479
0.9713485 0.98041075 0.9805884 1.0509657 0.99619895 1.028905 1.0028347 1.0059129
0.97541726 0.99323046 1.038624 0.99148506 1.000199 0.95325965 1.0946732 1.0010866
0.99689674 1.035633
