DeepHedging_clean/BS/trained_models/RNN_BN_simple_AAPL_GOOGL.pt (torch, 286302 bytes, 541 tensors)

embedding.weight f4 [4, 4]
000000 19 4a 05 be 99 58 61 bf a3 db 23 3f ac 95 cc bf
       -0.13016547 -0.88025814 0.64007014 -1.5983176
000010 96 12 c3 be fa fa a1 3f ee de ba 3f 36 6e c1 bf
       -0.38100117 1.2654717 1.4599283 -1.5111759
000020 fc 22 5a 40 7e b8 17 40 fd 50 90 3f b7 5d d1 3f
       3.4083853 2.3706355 1.1274716 1.6356725
000030 3a 6a ba bf 37 43 36 3f 13 c3 86 bf 3f 41 21 3f
       -1.4563668 0.7119631 -1.0528282 0.6299018

rnn.0.0.weight f4 [6]
000000 00 00 80 3f 00 00 80 3f 58 dc 90 3f f3 c7 95 3f
       1.0 1.0 1.1317244 1.1701645
000010 e8 3b 23 3f a6 42 c8 3f
       0.63763285 1.564534

rnn.0.0.bias f4 [6]
000000 c4 b1 5e 3f 7f 1b 85 3f 6f a7 f9 be 0b 59 a1 bf
       0.8699 1.0399016 -0.48760554 -1.2605299
000010 43 f0 74 3f 84 de 56 be
       0.9567911 -0.2098332

rnn.0.0.running_mean f4 [6]
000000 00 00 00 00 00 00 00 00 34 72 b9 3e 49 67 5f 3f
       0.0 0.0 0.36219943 0.87266976
000010 67 cf 0a 3f b8 a6 52 be
       0.5422272 -0.2057141

rnn.0.0.running_var f4 [6]
000000 74 74 ba 25 74 74 ba 25 84 4e 57 40 2a 77 ae 3f
       3.2344768e-16 3.2344768e-16 3.3641672 1.3630116
000010 83 27 6c 3f 4f b5 f4 3f
       0.9224779 1.9117831

rnn.0.1.weight f4 [20, 6]
000000 25 88 12 40 65 59 6b be 82 66 04 bf 6e 33 79 3e
       2.2895596 -0.2298332 -0.51718915 0.24336025
000010 6a 57 41 3f c3 85 4d bf b1 42 c9 3f 6a 7f 82 3f
       0.7552401 -0.8028223 1.5723478 1.0195134
000020 3d 9b 1c bf 11 82 d1 be f9 86 a0 bf d9 49 16 3f
       -0.61174375 -0.40919545 -1.254119 0.5870643
000030 06 19 87 be 95 f3 71 be 9b 9a ef be 52 6c 8c 3f
       -0.2638628 -0.23628075 -0.46797642 1.0970557
000040 61 51 18 be 35 c9 b5 3f 27 af d9 3e 5b 00 3a bf
       -0.14874794 1.4202029 0.42516443 -0.7265679
000050 4e af a4 3d 39 60 6a 3f 98 a3 ca 3e ea 5c 29 bf
       0.08041249 0.91553074 0.39577937 -0.661574
000060 32 3a 24 bf fc 4c 3c bf d5 b5 cc 3c 4a 1e a4 3e
       -0.641513 -0.7355497 0.024989048 0.3205436
000070 5e 1e 07 3f 8f 9e 2c bf 22 b6 e9 bd 83 86 f8 be
       0.5278071 -0.6742944 -0.11411692 -0.48540124
000080 f7 5d 38 3f 85 20 69 3d 8c 59 6c 3f 09 48 62 3f
       0.7201838 0.05691578 0.9232414 0.88391167
000090 eb 48 18 3f b9 62 b5 3e c4 f0 ac bf 1a 9d 3c be
       0.59486264 0.35426882 -1.3510976 -0.18419304
0000a0 b8 bb 2e be 33 87 f4 be eb 76 8d 3f a8 60 aa bc
       -0.17063797 -0.477594 1.1051916 -0.020798042
0000b0 bd 37 22 bf 27 f6 cb 3d fd e8 04 3f 4d f9 0a c0
       -0.633663 0.09959059 0.5191801 -2.171466
0000c0 20 f3 aa 3e fb b6 89 be 90 0f 05 bf 2c cb 87 be
       0.33388615 -0.26897416 -0.5197687 -0.26522195
0000d0 57 57 ef be 11 68 f5 3e 93 fe 4e 3e 7f 53 8a bf
       -0.46746323 0.4793096 0.202143 -1.0806731
0000e0 27 3a 45 3f e9 3b 27 3f 57 23 8c 3e ea c8 af 3e
       0.7704186 0.6532579 0.27370712 0.34332973
0000f0 d0 ff ef 3f 8a d1 09 40 a7 e0 82 3e 88 92 bc bf
       1.8749943 2.1534142 0.2556202 -1.4732218
000100 17 29 68 bf f4 b4 60 3e b2 2d 1a 3f e8 f7 a6 bf
       -0.906877 0.21944028 0.60225976 -1.3044405
000110 5c e7 5f bf b5 de 25 3f 1e 05 a5 3e 77 ad 80 bf
       -0.874624 0.6479295 0.32230467 -1.0052937
000120 04 1c 48 3f 16 57 2b bf c0 f9 b3 3f e7 f2 97 bd
       0.7816775 -0.6692976 1.4060593 -0.07419377
000130 51 30 34 bf a8 03 f6 3e ca 03 c1 bf ea 98 b5 bc
       -0.70386225 0.48049664 -1.5079281 -0.022167642
000140 06 c8 f2 3e 9f 12 2f 3f 23 d6 d1 3e 9e 0c 8b 3f
       0.4741823 0.6838779 0.40983686 1.0863225
000150 09 97 ab bf fa b8 a8 be ab 41 08 bf ea 3e c6 bf
       -1.3405467 -0.32953626 -0.532252 -1.548795
000160 f3 9b cf be 72 55 87 be 83 05 8a bd 23 f2 24 bf
       -0.40548667 -0.26432377 -0.067393325 -0.6443197
000170 21 00 54 3f 3f 1f 81 3f f4 dc 16 3f 44 14 ae 3e
       0.82812697 1.008766 0.589309 0.33999836
000180 69 67 91 bf 7f 2a 1a 3f b9 a4 90 3f 2e 13 86 3d
       -1.1359683 0.60221094 1.1300269 0.06546627
000190 1a e8 c5 3e 12 3b c2 3d 8a ef dd be 3c 20 e5 be
       0.38653642 0.09483923 -0.43346816 -0.44751155
0001a0 f4 75 a6 be 5c 4a 13 bf 77 b5 9e bf 59 60 bd 3e
       -0.32511866 -0.5753534 -1.2399129 0.3698757
0001b0 eb b4 14 bf c2 92 64 bf 77 b6 9d 3c 18 51 02 3f
       -0.5808856 -0.89286435 0.019252045 0.5090499
0001c0 c4 da d8 3e 4c 8c 84 bf fe a1 84 3c 77 b6 38 3f
       0.42354405 -1.0355315 0.016190525 0.7215342
0001d0 62 3b 50 3f 35 db 5e 3e df 0a b7 3e 8f 21 35 3f
       0.8134061 0.21763308 0.3575048 0.7075433

rnn.0.1.bias f4 [20]
000000 4a 07 b3 be a8 a8 58 3f f7 21 91 bf 07 77 21 3e
       -0.349665 0.8463235 -1.133849 0.15768062
000010 f7 3b 74 bf 29 70 57 3e d1 ad 65 3e 60 fe c0 3f
       -0.95404 0.2103888 0.22429587 1.5077629
000020 31 8c dc 3e aa 55 ec be 88 04 9c be 9a 22 95 3f
       0.43075708 -0.46159106 -0.30472207 1.1651185
000030 cd 07 d7 be 88 ed 93 bf ba a0 1c 3e cf 45 11 be
       -0.4199814 -1.1556864 0.15295687 -0.14186786
000040 c0 87 03 3f 94 5d 15 bf 02 56 48 bf 1b 4f 8c 3f
       0.51379013 -0.58345914 -0.7825624 1.0961641

rnn.0.2.weight f4 [20]
000000 9a 50 36 3f c7 c8 c3 3f 9b 49 28 3f c5 a8 5d 3f
       0.7121674 1.5295647 0.65737313 0.86585647
000010 ed b2 43 3f 43 8a e8 3f e3 38 9b be 99 65 9d 3f
       0.76444894 1.8167194 -0.3031684 1.229663
000020 0f 12 5c 3e 1d 17 15 3f 55 3c bf 3f f3 7a 20 3f
       0.21491264 0.58238393 1.4940287 0.62687606
000030 e4 03 a6 3f c7 6c 26 40 7b 46 d1 3f 2a 14 8b 3e
       1.2969937 2.6003892 1.6349634 0.2716382
000040 23 68 cc 3f 5e ee d3 3f 7d ad 09 3f ff a2 8e 3e
       1.596928 1.6557119 0.5378035 0.2785873

rnn.0.2.bias f4 [20]
000000 eb 5c 0a bf dd 02 56 3f ed ba f5 3e 01 ef 87 bf
       -0.5404803 0.8359812 0.47994176 -1.0619813
000010 9a 32 5a bf d9 c3 86 3e a5 36 a3 bf d4 18 83 3f
       -0.8523346 0.26321295 -1.2751051 1.0241952
000020 40 45 2b bf 88 7e 88 be 88 81 10 3e ba ab 0f bf
       -0.6690254 -0.26659036 0.14111912 -0.5612141
000030 77 6c 80 3d be c7 63 3f e8 dd 60 3f a8 ea 36 bf
       0.06270688 0.8897666 0.878386 -0.7145181
000040 9a 09 24 3e c4 e0 4e 3f 3d f4 f5 be 35 28 3a bf
       0.16019288 0.80811715 -0.48037902 -0.727176

rnn.0.2.running_mean f4 [20]
000000 6d 7a 0a 40 8c a9 23 40 8a c7 47 c0 7e cf 4c bf
       2.1637223 2.5572233 -3.121554 -0.8000411
000010 ba 26 fd bf c9 70 94 bd 92 3a f4 3f c3 c0 64 40
       -1.9777443 -0.072480746 1.9080374 3.5742652
000020 bc 9e f1 3e 43 cc 0e c0 e0 4b 79 40 d5 93 17 3f
       0.47191417 -2.2312171 3.895256 0.5920995
000030 17 67 e8 bf 24 07 4d c0 7f e2 dc 3e a4 91 f7 bf
       -1.815646 -3.2035608 0.43141553 -1.9341321
000040 c2 4d e3 bd 2d 77 de bf ca e5 04 c0 44 c9 ab 3f
       -0.110988155 -1.738012 -2.0765252 1.3420796

rnn.0.2.running_var f4 [20]
000000 2d 7e 0e 40 a1 b8 13 40 ea f2 06 41 ef 22 8c 3f
       2.2264512 2.3081439 8.434305 1.0948161
000010 31 3c 8a 3f 51 26 8b 40 05 97 9f 40 3c ba 64 41
       1.0799619 4.3484273 4.987185 14.295467
000020 6e 2f 59 3f 60 b6 6f 40 c9 3d 1d 40 49 11 54 40
       0.84837997 3.7455063 2.456896 3.313555
000030 e2 2d 74 40 b9 e5 ee 40 9c 59 db 40 3c 46 be 40
       3.8153005 7.4655423 6.8546886 5.9460735
000040 3e 35 17 40 f1 90 e3 3f b7 6c 04 40 7e 09 84 40
       2.3626246 1.7778608 2.0691354 4.1261587

rnn.0.4.weight f4 [20, 20]
000000 f9 55 17 3e b2 70 6c bf 72 8f d5 3d c7 da dd 3d
       0.1477889 -0.9235946 0.10427751 0.10832744
000010 94 a7 b6 3e a4 56 3f 3f af 5a 08 bf 29 7f a9 3e
       0.35674727 0.7474158 -0.5326337 0.33104828
000020 a9 98 ba be 12 87 e3 3e 93 db 50 bf ab c5 ca 3e
       -0.36444595 0.44438988 -0.81585044 0.39603934
000030 17 35 e3 3e 3b 53 32 3f 77 d6 5a bf a7 6d b2 3e
       0.44376442 0.6965825 -0.854835 0.34849283
000040 ba b2 68 3f 8f 98 89 bf e3 5f 1e 3f 7c 42 a6 3e
       0.90897715 -1.0749682 0.6186506 0.324726
000050 d9 a4 dd 3e b2 f3 be be 8f 97 8a bf 02 db 20 3f
       0.4328983 -0.372953 -1.0827502 0.6283418
000060 f8 1c ea 3e d0 2d 12 3e e5 1f 75 bd a0 fa 20 3f
       0.45725226 0.14275289 -0.05984487 0.62882423
000070 c7 75 70 bf 3c 98 42 bf 71 c1 60 be e2 8f 02 3f
       -0.93929714 -0.7601354 -0.21948792 0.510008
000080 a5 5b 74 bf 9f e1 68 be 3a fc 0c bf b0 65 49 bf
       -0.9545234 -0.22742318 -0.5507237 -0.7867079
000090 98 51 98 bf b4 57 fb be ae 60 18 3f 6f 22 5b bf
       -1.18999 -0.4909035 0.5952252 -0.85599416
0000a0 77 c8 b5 3e 32 d9 9a be e4 5f 55 bb a6 6c 58 3d
       0.35504505 -0.30243832 -0.0032558376 0.05283799
0000b0 5b 8d 82 3e b1 60 a0 3e 1c f5 21 3d 3d 90 87 3e
       0.2549847 0.3132377 0.039540395 0.26477233
0000c0 70 2f 24 bf 5c 4a f2 bd cb 65 40 bf 9a e8 d4 3e
       -0.64134884 -0.11830589 -0.75155324 0.4158371
0000d0 ac 6e 96 be 0a bd fb bc ee a4 5a bf 4e 9a be be
       -0.2938131 -0.03072979 -0.8540791 -0.372271
0000e0 8d b8 1d be fb d5 37 bf 4e f1 36 be ab 5c 67 be
       -0.15402432 -0.71810883 -0.17865488 -0.22593944
0000f0 c6 21 03 3f 3e ea dd bf 20 dc 1b 3f 55 64 b1 3e
       0.5122341 -1.733711 0.6088276 0.3464686
000100 97 a6 98 3e bb b3 ab 3f 26 2d 02 3f 8d c7 06 3f
       0.29814598 1.3414224 0.5085014 0.5264824
000110 9a c7 1b bf f4 34 96 be dd 43 17 bf 75 9d 3c bd
       -0.6085144 -0.29337275 -0.59087926 -0.0460486
000120 7c 4c 3c 3f 4d 5f 77 3f 96 d0 46 bf 0e 95 c8 be
       0.73554206 0.9662979 -0.77662027 -0.3917622
000130 85 9f 88 be 6b 49 46 bf d1 61 18 bf 4c 9c a1 be
       -0.26684204 -0.77455777 -0.59524256 -0.31564558
000140 67 ae 9d 3d 67 49 a4 be 09 02 b4 be c2 4f 92 bc
       0.0769928 -0.32087252 -0.35157803 -0.017860297
000150 ae 95 9b 3d 33 c1 7a 3f f6 1f b4 3e b3 15 00 be
       0.075969085 0.9795105 0.35180634 -0.12508278
000160 06 ad ef be 8c 88 ae be d8 ac b4 3e ec 88 35 be
       -0.46811694 -0.34088552 0.3528812 -0.17728013
000170 bb e3 25 bf fd ce 84 3f 37 f6 83 bf b5 2f 07 bf
       -0.64800614 1.0375668 -1.0309514 -0.5280717
000180 3d 17 82 be b3 da a7 bf ba ba 58 bf f9 e8 1e bf
       -0.25408354 -1.3113617 -0.8465992 -0.6207424
000190 7d 9e d6 be 53 81 53 bf 81 73 27 3f 11 c7 29 be
       -0.41917792 -0.8261921 0.6541062 -0.16579844
0001a0 5c b8 a9 be 74 b1 83 3f 88 8e 35 bf ca 7f 30 be
       -0.33148468 1.0288529 -0.7092061 -0.17236248
0001b0 27 71 46 be f1 ee 9b 3f e6 93 58 3e 5f 2f bb be
       -0.19379102 1.2182294 0.21150169 -0.3655958
0001c0 c1 72 28 3f 6f 2a 59 3f 2c 71 44 3c 51 25 64 3f
       0.658001 0.84830374 0.011989873 0.8911944
0001d0 d0 43 81 3f 61 53 c8 bd 2a 7c 18 3f 9d 9b 57 3f
       1.009882 -0.09781528 0.5956446 0.8422182
0001e0 a1 ff 23 bf 31 16 4d bf 63 39 38 3f 1e ca 53 bf
       -0.64061934 -0.80111986 0.71962565 -0.8273028
0001f0 c6 34 38 bf d3 bf 7b be 86 6d 3f bf 97 ff 77 bf
       -0.71955526 -0.24584894 -0.74776495 -0.96874374
000200 3f 8f 21 3f 78 57 13 3e e8 e0 d5 be 08 8a 5c bf
       0.631092 0.14388835 -0.41773152 -0.8614812
000210 1d 29 90 3d 62 fa 66 3f cb d3 d4 be e5 84 0e 3e
       0.07039092 0.90225804 -0.41567835 0.13917883
000220 c3 c8 99 3e 3a eb c6 be c0 0b 7a 3d 06 01 79 3e
       0.30035982 -0.3885134 0.061046362 0.24316797
000230 96 3a 32 bf cb a7 1b 3e bf 0e 95 3e 9e 1d 25 bf
       -0.69620645 0.15200727 0.29112813 -0.6449832
000240 2e b1 4b bf 13 e7 86 bf d3 76 e4 be b8 c8 36 bf
       -0.7956723 -1.0539268 -0.44621906 -0.7140002
000250 14 9f 52 3f 0a 63 b2 3d 23 ae b4 3e 42 8b 40 bf
       0.82273984 0.087102965 0.35289106 -0.7521249
000260 46 58 e4 3e 65 5b 80 bf 94 3d 26 3f d9 59 cb bc
       0.44598597 -1.0027891 0.6493771 -0.024823116
000270 83 f0 d8 be 8c 10 97 3f 0d c2 c5 3e 1e 18 3e 3e
       -0.42370996 1.1801925 0.38624611 0.18563887
000280 d9 50 72 bf 2d d3 f4 be fa 5f 62 3f a4 da 45 bf
       -0.94654614 -0.47817364 0.884277 -0.77286744
000290 93 4a 4f bf e9 15 7d bd 50 4e 0a bf 59 38 80 bf
       -0.80973166 -0.061788473 -0.54025745 -1.0017196
0002a0 0b f7 0f bf 01 4b f3 be a1 86 e3 be 42 06 41 bf
       -0.5623633 -0.4751816 -0.4443865 -0.75400174
0002b0 da 92 ff 3e e2 f1 47 3f d9 a1 e9 be 55 3e af be
       0.49916726 0.7810346 -0.45631292 -0.34227243
0002c0 71 c0 3e be c4 bf a4 be 98 de 2f bf bc 84 10 bf
       -0.18628098 -0.32177556 -0.68699026 -0.56452537
0002d0 cb 72 25 be 1e e3 74 3e f3 cb 4c 3f 1b 08 02 be
       -0.16157071 0.23914763 0.799987 -0.12698404
0002e0 e9 69 50 be ce ed 88 3f 05 af d1 be 27 ba cd be
       -0.20352902 1.0697572 -0.40953842 -0.40181085
0002f0 30 c9 84 be cc e1 95 3f cb 21 d2 3e 8e 90 a8 bc
       -0.25934744 1.1709533 0.41041407 -0.020576742
000300 08 0a 94 3f a7 39 19 3f 75 c0 c3 3e 2d 19 8f 3f
       1.1565561 0.59853595 0.3823277 1.1179558
000310 fd 32 ad 3f 08 7d 0f 3f 85 50 0b 3f 2e d7 2b 3f
       1.3531185 0.5605016 0.5441974 0.67125213
000320 3b 05 db be 30 98 40 3f 31 59 8f bf b4 18 12 be
       -0.42777428 0.7523222 -1.1199094 -0.14267236
000330 03 cc 8a be 73 c7 83 bf 84 2e 84 3f 49 bd a8 bd
       -0.27108774 -1.0295242 1.0326695 -0.08239228
000340 f0 60 11 3f 27 3a 75 bf 05 f0 01 3f 8a 33 1e 3d
       0.5678854 -0.9579186 0.50756866 0.03862337
000350 df 38 86 3d 0b aa bf bf 98 75 30 3f 46 71 33 bf
       0.06553816 -1.4973768 0.68929434 -0.70094717
000360 66 cb 25 bf 43 65 02 3f 3a 5a e8 be b9 39 7a bf
       -0.64763486 0.50935763 -0.45381337 -0.9774433
000370 af 7c 88 3f ba 5d 21 3f 9e 2e cd be cb 4c 57 3f
       1.066305 0.6303364 -0.4007463 0.8410155
000380 28 d2 1e 3f 69 61 3d bf 82 18 05 3f 27 b7 3b 3f
       0.62039423 -0.7397676 0.5199052 0.73326343
000390 1d a7 1a 3f 7b 5f 0e 3f d9 56 af 3e 5d 97 7d 3f
       0.60411245 0.5561444 0.34245947 0.9905909
0003a0 89 0c dd be 55 7f d5 be 33 9b 29 3f 14 af 29 3f
       -0.43173626 -0.4169871 0.6625244 0.66282773
0003b0 42 00 38 3f 1c e3 f2 3e d7 15 39 3f 9a 3e 29 3f
       0.71875393 0.47438896 0.7229895 0.6611115
0003c0 29 f7 da be df f5 73 be bc 0f 2e 3f cb 0c 6e bf
       -0.42766693 -0.23824261 0.6799276 -0.9298827
0003d0 ce 8b 21 bf dc b3 2f bd 15 7d 2c bd d9 8d 85 bf
       -0.6310395 -0.042896137 -0.042111475 -1.0433913
0003e0 c4 37 6f be 2d c9 91 bd cc ee af bd 93 27 2b bf
       -0.23361117 -0.07118449 -0.08590469 -0.6685726
0003f0 6d 43 5e 3f c6 d1 26 3f 14 63 53 3d d2 ec 54 3f
       0.86821634 0.6516384 0.05160816 0.8317386

rnn.0.4.bias f4 [20]
000000 b6 65 9c 3e 5a 08 fe 3e 54 f3 4f 3f 86 bc b9 bb
       0.3054635 0.49615747 0.81230664 -0.0056682257
000010 b8 30 e1 be 2f 15 95 3f 57 9e be be 6d a3 1c 3d
       -0.43982482 1.164709 -0.3723018 0.038241792
000020 67 0a e1 3d 01 6e 1e 3e 70 af 06 bc 6b bd 9e bd
       0.10988312 0.1547165 -0.0082205385 -0.07750972
000030 51 5b 16 3f e5 a6 3d bf fb 04 c6 3e ce 85 0b bf
       0.5873309 -0.74082786 0.38675675 -0.54501045
000040 f5 4a 9d bf 08 cb 16 3e 05 0d 78 be ec 0a 14 3f
       -1.22885 0.14725888 -0.24223717 0.57829165

rnn.0.5.weight f4 [20]
000000 2b 84 80 3f 0c 4f 79 3d 7c 83 3c 3e 78 22 9b 3f
       1.0040334 0.0608664 0.18409532 1.2119894
000010 1a 67 62 3d 2b db cf 3f 4c 7b cb 3e ee bb 22 bd
       0.055274107 1.623876 0.39742506 -0.039730005
000020 da 01 39 3f b7 6f b8 3f 47 92 64 3f c1 65 71 3e
       0.7226845 1.4409093 0.892857 0.23573972
000030 3c 9a b2 3e a9 59 04 3e 98 50 0e 3f 60 55 1d 3f
       0.34883296 0.12924828 0.55591726 0.61458397
000040 06 1a 39 3d a2 3a 1f 3f 1e c5 66 3e c7 66 03 be
       0.045190834 0.6219884 0.22536132 -0.12832175

rnn.0.5.bias f4 [20]
000000 1e d7 74 3e 36 38 cd be 90 d9 28 bf 5d 05 2b be
       0.23910186 -0.40081948 -0.65956974 -0.16701265
000010 90 e7 5a bf 85 34 cf 3e cb da ad be 6b 95 87 bf
       -0.85509586 0.40469757 -0.33955988 -1.0592474
000020 6c 3b 79 3e 3d 3e 61 3d e4 83 ad bd f7 f2 31 bf
       0.24339074 0.054990996 -0.08472422 -0.6951136
000030 f5 c6 22 bf e7 88 48 bf 25 65 b1 be c7 85 b3 3e
       -0.63584834 -0.78333896 -0.3464748 0.35063002
000040 6c 7c 60 bf 4d f6 e0 bd 63 51 0e bf d5 f5 81 bf
       -0.8768985 -0.10984478 -0.55592936 -1.0153147

rnn.0.5.running_mean f4 [20]
000000 06 b7 86 be 2e 2a 2f c0 d3 2c d3 bf ad 5f 6b be
       -0.2631151 -2.7369494 -1.6498054 -0.22985716
000010 c4 8e f2 bf ad b8 7c 40 62 5c fc bf 52 41 2e bf
       -1.8949819 3.9487717 -1.9715693 -0.6806842
000020 f1 c5 bd bf 6b 6d 9e 40 c5 5b 06 c0 1a 96 10 40
       -1.4826032 4.9508567 -2.0993512 2.2591615
000030 5b 56 e0 3f 02 1a ac bf 90 27 ea bf 4a 65 e1 c0
       1.7526354 -1.3445437 -1.8293324 -7.0436144
000040 ae da ad be da 40 82 40 d6 f3 5f c0 30 c4 a7 bf
       -0.33955902 4.0704165 -3.4992576 -1.3106747

rnn.0.5.running_var f4 [20]
000000 a0 9f 39 42 53 75 50 41 b8 06 c3 40 e2 a0 49 42
       46.405884 13.028644 6.09457 50.407112
000010 54 a5 9c 41 d4 48 24 42 6d ac 93 41 49 a0 ca 41
       19.580727 41.07112 18.459192 25.328264
000020 1a 95 62 41 87 58 fa 41 40 f7 67 42 23 05 44 41
       14.161402 31.293226 57.991455 12.251254
000030 a1 41 91 41 cd 2a 65 40 c7 7e 4b 41 70 d5 bb 41
       18.157045 3.5807374 12.7184515 23.479218
000040 62 54 03 42 57 83 a5 41 b4 c1 f6 41 d7 1a 29 42
       32.832405 20.68913 30.844582 42.27621

rnn.0.7.weight f4 [2, 20]
000000 22 a0 1a 3f 78 2d f4 bd 47 a3 d4 3c d0 cd 3e 3f
       0.60400593 -0.11922735 0.025956763 0.74532795
000010 14 53 7a be aa 62 96 3f 2c 15 c8 3d d3 cd c1 3e
       -0.24445754 1.174886 0.09769663 0.37852344
000020 08 62 34 be 8c 98 8a 3f 92 b8 11 3f 11 e3 d1 3d
       -0.17615521 1.0827804 0.56922257 0.102483876
000030 f8 ce 27 3e 73 a6 8b bd 5b 13 60 3e 69 6e c6 be
       0.16387546 -0.06818857 0.21882384 -0.3875611
000040 14 c5 0d 3e 60 62 a2 3e 16 fc d6 3c 0a a1 b0 be
       0.1384471 0.3171568 0.02624325 -0.34497863
000050 5d d9 18 be 95 23 87 3d f2 0b 25 be c5 04 11 be
       -0.14926668 0.065985836 -0.16117838 -0.14161976
000060 fa 0e 32 be 7a 4e 13 bf db 5e 0a be e4 49 0a 3f
       -0.17388526 -0.5754162 -0.13512747 0.54019
000070 84 0d b6 be ae e7 f4 be 78 ca 8d 3e 31 f8 34 be
       -0.35557187 -0.47833008 0.27693534 -0.17672803
000080 e5 e2 86 bd e9 30 67 be 48 16 9a be 8b 42 61 3d
       -0.065862454 -0.22577251 -0.30095124 0.0549951
000090 40 b0 89 3e db a2 c4 be c8 1f 05 be f7 b7 19 3f
       0.2689228 -0.384055 -0.13000405 0.60046333

rnn.0.7.bias f4 [2]
000000 0f 02 99 3e 69 55 8b 3e
       0.29884383 0.272136

rnn.1.0.weight f4 [6]
000000 ae 75 aa 3f b1 f6 88 3f 09 63 09 40 9c 89 75 3f
       1.3317163 1.0700284 2.1466696 0.959131
000010 c2 19 23 3f 91 bb ea 3f
       0.6371118 1.8338491

rnn.1.0.bias f4 [6]
000000 17 8c 03 c0 8a 79 16 c0 13 70 1a bf 31 95 b1 bf
       -2.0554254 -2.3511682 -0.6032726 -1.3873655
000010 ec 62 f6 bc 42 0b c5 bf
       -0.030076467 -1.5394061

rnn.1.0.running_mean f4 [6]
000000 0a cf af b9 8c ca 44 b9 34 72 b9 3e 49 67 5f 3f
       -0.00033532857 -0.00018767471 0.36219943 0.87266976
000010 67 cf 0a 3f b8 a6 52 be
       0.5422272 -0.2057141

rnn.1.0.running_var f4 [6]
000000 0b a3 07 3a 00 e0 f8 39 84 4e 57 40 2a 77 ae 3f
       0.00051741366 0.0004746914 3.3641672 1.3630116
000010 83 27 6c 3f 4f b5 f4 3f
       0.9224779 1.9117831

rnn.1.1.weight f4 [20, 6]
000000 6f 0f 39 bf 66 4d a8 bd 42 01 b8 3f ab b1 f9 3d
       -0.72289175 -0.082178876 1.4375384 0.121920906
000010 0a b9 f2 3e 6d d6 a3 3f 4f bd eb bd 18 77 86 bf
       0.474068 1.2799813 -0.11510717 -1.0505095
000020 f0 c7 3d bf ef aa ab be da fa 5a be 82 e1 83 3e
       -0.74133205 -0.3352885 -0.21384755 0.25757986
000030 7f b3 c3 3f f6 05 00 40 0f a3 8f 3e 78 d0 41 3f
       1.5289153 2.0003638 0.2805409 0.75708723
000040 e7 21 73 3e fc 05 49 3f e8 42 05 3f 8a 89 29 bf
       0.23743401 0.78524756 0.52055216 -0.6622549
000050 f6 04 62 3d cc e8 ae bf 14 ba 87 bf c3 e7 22 bf
       0.055180512 -1.3664794 -1.0603662 -0.6363489
000060 e9 64 42 bf a1 27 6b bf f8 fc d9 bf 53 fd 46 be
       -0.75935227 -0.91857344 -1.7030325 -0.19432573
000070 12 04 61 bd 55 94 bd bd 94 21 3b 3f de d5 d7 3f
       -0.054935522 -0.09256808 0.7309811 1.6862142
000080 c3 6e 0d bf b2 e6 55 3e 6b 65 6c bf 42 a9 a4 bb
       -0.55247134 0.20888785 -0.9234225 -0.00502506
000090 ac b4 37 40 11 bc 3f 3f e7 ea 20 3d 82 c2 7f be
       2.8704023 0.7489634 0.03928652 -0.24976543
0000a0 a5 37 2e bf ed 37 81 3e c7 ec a9 bf 58 76 28 bf
       -0.68053657 0.2523798 -1.3275384 -0.6580558
0000b0 1b ce 8a 3f cd 72 e0 3e 2e 0b c8 3d b0 ba d9 3f
       1.0844148 0.43837586 0.09767757 1.7010098
0000c0 23 35 6f be 67 ae 4e bf a2 50 72 3f 59 42 1f 3f
       -0.23360114 -0.80734867 0.94654286 0.62210613
0000d0 ce 9c 9c 3e 10 c9 9d 3f c4 aa 29 3f ea 38 60 3f
       0.30588382 1.2326984 0.6627619 0.87586844
0000e0 48 c8 c1 be a7 2a 72 3f fd c4 fe 3e 2b 35 62 bf
       -0.37848115 0.9459633 0.49759665 -0.8836238
0000f0 8d f4 83 bf 74 d8 8d be 32 8a d1 3f 39 3b 82 3f
       -1.0309006 -0.27704203 1.6370299 1.0174323
000100 a6 cc 8f 3e d9 d2 91 3f ce 30 76 bf 17 88 e4 be
       0.28085822 1.1392471 -0.9616822 -0.44635078
000110 79 74 b4 3d 61 55 34 bf f4 3f 13 bf f5 26 d8 3e
       0.08811278 -0.7044278 -0.5751946 0.42217222
000120 59 61 8c 3c ce 99 be bf af f6 52 be f7 a2 89 be
       0.017136263 -1.4890687 -0.20601915 -0.26882145
000130 5b ce d2 be 24 7b 23 3f 88 4a 39 bf 88 e3 55 be
       -0.41173062 0.6385977 -0.7237935 -0.20887578
000140 c8 7a ee 3f 63 95 c8 3e 80 54 cd 3e 90 cd d9 3f
       1.863122 0.39176473 0.4010353 1.7015858
000150 c5 10 ff be ca 1d 80 bf e1 d4 ab bf f6 a7 c7 be
       -0.49817482 -1.0009091 -1.342434 -0.38995332
000160 2a 2b 00 be 0f 21 5b bf a4 3d 75 be 27 87 66 bf
       -0.12516466 -0.8559732 -0.23949295 -0.90049976
000170 8d 60 83 bf f1 2b 8c bf 33 56 41 bf d3 2c 57 3f
       -1.026384 -1.095091 -0.75522155 0.8405277
000180 80 b7 3c bf fc bb bc 3e ef a1 63 be 57 34 5b 3f
       -0.737175 0.3686217 -0.22229742 0.8562674
000190 35 27 88 3e 35 c2 1f bf 85 34 c9 be 8b bc 62 be
       0.26592413 -0.6240571 -0.39297882 -0.22142236
0001a0 4a 1b 13 3f 4b dd 45 3f 88 ab e0 3e 8c c6 c8 3f
       0.57463515 0.7729079 0.43880868 1.5685592
0001b0 cd 7f 64 bf 58 9a fc be 24 7f e1 3f b7 a1 30 3f
       -0.8925751 -0.49336505 1.7616925 0.6899676
0001c0 07 89 3c 3f b0 83 d6 3e b7 14 8e 3d f4 1f d8 bd
       0.7364659 0.41897345 0.06937545 -0.105529696
0001d0 44 45 81 bf ed 12 3a bf 86 3b 5c bf 57 5a 06 3f
       -1.0099263 -0.7268513 -0.86028326 0.524816

rnn.1.1.bias f4 [20]
000000 6c 14 92 be d2 06 95 bf 2e bb 28 c0 74 9c 2c 3c
       -0.28531206 -1.1642706 -2.6364245 0.010535348
000010 95 4e 20 3e 1c 9c c2 be 03 83 7b bf 99 ef 51 be
       0.15654977 -0.38009727 -0.98246783 -0.20501556
000020 14 e2 f7 3e e0 ca 5b 3e dd 40 91 be dc 2d 12 bf
       0.4841467 0.2146411 -0.283698 -0.57101226
000030 3f fd 89 3e 76 f9 58 3b a2 9d 20 3e 5f 54 44 3f
       0.26951024 0.0033107675 0.15685132 0.7669124
000040 b7 49 46 3d 76 16 bd be 39 5c a5 bf b4 a2 41 be
       0.048410144 -0.369312 -1.2918769 -0.18909723

rnn.1.2.weight f4 [20]
000000 78 c0 c7 3f f8 07 b4 3f 91 38 96 3f 7a fd c4 3e
       1.5605612 1.4064932 1.1736013 0.38474637
000010 d2 48 2e 3f f8 bd 0f 3f 74 c6 04 40 a1 8c 9f 3f
       0.68079865 0.56149244 2.0746126 1.2464792
000020 b4 9e e9 3f d1 30 7f 3f e1 70 be 3f 95 a4 13 3e
       1.8251557 0.9968386 1.4878198 0.14418252
000030 da 36 4a 3f 8a 1a 02 40 32 8a a6 3f 62 1c d8 3f
       0.78989947 2.0328698 1.3010924 1.6883662
000040 b1 3d 35 bd f5 c9 cd 3e 96 30 bb 3f f1 da 92 3f
       -0.044248287 0.40193143 1.4624202 1.1473066

rnn.1.2.bias f4 [20]
000000 c3 2a db 3c 38 87 94 be f4 40 1d 3e 86 c0 13 3d
       0.026753789 -0.29009414 0.15356809 0.036072277
000010 5f bc f3 3e 5e 93 19 bf 1f 52 91 bc 24 c7 29 bf
       0.47604653 -0.5999049 -0.017739354 -0.6631949
000020 66 18 92 bf 19 0b 9a be 6e fe 90 bf 5c 99 4d bf
       -1.1413696 -0.30086592 -1.1327646 -0.8031213
000030 8e 10 29 bc e8 56 a5 3e a0 d2 8d 3f 57 89 2f 3f
       -0.010318888 0.32292867 1.1079903 0.6856894
000040 8e 6a 35 bf b1 4b 7c 3f 48 92 7f bf f8 dc 32 3f
       -0.70865715 0.98552996 -0.9983258 0.6986842

rnn.1.2.running_mean f4 [20]
000000 b8 be bb bf f4 d0 04 40 36 65 48 c1 38 81 59 40
       -1.4667578 2.0752535 -12.52471 3.398512
000010 ef 93 a4 40 ed 52 b1 c0 d7 8b 04 c1 73 39 8d 3e
       5.1430583 -5.541373 -8.284141 0.27582893
000020 c5 b0 b9 be c6 bd 3b c0 85 64 c1 bf 3c 0d 2b 40
       -0.36267677 -2.9334579 -1.5108801 2.6726828
000030 59 42 52 40 26 d8 03 c0 2a 8b c0 40 47 69 8e 40
       3.2852995 -2.0600677 6.016988 4.450351
000040 6d 15 f7 3e b0 f4 30 c0 95 1e 50 bf 91 a7 4f 3f
       0.48258534 -2.7649345 -0.81296664 0.8111506

rnn.1.2.running_var f4 [20]
000000 55 99 c4 41 95 23 55 40 e8 1e 20 41 73 7a a5 40
       24.57487 3.3302968 10.007545 5.1711974
000010 fd 59 82 41 3c 20 7c 40 a8 93 d0 40 92 4e dd 41
       16.29394 3.9394674 6.5180244 27.663364
000020 12 2b 93 41 96 0b 72 40 55 5d 05 42 8e 81 c2 3f
       18.39603 3.7819571 33.341145 1.5195787
000030 e6 40 e4 3f d0 67 2c 42 5e f0 97 41 07 6b ee 40
       1.7832305 43.10138 18.992367 7.450565
000040 f5 83 b5 3f e1 1c 93 41 51 d3 be 41 dc 37 d0 40
       1.4180895 18.389101 23.853182 6.506819

rnn.1.4.weight f4 [20, 20]
000000 d7 4f c3 3f 99 2e 3b bf 72 9d e1 3e 6c dd c6 3c
       1.525874 -0.7311798 0.44065434 0.024275504
000010 b1 8f 7b bf 04 5a 76 3f 96 72 18 3f e6 52 08 bf
       -0.9826613 0.962311 0.59549844 -0.5325149
000020 1c 91 1e 3f 06 8d b6 be 03 47 8a 3e d5 87 bc be
       0.6194017 -0.35654467 0.27007303 -0.36822382
000030 61 f0 ac be ea ac 47 3f 32 b4 50 bf d5 8b 21 bf
       -0.33777145 0.7799822 -0.81524956 -0.6310399
000040 3b 05 97 be af 56 29 3f 2e 3e f3 3d f4 12 a0 3d
       -0.29496178 0.66147894 0.11877094 0.07816115
000050 13 ed 7a 3f 36 1e d9 be 42 03 01 bf 8b 0a 5f be
       0.98017997 -0.42405862 -0.50395596 -0.21781366
000060 57 d0 dc bd 67 0f d8 bd 78 50 98 bf fa 06 43 3f
       -0.10781925 -0.10549813 -1.1899557 0.7618252
000070 69 e6 30 3f 8e ef 88 3e 74 2c e7 3f 96 36 03 be
       0.6910158 0.26745266 1.8060441 -0.12813792
000080 9b 36 82 bd f5 e6 a4 3f f9 22 19 bf ca 28 1a bf
       -0.063580714 1.2882982 -0.5981899 -0.6021849
000090 52 61 da be 04 46 47 3f 11 cf a1 3f 4c 99 c6 be
       -0.42652375 0.7784121 1.2641317 -0.3878883
0000a0 57 a3 ac be 87 e6 00 bd f5 89 c4 be e1 1c 31 be
       -0.33718368 -0.031469848 -0.38386503 -0.17296173
0000b0 6a f5 2a 3f 9a a1 3f bf 48 a3 7c bf 93 f7 6b 3f
       0.6678072 -0.7485596 -0.9868665 0.92174643
0000c0 81 13 29 3f 69 af 94 3e 1d 55 a1 3f ec ed d1 3e
       0.66045386 0.29040077 1.26041 0.41001832
0000d0 f8 30 3a 3e 93 88 9f 3f b0 37 85 bd 57 24 40 be
       0.18182743 1.2463554 -0.06504762 -0.18763863
0000e0 f9 9b a8 3c fb 5b 40 3f c2 0d 4e 3f 84 8c a6 be
       0.020582186 0.7514035 0.8048974 -0.3252908
0000f0 fa 0d 21 bf b9 c4 57 3f 36 52 2a 3e d6 ac 6f 3e
       -0.6291195 0.8428455 0.16632923 0.23405775
000100 91 56 39 3f 17 f0 09 3f a1 a1 75 3e cb d2 9b 3e
       0.72397715 0.53881973 0.23987438 0.3043426
000110 cb d3 40 be ac bf 4b be 58 8e ce bd 5a 21 1a 3f
       -0.18830793 -0.19897336 -0.10085744 0.6020714
000120 c3 0d 30 3f 14 01 2f bf 15 dd 86 3f 4d 9e 57 3f
       0.68771 -0.6836102 1.0536219 0.8422592
000130 45 92 01 bd c1 47 8f 3e 4f 04 0a 3f e5 ca 49 3e
       -0.031633634 0.2798443 0.53912824 0.19706304
000140 db e1 95 3f 77 f6 36 3e a2 f4 f4 be ca e8 b2 be
       1.1709551 0.17867456 -0.4784289 -0.3494323
000150 74 cb 00 bc ba 4f e3 3e 36 12 2f 3f 50 a0 a6 be
       -0.007861007 0.44396764 0.6838716 -0.32544184
000160 70 25 41 bf 47 83 6a bf 2d 6f aa 3e a0 88 0e 3f
       -0.7544775 -0.91606563 0.33287945 0.55677223
000170 5c 47 68 3f ca 09 53 3f 55 c0 4f be 0a 77 08 3e
       0.90733886 0.8243681 -0.20288213 0.1332666
000180 38 6e 89 be 37 d5 54 3f 6a f2 9f 3f e5 a7 92 3e
       -0.26841903 0.8313784 1.2495854 0.28643718
000190 29 87 c1 be 5b 54 2d 3f a7 0e cb be 94 d9 77 3f
       -0.37798432 0.6770684 -0.39659616 0.9681637
0001a0 d1 af ad 3e 7c 60 57 bf 81 bb 34 bf 61 16 3a 3f
       0.339232 -0.841316 -0.7059861 0.726904
0001b0 c8 38 df 3e 6b 30 30 3d b6 51 10 bf 35 b8 d7 3e
       0.43598008 0.043014925 -0.5637468 0.42132726
0001c0 8f 98 f2 3e 4b 9e 7b bf b6 d9 61 3f 9b 9f 27 bf
       0.47382018 -0.9828841 0.88222826 -0.65477914
0001d0 95 fa 85 3f 3c ad fa 3e 08 c1 04 3f 34 39 0f bf
       1.0467097 0.48960292 0.5185704 -0.5594666
0001e0 2e 86 a7 be 66 37 44 3f 64 81 ef 3c 74 09 a2 bf
       -0.32719558 0.7664703 0.029236503 -1.2659135
0001f0 47 18 8d 3f 32 4f e7 bd ce 2c 92 bd f8 a1 36 bf
       1.1023034 -0.11294402 -0.07137452 -0.71340895
000200 fd 61 90 bf 98 42 54 bf 2d a8 3b bf 95 9d 15 3e
       -1.1279904 -0.82914114 -0.7330349 0.14610894
000210 30 c1 0d 3d a6 95 c7 be d0 95 a5 3e 3a 44 64 3f
       0.034608066 -0.3898136 0.3234086 0.89166605
000220 4f cc 1c bf 59 69 39 3f 75 cc 5c be be 9d 82 3f
       -0.6124925 0.7242637 -0.21562369 1.0204389
000230 ec 42 0a bf f8 73 90 3e aa 00 17 3d de 1a 11 3f
       -0.54008365 0.28213477 0.036865868 0.5668162
000240 07 3d 2d 3f da 99 0c be be c3 b2 bb 57 62 88 be
       0.67671245 -0.13730565 -0.005455463 -0.26637527
000250 1b e7 83 3f fe 2a f0 be 68 2a 38 3f 87 d7 2a 3f
       1.0304903 -0.469078 0.71939707 0.6673512
000260 79 f3 16 3f 2d d8 5a bf 3c 42 29 3f d2 f3 ca 3e
       0.5896526 -0.8548611 0.6611669 0.39639145
000270 e9 97 e2 3e 68 c0 da 3e 7d f9 ce 3e aa 3f 50 be
       0.44256523 0.4272492 0.4042472 -0.20336786
000280 cd 3e bb 3e e3 e5 ae bf a1 59 8d bf 23 57 4c bf
       0.3657135 -1.3663906 -1.1042978 -0.7982046
000290 c9 e0 01 3e 1a 7e 1e bf 57 87 b9 bf 7c 61 dd 3d
       0.12683405 -0.61911166 -1.4494427 0.10809609
0002a0 b0 20 f2 3e ba 4f ff 3e 88 3a 36 3f d1 c2 31 bf
       0.47290564 0.49865514 0.7118306 -0.6943789
0002b0 7d c4 91 3d 4b d6 46 3f db 78 8d be 78 ff fc be
       0.07117555 0.77670735 -0.27631268 -0.49413657
0002c0 64 77 20 bf 4f 68 2b 3f 97 54 ce 3f 45 2c b6 bd
       -0.62682176 0.6695604 1.6119565 -0.088951625
0002d0 3c 91 45 3f 8a 34 32 bf b2 61 3f bf c3 07 bf be
       0.77174735 -0.6961142 -0.74758446 -0.3731061
0002e0 7d d8 ed be 41 8b 98 bf dd 41 2a bf 6f 8e 0d 3f
       -0.4645423 -1.1917497 -0.6650675 0.5529546
0002f0 3f 2c 74 3c a6 39 33 3f 3d 1b 10 be a7 76 39 bf
       0.014903127 0.7000984 -0.1407289 -0.72446674
000300 08 c6 15 bf f3 59 05 3f 3f b0 1d bf f5 f8 89 bf
       -0.58505297 0.52090377 -0.61597055 -1.0779101
000310 02 f4 2a bf 31 12 8b be 28 3a b3 be c4 9c ae bf
       -0.66778576 -0.27162316 -0.35005307 -1.3641591
000320 ba ed 07 3f 65 b0 9c be 2e 70 e5 3e 8d 9f 35 bf
       0.53097117 -0.30603328 0.4481215 -0.7094658
000330 8c 49 19 bf 94 92 23 bf ad 11 95 3f fe 7e 0a 3e
       -0.5987785 -0.63895535 1.1646019 0.13525006
000340 95 cf 5e be 13 61 fd 3e 5e 19 e7 3e cb a3 9e be
       -0.21758874 0.49488124 0.4513654 -0.3098434
000350 5b b0 1c bf 72 1d 5b 3f 74 16 d4 be b8 4c 51 3f
       -0.612066 0.85591805 -0.4142338 0.8175769
000360 09 c3 de be 04 ee 43 3f 9b 50 52 3f 6d 22 7b 3f
       -0.43508175 0.7653506 0.82154244 0.98099405
000370 ae d5 2b 3d 1f aa 79 3f 13 6a 85 bf 1e 0b c2 be
       0.041951828 0.9752521 -1.0422996 -0.37899107
000380 85 75 87 3f 89 e6 cf 3e c2 6f d6 bd 0e 79 8a 3f
       1.0582739 0.40605572 -0.10470535 1.0818193
000390 5b 08 51 3f cd fe 84 bf e9 6f 45 3f 93 64 58 3f
       0.81653374 -1.0390259 0.77123886 0.84528464
0003a0 ee cd 7a 3f 14 91 8f 3e 36 06 2b be 27 f2 a9 3e
       0.97970474 0.28040373 -0.16701588 0.3319256
0003b0 fb 50 07 bf f8 9d 55 3d bf 5d 39 3f 56 09 f9 3c
       -0.5285794 0.052152604 0.7240867 0.03039996
0003c0 47 8c ec be a9 ff 15 3d 94 ea 7a 3d 79 3e 92 3f
       -0.46200773 0.03662077 0.061258867 1.1425315
0003d0 fd 9b c9 3e b4 48 56 3e 2f ab 9e bc f5 46 78 bf
       0.39376822 0.20926172 -0.019368736 -0.9698327
0003e0 a5 e7 9f bf e1 57 95 3e 91 b1 23 bf 4d 9d 49 3d
       -1.2492567 0.2916861 -0.6394282 0.04922228
0003f0 b9 af 1a bd 6a b2 c7 bf 5a 45 9e 3f 18 7e 0c 3f
       -0.03776524 -1.5601323 1.2364914 0.54879904

rnn.1.4.bias f4 [20]
000000 41 b2 37 3f d2 44 8f 3f ee a6 da be 89 b4 8b 3e
       0.7175637 1.1192877 -0.42705482 0.27286175
000010 11 a9 89 3e db b8 07 bf 2b 69 be 3f bc 25 4c bf
       0.268868 -0.5301644 1.4875845 -0.7974508
000020 d3 4e 1f be 10 fa a3 3d 23 76 49 bf d4 fe e0 3e
       -0.15557413 0.0800668 -0.7869589 0.43944418
000030 54 d8 f6 3e e4 1d 3e 3f fd f3 07 3e 8e e0 a4 3d
       0.4821192 0.7426436 0.13276668 0.08050643
000040 dc 67 98 3e 0f c4 88 be 96 d6 a0 3e b6 63 42 3e
       0.29766738 -0.2671208 0.31413716 0.18983349

rnn.1.5.weight f4 [20]
000000 02 fd 65 3e 04 ae db 3f 9a 68 12 3f 60 ed f6 3e
       0.22459796 1.716248 0.5719086 0.48227978
000010 2a a9 1e bd 62 d8 26 bc 12 f9 51 3e bc 60 e5 3e
       -0.038735546 -0.010183426 0.20505169 0.44800365
000020 d1 7b 5b 3f e6 61 53 bd e1 af e9 bc c4 c0 f6 3e
       0.85735804 -0.051607035 -0.028526248 0.48193944
000030 97 eb 21 3f 7f 0a 1e 3f 63 fa 21 3e 13 ca cf 3e
       0.63250107 0.61734766 0.15818171 0.40583858
000040 52 45 db 3f 28 22 86 be d6 fa aa 3f 38 6c 21 3f
       1.713053 -0.26197934 1.3357799 0.63055754

rnn.1.5.bias f4 [20]
000000 4d cb 84 bf a2 a5 1a bf 4b 74 6c bf e9 9e 17 bf
       -1.0374542 -0.60408986 -0.9236495 -0.5922685
000010 04 4f 91 bf 5e 7d a9 be 12 c1 6d 3e 05 d3 5e bf
       -1.1352239 -0.3310346 0.23218182 -0.8704074
000020 cb 42 58 bf 95 f0 88 be b0 0a 49 bf 78 d5 87 bf
       -0.8447692 -0.2674605 -0.7853193 -1.061202
000030 b0 bf be bc 9f 08 99 be 64 fb 47 bf 6c 0d 7b bf
       -0.023284763 -0.2988939 -0.78117967 -0.98067355
000040 39 b7 92 bf db e8 aa bf fc 22 8f bf ba 47 92 bc
       -1.1462165 -1.3352312 -1.1182551 -0.017856468

rnn.1.5.running_mean f4 [20]
000000 cb 08 b8 3f 69 27 0d 40 b9 df be 3f d8 87 51 40
       1.4377683 2.2055304 1.4912025 3.2739162
000010 aa 1a 4b 40 71 81 55 bf df 2a 52 40 82 df 81 3f
       3.1735024 -0.83400637 3.2838666 1.0146334
000020 10 ab 04 bf 36 95 7a c0 28 33 4e 40 45 c9 1b 40
       -0.5182352 -3.915357 3.2218723 2.4341595
000030 3b 2a 66 3f 87 55 5f 3e 01 b5 41 40 70 c1 70 bf
       0.8990819 0.2180997 3.0266726 -0.9404516
000040 60 33 14 c0 d7 18 19 40 e9 48 07 c0 43 d0 82 bf
       -2.3156357 2.392141 -2.113825 -1.0219806

rnn.1.5.running_var f4 [20]
000000 a3 f8 0b 42 e2 6a 52 42 22 74 96 41 db 22 63 41
       34.99281 52.604378 18.806705 14.19601
000010 35 14 3c 41 d8 8b da 40 08 c9 c6 41 63 29 42 40
       11.754933 6.829571 24.84816 3.033776
000020 ea 6f af 41 38 41 aa 41 66 7e 81 41 4f 73 ea 40
       21.929646 21.281845 16.186718 7.3265758
000030 de 0e 58 42 92 d1 c5 40 8b 15 26 41 69 38 94 41
       54.01452 6.1818323 10.3802595 18.527544
000040 f7 16 35 42 6c 0e 51 40 11 e5 2c 42 74 52 3d 41
       45.272427 3.2665052 43.223698 11.83263

rnn.1.7.weight f4 [2, 20]
000000 ce ce a4 3e cb 41 ae 3f fc ba 88 3e 44 7a 17 bc
       0.3218903 1.3613828 0.26705158 -0.009245459
000010 5e 12 93 3d ec fa 18 3e 12 ce 86 3e 04 58 ff bd
       0.07181238 0.14939469 0.26329094 -0.124679595
000020 e7 19 5f 3f ca 42 10 3f 86 1f 88 3e 57 3d 22 3e
       0.871489 0.5635191 0.2658655 0.15843712
000030 90 dd 73 3e b4 78 f9 bd be c0 93 be 7d 6b 91 bd
       0.23814988 -0.121812254 -0.28857988 -0.0710058
000040 a6 40 b2 3f 04 3b 1b bf a8 5b a0 3f e6 79 fd 3d
       1.3925979 -0.60636926 1.2527971 0.12376766
000050 71 f0 2c 3d 62 3f 59 3e 60 a7 64 be 4e b7 0c 3e
       0.04222149 0.21215585 -0.22329473 0.137418
000060 e1 14 00 bf 99 47 60 3b de 4e 41 be 7a 9c 29 3e
       -0.5003186 0.0034222363 -0.18877742 0.16563597
000070 3e 60 0c be b6 71 4f 3e 16 72 ed 3d 27 2b 36 3e
       -0.13708588 0.20258221 0.11594026 0.17789899
000080 18 6d cd 3b 6e 2f 88 be 71 d4 79 be 8b 8f 18 3e
       0.0062691085 -0.26598686 -0.24397446 0.14898507
000090 88 7f a7 3e 92 86 be be 6b d6 4a 3e 43 21 14 3e
       0.32714486 -0.37212044 0.19808356 0.14465813

rnn.1.7.bias f4 [2]
000000 6d 85 f9 3e 08 4e c9 bd
       0.48734608 -0.098293364

rnn.2.0.weight f4 [6]
000000 f2 7e 6c 3f 9e a9 0a 3e e2 41 ce 3f 8b c2 84 bf
       0.92381203 0.13541266 1.6113856 -1.037187
000010 80 55 64 3f df 40 16 40
       0.8919296 2.3477094

rnn.2.0.bias f4 [6]
000000 6f 8c ab 3f 51 22 b7 3f 5a 9c f2 be 36 7c 1b bd
       1.3402232 1.4307348 -0.47384912 -0.037960254
000010 5a fd 45 bf 37 fb e4 3d
       -0.7733971 0.11180728

rnn.2.0.running_mean f4 [6]
000000 75 c7 82 39 c9 28 1c b8 34 72 b9 3e 49 67 5f 3f
       0.0002494414 -3.7231282e-05 0.36219943 0.87266976
000010 67 cf 0a 3f b8 a6 52 be
       0.5422272 -0.2057141

rnn.2.0.running_var f4 [6]
000000 b8 e1 07 3a 34 41 04 3a 84 4e 57 40 2a 77 ae 3f
       0.0005183476 0.00050451164 3.3641672 1.3630116
000010 83 27 6c 3f 4f b5 f4 3f
       0.9224779 1.9117831

rnn.2.1.weight f4 [20, 6]
000000 aa d0 93 be 22 1e 61 be 93 23 ec be 86 85 57 be
       -0.28870136 -0.21984151 -0.4612089 -0.21047029
000010 ac cd 43 3d e2 bd e0 bf 58 f1 f6 be 7f 68 85 bf
       0.047803566 -1.7557948 -0.48231006 -1.0422515
000020 91 b1 52 3f 00 2a 2d 3f ff 42 21 3f 8d dd f7 3e
       0.82302195 0.6764221 0.6299285 0.48411217
000030 37 3a 3d bf 2a 17 ce 3e a2 64 19 3c 0e 93 c5 bf
       -0.73916954 0.40252048 0.009362372 -1.5435503
000040 a8 e5 23 bf 4c 47 80 3f 43 ec 17 bf 4d 2e f5 3e
       -0.640223 1.0021758 -0.5934488 0.47886887
000050 94 bf 83 3e 33 d1 96 be 56 73 ee bd 58 11 70 3f
       0.257321 -0.2945648 -0.11643092 0.93776464
000060 d2 d6 bb be 79 ed 36 be 03 f7 b1 3f 1a 91 6f 3f
       -0.36687332 -0.17864026 1.3903507 0.9358078
000070 a3 ee f4 3e be e4 00 3f ac 4e 06 3f ef 46 a5 3e
       0.47838315 0.5034903 0.52463794 0.3228068
000080 a9 b5 66 3f 40 ec 59 be 46 d2 0d bf a4 9b 9c 3f
       0.9012094 -0.21281528 -0.55398977 1.2234998
000090 10 f6 93 bf ac 8f d9 be ae ac f5 3e f4 a0 a7 3e
       -1.1559467 -0.42492425 0.47983307 0.32739985
0000a0 8d 6b 21 be c7 85 5f 3f 69 62 09 bf 9e fa ab 3e
       -0.15763684 0.87313503 -0.53665787 0.33589643
0000b0 74 10 bb bd fd d8 fb be 32 9c a1 bf 12 cf 34 3f
       -0.091339976 -0.49188986 -1.2625792 0.70628464
0000c0 57 da 88 be 59 9b 78 be 9b 2b 25 bf 79 14 85 bf
       -0.2672908 -0.2427801 -0.6451966 -1.0396873
0000d0 dd 81 53 bf fe 34 21 bf 0b 41 b4 3d d0 44 94 3f
       -0.8262003 -0.62971485 0.088014685 1.15835
0000e0 d9 8c 25 3f 67 01 87 3e c4 79 3c 3f ef 72 03 3f
       0.6466804 0.26368257 0.736233 0.5134725
0000f0 b3 7d 7b bf 6a 04 1b 3d be 7b bf bf a3 0d 5e 3e
       -0.98238677 0.037846006 -1.4959638 0.2168489
000100 ab dc 27 bf 62 15 2d be 27 ae c2 bc 81 ad 36 3f
       -0.6557109 -0.16902688 -0.023764683 0.71358496
000110 04 c5 fa be 14 e3 3c 3f a3 11 be 3e 58 f5 87 bf
       -0.48978436 0.73783994 0.3712283 -1.0621748
000120 76 4d 08 3e 99 a0 ab be 91 7d 8d 3f 67 12 2c bd
       0.13310799 -0.33520964 1.1053945 -0.042009737
000130 83 5f 8c 3e eb 09 85 3f 15 ac 03 3f f9 a0 45 be
       0.2741662 1.0393652 0.5143445 -0.19299687
000140 f6 5e 59 be 5a 54 93 bf 8f a5 3f bf 14 e6 75 bf
       -0.21227631 -1.1510117 -0.74862 -0.96054196
000150 2b 43 08 3d 76 a1 b5 3e eb f2 ce 3e ea 9a 6c 3e
       0.03326718 0.35474747 0.40419707 0.2310597
000160 96 a2 12 3f 7b da 92 3f 2d 7e 21 bf 16 01 9b bf
       0.57279336 1.1472925 -0.63083154 -1.2109706
000170 59 13 16 3f 12 25 b9 3e a4 24 24 3f 86 a0 a3 3f
       0.5862327 0.36161095 0.6411841 1.2783363
000180 71 1e 8e be 01 0c 59 bf 56 04 b0 3f 75 d2 21 be
       -0.277576 -0.8478394 1.3751323 -0.15802939
000190 f8 a5 a1 3d 0b 28 09 3f 72 6a a2 3f e5 a5 22 3f
       0.07892984 0.53576726 1.2688735 0.63534385
0001a0 99 ee 3d 3f c6 c3 60 3f 32 79 68 3f 44 35 6a bf
       0.74192196 0.87798727 0.9080993 -0.91487527
0001b0 ec 6b 94 be 00 5d 8d bf 14 ea 85 3f fb 5b 0e 3f
       -0.28988588 -1.1044006 1.046206 0.556091
0001c0 10 7f 66 3f 77 cc 73 3f fb 59 95 be c2 e5 dc be
       0.9003763 0.95233864 -0.29170212 -0.4314404
0001d0 cc 11 e5 bf 0b 00 14 3f 6d 23 18 3f 26 d6 39 bf
       -1.7896056 0.57812566 0.59429055 -0.7259239

rnn.2.1.bias f4 [20]
000000 73 d2 19 3f 43 64 65 bf 41 e7 d0 be a4 24 1a 3d
       0.60086745 -0.8960611 -0.40801433 0.0376326
000010 31 43 f0 3e 15 3e d4 3e 66 51 07 3f 5c 43 bb bf
       0.46926263 0.41453615 0.5285858 -1.4629931
000020 c8 1e ad 3e dd e4 30 3f 5e 96 08 bf a4 f2 3f 3f
       0.33812547 0.6909922 -0.5335444 0.74979615
000030 41 04 62 be f9 e0 7b bf 21 dc 52 3f c2 38 3c 3e
       -0.22071935 -0.98390156 0.8236714 0.18381026
000040 06 7f 8a bf a4 ac 7c bd 09 f8 16 bf f7 4c d5 be
       -1.0820014 -0.06168808 -0.5897222 -0.41660282

rnn.2.2.weight f4 [20]
000000 94 5c ff 3f 2e 4d 80 3f 08 81 e2 3f 2f 02 b1 3f
       1.9950128 1.0023553 1.7695627 1.3828791
000010 4a bc e5 3f e8 9c 9f 3f fb 7e 90 3f 5c 9d 9b 3f
       1.7948086 1.2469759 1.1288751 1.2157397
000020 cf 09 1d 3f f3 54 ad bc e1 53 06 40 48 5f 0d 3f
       0.6134309 -0.021158671 2.0988696 0.5522351
000030 69 a0 a8 3f 77 83 50 3e a9 f8 85 3e c0 90 a0 3f
       1.3173953 0.2036265 0.26166275 1.2544174
000040 a9 57 b1 3f 67 40 85 3f c7 25 12 40 08 3e 7f 3f
       1.3854877 1.0410279 2.2835557 0.9970403

rnn.2.2.bias f4 [20]
000000 b6 ac a4 3f 8d d4 93 be 73 05 8a 3f 23 b8 f7 3e
       1.2865207 -0.288731 1.0782913 0.48382673
000010 07 90 7b 3f 8c 94 0c 3f 85 38 a0 3f b7 03 3e 3f
       0.98266643 0.54914165 1.2517248 0.7422442
000020 a0 ab 07 bf a0 fd 71 bf 36 10 d3 bd 5e 8c 22 bf
       -0.52996254 -0.94527626 -0.10305826 -0.63495433
000030 a5 17 96 3f 98 3b 7b bf 3f 94 9b 3e 4b cd 12 bf
       1.1725966 -0.9813781 0.3038654 -0.573445
000040 10 8a b0 3d 73 ed 59 bd ab 47 05 3f ca c5 6d 3f
       0.08620083 -0.053204965 0.5206248 0.9287993

rnn.2.2.running_mean f4 [20]
000000 54 c7 e2 bc b1 a2 7c c0 09 f3 32 be 18 81 cf bc
       -0.027682938 -3.94743 -0.17475523 -0.025330111
000010 44 47 b1 bf a6 7b d6 3f 0d 45 dc bf d7 ed 16 bf
       -1.3849874 1.6756485 -1.7208573 -0.58956665
000020 67 9e 22 3f ea a5 c9 3f 9b 53 14 bf 90 fd c8 3f
       0.6352295 1.5753758 -0.5794007 1.5702381
000030 76 33 99 bf ce f1 0b 3e f5 16 48 3f 57 e0 47 c0
       -1.196883 0.1366646 0.7816003 -3.1230676
000040 43 0e 57 c0 8b 8b a5 3f 87 c7 71 c0 b6 28 91 bf
       -3.3602455 1.293321 -3.7778032 -1.1340549

rnn.2.2.running_var f4 [20]
000000 ec 41 96 41 23 1e 60 40 4b 27 63 41 e4 6b ed 40
       18.782188 3.5018394 14.197093 7.4194202
000010 d7 99 c7 40 17 2a 85 41 c3 53 ba 40 4d de c5 40
       6.2375293 16.645552 5.822725 6.1833863
000020 00 43 31 40 50 05 72 40 5d 3e 1f 41 96 fa 54 41
       2.7697144 3.7815742 9.952725 13.311178
000030 d9 15 68 41 e3 41 27 40 18 5e 05 41 ad d4 30 41
       14.505334 2.6133964 8.335472 11.051923
000040 6c 89 26 41 b9 0f 01 41 fe 4c 1b 41 ef 6e 9a 41
       10.40855 8.066339 9.706297 19.304167

rnn.2.4.weight f4 [20, 20]
000000 75 64 64 bf 8a 9e 1f 3f 78 4d 8b 3f 88 f3 b7 3f
       -0.89215785 0.62351286 1.0883017 1.4371195
000010 0e 76 c1 3e 0b ea 3c 3f a4 a5 a6 3f 71 71 04 3f
       0.3778538 0.7379462 1.30193 0.517356
000020 48 87 42 3f 4b 9b 1f 3f cd c7 54 3f fc 7d 6a 3e
       0.7598767 0.62346333 0.8311737 0.22899622
000030 56 53 fe 3d 38 0c 18 3f 87 62 3c bd 4d d6 ad 3f
       0.12418239 0.59393644 -0.0459924 1.3581024
000040 ea ae f0 3e 41 31 c4 be a4 37 d6 3e e9 7d 28 bf
       0.4700845 -0.38318828 0.41839325 -0.65817124
000050 bc f7 bc be 16 c6 5b bf 1a b4 6f bf 65 57 70 bf
       -0.36907756 -0.8584913 -0.9363419 -0.93883353
000060 4c ce ee be fd 50 d3 3c f9 02 84 bf 9b e3 5c bf
       -0.46641767 0.025795454 -1.0313407 -0.862848
000070 d8 56 35 be d3 7d fb 3e 16 fd 5a bf 83 9c 2f bf
       -0.1770891 0.49119434 -0.8554243 -0.6859819
000080 0c 9a a6 be d5 21 f1 be 31 00 99 be 3a ed 3e bf
       -0.32539403 -0.47096124 -0.2988296 -0.7458073
000090 4d e4 57 bf a2 36 6d be 37 48 e5 be ca 45 16 bf
       -0.84332734 -0.23165372 -0.44781658 -0.5870024
0000a0 74 74 54 3f c7 6f b6 3f fe c8 16 3f 73 bf 87 be
       0.82990193 1.4252862 0.5890044 -0.26513252
0000b0 76 9d b7 3e 92 47 1f 3f 73 8b 20 3e f9 e5 a1 3e
       0.3586232 0.6221858 0.15678196 0.31620768
0000c0 2e 94 50 3f ef 1c d5 3e 61 d2 0d 3f a3 1e 8d be
       0.81476104 0.41623637 0.5539914 -0.27562436
0000d0 c2 49 d4 3d 22 d5 2a 3f a4 5e 20 3f 13 f3 40 3f
       0.10365631 0.66731465 0.6264441 0.753709
0000e0 4c 95 07 3f 53 fc 71 bf 8c cc 8c 3f 79 15 12 bf
       0.52962184 -0.9452564 1.0999923 -0.57064015
0000f0 0f 4b 8b bf 93 db 49 3f 23 33 14 bf 53 d6 81 bd
       -1.0882281 0.7885067 -0.5789053 -0.06339707
000100 bd 92 ea 3e 2b 00 39 3f 8b 01 bf 3e 16 b8 13 bf
       0.45815077 0.7226588 0.37305865 -0.5770277
000110 3f 09 ea be 98 cf f3 3e d5 ae 78 bf ab 98 5c 3d
       -0.4571018 0.4761932 -0.9714177 0.053856533
000120 ec 4b fb 3e 42 db 20 bf 2d 7f 26 bf 49 38 5c be
       0.4908136 -0.6283456 -0.65037805 -0.21505846
000130 7c b3 4f 3f 17 d1 4d bd df 8d 5a 3f 5d 1e fa 3d
       0.81133246 -0.05024823 0.8537273 0.122128226
000140 47 09 d1 3f fe 99 4b bf e6 79 09 3f 2c 16 81 3e
       1.6330956 -0.7953185 0.5370163 0.25212228
000150 55 e6 d9 bd b8 87 2f 3f 76 e3 61 bf c9 c4 e0 be
       -0.106396355 0.68566465 -0.882377 -0.43900135
000160 8b 93 8b 3f 0c f3 21 bf 3c 14 1c bf e7 f2 4c 3e
       1.0904402 -0.63261485 -0.60968375 0.20014535
000170 39 c3 cd bd c6 d4 76 3f 94 90 50 3c c9 0e 59 bf
       -0.100470014 0.96418417 0.012729783 -0.84788185
000180 ca 5e da 3e e0 15 02 be 9f 54 99 3e 85 24 87 3e
       0.42650443 -0.12703657 0.29947373 0.2639505
000190 d5 46 17 3e b1 b5 2e bf 7c 77 12 bf 11 eb 36 bf
       0.14773114 -0.6824599 -0.5721357 -0.7145243
0001a0 93 9a 2e bf 2f a3 fa 3d 67 dc 38 bf ef 01 ca bf
       -0.6820461 0.12238156 -0.7221131 -1.578184
0001b0 49 e1 8a be d9 cc ee be a7 4b e6 bf a5 4c 86 3f
       -0.27125004 -0.4664066 -1.7991837 1.049214
0001c0 99 52 dc 3e 3b ae 16 3e 06 31 48 3e ae 03 e6 3e
       0.43031767 0.14714901 0.19549951 0.44924682
0001d0 ab 66 ed be 2e 07 8e 3f 2a ea 6b 3f 93 49 83 3e
       -0.46367392 1.1095941 0.9215418 0.2564207
0001e0 78 30 25 3f 17 22 40 bf 1e ef fa 3e 60 67 e6 be
       0.6452708 -0.75052017 0.49010557 -0.45000744
0001f0 41 07 51 bf 84 55 30 bf 4c a3 0b 3f 38 5e 3c 3f
       -0.81651694 -0.68880486 0.54546046 0.73581266
000200 54 6d 1c bf 33 74 b4 3e 37 df 5e 3f 83 a6 cc 3e
       -0.6110432 0.35244903 0.8705935 0.39970788
000210 c9 8a 50 bf 6a 13 85 3e 4f 36 21 3f 72 bc 1a 3e
       -0.8146177 0.25991374 0.62973493 0.15110949
000220 26 da e7 be a7 cb bf 3e 1f cb 72 bf 54 90 0b 3f
       -0.45283622 0.37460062 -0.9484119 0.545171
000230 d4 41 30 bf 4e 82 3f 3f 9a 4b 34 3e ea 6d 0a 3f
       -0.68850446 0.74808204 0.17606965 0.54073966
000240 81 64 62 be e9 54 08 3f 2e 71 0c 3f 06 cf b3 be
       -0.22108652 0.5325456 0.548602 -0.35118884
000250 87 c4 76 be 0c 2a f8 be 76 e6 4e 3d 06 bc c8 3e
       -0.24098407 -0.4846958 0.050512753 0.3920595
000260 74 79 11 3f 2d e6 35 bd 4d 2a 42 bf cc fb 53 3f
       0.5682595 -0.044408966 -0.75845796 0.82806087
000270 62 14 89 3f 05 45 9b 3e db 2c a9 3f 62 f0 37 bf
       1.0709345 0.30326095 1.3216814 -0.7185117
000280 4e 40 96 3e 6d 2b 02 3f 39 e8 5d 3f 68 bf 87 be
       0.29345936 0.5084751 0.8668247 -0.2651322
000290 fe 2a 30 bf 93 f7 e9 be b5 8d 2b 3f 5b 94 ad 3d
       -0.688156 -0.45696697 0.670131 0.08475562
0002a0 99 fb b2 bd d3 bf 06 3f ec 8c 5e 3f 3a 9b 71 3f
       -0.08739395 0.5263645 0.8693378 0.9437748
0002b0 26 2f 2a bf 29 2c a4 3d 29 9d 93 3c b4 14 58 3f
       -0.6647819 0.080162354 0.018019276 0.8440659
0002c0 7b 45 37 bf 15 92 74 3f c6 95 3d bf 45 90 6c 3f
       -0.71590394 0.95535403 -0.7405666 0.9240764
0002d0 ee 66 29 bf 80 b8 3b 3f 94 72 11 bf 9e 94 34 3f
       -0.66172683 0.733284 -0.5681546 0.7053927
0002e0 4d 7a 1c bf c4 f9 c9 be 86 87 00 3f 11 7d 37 bc
       -0.61124116 -0.3944837 0.5020679 -0.011199252
0002f0 ed f7 35 bf 20 98 1f 3f d9 a7 3c 3f 8c 20 03 bf
       -0.7108143 0.623415 0.73693615 -0.5122154
000300 64 e8 5b bf 6f 2b 9d be 7a 80 6d bf df b3 44 3f
       -0.85901475 -0.306972 -0.92774165 0.7683696
000310 d9 35 e5 be d1 17 34 bf 59 46 07 bf 67 f5 02 bf
       -0.44767645 -0.7034884 -0.52841717 -0.51155704
000320 2e d1 6d bf 06 f8 bc 3e cd 81 7e bf f7 0d e6 3e
       -0.9289731 0.36907977 -0.9941681 0.4493253
000330 32 be 31 3f e7 b6 1f 3f aa 76 05 bf 8e 7e ad bd
       0.6943084 0.6238846 -0.5213419 -0.08471404
000340 6b 71 48 bf ca 3f a5 be 7f b1 32 bf 0d d6 ca be
       -0.7829806 -0.3227523 -0.6980209 -0.39616433
000350 c2 b8 02 3f d7 a1 83 bf 51 bc 21 be 57 aa 40 bf
       0.5106317 -1.0283765 -0.15794493 -0.7525992
000360 df c4 1b 3f f3 00 df be f9 5b dc 3e 06 5c 05 bf
       0.60847276 -0.43555412 0.4303892 -0.5209354
000370 ab 6e 14 3f f3 d7 14 bf 78 78 8a ba 52 10 a1 3e
       0.57981366 -0.5814201 -0.0010564467 0.31457764
000380 94 9f 6e 3f 50 ed 15 3f a9 73 04 bf 1e 6d 83 bf
       0.93212247 0.58565235 -0.51738983 -1.0267675
000390 ac d7 f0 3e ef e7 e3 be 77 80 41 bf cf a7 29 3f
       0.47039545 -0.4451289 -0.75586647 0.6627168
0003a0 5c d9 56 3f 5f 04 2d 3f b6 b1 46 3f 30 8b 51 3e
       0.83925414 0.67584795 0.77614915 0.20463252
0003b0 60 16 d9 3e 3a 6e 8d be 4c 99 1f 3f 73 89 8f 3f
       0.42399883 -0.2762316 0.6234329 1.1213821
0003c0 d3 d3 e0 3e 6c d3 c8 3e 32 68 13 3f 25 48 f8 be
       0.4391161 0.39223802 0.57580864 -0.48492542
0003d0 d8 48 0c bf 45 0e 2d bf 7c 5f eb 3e 4f bd 31 3f
       -0.5479865 -0.675999 0.45971286 0.69429487
0003e0 62 f3 61 3f 32 2f 2d 3f 88 98 52 3f f3 08 24 3f
       0.88262 0.6765014 0.82263994 0.64076155
0003f0 34 50 5a bf dd 19 d0 3e 89 dc 1c 3f ec 0c a8 3e
       -0.8527863 0.40644732 0.6127401 0.3282236

rnn.2.4.bias f4 [20]
000000 fc 38 f4 3d 3d 25 b6 be af 04 23 bf de 43 02 3f
       0.119249314 -0.35575286 -0.6367902 0.5088481
000010 f3 4b 88 3f bd ac f2 3e 63 23 59 3f f0 27 9a be
       1.0648178 0.47397414 0.8481962 -0.30108595
000020 7d 1b 37 bf 6c 1d 17 bf 3c f7 35 3f 6f 08 a0 3f
       -0.7152632 -0.5902927 0.71080375 1.2502574
000030 ac 9b b8 be 00 64 4d bf 7a 2c bf be 3e 36 51 3e
       -0.36056268 -0.8023071 -0.3733862 0.20430848
000040 9d b1 be bd fa a6 5f be a4 c4 03 3f 95 f6 62 3f
       -0.09311221 -0.2184104 0.51471925 0.88657504

rnn.2.5.weight f4 [20]
000000 cf cf 13 3f ed 3b 71 3e b2 17 a7 3d ca a6 d7 3d
       0.57738966 0.23558016 0.081588164 0.10529859
000010 e9 ef c8 3e 5e b1 93 3f 96 27 96 be a4 14 25 3e
       0.39245537 1.1538503 -0.29327077 0.16121155
000020 0c 2a bd 3e 5c 54 fb be a2 65 bd bc 4b 96 59 3c
       0.36946142 -0.490878 -0.023119751 0.013280462
000030 01 68 c5 bd 46 a6 20 3d 27 a1 9a be 6c c6 2f 3f
       -0.09638978 0.03922107 -0.30201074 0.6866214
000040 27 fc 35 3f 40 d9 bd 3e 79 95 2a 3f cd 04 96 be
       0.7108788 0.3707981 0.6663433 -0.29300538

rnn.2.5.bias f4 [20]
000000 09 e3 73 bf e3 53 4d bf 59 e3 90 bf 5d 97 19 bf
       -0.95268303 -0.80206126 -1.1319381 -0.5999659
000010 d5 a5 15 bf 30 8c 99 ba 38 8c 7a bf dc da 4e bf
       -0.58456165 -0.0011714753 -0.97870207 -0.808027
000020 2f 6e 80 bf b0 62 53 bf 11 3f 60 bf 30 c2 9b bf
       -1.0033625 -0.8257246 -0.8759623 -1.2168636
000030 22 3f 70 bf 8a 09 78 bf b9 04 6a bf 72 7d 08 bf
       -0.93846333 -0.96889555 -0.91413456 -0.53316414
000040 3e da 84 bc d0 7e c9 be 69 0a 0b 3e e9 20 5f bf
       -0.016217347 -0.39354563 0.1357819 -0.8715959

rnn.2.5.running_mean f4 [20]
000000 b4 36 bc 40 8f de 12 c1 77 9a 97 40 42 50 7f 3e
       5.8816776 -9.179336 4.7376056 0.2493296
000010 b5 b2 54 40 0a 7f 43 c0 86 ac 9c 3f 3e 96 11 40
       3.3234074 -3.0546288 1.224015 2.274795
000020 e5 19 88 3f 43 e6 86 c0 ef 1b a5 bf d2 7e a0 40
       1.0632902 -4.215608 -1.289915 5.015481
000030 b6 bc c5 bc 26 85 c5 be b4 48 a9 c0 21 42 7d be
       -0.024137836 -0.38578147 -5.290125 -0.24732257
000040 38 ba c0 bc 51 6d 06 c1 44 ee 39 40 e9 0e b0 3f
       -0.023526296 -8.401689 2.9051676 1.375455
